Checkpoints/4dlatent_e200_no100.pth (torch, 99730 bytes, 207 tensors)

rnn.weight_ih_l0 f4 [12, 5]
0	0xbd0adfec	-0.033904955
1	0xbf8ef0fa	-1.116729
2	0xbf044c61	-0.51679045
3	0xbf05187b	-0.5199048
4	0x3eef7af4	0.46773493
5	0x3e199f4d	0.15002175
6	0xbf0e8c35	-0.5568269
7	0xbdffb522	-0.1248572
8	0xbd69358e	-0.05693584
9	0xbe120103	-0.14258198
10	0xbf084f7b	-0.5324628
11	0xbe41f00a	-0.18939224
12	0xbe2f4a6e	-0.17118236
13	0xbd84540c	-0.06461343
14	0xbf5b55df	-0.85677904
15	0x3f39cf9a	0.725824
16	0x3de5f315	0.11228005
17	0x3f163877	0.5867991
18	0x3f2a280e	0.6646737
19	0x3f29d7e0	0.66345024
20	0xbf624202	-0.8838197
21	0xbe519764	-0.20467907
22	0xbe0235f1	-0.1271589
23	0xbf79213f	-0.97316355
24	0xbf2c535d	-0.673147
25	0xbf805ba1	-1.0027963
26	0xbf3aaccf	-0.72919935
27	0xbf84e54e	-1.0382478
28	0xbeb7011d	-0.35743037
29	0xbf21ea50	-0.6324816
30	0xbf4cc420	-0.79986763
31	0xbde36b25	-0.111044206
32	0xbea9867f	-0.33110425
33	0xbf99ae82	-1.200638
34	0xbf7af378	-0.98027754
35	0xbf5ca80c	-0.8619392
36	0xbd1ee319	-0.038790796
37	0xbf8d4028	-1.1035204
38	0xbf63a778	-0.8892741
39	0xbfa2d0f5	-1.2720019
40	0x3e0b65f0	0.13613105
41	0xbe2ce157	-0.16882835
42	0x3cb8ee0e	0.02257445
43	0x3e1c567a	0.15267363
44	0x3e962d83	0.29331598
45	0x3eb295c0	0.34879875
46	0x3e44b476	0.19209465
47	0x3da304a9	0.07959873
48	0x3f2700b5	0.65235454
49	0x3f36a509	0.71345574
50	0xbf1af692	-0.60532486
51	0x3d0c3754	0.034232453
52	0xbe76ec77	-0.24113642
53	0xbea19417	-0.31558296
54	0xbf106072	-0.56397164
55	0xbf1905be	-0.59774387
56	0xbdd6f06c	-0.104950756
57	0xbf6a039b	-0.9141175
58	0xbe9b195b	-0.30292782
59	0xbe999773	-0.2999836

rnn.weight_hh_l0 f4 [12, 4]
0	0x3e44f09e	0.19232413
1	0xbf031752	-0.5120746
2	0xbd3c87f4	-0.046028093
3	0x3eb7d4a0	0.35904408
4	0x3d0c8b4c	0.03431253
5	0xbe242b69	-0.16032185
6	0xbf458e82	-0.77170575
7	0xbdbe9a91	-0.09306825
8	0x3d9ec8e6	0.07753162
9	0x3ebd7877	0.3700597
10	0xbe89998d	-0.26874962
11	0x3d87e315	0.06635109
12	0x3dc5d51d	0.09659789
13	0x3f15834c	0.5840347
14	0xbf23f838	-0.64050627
15	0x3df66ceb	0.12032493
16	0xbdb96d49	-0.090540476
17	0x3e8f943a	0.28042775
18	0x3f714d22	0.9425832
19	0x3f2f75f9	0.68539387
20	0xbf61f824	-0.8826926
21	0xbf0616b0	-0.5237837
22	0x3ef10ab3	0.47078475
23	0x3f89bb0e	1.076021
24	0xbf50c395	-0.81548434
25	0xbf847750	-1.0348911
26	0x3f750c21	0.9572163
27	0x3f963e9a	1.1737854
28	0xbfa22955	-1.2668864
29	0xbf6f9918	-0.9359298
30	0x3ecc71d9	0.3993061
31	0x3f08e5f0	0.53475857
32	0x3e97aeb1	0.29625466
33	0xbd93eaf8	-0.07222551
34	0xbe5a7ebd	-0.2133741
35	0x3f15ef58	0.58568335
36	0xbd4eaabf	-0.050455805
37	0xbefdc36a	-0.49563152
38	0x3e7b6232	0.24549177
39	0x3eb07c69	0.34469917
40	0xbeca615a	-0.39527398
41	0x3dba1374	0.09085742
42	0xbee80d40	-0.4532261
43	0x3f04a301	0.51811224
44	0x3e882a8d	0.26594964
45	0x3e308dca	0.17241588
46	0xbe87dbb5	-0.2653481
47	0x3f637cc6	0.88862264

rnn.bias_ih_l0 f4 [12]
0	0x3e7fdb96	0.24986109
1	0x3e409655	0.18807347
2	0x3e2f9821	0.17147876
3	0xbcaffbce	-0.021482375
4	0xbcdc5c0b	-0.026899358
5	0xbe19889d	-0.1499352
6	0x3d1cdd83	0.038297188
7	0xbf3794a9	-0.7171121
8	0x3eb18556	0.3467204
9	0xbddadc2b	-0.10686525
10	0xbecf4fdd	-0.40490618
11	0x3e382fe9	0.17987026

rnn.bias_hh_l0 f4 [12]
0	0xbe6d45e1	-0.23171188
1	0xbe2afd0b	-0.1669809
2	0x3f1b3bee	0.6063832
3	0x3ef66237	0.48121807
4	0xbf43db9a	-0.7650696
5	0xbf690edc	-0.910383
6	0xbf627bfd	-0.8847044
7	0xbf3fd4d6	-0.74934137
8	0x3e2a475f	0.16628788
9	0xbebd4bf0	-0.36971998
10	0x3f243d82	0.64156353
11	0xbe21cc61	-0.1580062

rnn.weight_ih_l1 f4 [12, 4]
0	0x3f36090f	0.7110757
1	0xbd450818	-0.048103422
2	0x3e86d8fb	0.26337418
3	0xbe2d3d0d	-0.1691782
4	0xbe46fcdf	-0.194324
5	0xbe97c3dd	-0.2964162
6	0x3e53780e	0.20651266
7	0xbc262103	-0.010139707
8	0x3d7e3205	0.06205942
9	0x3ec257ff	0.3795776
10	0xbf0f402b	-0.5595729
11	0xbf0bbe6b	-0.5458743
12	0x3e1fc3e7	0.15602075
13	0x3eb8a0de	0.36060232
14	0x3e87c5dc	0.26518142
15	0xbdd70d68	-0.10500604
16	0xbfbe22c6	-1.4854362
17	0xbf8cc8fb	-1.0998834
18	0x3f7b9e10	0.9828806
19	0x3f986b24	1.1907697
20	0xbf8cd71e	-1.1003149
21	0xbeca8032	-0.3955093
22	0x3f9f5c07	1.244996
23	0x3f623b94	0.8837216
24	0xbe196126	-0.14978465
25	0xbeaef3d0	-0.3417039
26	0x3b58b853	0.003306885
27	0x3eb6104e	0.35559314
28	0xbea282d5	-0.31740442
29	0xbf0e91dd	-0.5569132
30	0x3efb6120	0.49097538
31	0x3ef16109	0.47144344
32	0x3e3fad14	0.18718368
33	0x3f278a1f	0.6544513
34	0xbf0d1f6c	-0.5512607
35	0xbdd7ad00	-0.10531044
36	0xbe98480b	-0.29742464
37	0x3f32134c	0.69560695
38	0xbf1b0879	-0.60559803
39	0xbf3de84a	-0.7418257
40	0x3e977630	0.29582357
41	0x3f1eb780	0.6199875
42	0xbe081b65	-0.132917
43	0x3dc735f4	0.097270876
44	0x3e1d235a	0.15345517
45	0x3f0217e1	0.50817686
46	0xbf5fec63	-0.8747007
47	0x3c43a5fb	0.011941428

rnn.weight_hh_l1 f4 [12, 4]
0	0xbeea7d80	-0.45798874
1	0xbf5f4c71	-0.87226015
2	0x3f2e76f9	0.6815029
3	0xbd8369c6	-0.06416659
4	0xbe09fa26	-0.1347433
5	0x3f34dc96	0.7064909
6	0x3f22218f	0.63332456
7	0x3f1a4f43	0.60277194
8	0x3f89cedb	1.0766252
9	0xbd80a563	-0.06281545
10	0xba3591a1	-0.00069263024
11	0x3ecb9d0f	0.39768264
12	0xbf197dca	-0.59957564
13	0x3e1dfdbd	0.15428825
14	0x3e01f8bf	0.12692545
15	0x3d19735a	0.037463523
16	0xbd86d6e3	-0.06583955
17	0x3f0f12c7	0.55888027
18	0xbf66898b	-0.90053624
19	0xbf1d184f	-0.61365217
20	0xbf73bb59	-0.95207745
21	0x3dbafeeb	0.09130653
22	0xbeed85e7	-0.46391222
23	0xbe58d513	-0.21175031
24	0xbf34d45c	-0.70636535
25	0xbf56c5ff	-0.8389587
26	0x3e4d18b4	0.20028955
27	0x3dd7c55a	0.10535689
28	0xbf924265	-1.1426512
29	0xbe3fc6ef	-0.18728231
30	0x3e9ddb83	0.30831537
31	0x3dd91178	0.10599035
32	0x3e3cf5aa	0.18453088
33	0x3cfff12c	0.03124293
34	0xbf5a3200	-0.85232544
35	0xbf355a8a	-0.70841277
36	0x3f560308	0.83598375
37	0xbdc20931	-0.09474409
38	0x3c34f734	0.011045266
39	0xbef6f940	-0.48237038
40	0x3f551c3b	0.832462
41	0x3cfd2aa6	0.030904125
42	0xbdff57a8	-0.12467891
43	0x3f2903dd	0.6602152
44	0x3f84c8cd	1.037378
45	0x3e576956	0.21036276
46	0x3f00af04	0.5026705
47	0xbdf5b637	-0.11997645

rnn.bias_ih_l1 f4 [12]
0	0x3f2fb080	0.6862869
1	0x3ecd50b5	0.40100637
2	0xbc9c3b95	-0.01907138
3	0x3f501a3b	0.81290025
4	0xbf3e080d	-0.74231035
5	0xbf3094a7	-0.68976825
6	0x3e6ef4cf	0.23335575
7	0x3e60f68e	0.21969053
8	0xbd6ffec9	-0.05859259
9	0xbed70b37	-0.42000744
10	0x3e996d0a	0.29966003
11	0x3e5e1139	0.21686257

rnn.bias_hh_l1 f4 [12]
0	0xbe1b7d8a	-0.15184608
1	0x3e428dd8	0.18999422
2	0x3e4ba42c	0.19886845
3	0x3e5b9905	0.21445091
4	0xbeb5e169	-0.35523537
5	0xbf033eba	-0.5126759
6	0x3f50cf74	0.8156655
7	0x3e22a72f	0.15884088
8	0x3ad5e618	0.0016319184
9	0xbf2136dd	-0.6297434
10	0x3e8812de	0.26576895
11	0xbeded5e1	-0.43522552

rnn.weight_ih_l2 f4 [12, 4]
0	0x3f1795f4	0.59213185
1	0x3e69359c	0.22774357
2	0x3f252940	0.6451607
3	0x3f131dd9	0.5746742
4	0x3ea1d630	0.31608725
5	0xbda68dd7	-0.081325226
6	0x3f1e3295	0.6179593
7	0xbda707b3	-0.081557654
8	0x3eb7bdbf	0.35886952
9	0x3dce924f	0.100865
10	0x3f2e1cea	0.6801287
11	0x3e03fadf	0.12888668
12	0xbf686f11	-0.90794474
13	0xbf4be06d	-0.7963932
14	0x3e935f97	0.28783867
15	0x3f15a566	0.58455503
16	0xbee838f5	-0.45355955
17	0xbeff5575	-0.49869886
18	0x3ee9443f	0.4555988
19	0x3c9a85f0	0.018862695
20	0xbefae022	-0.48999125
21	0x3e4dd8b5	0.20102198
22	0xbf87402a	-1.0566456
23	0xbf509574	-0.8147805
24	0xbf0798fb	-0.52967805
25	0xbe850a05	-0.25984207
26	0xbe042b76	-0.12907204
27	0x3ae30075	0.0017318862
28	0xbf581ee8	-0.8442216
29	0xbdf7eb55	-0.12105433
30	0xbf77c859	-0.9679008
31	0xbf6b1da2	-0.9184209
32	0xbe41184f	-0.18856929
33	0xbf3c90c0	-0.7365837
34	0x3db88164	0.09009054
35	0x3eca626c	0.39528215
36	0x3f55431c	0.83305526
37	0x3f6226ee	0.8834065
38	0xbecbced9	-0.3980625
39	0x3ed787ef	0.42095897
40	0x3eae7a28	0.34077573
41	0x3f70f4e3	0.9412367
42	0x3e316289	0.17322744
43	0x3e8e52e8	0.27797627
44	0x3f931489	1.1490642
45	0x3f3bd3fc	0.7337034
46	0x3e41ac4e	0.18913385
47	0x3e92216e	0.2854113

rnn.weight_hh_l2 f4 [12, 4]
0	0xbeac4741	-0.33648112
1	0xbdcd9681	-0.10038472
2	0x3e78bfed	0.24291964
3	0x3ed5ad7c	0.4173392
4	0xbdc86271	-0.09784401
5	0x3ce0b14b	0.02742829
6	0xbdb94de7	-0.09048062
7	0x3f1864bc	0.5952871
8	0xbc213efb	-0.009841676
9	0x3eafc5b6	0.3433053
10	0xbf0a64db	-0.54060143
11	0x3e68fdc5	0.22753055
12	0x3f3d4702	0.73936474
13	0xbf5981f6	-0.8496393
14	0xbe84c65b	-0.25932583
15	0xbe254eb5	-0.16143306
16	0x3e52a206	0.2056962
17	0xbf18db5e	-0.5970973
18	0xbead007e	-0.33789438
19	0xbf181a24	-0.5941489
20	0xbed782e5	-0.42092052
21	0xbe4c8486	-0.19972429
22	0x3f4efe36	0.80856645
23	0x3e96e197	0.29468986
24	0x3ed4c9d7	0.41560242
25	0xbf773144	-0.9655955
26	0xbd000fd1	-0.031265084
27	0xbf6cd87d	-0.92517835
28	0xbedd5c1c	-0.43234336
29	0x3e5a1328	0.2129637
30	0x3ef9028b	0.48634753
31	0x3ef5b87b	0.4799231
32	0x3f040202	0.51565564
33	0xbf4f55bd	-0.809902
34	0xbecf70ae	-0.40515655
35	0xbe679bee	-0.22618076
36	0xbc805df6	-0.015669804
37	0x3e29e966	0.1659294
38	0x3f432f5f	0.7624416
39	0x3ee48f67	0.44640657
40	0xbed0812f	-0.4072356
41	0x3e66f9a5	0.2255617
42	0x3f75989b	0.9593598
43	0x3f043c57	0.5165457
44	0xbf04b18d	-0.5183342
45	0x3e181fee	0.1485593
46	0x3f138c1d	0.5763567
47	0x3d32472d	0.04352491

rnn.bias_ih_l2 f4 [12]
0	0x3e923283	0.28554162
1	0x3e1c5413	0.15266447
2	0x3f23e1fc	0.640167
3	0xbe0c0d43	-0.13676934
4	0x3e83d716	0.25750035
5	0x3cbaadf0	0.022788018
6	0x3e02de20	0.12780046
7	0xbec6e6d4	-0.38847983
8	0xbd859d71	-0.0652417
9	0x3ea6a59e	0.3254823
10	0xbee3bf8e	-0.44482082
11	0x3e3b387a	0.18283263

rnn.bias_hh_l2 f4 [12]
0	0xbea5919d	-0.32337657
1	0xbda8a063	-0.08233716
2	0x3f39eb05	0.72624236
3	0x3e532601	0.20619966
4	0x3df1cc84	0.118065864
5	0xbf629c1d	-0.8851946
6	0x3d8de168	0.069277585
7	0xbf078b26	-0.529467
8	0xbe80a188	-0.2512324
9	0xbe97dc8b	-0.29660448
10	0xbde05d8c	-0.10955343
11	0xbed95b1e	-0.4245233

fc.weight f4 [4, 4]
0	0x3f4f6d7f	0.8102645
1	0xbf0e851b	-0.5567185
2	0xbf4e683a	-0.8062779
3	0xbeb936e5	-0.36174694
4	0xbed589fd	-0.4170684
5	0x3f1db63e	0.61606205
6	0x3f36476f	0.7120275
7	0x3d017c62	0.03161276
8	0xbe540085	-0.20703323
9	0x3f3d53f5	0.73956233
10	0x3d52aaa5	0.05143227
11	0x3e94fb3a	0.2909792
12	0xbeb14ed7	-0.34630463
13	0x3f31c4ce	0.69440925
14	0x3ea7f2a0	0.32802296
15	0x3f408c8e	0.7521447

fc.bias f4 [4]
0	0xbd6bcbf6	-0.05756756
1	0x3e6934c2	0.22774032
2	0x3f0c4234	0.5478852
3	0x3e08099a	0.13284913

rnn.weight_ih_l0 f4 [12, 4]
0	0xbec6376e	-0.38714164
1	0xbe1fa2e4	-0.15589482
2	0xbb526953	-0.0032106235
3	0xbe0aead2	-0.1356614
4	0x3e3d37da	0.18478337
5	0x3f1b262c	0.6060512
6	0x3f38aacf	0.72135633
7	0xbe425452	-0.18977478
8	0xbe36d1db	-0.17853491
9	0x3eda87bf	0.4268169
10	0xbe164374	-0.14674169
11	0x3ede6b05	0.43441024
12	0x3f06b087	0.5261311
13	0xbe8662bf	-0.26247212
14	0xbdb31c63	-0.08745649
15	0x3e8dcad4	0.27693808
16	0x3de0beb9	0.109738775
17	0xbcaa29dc	-0.020771913
18	0x3ef6fbe3	0.4823905
19	0x3ee4eb2b	0.4471067
20	0x3eb09da6	0.34495276
21	0xbeb672a1	-0.3563433
22	0xbd959c1f	-0.07305168
23	0x3deff9be	0.117175564
24	0x3ce50e6e	0.027960982
25	0xbe82d863	-0.25555715
26	0xbf2bdcfc	-0.6713407
27	0xbe85d9d3	-0.2614275
28	0xbe066c4c	-0.1312725
29	0xbf458c7f	-0.77167505
30	0xbea6c0e6	-0.32569045
31	0xbf098fa9	-0.53734833
32	0x3f09db35	0.5385011
33	0xbf10dbd1	-0.56585413
34	0xbefecb3b	-0.49764428
35	0xbed8b35b	-0.42324337
36	0xbecf19de	-0.40449423
37	0xbe66715f	-0.22504185
38	0x3b52ef73	0.003218618
39	0xbe97a06a	-0.29614574
40	0x3eefa369	0.4680436
41	0xbeceda0c	-0.40400732
42	0xbdd484a7	-0.10376864
43	0xbe3997ad	-0.18124266
44	0xbf31ea2b	-0.69497937
45	0xbf0cf616	-0.55063
46	0xbf153859	-0.58289105
47	0xbe6a51c0	-0.22882748

rnn.weight_hh_l0 f4 [12, 4]
0	0x3ce7d64e	0.02830043
1	0x3ee1da30	0.44111776
2	0x3e6ded51	0.2323506
3	0x3f016d07	0.5055699
4	0x3e18fb96	0.14939722
5	0xbe58d2af	-0.2117412
6	0xbdfc8b90	-0.12331307
7	0xbebe8b3f	-0.3721561
8	0xbeb17dcf	-0.34666297
9	0xbed3256c	-0.41239488
10	0xbd44a3c0	-0.048007727
11	0xbd4ea386	-0.050448917
12	0xbd87d1a8	-0.06631786
13	0xbdcd3d4c	-0.10021457
14	0x3e15d387	0.14631473
15	0xbf065907	-0.52479595
16	0x3e26e06f	0.16296552
17	0x3f036533	0.5132629
18	0x3f30a699	0.6900421
19	0x3f2109e3	0.6290571
20	0x3e20fd9b	0.15721743
21	0x3d9712e6	0.073766515
22	0x3e2199c3	0.15781312
23	0x3eee1772	0.46502262
24	0x3e804b2b	0.2505735
25	0x3f081af7	0.53166145
26	0x3f57e114	0.84327817
27	0x3f1f9a92	0.6234523
28	0x3f01ebb4	0.5075028
29	0x3f515201	0.81765753
30	0xbe1c1f6b	-0.1524636
31	0x3e441d35	0.19151767
32	0xbeaeb6da	-0.3412388
33	0x3e0a411b	0.13501398
34	0x3eb7cd3e	0.35898775
35	0xbd8e7949	-0.06956727
36	0x3ea04347	0.3130133
37	0x3ee2deb7	0.44310543
38	0x3f1f10d3	0.62135047
39	0x3f2da0c7	0.6782345
40	0x3e206d46	0.15666685
41	0x3eaa4152	0.3325296
42	0x3d498516	0.049199186
43	0x3f465e7e	0.77487934
44	0x3e498c4e	0.19682428
45	0x3e10a897	0.14126812
46	0xbe8f467d	-0.27983466
47	0x3ee6c15f	0.45069405

rnn.bias_ih_l0 f4 [12]
0	0xbdca3108	-0.09872633
1	0x3ee60384	0.44924557
2	0x3f2e5299	0.68094784
3	0x3ee2b09a	0.4427536
4	0x3d995d29	0.07488472
5	0xbe41ea84	-0.18937117
6	0xbf060466	-0.5235046
7	0xbf28d9e5	-0.6595748
8	0xbe16875f	-0.14700077
9	0xbea1a616	-0.31572026
10	0x3efd704e	0.49499744
11	0xbe7aa792	-0.24477986

rnn.bias_hh_l0 f4 [12]
0	0xbec5cff6	-0.38635224
1	0x3eb72ff0	0.3577876
2	0x3e954d74	0.29160655
3	0x3e596eaf	0.21233629
4	0x3df5e3dc	0.12006351
5	0x3db015a1	0.085978754
6	0x3e2079b4	0.15671426
7	0xbf511fb1	-0.8168898
8	0x3d033b21	0.03203881
9	0xbec16a78	-0.37776542
10	0x3bad7968	0.005294014
11	0xbec559ef	-0.38545176

rnn.weight_ih_l1 f4 [12, 4]
0	0xbeceafc7	-0.40368482
1	0xbd3e857b	-0.046514016
2	0xbf070e78	-0.5275645
3	0xbea53ffd	-0.32275382
4	0xbe322d48	-0.17400086
5	0xbd0cfa45	-0.034418363
6	0xbe88366e	-0.26604027
7	0xbd894f47	-0.06704574
8	0xbde701e5	-0.11279658
9	0x3dca0d2d	0.09865794
10	0x3f24dd5d	0.64400274
11	0xbeba68b7	-0.36408016
12	0xbea281d3	-0.31739673
13	0xbf06b1c0	-0.52614975
14	0x3f1ec645	0.62021285
15	0xbc9bbf97	-0.019012256
16	0x3e1f938d	0.1558363
17	0x3e93aa4e	0.2884087
18	0x3e4e939b	0.20173495
19	0x3df00970	0.1172055
20	0x3eee8b69	0.46590737
21	0x3e6315e1	0.22176315
22	0xbd32b867	-0.04363289
23	0x3f84071a	1.0314667
24	0x3f811f71	1.008772
25	0x3f8c83d8	1.0977736
26	0xbef48c04	-0.47763073
27	0x3f1e6f57	0.6188864
28	0x3eb29b10	0.34883928
29	0x3f4c786a	0.7987124
30	0xbdeae718	-0.11469859
31	0xbe17ce2a	-0.14824739
32	0x3ecf7a7f	0.40523145
33	0x3e903eb1	0.2817283
34	0x3f57e43d	0.8433264
35	0xbe3bc451	-0.18336608
36	0xbea6a493	-0.32547435
37	0xbe8a83c6	-0.2705366
38	0x3e4c46a9	0.1994883
39	0xbd167a17	-0.036737528
40	0x3f2f6f56	0.6852926
41	0x3eefe0c6	0.46851176
42	0x3eb4e03e	0.35327333
43	0xbf167be0	-0.5878277
44	0xbf14a3da	-0.5806252
45	0x3e0db309	0.13837828
46	0xbf691679	-0.91049916
47	0xbea5317d	-0.3226432

rnn.weight_hh_l1 f4 [12, 4]
0	0xbd0eb5a5	-0.0348412
1	0x3eb8e736	0.361139
2	0xbbdb7aeb	-0.0066980026
3	0x3efe730e	0.49697155
4	0xbeb2031e	-0.34768003
5	0x3e1df034	0.15423661
6	0xbdc2fc69	-0.095208
7	0x3f096bb8	0.5367999
8	0x3ed78d55	0.42100015
9	0x3cdaff45	0.02673305
10	0x3dd1e1ac	0.102481216
11	0xbe75cd6b	-0.24004142
12	0xbe942aa3	-0.2893878
13	0x3ea51c03	0.32247934
14	0x3da7916e	0.081820354
15	0x3edfc096	0.4370162
16	0x3eb4f945	0.35346428
17	0xbef08e33	-0.4698349
18	0x3dab24c4	0.08356622
19	0xbe5ecb64	-0.21757275
20	0x3f0c63e5	0.54839927
21	0x3df4ffea	0.11962874
22	0xbed55f84	-0.41674435
23	0xbecdd728	-0.40203214
24	0x3f47ae22	0.7800008
25	0x3ea4955c	0.32145202
26	0xbe6dce5c	-0.23223251
27	0xbefb6b8a	-0.49105483
28	0x3f272ab3	0.6529953
29	0xbf0e4827	-0.55578846
30	0x3ed70f44	0.42003834
31	0x3df20910	0.11818135
32	0x3df2f63f	0.11863374
33	0xbeb41922	-0.35175425
34	0xbf366b33	-0.71257323
35	0xbf3860fb	-0.7202298
36	0x3f4b1105	0.79322845
37	0xbebc84da	-0.36820108
38	0x3f25b576	0.6473001
39	0xbf420598	-0.75789785
40	0x3f1be0f0	0.608901
41	0xbf18fd3d	-0.5976141
42	0x3eee2188	0.46509957
43	0xbda2bf75	-0.07946674
44	0xbf3c9230	-0.73660564
45	0x3ee12470	0.43973112
46	0x3e8a7881	0.27045062
47	0xbdfb25c1	-0.1226306

rnn.bias_ih_l1 f4 [12]
0	0x3f1eed2f	0.62080663
1	0x3f68513b	0.9074895
2	0x3d16cbcf	0.03681546
3	0x3ee71bab	0.45138296
4	0x3ebb195f	0.36542794
5	0xbebcbe91	-0.3686414
6	0xbe9afe48	-0.30272126
7	0xbee24fc5	-0.44201484
8	0xbdb5bac2	-0.08873512
9	0x3ec44049	0.38330296
10	0x3f19ae4b	0.60031575
11	0xbeb897d2	-0.3605333

rnn.bias_hh_l1 f4 [12]
0	0x3ea3ada7	0.31968424
1	0x3f369992	0.7132808
2	0x3f5913ed	0.8479603
3	0x3e4653ca	0.193679
4	0x3ec03be4	0.37545693
5	0xbed083c6	-0.40725535
6	0xbf987edb	-1.1913713
7	0xbe8e4dae	-0.2779364
8	0x3dfd3a3e	0.123646244
9	0x3dc10705	0.09425167
10	0x3efb8e7e	0.4913215
11	0xbeeb0d0e	-0.45908397

rnn.weight_ih_l2 f4 [12, 4]
0	0xbd0c3a59	-0.034235332
1	0xbed7b605	-0.42131057
2	0x3f15da60	0.5853634
3	0xbdcd1a8a	-0.100148275
4	0xbe2a1e9d	-0.1661324
5	0xbe7b97c9	-0.2456962
6	0x3cfe6f3f	0.031058906
7	0x3e2ad98b	0.16684549
8	0x3e7bf61f	0.24605606
9	0xbe766cd8	-0.24064958
10	0x3ea67016	0.3250739
11	0x3eea32aa	0.4574178
12	0xbe1bbb3a	-0.1520814
13	0xbf08bafe	-0.5341033
14	0x3f1fdca3	0.6244604
15	0x3ef6ddcc	0.48216093
16	0x3eb93a31	0.3617721
17	0xbeae3e38	-0.34031844
18	0xbf46d883	-0.7767412
19	0x3f4a0352	0.78911316
20	0x3e3a7e5d	0.18212266
21	0xbf4f4ea2	-0.8097936
22	0xbf53747e	-0.8259963
23	0x3e57a60f	0.2105944
24	0x3f4576c3	0.7713434
25	0xbe1298b4	-0.14316064
26	0xbfb25588	-1.3932352
27	0x3f0353e0	0.5129986
28	0x3f32ecd4	0.6989262
29	0xbed10993	-0.40827617
30	0x3ecae646	0.3962881
31	0xbd97d088	-0.07412821
32	0x3f26a135	0.6508973
33	0x3f070390	0.5273981
34	0x3ee8ebbd	0.45492354
35	0xbeaa3a09	-0.33247402
36	0xbf44f45e	-0.76935375
37	0x3d981b7b	0.074271165
38	0xbf49f40c	-0.7888801
39	0x3f517035	0.8181184
40	0xbebc3654	-0.367602
41	0xbf172c63	-0.59052104
42	0xbf1da8fd	-0.6158598
43	0x3dc7ee59	0.09762258
44	0x3e192c5f	0.14958332
45	0x3e25560f	0.1614611
46	0x3b9fec6a	0.0048804777
47	0x3f610c4f	0.87909406

rnn.weight_hh_l2 f4 [12, 4]
0	0xbf2ccc05	-0.6749881
1	0xbd0788a9	-0.033089314
2	0x3d98f840	0.07469225
3	0x3f56936d	0.83818704
4	0x3f06bba9	0.52630097
5	0xbdbbd87a	-0.09172149
6	0xbe975bb5	-0.29562154
7	0x3d31b63c	0.043386683
8	0x3c166f55	0.009181817
9	0xbe124f11	-0.14287974
10	0x3ef44780	0.477108
11	0x3f57129d	0.84012777
12	0x3e35118d	0.17682476
13	0xbddeeeba	-0.10885377
14	0x3d89eb32	0.06734313
15	0x3f530990	0.82436466
16	0xbf137411	-0.5759898
17	0xbe5532a5	-0.208201
18	0x3d98ffe5	0.07470683
19	0x3df30d74	0.118678
20	0xbeace776	-0.3377034
21	0xbd7a705c	-0.06114231
22	0xbda11d33	-0.078668974
23	0xbed04b4b	-0.40682444
24	0xbe51f5f9	-0.20503987
25	0xbda0ab2e	-0.0784515
26	0x3f123403	0.57110614
27	0xbecf1b89	-0.40450695
28	0x3efd02bc	0.4941615
29	0x3e25fd75	0.16209967
30	0xbdb0da98	-0.086354434
31	0x3ea90f0d	0.33019295
32	0x3e94ddde	0.2907552
33	0xbf5807a5	-0.84386665
34	0x3e320a23	0.1738668
35	0xbf7e9dc1	-0.99459463
36	0x3e803aa0	0.25044727
37	0x3f287d3b	0.65816087
38	0x3e0a4146	0.13501462
39	0x3eb8bbb4	0.36080706
40	0xbf15fd09	-0.58589226
41	0x3f5c2c62	0.8600522
42	0xbdfdbf81	-0.12390042
43	0x3f0808a7	0.531382
44	0xbf30b1b2	-0.6902114
45	0x3ed7c72a	0.42144138
46	0x3dec9b49	0.11553056
47	0xbd586e48	-0.052839547

rnn.bias_ih_l2 f4 [12]
0	0xbe35291c	-0.17691463
1	0xbdbbad6e	-0.091639385
2	0xbe03a5af	-0.12856172
3	0x3f461922	0.773821
4	0xbf15d2eb	-0.5852496
5	0xbe9ca87d	-0.30597296
6	0xbf8e9220	-1.1138344
7	0x3f2cbdae	0.6747693
8	0x3f18937e	0.59600055
9	0x3d2dd402	0.042438515
10	0xbef8c6e1	-0.48589233
11	0x3e8135bb	0.25236306

rnn.bias_hh_l2 f4 [12]
0	0x3f3996ab	0.72495526
1	0x3ed699ee	0.41914314
2	0x3f4b4889	0.79407555
3	0x3f40d0b1	0.7531844
4	0xbeaba3f3	-0.3352352
5	0xbe197436	-0.14985737
6	0xbf0733b4	-0.5281327
7	0x3ed21cf8	0.41037726
8	0xbe0ff7f8	-0.14059436
9	0xbf2ee3ac	-0.6831615
10	0xbefbbf72	-0.491695
11	0x3d51442d	0.051090408

fc.weight f4 [5, 4]
0	0xbe9a7dd5	-0.30174127
1	0x3edaeb95	0.4275786
2	0x3f241969	0.6410127
3	0x3f5be733	0.85899657
4	0xbec28bc6	-0.37997264
5	0x3ed2492f	0.4107146
6	0x3ecbae0b	0.39781222
7	0x3e9e94a3	0.30972776
8	0xbf89a013	-1.0751976
9	0x3ea14799	0.31499937
10	0x3e8132be	0.25234026
11	0x3ee8b950	0.45453882
12	0xbf5ce9ba	-0.8629414
13	0x3f70aa1a	0.94009554
14	0x3f217155	0.63063556
15	0xbe8d3b6d	-0.275844
16	0xbe695921	-0.22787906
17	0x3f57a684	0.8423846
18	0x3f5560a6	0.833506
19	0x3f2350d5	0.63795215

fc.bias f4 [5]
0	0xbead0181	-0.3379021
1	0xbe84dfbe	-0.25951952
2	0xbec0c767	-0.37652132
3	0xbd487470	-0.04893917
4	0xbef865d6	-0.48515195

rnn.weight_ih_l0 f4 [12, 5]
0	0xbdce1921	-0.10063387
1	0x3dbf8c11	0.093528874
2	0x3c216724	0.009851251
3	0x3e008efb	0.12554543
4	0x3f37eb78	0.7184367
5	0x3edd66c5	0.4324247
6	0x3f0748cc	0.52845454
7	0x3ec6d644	0.38835347
8	0xbe9e7c5d	-0.30954257
9	0x3dced4e7	0.10099202
10	0x3f247d5b	0.6425378
11	0x3ee7ba1e	0.45259184
12	0xbe44b0e5	-0.19208105
13	0x3ecaf890	0.39642763
14	0x3ec4df27	0.38451502
15	0xbddbe781	-0.10737515
16	0x3f42c0c7	0.76075405
17	0xbc760797	-0.015016458
18	0x3de1c7af	0.11024415
19	0x3f2ad367	0.66728824
20	0xbf43c21d	-0.7646807
21	0xbf41e832	-0.75744927
22	0xbef24142	-0.47315413
23	0xbf54d4c9	-0.83137184
24	0xbf0a9d48	-0.5414624
25	0xbea455c2	-0.32096678
26	0xbd97e928	-0.07417518
27	0xbef1ff78	-0.4726522
28	0xbd9539d9	-0.07286424
29	0x3eb99aae	0.36250824
30	0x3d464806	0.04840853
31	0xbf3b5fe7	-0.7319321
32	0xbf0e6cc1	-0.55634695
33	0xbe0a310c	-0.13495272
34	0xbd4d0ad5	-0.05005916
35	0xbd5b9610	-0.053609908
36	0xbe07ad41	-0.13249685
37	0x3e0e0f0c	0.13872927
38	0xbe1b200f	-0.15148948
39	0xbf62e24f	-0.8862657
40	0xbefc1be6	-0.49240035
41	0xbf2553ce	-0.64581
42	0xbad85214	-0.0016503953
43	0xbdfea201	-0.124332435
44	0xbeee1cf0	-0.46506453
45	0x3dce7ed0	0.10082781
46	0x3d5790f3	0.05262847
47	0x3dfa9faf	0.122374885
48	0x3da279eb	0.0793341
49	0xbc852288	-0.016251817
50	0xbda1ccf3	-0.07900419
51	0x3f34623a	0.7046238
52	0x3f30c009	0.6904302
53	0x3f0a8610	0.54110813
54	0x3f45b375	0.77226955
55	0xbd9dd72d	-0.07707057
56	0xbd364724	-0.04450144
57	0x3e634ac4	0.2219649
58	0xbe9dcb49	-0.30819157
59	0xbe493a8d	-0.19651242

rnn.weight_hh_l0 f4 [12, 4]
0	0xbf18103b	-0.59399766
1	0xbeab07d9	-0.33404425
2	0x3f289d51	0.65865046
3	0x3e2d0fd5	0.1690057
4	0xbeb436d9	-0.35198095
5	0x3dbbde94	0.09173313
6	0xbecfe62a	-0.4060529
7	0x3ba3b15b	0.0049955077
8	0x3c91b2d0	0.01778546
9	0xbdb757b5	-0.08952276
10	0xbd8376f3	-0.06419172
11	0xbf39c555	-0.7256673
12	0x3e249e55	0.16076024
13	0xbeb2b296	-0.34901875
14	0x3f000457	0.5000662
15	0xbcdfd732	-0.027324293
16	0x3cd71a0c	0.026257537
17	0x3b3ea7ea	0.0029091784
18	0xbf0ed2da	-0.55790484
19	0x3efededc	0.49779403
20	0x3eadf847	0.33978483
21	0xbede5329	-0.4342282
22	0x3e6565aa	0.22402063
23	0x3ea62996	0.32453603
24	0x3d7b9213	0.061418604
25	0x3e9e2c84	0.30893338
26	0xbef12b4a	-0.4710334
27	0x3f0eb502	0.55744946
28	0xbe1ec6ba	-0.15505496
29	0xbe8342b3	-0.25636825
30	0xbefaab49	-0.48958805
31	0xbd7bd0fe	-0.061478607
32	0x3ea2db9c	0.31808174
33	0x3ecd90c8	0.40149522
34	0x3e31f563	0.17378764
35	0x3ef6a0d0	0.48169565
36	0xbef153ad	-0.47134152
37	0x3eba862a	0.36430484
38	0x3d4c026c	0.049806997
39	0x3d8d218b	0.068911634
40	0xbe86ad24	-0.2630397
41	0xbea8af5f	-0.32946298
42	0x3eb51d06	0.35373706
43	0xbf37c031	-0.71777636
44	0x3eb870f2	0.3602367
45	0x3e920e66	0.2852661
46	0xbe42cc5d	-0.19023271
47	0x3ea13f78	0.31493735

rnn.bias_ih_l0 f4 [12]
0	0x3ef0aef1	0.4700847
1	0xbd990c4d	-0.07473049
2	0xbc899a6b	-0.016797265
3	0xbe1365f6	-0.14394364
4	0xbf5b1c16	-0.8558973
5	0xbe9f14a0	-0.31070423
6	0xbf6bb02a	-0.9206568
7	0xbf48de5a	-0.7846428
8	0xbf03d7c0	-0.51501083
9	0x3e8982a0	0.2685747
10	0x3f0f3162	0.5593473
11	0xbf4179de	-0.7557658

rnn.bias_hh_l0 f4 [12]
0	0x3e55ed11	0.20891215
1	0xbeb255f8	-0.34831214
2	0x3f2c8028	0.6738305
3	0x3e01438a	0.1262342
4	0xbea5bb8e	-0.32369655
5	0xbda14d04	-0.07876018
6	0xbf1aa46f	-0.60407156
7	0xbe83380f	-0.25628707
8	0xbf1b5322	-0.60673726
9	0x3e47a00c	0.19494647
10	0x3e1f1c29	0.15538086
11	0xbeb48614	-0.35258543

rnn.weight_ih_l1 f4 [12, 4]
0	0xbf09b755	-0.5379537
1	0x3e493d4e	0.19652292
2	0x3f361335	0.7112306
3	0xbeebe2e8	-0.46071553
4	0xbf189f34	-0.59617925
5	0x3e66398e	0.22482893
6	0x3e2473cf	0.16059802
7	0xbf241264	-0.6409056
8	0xbe010bb4	-0.1260212
9	0x3e91aac5	0.284506
10	0x3ebb6a6d	0.36604634
11	0x3d8b82bb	0.06812044
12	0x3e702a88	0.23453724
13	0x3ed691ca	0.41908103
14	0x3ec0d7ee	0.3766474
15	0x3e2d7119	0.16937675
16	0x3ec9052a	0.39261752
17	0xbef43394	-0.476956
18	0xbf24616b	-0.6421115
19	0x3eb12782	0.34600455
20	0x3f2c9f6a	0.67430747
21	0xbe9d5741	-0.30730632
22	0xbd0f1fcf	-0.034942444
23	0x3d5d10fa	0.05397127
24	0x3ef8ddfa	0.48606855
25	0xbeb3662d	-0.3503889
26	0xbf494a1b	-0.786287
27	0xbc7999f9	-0.015234464
28	0x3edac5d8	0.42729068
29	0xbeb9cf8c	-0.36291158
30	0xbf2f85b7	-0.6856341
31	0x3f001689	0.50034386
32	0xbf081ffc	-0.53173804
33	0x3ee977ff	0.45599362
34	0x3e81738f	0.25283477
35	0xbeebed7c	-0.46079624
36	0xbe9ec842	-0.3101216
37	0x3eee6232	0.46559292
38	0x3ed0a9c5	0.40754524
39	0xbf29bf17	-0.66307205
40	0xbead65f8	-0.33866858
41	0x3ee81e0b	0.4533542
42	0x3ed0b37f	0.40761945
43	0xbf3bc038	-0.7334018
44	0xbf815597	-1.0104245
45	0xbe3cd5a7	-0.18440877
46	0x3f6cf7ae	0.9256543
47	0xbde8a348	-0.113592684

rnn.weight_hh_l1 f4 [12, 4]
0	0x3e43f58b	0.19136636
1	0x3f09c5b3	0.5381729
2	0x3e0a4d7c	0.1350612
3	0xbe70080a	-0.23440567
4	0x3eb7a8c3	0.35870942
5	0x3dfe693b	0.12422415
6	0x3e7e80df	0.24853848
7	0xbe5e6d55	-0.21721394
8	0x3e14a011	0.14514185
9	0x3f099962	0.5374967
10	0x3e9a5c04	0.30148327
11	0xbe2134a8	-0.15742743
12	0x3e1ad37b	0.15119736
13	0xbd9fd9e0	-0.07805228
14	0x3f158bf9	0.58416706
15	0xbceac6eb	-0.028659305
16	0xbed79e46	-0.4211294
17	0xbe423242	-0.18964484
18	0xbce70ae4	-0.028203435
19	0xbe2376fe	-0.1596336
20	0xbe8674c3	-0.26260957
21	0x3e36ac58	0.17839181
22	0xbef636f4	-0.480888
23	0xbc4c089f	-0.012453227
24	0xbdf75cec	-0.1207827
25	0xbe128fe4	-0.14312702
26	0xbc963719	-0.01833682
27	0x3d0f6f60	0.035018325
28	0x3baec06b	0.0053329966
29	0xbf20d8c8	-0.6283078
30	0xbf53223a	-0.824741
31	0xbf2cf530	-0.67561626
32	0xbe7c0772	-0.24612215
33	0x3e847a8a	0.2587474
34	0x3d674471	0.056461755
35	0x3f3a1cf3	0.72700423
36	0xbe1f5ad0	-0.15561986
37	0x3ddacf43	0.10684063
38	0xbe81dd7e	-0.25364298
39	0x3e84613a	0.25855428
40	0x3e4c53e7	0.19953881
41	0x3f056954	0.5211384
42	0xbb800c78	-0.0039077364
43	0x3e39540d	0.18098469
44	0xbe1fec86	-0.1561757
45	0x3f052a14	0.5201733
46	0x3ea4bd33	0.32175598
47	0x3dc7f386	0.09763245

rnn.bias_ih_l1 f4 [12]
0	0x3e8757a0	0.2643404
1	0x3e40aafc	0.18815225
2	0xbd1b0898	-0.037849993
3	0xbf08fd36	-0.5351137
4	0xbf6716a9	-0.9026895
5	0xbe6321ce	-0.22180864
6	0xbe8a4d0b	-0.27011904
7	0xbea442d5	-0.3208224
8	0xbbed6662	-0.007244871
9	0x3e8b68c5	0.2722837
10	0x3eb2fc20	0.3495798
11	0x3f65517e	0.8957747

rnn.bias_hh_l1 f4 [12]
0	0x3d17d878	0.037071675
1	0xbe0e6ff7	-0.13909899
2	0x3e1791ff	0.14801787
3	0x3e961f9c	0.2932099
4	0xbf07785b	-0.5291802
5	0xbdbfbdf5	-0.09362403
6	0xbe7cd410	-0.2469027
7	0xbf5f9769	-0.8734041
8	0x3f33b9c6	0.7020534
9	0x3f1ea0e2	0.6196424
10	0x3f1bd734	0.6087525
11	0x3dbc26f2	0.09187116

rnn.weight_ih_l2 f4 [12, 4]
0	0xbeafcdb0	-0.34336615
1	0x3dbf1ecf	0.09332048
2	0x3e919567	0.28434297
3	0xbee2ba36	-0.44282693
4	0x3f37f511	0.71858317
5	0xbee49b1e	-0.44649595
6	0x3c9b0960	0.018925369
7	0xbd70e8ba	-0.058815695
8	0x3e1b7f5f	0.15185307
9	0xbc4c4d69	-0.012469628
10	0x3ee459bb	0.4459971
11	0x3ef1731c	0.47158134
12	0x3f01c656	0.5069326
13	0x3e0fca0b	0.14041917
14	0x3e4b5399	0.19856109
15	0x3eaf310c	0.34217107
16	0xbe22eb7a	-0.1591014
17	0xbe938d5c	-0.28818786
18	0xbee6dced	-0.45090428
19	0xbe84f2b3	-0.25966415
20	0xbf33063c	-0.6993139
21	0xbeb4884b	-0.35260233
22	0xbeaacb3c	-0.3335818
23	0xbf4bcaee	-0.7960652
24	0xbf504caa	-0.8136698
25	0xbf023bdd	-0.50872594
26	0xbf8a4add	-1.0804096
27	0xbee286f5	-0.4424359
28	0xbf737cd4	-0.9511235
29	0xbf556696	-0.8335966
30	0xbec29430	-0.38003683
31	0xbf87ce18	-1.060977
32	0x3f4326b9	0.7623096
33	0x3f0dc0cd	0.55372316
34	0x3ef11868	0.47088933
35	0xbda72bde	-0.08162664
36	0x3f2aaaae	0.66666687
37	0x3f3afdb9	0.730434
38	0x3f459c7f	0.7719192
39	0x3f183372	0.594535
40	0xbf40b7b9	-0.7528034
41	0xbe9604ec	-0.2930063
42	0xbe556280	-0.20838356
43	0xbf12693b	-0.5719182
44	0x3f2891f1	0.6584769
45	0x3d7ac1ca	0.061219968
46	0x3d518de0	0.051160693
47	0x3f0a714f	0.54079145

rnn.weight_hh_l2 f4 [12, 4]
0	0x3ec04159	0.37549856
1	0xbe21e84d	-0.15811272
2	0xbf0514b1	-0.519847
3	0x3ec6dd15	0.38840547
4	0xbdf1b1f0	-0.11801517
5	0x3efb61b5	0.49097982
6	0xbef7ccf1	-0.48398545
7	0x3c8f7969	0.017513948
8	0x3f31b53f	0.69417185
9	0x3dc69db3	0.096980475
10	0xbf20ea22	-0.6285726
11	0x3c037daa	0.008025566
12	0x3eed787c	0.46380985
13	0x3f344817	0.704225
14	0xbca9acce	-0.020712283
15	0x3f582ebd	0.84446317
16	0x3dc2bf6b	0.09509166
17	0x3e354802	0.1770325
18	0x3f0f5c65	0.5600036
19	0xbea97c56	-0.33102673
20	0xbdd4e28b	-0.10394772
21	0xbf0874f9	-0.53303486
22	0x3f1f867c	0.6231458
23	0xbf1a653b	-0.60310715
24	0xbdfa774d	-0.12229786
25	0xbef9ee82	-0.4881478
26	0x3f254e5b	0.64572686
27	0xbe2bfb05	-0.16794975
28	0x3c1f78bb	0.009733374
29	0xbefeffa2	-0.49804407
30	0x3e5e43f9	0.21705617
31	0xbeb5f6cc	-0.35539854
32	0x3f0b085c	0.5430963
33	0x3d57f629	0.05272499
34	0x3e11b2f2	0.14228418
35	0x3e8bc755	0.27300516
36	0x3f366a3c	0.7125585
37	0x3d0d9ad0	0.03457147
38	0xbf0a76d2	-0.54087555
39	0x3d9c69ed	0.07637391
40	0xbf211a5f	-0.62930864
41	0x3dd9bf1e	0.10632156
42	0xbe1ba06b	-0.15197913
43	0xbf08b8a4	-0.5340674
44	0x3f2347fb	0.6378171
45	0x3f416608	0.7554631
46	0x3ea24236	0.3169114
47	0x3f2d1d57	0.67622894

rnn.bias_ih_l2 f4 [12]
0	0x3e097ba8	0.13426077
1	0x3e93c3c0	0.28860283
2	0x3f237ca3	0.63862056
3	0x3e8a843a	0.27054006
4	0xbeb9d708	-0.36296868
5	0xbd1062d6	-0.035250507
6	0xbf461aed	-0.77384835
7	0xbf59cf09	-0.85081536
8	0x3f30a8eb	0.6900775
9	0xbe0ba694	-0.13637763
10	0xbdd8036d	-0.105475284
11	0x3f5d68b9	0.8648792

rnn.bias_hh_l2 f4 [12]
0	0xbeed26ed	-0.4631876
1	0xbe5c526b	-0.21515815
2	0x3e8fea27	0.28108332
3	0xbe16a537	-0.14711462
4	0xbf65e0b5	-0.89796
5	0xbdb04379	-0.086066194
6	0xbf6fe0f5	-0.9370263
7	0xbf78f6e3	-0.9725172
8	0xbd7e122f	-0.06202906
9	0xbd92edba	-0.07174249
10	0xbf3df9e7	-0.74209446
11	0x3d4bbf76	0.04974314

fc.weight f4 [4, 4]
0	0x3e5b937f	0.21442984
1	0x3f50b073	0.8151924
2	0xbf36bf68	-0.7138581
3	0x3ea72a0b	0.32649264
4	0xbea4faab	-0.32222494
5	0xbcb42b0e	-0.021993186
6	0x3f12e0ea	0.5737444
7	0xbf57ffc5	-0.8437465
8	0x3d8ec18a	0.069705084
9	0xbea9df17	-0.33178017
10	0xbea2525d	-0.31703463
11	0x3e849a4d	0.25898972
12	0xbf470c57	-0.77753204
13	0xbefe142d	-0.49624768
14	0x3f4c8376	0.79888093
15	0xbf965bab	-1.1746725

fc.bias f4 [4]
0	0x3f243f8b	0.6415946
1	0xbed08dcf	-0.4073319
2	0x3ec273dd	0.37979022
3	0xbe3ab6aa	-0.18233743

rnn.weight_ih_l0 f4 [12, 4]
0	0xbe3c14ec	-0.18367356
1	0x3f032bfb	0.51238984
2	0x3ed9b2ff	0.42519376
3	0xbde6ea62	-0.11275174
4	0x3d99caa8	0.07509357
5	0x3ea57aa5	0.32320133
6	0x3e810d23	0.25205335
7	0x3ea6a239	0.3254564
8	0x3f1607c8	0.58605623
9	0x3f09cea1	0.53830916
10	0x3edf35fd	0.43595877
11	0x3f05e8ac	0.52308154
12	0xbe2da71c	-0.16958278
13	0x3baa539d	0.0051979558
14	0x3d5242a0	0.05133307
15	0xbdfa1302	-0.12210657
16	0xbe8c3793	-0.2738615
17	0xbea843b7	-0.32864162
18	0x3e79c6c9	0.24392237
19	0xbeb27051	-0.34851316
20	0x3ddd79a7	0.10814219
21	0xbda29f75	-0.0794057
22	0xbe2b327b	-0.16718476
23	0xbf038896	-0.5138029
24	0x3e431618	0.19051397
25	0xbe61c55f	-0.22047947
26	0xbe78fcb9	-0.24315156
27	0xbf0e6e65	-0.556372
28	0xbe61e8f5	-0.22061522
29	0xbd1dbf76	-0.03851267
30	0xbd09a33c	-0.033602938
31	0x3ddca764	0.10774115
32	0xbe333998	-0.17502439
33	0x3e4887b3	0.19583015
34	0xbd2099b6	-0.03920909
35	0xbe3d5e06	-0.18492898
36	0x3dcc1d8a	0.09966572
37	0x3df4fc8d	0.11962233
38	0x3db5218c	0.08844289
39	0xbdf84314	-0.12122169
40	0xbea20544	-0.31644642
41	0xbdb31468	-0.087441266
42	0xbea061aa	-0.31324512
43	0x3e9475db	0.28996167
44	0x3ea0de3f	0.3141956
45	0x3eb2eecf	0.34947821
46	0xbea1bf68	-0.31591344
47	0x3e87d9d6	0.26533383

rnn.weight_hh_l0 f4 [12, 4]
0	0x3e86f835	0.26361242
1	0xbee826d6	-0.4534213
2	0x3ec9265f	0.39287087
3	0xbea9ed5a	-0.33188897
4	0x3f269d56	0.65083826
5	0xbebe47aa	-0.3716405
6	0xbdde403d	-0.10852096
7	0xbe7be5bd	-0.24599357
8	0xbe300863	-0.171907
9	0x3e44842c	0.19191045
10	0x3e737d9a	0.23778382
11	0x3f1aa195	0.60402805
12	0x3da2fa7f	0.079579346
13	0xbc261715	-0.010137339
14	0xbe8458a7	-0.25848886
15	0x3e9d1249	0.30678013
16	0xbf1b64f3	-0.6070091
17	0xbe2159d8	-0.15756929
18	0xbe05fd11	-0.13084818
19	0x3e59a31d	0.21253629
20	0x3dea0a5e	0.11427759
21	0x3c25cd11	0.010119692
22	0x3e5a6c85	0.2133046
23	0xbe06f050	-0.1317761
24	0xbeca31e7	-0.39491197
25	0x3df340b5	0.11877576
26	0x3dc6d609	0.09708793
27	0x3e643b97	0.22288357
28	0xbea613d8	-0.32437015
29	0xbf0c00c1	-0.5468865
30	0xbd27cd63	-0.040967356
31	0x3efbb4de	0.49161428
32	0xbc889b51	-0.016675623
33	0x3d7ff738	0.062491626
34	0x3ed6adee	0.41929573
35	0x3eb51d37	0.35373852
36	0xbe4a4678	-0.19753444
37	0x3ebe9458	0.37222552
38	0xbf052150	-0.52003956
39	0xbed90305	-0.42385116
40	0x3e4bd360	0.19904852
41	0x3c11cf47	0.008899516
42	0xbd3b0578	-0.045659512
43	0xbeac32de	-0.3363256
44	0x3e8077b4	0.25091326
45	0x3d937189	0.071993895
46	0xbe9814c6	-0.2970335
47	0xbe781505	-0.24226768

rnn.bias_ih_l0 f4 [12]
0	0x3f0e55e1	0.5559979
1	0xbe3d65e5	-0.18495901
2	0xbddadd5b	-0.106867515
3	0x3e492bb2	0.19645575
4	0xbee520c1	-0.44751552
5	0x3e0a0f9e	0.1348252
6	0x3e13945c	0.14412063
7	0x3effed5e	0.49985784
8	0x3ee3b066	0.4447052
9	0xbf06805e	-0.5253962
10	0x3efc034a	0.4922126
11	0x3eb75ac6	0.35811442

rnn.bias_hh_l0 f4 [12]
0	0xbe9f9fa3	-0.3117648
1	0xbe95ef5d	-0.29284182
2	0x3d878e3b	0.06618925
3	0x3a6a01b0	0.0008926643
4	0x3e892d32	0.26792294
5	0xbe0194e2	-0.1265445
6	0x3d5ee5b9	0.0544183
7	0x3ec71b1a	0.38887864
8	0x3e6330ed	0.22186632
9	0xbe00ab47	-0.12565337
10	0x3f0987fd	0.53723127
11	0xbefd6b92	-0.49496132

rnn.weight_ih_l1 f4 [12, 4]
0	0x3c85e3f7	0.016344054
1	0x3f16a895	0.58850986
2	0xbf12fba2	-0.5741521
3	0x3ec8cffd	0.39221182
4	0xbe018842	-0.12649634
5	0xbea8e522	-0.32987314
6	0x3b0d59d3	0.0021568432
7	0x3cc67609	0.024226205
8	0x3f0c0b82	0.5470506
9	0x3e6a144b	0.22859304
10	0x3da383e9	0.07984144
11	0x3ed37dae	0.41306823
12	0xbe9a0c60	-0.30087566
13	0xbcfab363	-0.030603116
14	0x3efda9f8	0.49543738
15	0x3d44f28b	0.04808287
16	0xbf0a5b76	-0.5404581
17	0x3f1ee5c6	0.62069356
18	0xbec055e6	-0.37565535
19	0x3dc2f3db	0.09519168
20	0x3dcafea7	0.09911852
21	0xbdffeb4d	-0.12496052
22	0xbeeaf5a3	-0.4589053
23	0xbe982bbe	-0.29720873
24	0x3e802db9	0.25034884
25	0x3ec986b8	0.39360595
26	0xbc3fcf25	-0.011707102
27	0x3e172eab	0.14763896
28	0x3e8a386d	0.26996174
29	0x3ee14d9e	0.4400453
30	0xbe80b8c9	-0.2514098
31	0x3c20e333	0.0098197935
32	0x3e806866	0.2507965
33	0xbf12f839	-0.5741001
34	0x3ef31e3e	0.4748401
35	0xbe77c19f	-0.24194954
36	0x3f1cfea5	0.61326057
37	0x3db1b6b4	0.08677426
38	0x3eeace87	0.45860693
39	0xbeadbd4a	-0.3393348
40	0x3f1c2788	0.6099782
41	0xbe21b592	-0.1579192
42	0x3e8ae742	0.2712956
43	0x3ef631b4	0.48084795
44	0xbe13db32	-0.14439085
45	0x3cb6c6d1	0.0223116
46	0xbe63c961	-0.22244789
47	0x3daecf18	0.08535594

rnn.weight_hh_l1 f4 [12, 4]
0	0x3e864e96	0.2623183
1	0xbead8089	-0.33887127
2	0xbe72a1af	-0.2369449
3	0xbeba4da5	-0.36387363
4	0x3ef98ebc	0.4874171
5	0x3e6cfa72	0.23142412
6	0x3e591140	0.21197987
7	0x3ee3fdbf	0.4452953
8	0x3f00c593	0.50301474
9	0xbe743cd9	-0.23851337
10	0x3c88d131	0.016701313
11	0xbead132b	-0.33803686
12	0x3e8e6e03	0.27818307
13	0x3ec415c9	0.3829787
14	0x3ec0c279	0.3764837
15	0x3d570aa8	0.052500397
16	0xbd0fbed1	-0.035094086
17	0x3d296bd0	0.041362584
18	0x3dd861c1	0.1056552
19	0xbd9704ae	-0.073739395
20	0x3e71da1c	0.23618358
21	0xbed1ee2b	-0.4100202
22	0xbf035aad	-0.51310235
23	0xbdf292e5	-0.11844424
24	0xbe55a19a	-0.20862427
25	0x3ea18942	0.31550032
26	0x3e8b78ce	0.27240604
27	0xbe76d648	-0.2410518
28	0xbe538f8b	-0.20660226
29	0xbb846218	-0.004040014
30	0xbf1b25e7	-0.6060471
31	0xbef077df	-0.46966454
32	0xbc351896	-0.011053225
33	0x3db09478	0.08622068
34	0x3dbd5306	0.09244351
35	0xbe342090	-0.17590547
36	0x3dff41d3	0.12463727
37	0x3e7b77fc	0.24557489
38	0x3e371a22	0.17881063
39	0x3e5d0a17	0.2158588
40	0x3e3570e4	0.17718846
41	0x3e9ff80d	0.31243935
42	0x3e6a6121	0.22888614
43	0xbded2eb8	-0.115811765
44	0xbe723a55	-0.23655064
45	0x3da22f5c	0.07919189
46	0x3edf7850	0.4364648
47	0x3ed69c47	0.41916105

rnn.bias_ih_l1 f4 [12]
0	0xbd6ea476	-0.05826231
1	0x3e8faf3b	0.28063378
2	0xbda9e2cc	-0.08295211
3	0x3ed5ef99	0.4178436
4	0xbee9fcf6	-0.45700806
5	0x3e6dfe12	0.23241451
6	0x3e18b2d0	0.14911962
7	0xbe46ce64	-0.1941467
8	0x3ebf39c1	0.3734875
9	0x3f06b295	0.52616245
10	0x3ef3de7e	0.47630686
11	0x3eae9f94	0.34106123

rnn.bias_hh_l1 f4 [12]
0	0xbed23f7a	-0.41064054
1	0x3d9a8691	0.07545198
2	0x3f19759e	0.59945095
3	0x3ebf7daf	0.37400576
4	0xbf1f427a	-0.6221081
5	0xbeec6300	-0.4616928
6	0x3e7cda72	0.24692705
7	0xbe73f388	-0.23823369
8	0xbe51de12	-0.2049487
9	0x3ef58268	0.47951055
10	0x3e71f268	0.23627627
11	0x3ef4da8b	0.47822985

rnn.weight_ih_l2 f4 [12, 4]
0	0x3f0e7fc3	0.556637
1	0x3ec0f130	0.3768401
2	0x3d3bec1f	0.04587948
3	0x3eb2089e	0.347722
4	0xbbbdead8	-0.005795818
5	0xbee7b341	-0.45253947
6	0x3ec58233	0.38575897
7	0xbdebbd8b	-0.11510762
8	0x3eb7c41d	0.3589181
9	0x3efda8d8	0.4954288
10	0x3e37182b	0.17880313
11	0x3bf08a03	0.007340671
12	0xbc4bde6f	-0.012443169
13	0x3f088861	0.533331
14	0x3dc72405	0.09723667
15	0x3e657367	0.22407304
16	0xbea49341	-0.32143596
17	0x3da0c14e	0.0784937
18	0xbeab3098	-0.33435512
19	0xbe7dda9d	-0.24790426
20	0xbe8f082b	-0.2793592
21	0x3d272d7f	0.040814873
22	0xbdeeaaa0	-0.11653638
23	0xbd831781	-0.064009674
24	0xbe68c7af	-0.22732423
25	0x3e840ece	0.25792545
26	0xbeecef02	-0.46276098
27	0xbd8b9514	-0.06815544
28	0xbf0fb71b	-0.5613877
29	0xbf01745d	-0.5056818
30	0xbece8a5d	-0.40339938
31	0xbf1fdc8f	-0.6244592
32	0xbe9707f2	-0.2949825
33	0xbe203b5b	-0.15647642
34	0xbf07268c	-0.5279319
35	0xbec4f5d5	-0.38468805
36	0xbf01dbf1	-0.5072623
37	0xbeab46a2	-0.33452326
38	0x3dbd52da	0.09244318
39	0xbf08e595	-0.53475314
40	0x3eeff86c	0.46869218
41	0x3f00661d	0.5015581
42	0x3e0f90a7	0.14020024
43	0x3e1f41bb	0.15552418
44	0x3f1d109d	0.61353475
45	0x3e3b7fa1	0.18310405
46	0x3f1ee943	0.6207468
47	0x3c2213a2	0.009892376

rnn.weight_hh_l2 f4 [12, 4]
0	0xbf1b2dab	-0.6061656
1	0x3ed32b92	0.4124418
2	0xbe1af9f7	-0.15134417
3	0x3ea2ce32	0.3179794
4	0x3ed44994	0.41462386
5	0xbd9afc61	-0.07567669
6	0xbe93df72	-0.28881413
7	0x3e304207	0.17212687
8	0x3d8c2515	0.0684301
9	0x3f00073a	0.50011027
10	0xbe492520	-0.19643068
11	0x3c3238e6	0.010877823
12	0xbd0afc67	-0.033932116
13	0xbea86251	-0.3288751
14	0xbe350daf	-0.17681001
15	0xbe43802b	-0.19091861
16	0x3e90aff4	0.28259242
17	0xbf0bba91	-0.5458155
18	0xbf17931b	-0.5920884
19	0xbf1a9c90	-0.60395145
20	0x3dc742a4	0.097295076
21	0x3ec59a77	0.3859441
22	0xbde87358	-0.11350125
23	0xbe83b1a8	-0.25721478
24	0xbe19d771	-0.1502359
25	0x3e8530b8	0.26013732
26	0xbf05ee86	-0.5231708
27	0x3e66f9c9	0.22556223
28	0x3dbc74f1	0.09201992
29	0x3e24f91c	0.16110653
30	0x3e7bab3e	0.24577042
31	0xbee22bca	-0.44174033
32	0x3f0c9e3e	0.5492896
33	0xbe9098f5	-0.28241697
34	0xbf0beb52	-0.54655945
35	0x3d1a5eaa	0.037687935
36	0x3f207e33	0.62692565
37	0xbc1de204	-0.009636406
38	0x3eb4491d	0.3521203
39	0xbdb282ca	-0.08716352
40	0xbcf3e507	-0.029772295
41	0x3e17f009	0.1483766
42	0x3e169ab1	0.14707448
43	0xbdc2bbab	-0.09508451
44	0x3df958e6	0.12175159
45	0x3e30df80	0.17272758
46	0x3ed150ae	0.40881866
47	0x3e25439b	0.1613907

rnn.bias_ih_l2 f4 [12]
0	0xbe864026	-0.26220816
1	0x3de57bac	0.11205229
2	0x3e01c518	0.12672842
3	0xbe543554	-0.20723468
4	0x3884702c	6.315144e-05
5	0x3e564e02	0.20928195
6	0xbea1ea35	-0.31623998
7	0x3e8093d5	0.25112787
8	0x3ec47e0a	0.3837741
9	0x3eaf4a0d	0.34236184
10	0x3ef8f39c	0.4862336
11	0x3c9365c5	0.017992863

rnn.bias_hh_l2 f4 [12]
0	0x3de94ea7	0.11391955
1	0x3eb84249	0.35988072
2	0x3e598a3b	0.21244137
3	0xbe342ae5	-0.17594488
4	0x3ea23665	0.31682125
5	0x3d9443ae	0.072394714
6	0xbe91cddc	-0.2847737
7	0xbe36b8ea	-0.17843977
8	0xbdb58db9	-0.08864922
9	0x3ea28c19	0.3174751
10	0x3f05db5d	0.52287847
11	0x3e1b128a	0.15143791

fc.weight f4 [4, 4]
0	0x3ee06bc9	0.43832234
1	0x3dfe2db9	0.12411065
2	0xbea28815	-0.31744447
3	0xbe2f8885	-0.17141922
4	0xbf020c4a	-0.508
5	0xb98de0eb	-0.00027061193
6	0x3e93558e	0.2877621
7	0x3f0b6a1e	0.54458797
8	0xbec13420	-0.3773508
9	0x3edf728e	0.43642086
10	0x3da0c1cf	0.07849466
11	0x3ee742d6	0.4516818
12	0xbe883a8e	-0.26607174
13	0xbee0a029	-0.43872193
14	0xbda9a917	-0.082842045
15	0x3eb99bf5	0.36251798

fc.bias f4 [4]
0	0x3e475772	0.19466951
1	0xbe057518	-0.13032949
2	0x3ed13d5b	0.40867123
3	0x3e62d697	0.22152172

rnn.weight_ih_l0 f4 [12, 4]
0	0xbe84d344	-0.25942433
1	0xbe1bfeb9	-0.15233888
2	0xbcd7e4ed	-0.026354278
3	0x3e8263e9	0.2546685
4	0xbeb7a73a	-0.3586977
5	0x3e3e004a	0.18554798
6	0xbf138d0f	-0.57637113
7	0x3eee7629	0.46574524
8	0xbeceff61	-0.40429214
9	0x3d86caf2	0.065816775
10	0xbe56c9a7	-0.20975362
11	0x3c8746ef	0.016513316
12	0x3e81916c	0.2530626
13	0x3e97584c	0.29559553
14	0x3b9fbf73	0.0048751174
15	0xbda77278	-0.0817613
16	0x3ea880b1	0.32910684
17	0xbdecd4d6	-0.11564033
18	0xbe21aa7f	-0.15787695
19	0xbe018f8f	-0.1265242
20	0x3de3063d	0.11085174
21	0xbd7c3b3f	-0.06157994
22	0xbe22ccf6	-0.15898499
23	0x3e5f2216	0.21790347
24	0x3ebc3bb8	0.36764312
25	0x3d5b4f90	0.053542674
26	0x3e9ac760	0.30230236
27	0xbdcb3699	-0.09922523
28	0xbefb52e2	-0.49086672
29	0x3d3f4adb	0.046702247
30	0x3e83bfb9	0.2573221
31	0xbe8c0e18	-0.27354503
32	0xbeb2ec8a	-0.3494609
33	0x3e0239ac	0.12717313
34	0x3ee72fc9	0.45153645
35	0x3dcf3ba3	0.10118797
36	0xbd8c876f	-0.068617694
37	0xbee16696	-0.4402358
38	0x3f1317ca	0.57458174
39	0xbe369971	-0.17831971
40	0x3f099ccc	0.5375488
41	0x3e29b948	0.16574585
42	0xbf1f299a	-0.62172854
43	0xbebca7b0	-0.36846685
44	0x3eea5321	0.45766547
45	0x3e59ffe9	0.21289028
46	0xbe87382b	-0.2641004
47	0x3e83fccf	0.25778815

rnn.weight_hh_l0 f4 [12, 4]
0	0x3ede63b4	0.43435442
1	0x3eb3bcb0	0.35104895
2	0x3eac73f2	0.3368221
3	0xbeee621b	-0.46559224
4	0xbee37d0c	-0.4443134
5	0x3eae3b22	0.3402949
6	0xbe8dd86c	-0.2770418
7	0x3ef1dda2	0.47239405
8	0x3d8bb467	0.068215184
9	0x3db3c0f7	0.087770395
10	0x3f04c314	0.51860166
11	0xbe8fd719	-0.28093794
12	0xbea77c5a	-0.3271206
13	0xbef46458	-0.47732806
14	0xbe1d9916	-0.15390429
15	0x3ebc0910	0.36725664
16	0xbf22ea21	-0.636385
17	0x3e95f90a	0.29291564
18	0x3f0918d2	0.535535
19	0xbf1e765a	-0.6189934
20	0x3e6905c7	0.2275611
21	0xbe0cbac4	-0.1374312
22	0xbee486ff	-0.44634244
23	0xbe251951	-0.16122939
24	0x3d8fe182	0.07025434
25	0x3e2f32a6	0.17109165
26	0xbeed7240	-0.46376228
27	0x3eb326c7	0.34990522
28	0xbe9a2c14	-0.30111754
29	0xbe984c1d	-0.2974557
30	0x3eb16cf6	0.34653443
31	0xbe7ece2b	-0.24883334
32	0x3ef70b40	0.4825077
33	0x3effefc8	0.49987626
34	0x3e3a23d4	0.1817773
35	0x3dab371a	0.08360119
36	0x3ed31897	0.41229698
37	0xbd3fda9b	-0.046839338
38	0xbd628db7	-0.05531093
39	0xbecda984	-0.40168393
40	0x3eb059d0	0.34443521
41	0x3ecd273f	0.40069005
42	0xbe921f29	-0.28539398
43	0x3e28a9ea	0.16471067
44	0x3ea38645	0.31938377
45	0x3dc2b12a	0.095064476
46	0xbed503d1	-0.41604474
47	0x3d025cb7	0.0318267

rnn.bias_ih_l0 f4 [12]
0	0xbe73f209	-0.23822798
1	0xbe6821c5	-0.22669132
2	0x3e11b0d8	0.14227617
3	0x3f0a63ac	0.5405834
4	0xbe6ab1b1	-0.22919346
5	0xbccb104c	-0.024788044
6	0x3d33ad0f	0.043866213
7	0xbedee2ee	-0.4353251
8	0x3e992d2b	0.29917273
9	0xbe4d3127	-0.20038281
10	0xbe7ba5bd	-0.24574943
11	0x3eddfb47	0.43355772

rnn.bias_hh_l0 f4 [12]
0	0xbe951f7c	-0.29125583
1	0x3eac98be	0.33710283
2	0xbdf7513b	-0.1207604
3	0xbec30c2b	-0.3809522
4	0xbf2a1551	-0.66438776
5	0xbe00ea02	-0.12589267
6	0xbede3dbd	-0.43406478
7	0xbee6454c	-0.44974744
8	0x3d2a2945	0.041543264
9	0xbea730b9	-0.3265436
10	0xbd95ccf4	-0.07314482
11	0x3f016596	0.5054563

rnn.weight_ih_l1 f4 [12, 4]
0	0x3f148be8	0.5802598
1	0x3dd180a7	0.102296166
2	0xbe416cc2	-0.18889144
3	0x3eabd297	0.33559105
4	0xbcf50392	-0.029908929
5	0xbe0d078a	-0.13772407
6	0xbee358af	-0.44403598
7	0x3e00f403	0.12593083
8	0xbe152f77	-0.14568888
9	0xbe229563	-0.15877299
10	0x3ec752ac	0.3893026
11	0x3eed34ac	0.46329248
12	0xbea07527	-0.3133938
13	0x3f07042f	0.5274076
14	0xbe952a51	-0.29133847
15	0x3d503c38	0.05083868
16	0xbf24a823	-0.64319056
17	0x3ef9d48e	0.4879498
18	0x3eddc2a5	0.43312564
19	0xbc8fd3ba	-0.017557014
20	0xbdd0f0dd	-0.10202191
21	0xbcdb5890	-0.026775628
22	0x3d5658a1	0.052330617
23	0x3ee7d68a	0.45280868
24	0xbd86444c	-0.06555995
25	0xbea78a4b	-0.32722697
26	0x3f2584c8	0.64655733
27	0xbf1a3a20	-0.6024494
28	0xbf09ae1e	-0.53781307
29	0xbd9548b0	-0.07289255
30	0xbea5c96e	-0.3238024
31	0xbe7bda5e	-0.24595019
32	0xbf158628	-0.5840783
33	0xbf10aefc	-0.56517005
34	0x3ef15f7a	0.47143155
35	0x3edb108c	0.42786062
36	0xbf1a66bb	-0.60313004
37	0x3e666a3b	0.22501461
38	0xbdac925d	-0.08426354
39	0x3ea448b2	0.32086712
40	0x3e2ecd6a	0.17070547
41	0x3e7bf76b	0.24606101
42	0xbf14d969	-0.5814424
43	0x3e9a1f48	0.3010199
44	0x3e59398d	0.2121336
45	0x3dcfdb64	0.10149267
46	0xbe50022d	-0.2031333
47	0x3ee879f5	0.45405546

rnn.weight_hh_l1 f4 [12, 4]
0	0xbe6f505f	-0.23370503
1	0xbcdd9403	-0.027048117
2	0xbe9940e2	-0.29932314
3	0x3ee0cd42	0.439066
4	0x3e8327da	0.25616342
5	0xbea7e8b8	-0.32794738
6	0xbeba962b	-0.36442694
7	0x3da80b1e	0.082052454
8	0x3eef6f50	0.46764612
9	0x3e363cb9	0.17796601
10	0xbebe592f	-0.37177417
11	0x3ccae041	0.024765136
12	0x3e8e3ba0	0.27779865
13	0xbc67ce60	-0.014148325
14	0xbeb9bade	-0.3627538
15	0x3dcee9e5	0.101032056
16	0x3eb86a2b	0.360185
17	0xbef57609	-0.47941616
18	0x3e39bd15	0.18138535
19	0x3ef8e301	0.4861069
20	0x3e3d4af6	0.18485627
21	0x3e2e352b	0.1701247
22	0x3e0b6204	0.13611609
23	0x3d4c735e	0.04991471
24	0x3eaeda57	0.34150955
25	0x3ed7b54f	0.42130515
26	0xbf0565ac	-0.52108264
27	0xbda9e41c	-0.082954615
28	0xbe642905	-0.22281273
29	0x3ec999f6	0.39375275
30	0x3e8b2667	0.27177736
31	0x3eabda4e	0.3356499
32	0x3ea798fe	0.3273391
33	0x3ea42cfa	0.32065564
34	0xbd877135	-0.066133894
35	0xbe38abc2	-0.1803427
36	0x3d7bd4c3	0.061482202
37	0x3c862d8e	0.016379144
38	0xbe8deb57	-0.27718613
39	0xbe7fc17d	-0.24976154
40	0xbe98a2e9	-0.2981179
41	0x3ecc66dc	0.39922225
42	0xbedec1eb	-0.43507323
43	0xbf045ca3	-0.5170385
44	0x3d651186	0.055924915
45	0x3dbe89d2	0.09303631
46	0xbcc3c247	-0.02389635
47	0x3eb198af	0.346868

rnn.bias_ih_l1 f4 [12]
0	0x3eb321b3	0.34986648
1	0x3ea08129	0.3134854
2	0x3e59dd3c	0.212758
3	0x3e17c39b	0.14820711
4	0x3e76ef8c	0.24114817
5	0x3e6f59f9	0.23374166
6	0xbe5ff53c	-0.21870893
7	0x3ea68038	0.32519698
8	0x3dfbd6c5	0.122968234
9	0xbce6996d	-0.028149331
10	0x3e8a5f13	0.2702566
11	0x3de81d7e	0.1133375

rnn.bias_hh_l1 f4 [12]
0	0xbe7e37c9	-0.24825968
1	0xbe971ebd	-0.2951564
2	0xbe51cadb	-0.2048754
3	0xbd4692f5	-0.048479993
4	0xbe65076d	-0.22366114
5	0x3eafe688	0.3435557
6	0x39d71004	0.00041019928
7	0x3ea1ab2e	0.31575912
8	0xbe40ddf6	-0.18834671
9	0xbec0f6d2	-0.3768831
10	0x3e960506	0.29300708
11	0x3eb753ab	0.3580602

rnn.weight_ih_l2 f4 [12, 4]
0	0xbd83b4a5	-0.064309396
1	0x3e8ba726	0.27275962
2	0xbea0ae33	-0.31382903
3	0xbecd90a6	-0.4014942
4	0xbce612c1	-0.028085114
5	0x3eca1402	0.3946839
6	0xbdbd4c1c	-0.09243032
7	0x3f030158	0.51173925
8	0x3f1c0ad6	0.60954034
9	0xbecdcd31	-0.4019561
10	0xbe23c75f	-0.15994023
11	0x3e7751c7	0.2415229
12	0xbe7810d2	-0.24225166
13	0xbe3a0800	-0.18167114
14	0x3f1ec655	0.6202138
15	0x3e73c532	0.23805693
16	0x3f0f2afd	0.5592497
17	0x3f1e418f	0.61818784
18	0xbf0316b8	-0.5120654
19	0x3e0c7abb	0.13718693
20	0x3e04b7e1	0.12960769
21	0x3eb4c903	0.3530961
22	0xbf03c10d	-0.5146645
23	0xba50678e	-0.0007950001
24	0xbe73591c	-0.23764461
25	0x3eef8588	0.46781564
26	0xbf071627	-0.52768177
27	0x3d88beb8	0.06677002
28	0x3d299d72	0.041409917
29	0x3d97ca08	0.07411581
30	0x3f0dd49e	0.55402553
31	0x3eea5ab7	0.45772335
32	0xbe819152	-0.25306183
33	0xbd882f3c	-0.06649634
34	0x3ec1f9f6	0.37886018
35	0x3eaed037	0.3414323
36	0xbf350e3f	-0.7072486
37	0x3d8e0ec3	0.06936409
38	0x3e9bdf78	0.3044393
39	0x3e6196dd	0.22030206
40	0x3f1cfc19	0.6132217
41	0x3ef1372e	0.4711241
42	0xbe5f272b	-0.21792285
43	0xbecea9d0	-0.40363932
44	0xbd3ca31a	-0.046053983
45	0xbb5d73f0	-0.0033791028
46	0x3dce7355	0.100805916
47	0xbdb90199	-0.09033508

rnn.weight_hh_l2 f4 [12, 4]
0	0xbc09c4ba	-0.00840872
1	0xbe003239	-0.12519158
2	0xbe44f2bd	-0.19233222
3	0xbed210d8	-0.41028476
4	0x3f109e25	0.5649131
5	0xbe5268ee	-0.2054784
6	0x3e8e94e8	0.2784798
7	0xbe122f2f	-0.14275812
8	0xbdb37edc	-0.08764431
9	0x3de54fa4	0.11196831
10	0x3b4434cf	0.0029938703
11	0x3ee6a171	0.45045045
12	0x3c5e5478	0.013569944
13	0x3f1e9407	0.6194462
14	0xbe3a0d97	-0.18169247
15	0x3eccee7d	0.40025702
16	0xbf16d87b	-0.58924073
17	0xbd12821b	-0.03576861
18	0xbe73abb9	-0.23795976
19	0xbf10ea74	-0.5660775
20	0xbf2ad319	-0.6672836
21	0xbc22e8ea	-0.009943226
22	0xbd512b1f	-0.051066514
23	0xbeb18357	-0.34670517
24	0xbe6b03aa	-0.22950616
25	0xbe1d30cf	-0.1535065
26	0x3e01ac6b	0.12663428
27	0xbe1e790b	-0.15475862
28	0xbefcab86	-0.49349612
29	0xbf1b2b98	-0.60613394
30	0xbde6fcff	-0.11278724
31	0x3d1b0732	0.03784866
32	0xbd8c8dcd	-0.06862984
33	0xbd66d737	-0.05635759
34	0x3db73a3c	0.08946654
35	0xbeabfa92	-0.33589607
36	0x3e45f6d6	0.19332442
37	0x3eb3d919	0.3512657
38	0x3d2b2347	0.04178169
39	0xbdbea699	-0.0930912
40	0x3eb08a53	0.34480533
41	0xbcd86658	-0.026415989
42	0xbc6f9bc9	-0.014624544
43	0x3ed65ad7	0.4186618
44	0xbeba7320	-0.36415958
45	0xbec50fd9	-0.38488653
46	0x3f00c18a	0.5029532
47	0xbe2e6f90	-0.17034745

rnn.bias_ih_l2 f4 [12]
0	0xbe6bf925	-0.2304426
1	0xbe55f261	-0.20893241
2	0x3eb4802f	0.35254046
3	0x3e9b0808	0.30279565
4	0xbf105f1c	-0.56395125
5	0xbf17984d	-0.5921677
6	0x3e99ac32	0.30014187
7	0xbdda4d78	-0.10659307
8	0x3eb20065	0.34765926
9	0xbde20e1f	-0.1103785
10	0x3d5ca26b	0.05386583
11	0x3ec868c9	0.39142445

rnn.bias_hh_l2 f4 [12]
0	0xbe2ada4d	-0.16684838
1	0xbe724ce6	-0.23662147
2	0xbea501dd	-0.32227984
3	0xbeab8dce	-0.33506626
4	0xbb57549a	-0.0032856823
5	0xbb9c9970	-0.0047790334
6	0xbf08668e	-0.53281486
7	0x3ed2d3c4	0.4117719
8	0x3eadb6b3	0.3392845
9	0xbd526200	-0.05136299
10	0x3deb3132	0.11483993
11	0xbc5d86e4	-0.01352093

fc.weight f4 [1, 4]
0	0xbf0bc877	-0.5460276
1	0xbef11cf4	-0.47092402
2	0x3ed041f9	0.40675333
3	0x3eed149d	0.4630479

exp_avg f4 [12, 5]
0	0xb802a86b	-3.1151267e-05
1	0x38a97593	8.080448e-05
2	0x384026b9	4.581243e-05
3	0xb73aa24f	-1.1124254e-05
4	0xb7b36bea	-2.1388714e-05
5	0x39dfee2e	0.00042711332
6	0x3a133fb5	0.0005617098
7	0xb9015837	-0.00012335261
8	0xba3193fa	-0.00067740644
9	0xb6938d20	-4.3973705e-06
10	0x3828ef8d	4.027742e-05
11	0x37c31325	2.3254726e-05
12	0xb819069c	-3.6484198e-05
13	0xb8a2e5b9	-7.767551e-05
14	0xb801d09d	-3.0950283e-05
15	0x378ffa27	1.7163415e-05
16	0xb8aaf76e	-8.152319e-05
17	0xb8ad572d	-8.2655206e-05
18	0xb8df5e6f	-0.00010651058
19	0xb821ebaa	-3.860487e-05
20	0x36a1c99d	4.821645e-06
21	0x3650d0ea	3.111602e-06
22	0x369ae677	4.6163873e-06
23	0x36f1e2fe	7.208785e-06
24	0xb5127e7a	-5.4573286e-07
25	0x36da94dc	6.514236e-06
26	0x36c23ef0	5.7889774e-06
27	0x36ee0ed5	7.0946794e-06
28	0x3698010a	4.530074e-06
29	0x36f3931f	7.2590915e-06
30	0x3736c0c1	1.0892924e-05
31	0x36e8e35f	6.9406083e-06
32	0x36df8adc	6.6620833e-06
33	0x3704a050	7.905139e-06
34	0x3735117d	1.07925125e-05
35	0x363ba7fa	2.7962947e-06
36	0x3788324a	1.6235881e-05
37	0x378cdac1	1.6791166e-05
38	0x36e6bff1	6.876879e-06
39	0x36a77d19	4.991551e-06
40	0xb999c744	-0.00029330899
41	0xba9c5bf2	-0.0011929257
42	0xba3dc638	-0.0007239315
43	0x3a7e9f13	0.0009713035
44	0x3a35b62e	0.0006931749
45	0xba5a905f	-0.0008337553
46	0xbafde251	-0.0019369816
47	0xba042c2e	-0.00050419837
48	0x3b29322f	0.0025817265
49	0x3a470b13	0.0007592898
50	0x3a05224c	0.0005078658
51	0x39aa5e9b	0.00032495413
52	0xb912fad5	-0.00014017087
53	0xba269ec4	-0.00063560554
54	0xb9b07425	-0.0003365587
55	0xba7ad2c0	-0.00095681474
56	0x3b1a9108	0.002358498
57	0x3a8c93f7	0.0010725249
58	0x3a7345d4	0.00092801196
59	0x3898af9f	7.280637e-05
