Checkpoints/e200_stocks.pth (torch, 527370 bytes, 153 tensors)

rnn.weight_ih_l0 f4 [72, 6]
0	0xbded4ae7	-0.11586552
1	0x3d10ac5a	0.035320617
2	0xbd963e1d	-0.07336066
3	0xbdb0c03f	-0.08630418
4	0x3d82be5b	0.06383964
5	0x3dcdb3a0	0.100440264
6	0xbe5cdcd7	-0.21568619
7	0x3cdc7fcd	0.026916409
8	0xbe840212	-0.2578283
9	0xbe3ebe98	-0.18627393
10	0xbde21eb2	-0.11041011
11	0x3eb69f4a	0.35668403
12	0x3d4f57fd	0.05062102
13	0xbe274bfa	-0.16337577
14	0x3cba0673	0.022708153
15	0xbc727836	-0.014799168
16	0x3b78e681	0.0037979188
17	0xbea6ad68	-0.32554173
18	0x3dc72e09	0.097255774
19	0xbe1991f8	-0.14997089
20	0xbdc09c7c	-0.09404847
21	0x3d19f5d5	0.03758796
22	0x3d9cf152	0.07663216
23	0x3e002044	0.12512308
24	0x3e46ec57	0.19426094
25	0x3ed023e5	0.40652385
26	0x3e754908	0.2395364
27	0x3d8c8313	0.06860938
28	0x3dddd5cb	0.108317934
29	0x3fcf7a84	1.6209264
30	0x3b986036	0.004650141
31	0xbdc3c88b	-0.09559735
32	0xbd2afe2a	-0.041746296
33	0xbe4ec627	-0.20192777
34	0xbe4dd86d	-0.20102091
35	0x3d1cc549	0.038274083
36	0xbe439f99	-0.1910385
37	0x3e265bca	0.16245952
38	0xbe52473a	-0.20534983
39	0xbe3b97b3	-0.18319587
40	0xbe478e7d	-0.19487949
41	0x3eb2cf43	0.34923753
42	0xbbef0d09	-0.007295255
43	0xbbe94fd7	-0.0071201134
44	0xbe02fae8	-0.12791026
45	0x3cdfb9a8	0.027310207
46	0xbdd170a0	-0.1022656
47	0x3b3323ea	0.002733464
48	0x3d3875c5	0.04503419
49	0xbe76835b	-0.24073546
50	0xbe871277	-0.26381275
51	0x3de9a126	0.1140769
52	0xbe270423	-0.16310172
53	0x3e011f32	0.12609556
54	0x3e0a75e4	0.13521534
55	0x3de8a12f	0.11358868
56	0x3dffff49	0.12499864
57	0x3e55614a	0.20837894
58	0xbd2cab55	-0.042155582
59	0xbe99aeac	-0.30016077
60	0xbcb1ef23	-0.021720475
61	0xbe387cb7	-0.18016325
62	0x3df23300	0.11826134
63	0x3d048364	0.032351866
64	0xbe799203	-0.24372105
65	0x3dd25383	0.10269835
66	0x3c68a735	0.0142000215
67	0xbdd14555	-0.10218302
68	0x3e25dbc0	0.16197109
69	0xbe0fc689	-0.14040579
70	0x3d0b5a64	0.03402175
71	0x3ed349ed	0.41267338
72	0x3e261974	0.16220647
73	0x3e11eb53	0.14249925
74	0xbe2e282e	-0.17007515
75	0x3e1935f3	0.14961986
76	0x3d8fc569	0.07020075
77	0xbeb1bab2	-0.3471275
78	0x3c32d048	0.010913916
79	0x3d6a7c9c	0.057247743
80	0x3dbbf805	0.09178165
81	0x3db733d0	0.08945429
82	0xbe23dc50	-0.16002011
83	0xbf16a751	-0.58849055
84	0x3e92184b	0.2853416
85	0x3e88be70	0.26707792
86	0xbcb6cbc1	-0.022313954
87	0xbcb69ee2	-0.022292558
88	0xbdf0c0d2	-0.117555276
89	0x3dd7783e	0.10520981
90	0xbe1ae467	-0.15126191
91	0x3e1efc7a	0.15526
92	0xbe335d6c	-0.17516106
93	0xbe52de80	-0.2059269
94	0x3e21d6fc	0.15804666
95	0x3e914b6c	0.28377855
96	0xbd871bc3	-0.06597092
97	0x3e5d4329	0.21607651
98	0x3e830451	0.2558923
99	0x3d0b6b1a	0.034037687
100	0x3e170f85	0.14752014
101	0x3d894655	0.06702868
102	0xbeb52f09	-0.35387447
103	0xbd27523b	-0.040849905
104	0xbec17aa3	-0.37788877
105	0xbe44b377	-0.19209085
106	0xbea939e8	-0.3305199
107	0xbf0b6bf0	-0.54461575
108	0x3d6b19c8	0.057397634
109	0x3e07e96e	0.1327264
110	0x3d45ef09	0.048323665
111	0xbd6af1ad	-0.057359386
112	0x3cb18713	0.021670854
113	0xbf1dd531	-0.6165343
114	0x3cbefa8f	0.023312835
115	0xbd874fd7	-0.06607025
116	0xbe1eb361	-0.15498115
117	0xbe18478a	-0.1487104
118	0xbb307f63	-0.0026931397
119	0xbdc905e0	-0.09815574
120	0xbe59deb4	-0.21276361
121	0xbe05367e	-0.13009068
122	0x3cd5af8e	0.026084688
123	0x3c8f3080	0.017479181
124	0xbc5de2e8	-0.013542868
125	0xbe3fb72a	-0.18722215
126	0x3e637acd	0.22214814
127	0x3e605362	0.21906808
128	0x3d064107	0.03277686
129	0x3e39dd49	0.1815082
130	0x3e28edd1	0.1649697
131	0xbe88c4f3	-0.2671276
132	0xbe456a4a	-0.19278827
133	0xbc5819bd	-0.01318973
134	0xbe06d791	-0.1316817
135	0xbd6a7cca	-0.057247914
136	0xbe854aaf	-0.26033542
137	0xbe215229	-0.15753998
138	0xbcb90676	-0.022586089
139	0x3da98300	0.082769394
140	0xbd43ce40	-0.047804117
141	0xbe424444	-0.18971354
142	0xbe340492	-0.17579868
143	0x3ea5ae4b	0.32359537
144	0xbeea3b8f	-0.45748565
145	0xbf157295	-0.58377963
146	0xbe9db463	-0.30801687
147	0xbe8ded03	-0.27719888
148	0xbeb781cc	-0.35841215
149	0xbf57aff7	-0.84252876
150	0xbdb135a6	-0.08652811
151	0x3c87d81e	0.016582545
152	0xbe3e430e	-0.18580267
153	0xbe57d596	-0.2107757
154	0xbd6948cf	-0.0569542
155	0x3f47bbe0	0.7802105
156	0xbe59c620	-0.21266985
157	0xbead0475	-0.33792463
158	0xbea0c2a9	-0.31398514
159	0xbd4f5803	-0.050621044
160	0xbec7a6db	-0.38994488
161	0xbfc9cc5c	-1.576549
162	0x3d1b67d8	0.03794083
163	0xbc8010a4	-0.015632935
164	0xbebaed5a	-0.3650921
165	0xbeb05242	-0.34437758
166	0xbe1732f8	-0.14765537
167	0x3e5dd233	0.21662216
168	0xbf282335	-0.6567872
169	0xbeaab5b6	-0.3334176
170	0xbf06b6c3	-0.5262262
171	0xbf018443	-0.5059244
172	0xbe9c8163	-0.30567464
173	0xbf996167	-1.198285
174	0x3b850429	0.004059334
175	0x3cf51201	0.029915811
176	0xbe0ed719	-0.1394924
177	0xbe469338	-0.19392097
178	0xbe6eedb4	-0.23332864
179	0x3f1ff07e	0.62476337
180	0xbd5a7aba	-0.053339697
181	0xbdcbb40f	-0.09946453
182	0xbd517b6c	-0.051143095
183	0xbdaa0ff1	-0.08303822
184	0xbb9ed114	-0.0048467014
185	0xbd913682	-0.07090475
186	0xbd829167	-0.063753895
187	0xbd3ace28	-0.045606762
188	0xbe55e9a6	-0.20889911
189	0xbc7161a3	-0.014732751
190	0xbe3caa43	-0.18424325
191	0xbe92f67d	-0.2870368
192	0x3d8fa300	0.07013512
193	0xbd5b9727	-0.053610947
194	0xbda93668	-0.0826233
195	0xbb9849ae	-0.004647455
196	0xbe3b6239	-0.18299188
197	0x3f59c447	0.8506512
198	0xbf42bebc	-0.7607229
199	0xbf8ae20c	-1.0850234
200	0xbf38c55f	-0.72176164
201	0xbf715a71	-0.9427863
202	0xbf5cfe3b	-0.86325425
203	0xbfbffec7	-1.4999627
204	0xbeae08a1	-0.33990958
205	0xbc48858b	-0.01223887
206	0xbe996dbe	-0.2996654
207	0x3c26f7f3	0.010190952
208	0xbea0b5f0	-0.31388807
209	0xbf20cfcc	-0.6281707
210	0xbe29101b	-0.1651005
211	0xbe3ac872	-0.18240526
212	0xbe1ab100	-0.15106583
213	0xbec7be53	-0.39012393
214	0xbe867415	-0.2626044
215	0xbf65e878	-0.89807844
216	0xbe63ac2e	-0.2223365
217	0xbe8ea832	-0.27862698
218	0xbe54cffd	-0.20782466
219	0xbed6b2a7	-0.41933176
220	0xbe0bb5e9	-0.13643612
221	0xbf77ccb1	-0.9679671
222	0xbe8c8170	-0.27442503
223	0xbef863d3	-0.4851366
224	0xbebc6ae3	-0.36800298
225	0xbecc1664	-0.39860833
226	0xbe7a77fc	-0.24459833
227	0xbf8931bc	-1.0718303
228	0xbe5be7fe	-0.21475217
229	0xbe3034d2	-0.1720765
230	0xbe99247a	-0.29910642
231	0xbe361fbd	-0.17785545
232	0xbe608adb	-0.21927969
233	0xbf6bdd97	-0.92134994
234	0xbe3b5e69	-0.18297733
235	0xbea50aeb	-0.32234892
236	0xbe085dbf	-0.13317011
237	0xbdc152aa	-0.09439595
238	0xbe83a3d1	-0.2571092
239	0x3e697ea6	0.22802219
240	0xbf5cfcd8	-0.8632331
241	0xbf5a6be7	-0.85320896
242	0xbf730744	-0.9493296
243	0xbf7d739b	-0.99004525
244	0xbf302c26	-0.68817365
245	0xbfd0b8ff	-1.6306456
246	0xbf3785c5	-0.7168849
247	0xbf2cb8db	-0.6746957
248	0xbf0c4ede	-0.5480784
249	0xbf0dcb4a	-0.5538832
250	0xbf1e20bd	-0.61768705
251	0xbfb8dd00	-1.4442444
252	0xbea6314d	-0.3245949
253	0xbedc99b6	-0.43086022
254	0xbee9acd6	-0.45639676
255	0xbec80ffb	-0.39074692

rnn.weight_hh_l0 f4 [72, 24]
0	0x3e71bd76	0.2360743
1	0x3d3a26cd	0.04544716
2	0x3c6a46f4	0.014299143
3	0xbca66e48	-0.020316258
4	0xbd5c4224	-0.053774014
5	0x3d9cb4d0	0.07651675
6	0x3d2665e4	0.040624514
7	0xbe239785	-0.15975769
8	0x3cd16d9c	0.025564961
9	0xbd4fb477	-0.050709214
10	0xbe1943c1	-0.14967252
11	0xbe6c680c	-0.23086566
12	0x3e1c9d20	0.15294313
13	0xbe15608b	-0.1458761
14	0xbda837e2	-0.08213784
15	0xbd691aa5	-0.056910176
16	0xbdd6833c	-0.1047425
17	0xbbb630ea	-0.00556003
18	0xbe42b045	-0.19012554
19	0xbe8862df	-0.26637933
20	0xbe41a646	-0.18911085
21	0x3d472678	0.04862067
22	0xbc88201e	-0.016616877
23	0x3ce3fc8a	0.027830381
24	0x3d09cd0a	0.033642806
25	0x3d6e34fe	0.058156006
26	0xbd99f97d	-0.07518289
27	0x3c1fbd90	0.009749785
28	0xbdb64742	-0.0890031
29	0xbe0b8a34	-0.13626939
30	0x3c37540d	0.011189473
31	0x3df3d4ab	0.119057976
32	0x3e191f40	0.14953327
33	0x3d1a5af5	0.0376844
34	0xbe586f6a	-0.21136251
35	0xbe5956a2	-0.21224454
36	0xbc6bd63a	-0.014394337
37	0x3e626660	0.22109365
38	0x3e2f3559	0.17110194
39	0xbad7134b	-0.0016408948
40	0xbca8f483	-0.020624405
41	0xbe39b72a	-0.18136278
42	0xbdf4e78c	-0.119582266
43	0xbdbfde34	-0.09368554
44	0x3e59b728	0.21261275
45	0xbde91c8f	-0.113824
46	0xbe12a5d6	-0.14321074
47	0xbdd1e739	-0.1024918
48	0x3ee7f251	0.4530206
49	0x3e2df285	0.16987045
50	0x3df30645	0.1186643
51	0xbe8215b0	-0.2540717
52	0xbe667cf6	-0.22508606
53	0x3ea008f8	0.31256843
54	0x3d869a6c	0.065724224
55	0xbe233674	-0.15938741
56	0x3cc22134	0.023697473
57	0x3e7e31e7	0.24823724
58	0x3cbf78f5	0.023373106
59	0x3d9170fe	0.0710163
60	0x3d1991ab	0.037492435
61	0x3d6bee76	0.05760046
62	0x3db7f5cf	0.08982431
63	0x3cc2dcf0	0.023786992
64	0x3d572ace	0.052531056
65	0x3e86171a	0.261895
66	0xbd5c6613	-0.053808283
67	0xbdade5e1	-0.084911115
68	0xbee2dc33	-0.44308624
69	0x3ebb09dd	0.36530963
70	0xbe1a42a4	-0.15064484
71	0xbe801525	-0.25016132
72	0x3e78b83e	0.24289033
73	0xbd2f3256	-0.042772613
74	0xbe0b6978	-0.13614452
75	0xbe209f3d	-0.15685745
76	0xbe396c9a	-0.18107834
77	0x3e674af1	0.22587182
78	0x3e34fe44	0.1767512
79	0xbe9cd86c	-0.30633867
80	0xbc7aa43b	-0.015297945
81	0xbded9ab4	-0.11601773
82	0xbe9dd4d5	-0.3082644
83	0xbe23d252	-0.159982
84	0x3e37e15a	0.17957059
85	0xbd2c9eba	-0.04214356
86	0x3c9cbacb	0.019132039
87	0xbdd293d3	-0.102821015
88	0xbe37f21f	-0.17963456
89	0xbe2745d0	-0.16335225
90	0xbe2881f0	-0.16455817
91	0x3d86fab2	0.06590785
92	0xbe675ab7	-0.22593199
93	0x3e27bade	0.16379878
94	0x3dbeef18	0.09322947
95	0xbdeb4427	-0.114876084
96	0x3da3dd67	0.080012135
97	0x3e06e721	0.13174106
98	0xbd2583fe	-0.04040908
99	0xbd393aeb	-0.045222204
100	0xbd1fe27e	-0.03903436
101	0xbd84a849	-0.0647741
102	0xbe19daea	-0.15024915
103	0xbebfe80f	-0.37481734
104	0x3dd8d4ca	0.10587461
105	0x3d999b4e	0.07500325
106	0x3d883902	0.066514984
107	0xbda8a355	-0.08234278
108	0xbe6f99c8	-0.23398507
109	0x3e8c1a64	0.27363884
110	0x3e52d884	0.20590407
111	0x3d56fba1	0.052486066
112	0x3e59e36a	0.21278158
113	0x3ddaf497	0.10691183
114	0xbdef5792	-0.116866246
115	0xbda90c1d	-0.082542636
116	0xbec4ee68	-0.3846314
117	0xbe08d377	-0.13361917
118	0xbed48271	-0.4150577
119	0xbdeadbc1	-0.11467696
120	0x3d4ee055	0.05050691
121	0xbdbc4277	-0.09192365
122	0xbc8194c6	-0.015818011
123	0xbdeab2ac	-0.1145986
124	0xbcc0e311	-0.023545774
125	0x3e5d31d0	0.21601033
126	0x3e3d56e5	0.18490179
127	0xbda6762a	-0.08128007
128	0x3deddad9	0.116140075
129	0xbe148f19	-0.14507712
130	0xbe2c0e70	-0.16802382
131	0xbe0b1987	-0.13583957
132	0xbc1631f4	-0.009167183
133	0xbd292e7e	-0.041304104
134	0x3dc1c27f	0.09460925
135	0x3d9ba413	0.07599654
136	0xbe37fb46	-0.17966947
137	0xbe1ed004	-0.15509039
138	0xbdf54799	-0.11976547
139	0x3ded5164	0.1158779
140	0xbde4bf04	-0.11169246
141	0xbdcc8491	-0.099862225
142	0xbe20577c	-0.15658373
143	0x3e26b540	0.16280079
144	0x3e39c5a6	0.18141803
145	0xbddbc76d	-0.10731397
146	0xbd95d166	-0.0731533
147	0xbde7f114	-0.11325279
148	0xbd93092c	-0.07179484
149	0x3cdd1ba1	0.026990714
150	0x3e62f054	0.2216199
151	0xbd9f4d96	-0.0777847
152	0x3e97035e	0.29494756
153	0xbe1b53ff	-0.1516876
154	0x3d60df79	0.05490062
155	0xbe70de73	-0.23522358
156	0xbd911ea9	-0.07085926
157	0x3d529f3f	0.0514214
158	0xbdd8a0d9	-0.10577554
159	0xbea27d59	-0.31736258
160	0xbd7d4918	-0.061837286
161	0xbe2e98f9	-0.17050542
162	0xbe15bfaf	-0.14623903
163	0xbe49bec0	-0.19701672
164	0xbe85f9a7	-0.26167032
165	0x3b77f796	0.0037836782
166	0xbe578c38	-0.21049583
167	0xbe90b852	-0.28265625
168	0xbda5b1e5	-0.08090571
169	0xbd9d76bc	-0.076886624
170	0xbe27b175	-0.16376288
171	0xbde457c8	-0.111495554
172	0xbe136de5	-0.1439739
173	0x3e06f240	0.13178349
174	0x3e09d2ad	0.13459273
175	0x3dba6f1d	0.091032244
176	0x3e0889a9	0.13333763
177	0xbe72ba4f	-0.23703884
178	0x3e072154	0.13196307
179	0xbe22f2bc	-0.15912908
180	0x3e6055d5	0.21907742
181	0x3db57847	0.08860832
182	0xbcf5b19a	-0.029991914
183	0x3c8791ef	0.016549079
184	0x3d887b8c	0.0666419
185	0xbe0db5ea	-0.13838926
186	0x3d8d7d86	0.06908707
187	0xbe0b18d5	-0.13583691
188	0xbdaed2ab	-0.085362755
189	0x3d14e792	0.036353655
190	0x3cba53b0	0.022744983
191	0x3dfcdf86	0.12347321
192	0xbdc9ef97	-0.09860151
193	0xbd74eaaa	-0.059794106
194	0x3d55a483	0.052158844
195	0xbe52a5b7	-0.20571028
196	0x3e22d88f	0.15902923
197	0x3e5f1e43	0.21788888
198	0xbd35c3e9	-0.044376288
199	0xbe702aa2	-0.23453763
200	0x3e4cc82a	0.19998232
201	0x3dae98ff	0.085252754
202	0x3dad4edb	0.08462306
203	0xbe4582ce	-0.1928818
204	0x3e5724b7	0.210101
205	0x3c7e21df	0.015511005
206	0xbc99ab24	-0.018758364
207	0xbe92d760	-0.28679943
208	0x3e074568	0.1321007
209	0xbcecc562	-0.028902713
210	0xbda0efbc	-0.07858226
211	0x3dd8fe1b	0.10595342
212	0xbdba71bc	-0.09103724
213	0x3dc7fc07	0.09764867
214	0x3d902e1c	0.07040045
215	0xbe35ecc6	-0.17766103
216	0x3d5c0c22	0.05372251
217	0xbe12272f	-0.1427276
218	0xbe8ba911	-0.27277425
219	0x3db42bd8	0.08797425
220	0x3ef2afc8	0.47399735
221	0x3dc1ea83	0.09468558
222	0x3dc02273	0.09381571
223	0x3e861f2a	0.2619565
224	0x3e10a5cb	0.14125745
225	0x3e17c8a9	0.1482264
226	0x3dbf97f3	0.09355154
227	0x3d2ba201	0.041902546
228	0xbdefd56d	-0.117106296
229	0xbe8eb4dc	-0.2787236
230	0xbe16b73b	-0.14718334
231	0xbdcc329e	-0.09970592
232	0x3e109afa	0.14121619
233	0xbc1a71f6	-0.0094265845
234	0x3e4ea5ad	0.20180388
235	0x3e434d37	0.19072424
236	0x3e1520e7	0.14563332
237	0x3e5c2639	0.21498956
238	0x3cfbcd8b	0.030737659
239	0x3e1f3e7c	0.1555118
240	0x3d11d43b	0.03560279
241	0xbd8d73f2	-0.069068804
242	0xbe180303	-0.14844899
243	0x3e702e6e	0.23455212
244	0xbdb00ce0	-0.08596206
245	0xbbeb2573	-0.007176095
246	0xbe899889	-0.26874188
247	0x3d87920e	0.066196546
248	0xbdf8bd44	-0.121454746
249	0x3e305b2c	0.1722228
250	0x3eb5f341	0.3553715
251	0x3e9e09ef	0.30866954
252	0x3d317cdb	0.043331962
253	0xbd0b69eb	-0.034036558
254	0xbec1e7dc	-0.37872207
255	0x3bb8f47c	0.005644379

rnn.bias_ih_l0 f4 [72]
0	0xbe853531	-0.26017144
1	0x3e808d7d	0.25107947
2	0xbd887d57	-0.06664532
3	0x3bceb482	0.0063081393
4	0xbd2a361f	-0.04155552
5	0x3e1619bc	0.14658254
6	0xbe218731	-0.15774228
7	0x3e200378	0.15626323
8	0xbdc43fc0	-0.09582472
9	0x3e0ea91a	0.13931695
10	0x3d7e6df8	0.062116593
11	0xbdef6e99	-0.11691017
12	0x3e913937	0.28363964
13	0x3d3ecfce	0.046584897
14	0xbe5cd8ba	-0.2156705
15	0x3e107b4c	0.14109534
16	0x3e82f4d4	0.25577414
17	0xbdc7be9b	-0.09753152
18	0xbcc9dc2d	-0.02464112
19	0x3e431b0b	0.19053285
20	0xbc8d8ad4	-0.017278112
21	0x3bfd73c8	0.0077347495
22	0xbd9d04ac	-0.07666907
23	0x3cda1428	0.02662094
24	0xbde01504	-0.109415084
25	0xbe8d002b	-0.2753919
26	0xbe886800	-0.26641846
27	0xbd84f77b	-0.06492516
28	0xbf14f01d	-0.58178884
29	0xbe88049e	-0.26566023
30	0x3e08c031	0.13354565
31	0xbef13d53	-0.471171
32	0x3d0a0522	0.0336963
33	0xbf08b426	-0.53399885
34	0xbe8442f7	-0.2583234
35	0x3cc0517e	0.023476359
36	0xbea72f19	-0.3265312
37	0xbe4b2fc2	-0.19842437
38	0xbeb750a4	-0.3580371
39	0xbe690598	-0.2275604
40	0xbf01976b	-0.5062167
41	0xbe8162c6	-0.2527067
42	0xbe1ede01	-0.15514375
43	0xbe10f46a	-0.14155737
44	0xbebb87ac	-0.36626947
45	0xbf09772e	-0.5369748
46	0xbe8ef602	-0.27922064
47	0xbf2818d3	-0.6566288
48	0xbe0b0575	-0.135763
49	0xbe593c12	-0.21214321
50	0x3c23e708	0.010003813
51	0x3e12e412	0.14344814
52	0x3e712440	0.23548985
53	0xbe31e85a	-0.17373791
54	0x3dc7de63	0.09759214
55	0x3c3de96c	0.011591297
56	0xbe73bc7e	-0.23802373
57	0xbe67c6d0	-0.22634435
58	0xbd820edc	-0.063504905
59	0xbce23907	-0.027615083
60	0x3e9154d7	0.2838504
61	0x3daf212c	0.08551249
62	0xbe34af00	-0.17644882
63	0x3ddf8403	0.10913851
64	0xbec41f9e	-0.38305372
65	0xbe5bac68	-0.21452487
66	0x3e8bd117	0.2730796
67	0x3e3baa4c	0.18326682
68	0x3e5a3edf	0.21313046
69	0xbe8bc79c	-0.27300727
70	0x3e6bdd5c	0.2303366
71	0x3e2dd606	0.16976175

rnn.bias_hh_l0 f4 [72]
0	0xbd87abfc	-0.066246
1	0x3e14da00	0.14536285
2	0xbde6331e	-0.112402186
3	0x3d7b7f4e	0.061400704
4	0x3d7e2bc9	0.062053476
5	0x3e921d69	0.28538063
6	0x3cf37a86	0.02972151
7	0x3e785339	0.24250497
8	0x3e26f662	0.16304925
9	0x3e97c6b2	0.2964378
10	0x3e9416bb	0.28923592
11	0x3e7120df	0.23547696
12	0xbdd65d2a	-0.104669884
13	0xbbe07ee1	-0.0068510626
14	0xbe30e007	-0.1727296
15	0x3e4009ae	0.18753693
16	0x3dfde9f3	0.12398138
17	0x3c51ad44	0.012797657
18	0xbda479a9	-0.08031017
19	0xbddfd4e3	-0.10929277
20	0xbdf73d53	-0.120722435
21	0xbdff92d8	-0.1247918
22	0x3e2f63a0	0.17127848
23	0xbe318753	-0.17336778
24	0xbe8e1baa	-0.2775548
25	0xbe65b20d	-0.22431202
26	0xbf1b7fde	-0.60741985
27	0x3c75277d	0.014963028
28	0xbf22a079	-0.6352611
29	0xbe857809	-0.26068142
30	0x3e69979f	0.22811745
31	0xbe9d36d9	-0.30705908
32	0x3da7d1d6	0.0819432
33	0xbef9fe27	-0.48826715
34	0xbdd12539	-0.10212178
35	0xbe443b5b	-0.19163267
36	0xbf1929a0	-0.5982914
37	0xbec8d43c	-0.39224422
38	0xbf1905c5	-0.5977443
39	0xbe59c041	-0.21264745
40	0xbf310a3c	-0.6915624
41	0xbd99c5fc	-0.07508466
42	0xbeb4d942	-0.35322005
43	0xbe5cb4f4	-0.21553403
44	0xbec0968a	-0.37614852
45	0xbefa5b2e	-0.4889769
46	0xbdebef6d	-0.11520276
47	0xbee8e12c	-0.45484293
48	0xbd523915	-0.05132397
49	0xbe8ac4f3	-0.27103385
50	0xbe0728f2	-0.13199213
51	0x3dc18d34	0.094507605
52	0x3e298474	0.16554433
53	0xbe81961e	-0.25309843
54	0xbe5a0df0	-0.21294379
55	0x3e29c82c	0.16580266
56	0xbe0abfa8	-0.13549674
57	0xbeb9e887	-0.36310217
58	0x3e8963f2	0.26834065
59	0x3d56721b	0.052354913
60	0x3e4a54bf	0.1975889
61	0xbe25b7f1	-0.1618345
62	0x3e1b9a56	0.15195593
63	0x3e849ab7	0.25899288
64	0xbec11fee	-0.37719673
65	0xbd92597c	-0.07145974
66	0x3e88fe8c	0.26756704
67	0x3dffe6cb	0.12495192
68	0x3e8831aa	0.2660039
69	0x3df2667b	0.11835953
70	0x3e7a3c02	0.24436954
71	0x3d7c01c1	0.06152511

rnn.weight_ih_l1 f4 [72, 24]
0	0x3e81f6a1	0.25383475
1	0x3cdbaa81	0.026814701
2	0xbe76d5df	-0.24105023
3	0x3bd954a7	0.006632406
4	0xbd8efe85	-0.069821395
5	0xbd154642	-0.036443956
6	0xbe75744d	-0.23970146
7	0x3e1ea764	0.15493542
8	0xbe828a16	-0.25495976
9	0x3e63c871	0.22244431
10	0x3e826538	0.2546785
11	0xbc1e1d37	-0.00965052
12	0xbe720437	-0.2363442
13	0x3d713fbd	0.058898676
14	0xbe1bb1ab	-0.15204494
15	0xbd54f66c	-0.05199282
16	0xbdff6b38	-0.12471622
17	0xbd590dd2	-0.052991696
18	0x3df4dc1c	0.11956045
19	0x3c1e9e63	0.009681317
20	0xbe85982b	-0.26092657
21	0x3d0fdd42	0.035123117
22	0x3d0379cc	0.032098576
23	0x3d2b9b7b	0.041896325
24	0x3c46c456	0.012131771
25	0x3cb487dd	0.02203744
26	0xbdba7e41	-0.09106112
27	0x3e4827ea	0.19546476
28	0x3d64687c	0.055763707
29	0x3dda589f	0.106614344
30	0xbde2e131	-0.11078108
31	0xbd3665a5	-0.04453053
32	0xbdd0d4d5	-0.101968445
33	0xbe277af0	-0.1635549
34	0x3dcd5406	0.10025792
35	0x3d9f4815	0.077774204
36	0xbc244be9	-0.010027864
37	0x3e7edf4e	0.24889871
38	0xbd4e4657	-0.05036005
39	0xbe4ad369	-0.19807209
40	0xbc7753c7	-0.015095658
41	0x3e1d3e6a	0.1535584
42	0x3e2a3246	0.1662074
43	0xbd70870f	-0.058722552
44	0x3d4cee52	0.050031967
45	0x3df07c8d	0.11742506
46	0x3daf9a3a	0.08574338
47	0xbd5223bb	-0.051303606
48	0x3da05498	0.07828635
49	0xbb30f62b	-0.0027002196
50	0xbd94f4f6	-0.07273285
51	0xbebfe7c5	-0.37481514
52	0x3f4d6b64	0.8024199
53	0x3d7ce20b	0.06173901
54	0x3f34faa9	0.7069498
55	0xbe4a9c09	-0.19786085
56	0x3e91ed69	0.28501442
57	0xbdbde38d	-0.092719175
58	0x3ef0cc6b	0.4703096
59	0xbe9d0771	-0.3066974
60	0x3ec5e681	0.38652423
61	0xbd1241a8	-0.035707146
62	0xbe7c1589	-0.2461759
63	0xbea483a7	-0.32131693
64	0xbe2fb1df	-0.17157696
65	0xbec460f0	-0.38355207
66	0x3ec3512f	0.38147876
67	0xbdd20e1f	-0.102566
68	0x3ea5fc33	0.32418975
69	0x3e6d8f91	0.23199297
70	0xbc400de4	-0.011722062
71	0xbea14670	-0.31499052
72	0x3d6f3353	0.058398556
73	0x3d9abe15	0.075557865
74	0x3d541d09	0.051785503
75	0xbdff2c8b	-0.12459668
76	0x3f098a1d	0.5372637
77	0x3dc2be95	0.09509007
78	0x3f16cc1d	0.589052
79	0x3e4e048e	0.20118925
80	0xbaa8234a	-0.00128279
81	0xbe25834a	-0.16163364
82	0x3ef27298	0.47353053
83	0xbd83ac7c	-0.06429383
84	0x3ea78a62	0.32722765
85	0xbd0ff04c	-0.035141274
86	0xbe629eb2	-0.2213085
87	0x3e3f4afb	0.18680947
88	0xbe6fab0c	-0.23405093
89	0xbd4d4ec5	-0.05012395
90	0x3eec5416	0.46157902
91	0x3e72deda	0.23717824
92	0x3d5c4e7e	0.053785793
93	0x3dd8ebff	0.10591888
94	0x3e875184	0.2642938
95	0xbdfb7826	-0.12278776
96	0x3d1e04fb	0.03857897
97	0x3dd1fc67	0.1025322
98	0xbd9b2707	-0.07575803
99	0xbe1103cd	-0.14161606
100	0xbd36b02a	-0.044601597
101	0x3e170f31	0.14751889
102	0xbe48d6e5	-0.19613226
103	0x3cf0fee9	0.029418426
104	0x3c21ca11	0.009874837
105	0xbd03822d	-0.032106567
106	0x3dfe2dd9	0.124110885
107	0x3d766770	0.06015724
108	0x3daf5c8a	0.08562572
109	0x3e5cc50f	0.21559547
110	0xbd84659a	-0.064646915
111	0xbdb95dd1	-0.09051097
112	0x3dcde72c	0.10053858
113	0x3c99adc8	0.018759623
114	0xbe65cc0f	-0.22441123
115	0xbd314f9c	-0.043288812
116	0xbe26f82b	-0.16305606
117	0xbd14ef95	-0.036361296
118	0xbc5afecb	-0.013366411
119	0xbdced4f7	-0.100992136
120	0x3e7abff8	0.24487293
121	0xbddf7211	-0.10910428
122	0xbe60ced3	-0.21953897
123	0xbd9917f7	-0.07475274
124	0xbe164960	-0.14676428
125	0xbe335f75	-0.17516883
126	0x3e304954	0.17215472
127	0xbe3ea997	-0.18619381
128	0x3d4fe2a9	0.05075327
129	0xbd32c0fc	-0.043641075
130	0x3e2baa82	0.16764262
131	0x3e2b5e1b	0.16735117
132	0xbd397499	-0.04527721
133	0x3c34ebf8	0.011042587
134	0xbda1e838	-0.0790562
135	0x3e329eec	0.17443436
136	0x3d1650db	0.036698204
137	0xbe18033b	-0.14844982
138	0xbe240d41	-0.16020681
139	0xbd729947	-0.059228208
140	0xbd2f9f9d	-0.04287683
141	0xbd4bb00f	-0.04972845
142	0x3d86578a	0.065596655
143	0x3e712821	0.23550464
144	0xbd6243bb	-0.055240374
145	0x3e040c96	0.12895426
146	0xbcf5609f	-0.0299533
147	0xbd582fda	-0.05278001
148	0x3e4ef8a5	0.20212038
149	0x3e7dcc93	0.2478507
150	0x3d564ccf	0.052319344
151	0xbc95b764	-0.018275924
152	0x3eba7b74	0.36422312
153	0xbe765b42	-0.2405825
154	0xbe2a4837	-0.1662911
155	0xbe73957f	-0.23787497
156	0xbcb666f4	-0.022265889
157	0xbcb760e8	-0.022385076
158	0x3e36e61e	0.1786122
159	0xbeb2d66d	-0.3492922
160	0x3d47de96	0.04879626
161	0xbe0e6357	-0.13905083
162	0x3e56c065	0.2097183
163	0x3d1ae0fe	0.037812226
164	0xbdc2e4f4	-0.095163256
165	0x3e2c9bb7	0.16856275
166	0xbdb813be	-0.089881405
167	0xbe1b0c3f	-0.1514139
168	0xbde065fe	-0.109569535
169	0xbe112389	-0.14173712
170	0x3e1cd6d8	0.15316331
171	0x3df9831b	0.121832095
172	0x3dab33ac	0.08359465
173	0x3d4e2e82	0.050337322
174	0x3e640a85	0.22269638
175	0xbd809cbc	-0.06279895
176	0xbc17ad72	-0.009257661
177	0xbd5af3d2	-0.05345518
178	0xbe2060ef	-0.15661977
179	0x3dc1e68a	0.094678
180	0x3d983afe	0.07433127
181	0x3e075db3	0.13219337
182	0x3e741de1	0.23839523
183	0xbd0537b6	-0.032523833
184	0xbe248bb3	-0.16068916
185	0xbda4903e	-0.080353245
186	0x3d969a38	0.07353634
187	0xbde45e94	-0.11150852
188	0xbe08affc	-0.13348383
189	0xbe12719e	-0.14301154
190	0x3b356382	0.002767772
191	0x3e0a8e8f	0.13530944
192	0xbd8a0f57	-0.06741207
193	0x3dbb235d	0.091376044
194	0x3be6ea7b	0.007046995
195	0xbd9cb5fa	-0.07651897
196	0x3e1c1389	0.15241827
197	0xbd1b7fad	-0.037963558
198	0x3e8a8b42	0.2705937
199	0xbea9daeb	-0.33174834
200	0x3c55de1d	0.013053444
201	0xbd937bb8	-0.07201332
202	0xbdc26b0e	-0.09493075
203	0xbef89210	-0.48548937
204	0x3d3483c5	0.044070978
205	0x3dc3211d	0.095278
206	0x3bf65922	0.0075179497
207	0x3c4efac2	0.0126330275
208	0xbd6e5258	-0.058183998
209	0xbd77891b	-0.06043349
210	0x3d77002c	0.0603029
211	0xbd65481f	-0.055976983
212	0x3e2cb6d6	0.16866621
213	0x3e5d6336	0.21619877
214	0xbe19e978	-0.15030468
215	0x3d23a837	0.039955344
216	0xbe5894c1	-0.21150495
217	0xbf1d939a	-0.6155335
218	0xbe84cf01	-0.2593918
219	0x3d559035	0.05213948
220	0x3e469aff	0.19395064
221	0xbf1529da	-0.58266985
222	0x3ca56d14	0.020193614
223	0x3e6dcdba	0.2322301
224	0xbe07015f	-0.13184117
225	0xbde92ba0	-0.11385274
226	0x3e71711d	0.23578306
227	0x3e05c357	0.13062797
228	0xbd49d201	-0.04927254
229	0x3df2d95b	0.118578635
230	0xbe29139f	-0.16511391
231	0x3e5d5bf0	0.21617103
232	0x3d9a5d12	0.07537283
233	0x3da9dfbc	0.08294627
234	0x3d47f668	0.048818976
235	0x3d1f3bdb	0.038875442
236	0x3e84b4ac	0.25919092
237	0xbdee4484	-0.11634162
238	0x3ef30d4c	0.47471082
239	0x3e72adcb	0.2369911
240	0xbd3d6ead	-0.046248127
241	0xbe2b20b6	-0.16711697
242	0x3e6d04f1	0.23146416
243	0x3d18ec1f	0.037334558
244	0xbdd9009b	-0.105958186
245	0xbdbb1c58	-0.091362655
246	0x3e41eb49	0.1893741
247	0xbe862930	-0.262033
248	0x3e5ead43	0.21745782
249	0x3d118663	0.03552855
250	0x3e533b3a	0.20628062
251	0xbe4306bb	-0.19045536
252	0xbe0ff097	-0.14056621
253	0x3db5ddff	0.08880233
254	0x3e87a628	0.26493955
255	0x3c812018	0.015762374

rnn.weight_hh_l1 f4 [72, 24]
0	0x3d18fe22	0.037351735
1	0xbd8929f1	-0.06697453
2	0xbc2ccc2a	-0.010546723
3	0xbd02bd4f	-0.03191882
4	0x3db2da90	0.08733094
5	0xbde30769	-0.11085398
6	0x3e3620da	0.1778597
7	0xbea59e87	-0.3234751
8	0xbd6b7258	-0.057482094
9	0xbc87c99f	-0.016575633
10	0x3d995689	0.074872084
11	0x3dcf1889	0.101121016
12	0xbd01d2bf	-0.031695124
13	0xbcbca573	-0.023028111
14	0x3e7ad571	0.24495484
15	0x3e5157d3	0.20443659
16	0xbef4bd24	-0.47800553
17	0x3e32b5b4	0.17452127
18	0xbce2490d	-0.027622724
19	0xbe490cea	-0.19633833
20	0xbe1abebc	-0.15111822
21	0xbc7cc724	-0.015428338
22	0xbc87374f	-0.016505865
23	0xbee9c920	-0.4566126
24	0x3cba56b8	0.022746429
25	0xbcbe6520	-0.02324158
26	0xbdfb4ce7	-0.12270527
27	0x3d721858	0.059105247
28	0xbe95c0a7	-0.29248545
29	0x3da5ad6b	0.080897175
30	0xbdecb3cb	-0.1155773
31	0x3dbf5e0c	0.0934411
32	0xbe129e23	-0.14318137
33	0x3e3bd932	0.18344572
34	0xbe09e965	-0.13467939
35	0xbca0bce7	-0.019621326
36	0xbe3abf49	-0.18237032
37	0xbc4e008c	-0.012573373
38	0x3e512b80	0.2042675
39	0x3d4daaf3	0.050211858
40	0x3d2962f1	0.041354124
41	0x3e1f6b60	0.15568304
42	0xbbda6da6	-0.006665903
43	0xbddb0705	-0.10694698
44	0xbe7f892c	-0.2495467
45	0xbe1c3d70	-0.15257812
46	0x3dfdef4f	0.1239916
47	0x3d1184f6	0.035527192
48	0xbc7deb6f	-0.015498026
49	0xbe682c38	-0.22673118
50	0x3d5afa8c	0.053461596
51	0xbdc250d5	-0.09488074
52	0x3c0128ae	0.007883234
53	0xbe23ff5a	-0.16015378
54	0x3da60fd4	0.08108488
55	0x3d093871	0.033501092
56	0x3d9d9f3c	0.07696387
57	0xbd9590cf	-0.07303011
58	0xbe5e8c6a	-0.21733251
59	0x3e5f076a	0.21780172
60	0xbe7c8e33	-0.2466362
61	0x3dcc4753	0.099745415
62	0x3e89d11e	0.26917356
63	0xbe2f6cd6	-0.17131361
64	0x3ef67692	0.48137337
65	0x3edeefa0	0.43542194
66	0x3e7c6697	0.2464851
67	0xbda49db0	-0.08037889
68	0x3ce3886c	0.027775012
69	0xbe74108d	-0.23834439
70	0x3d532836	0.05155202
71	0x3e118c03	0.14213566
72	0xbe292b34	-0.16520387
73	0x3e04ba20	0.12961626
74	0xbd8fe433	-0.070259474
75	0x3d3a4bed	0.045482565
76	0x3c994ebc	0.018714301
77	0x3dee8135	0.11645738
78	0xbd44188b	-0.04787497
79	0xbcf81e3d	-0.030287856
80	0x3dfc61bb	0.12323328
81	0x3e0f1d43	0.13976006
82	0xbdb9517d	-0.09048746
83	0x3e03728c	0.12836665
84	0x3e1ee8bb	0.15518467
85	0xbd04f2eb	-0.032458227
86	0x3e12a1c7	0.14319526
87	0x3c79de8c	0.015250813
88	0x3d8b06f0	0.067884326
89	0xbdf9643c	-0.12177321
90	0xbd0d278b	-0.03446154
91	0x3da1eda3	0.07906654
92	0x3dc450f5	0.09585754
93	0xbd1819b1	-0.037133876
94	0xbe20c48a	-0.15699974
95	0xbd8de9bf	-0.06929349
96	0xbe097212	-0.1342242
97	0xbe40f16f	-0.188421
98	0x3e0ceec9	0.13762964
99	0x3d17c3ac	0.03705184
100	0xbe7b41ba	-0.24536791
101	0x3deb62eb	0.114934765
102	0x3e72dcbe	0.23717019
103	0xbe4651bc	-0.19367117
104	0x3e2bd460	0.16780233
105	0x3e10b4d4	0.1413148
106	0x3d9816c4	0.07426217
107	0xbdb3e39f	-0.0878365
108	0x3b971c8c	0.0046115573
109	0x3d9758dc	0.073899955
110	0x3e8e362f	0.27775714
111	0xbc676d08	-0.014125116
112	0xbd96de05	-0.073665656
113	0xbbef1a63	-0.0072968467
114	0x3e4ffc5d	0.20311113
115	0xbe52a1a4	-0.20569474
116	0xbe81820f	-0.2529454
117	0xbcb1cdba	-0.021704543
118	0xbd7ca1ff	-0.06167793
119	0xbe6696f0	-0.22518516
120	0xbc3c1d27	-0.01148156
121	0x3e122354	0.14271289
122	0x3e04ca4d	0.12967797
123	0xbe72ca42	-0.23709968
124	0x3ddf219e	0.10895084
125	0x3db01f09	0.085996695
126	0x3c8c541a	0.017129947
127	0x3d8d2ba0	0.068930864
128	0xbd2c19de	-0.042016856
129	0x3e18625c	0.14881271
130	0xbd401ce2	-0.046902545
131	0x3e89a987	0.26887152
132	0x3c4df83e	0.012571393
133	0xbdfda073	-0.12384119
134	0x3e49c31c	0.19703335
135	0x3d8a86a8	0.06763965
136	0xbe546c99	-0.20744552
137	0xbd19a9d6	-0.037515484
138	0xbe2dc299	-0.16968764
139	0xbe2077cb	-0.15670697
140	0x3d92aee0	0.07162261
141	0x3e0b3c53	0.1359723
142	0x3d94371f	0.07237076
143	0xbdc1a03e	-0.09454392
144	0x3e4421ea	0.19153562
145	0x3e2f835a	0.1713995
146	0x3a99ffd6	0.0011749219
147	0x3d74c2c2	0.059756048
148	0xbe03169f	-0.12801598
149	0xbde6340b	-0.11240395
150	0xbdd2e5bd	-0.10297725
151	0x3de052d7	0.109533004
152	0xbdbbebaf	-0.091758125
153	0xbe12f784	-0.14352232
154	0xbe2f4d29	-0.17119278
155	0xbe678392	-0.22608784
156	0x3d26b8c2	0.040703543
157	0xbe0fb2f9	-0.14033116
158	0x3e9980fd	0.29981223
159	0xbb71a8b5	-0.003687424
160	0x3d7c425d	0.061586726
161	0x3e251a00	0.161232
162	0x3e1bfc1f	0.15232895
163	0xbe5cf54a	-0.21577945
164	0xbe4d4bbe	-0.20048425
165	0xbe4aedee	-0.19817325
166	0xbe41a131	-0.18909146
167	0x3d659cfa	0.056057908
168	0xbd30de4b	-0.043180745
169	0xbd2ea6a6	-0.042639397
170	0xbde2eb39	-0.110800214
171	0xbd922618	-0.07136172
172	0x3c91b749	0.017787592
173	0xbca7ab4d	-0.020467425
174	0x3d5854e0	0.052815318
175	0x3e215123	0.15753607
176	0x3d1ad5d6	0.037801586
177	0xbe2e3a7e	-0.170145
178	0xbdd023f2	-0.10163106
179	0x3bfdd890	0.0077467635
180	0x3d37cb84	0.044871822
181	0x3e1b6a29	0.15177216
182	0xbd6ec666	-0.058294676
183	0xbe9c68a5	-0.30548587
184	0xbe22be8b	-0.15892999
185	0x3c806213	0.015671765
186	0xbe374a31	-0.17899396
187	0x3e76a2ee	0.2408559
188	0xbe593793	-0.21212606
189	0x3dbbd40e	0.091713056
190	0xbe6b426f	-0.22974561
191	0x3e5200d4	0.20508128
192	0x3defa8b9	0.11702103
193	0xbe1772df	-0.14789914
194	0x3b8a95d6	0.0042292876
195	0xbdd52278	-0.10406965
196	0xbdb82643	-0.08991673
197	0x3d4f2412	0.05057151
198	0x3ccbaf6d	0.024863923
199	0xbd8b5842	-0.06803943
200	0xbe3da147	-0.18518554
201	0xbd1ec5c3	-0.03876282
202	0xbe41aded	-0.18914004
203	0xbe0b4557	-0.1360067
204	0xbdb55575	-0.0885419
205	0xbc01bb37	-0.007918171
206	0xbc10441c	-0.008805301
207	0xbddf2306	-0.10895352
208	0x3df6a3db	0.12042972
209	0x3d0d452b	0.03448979
210	0x3e927f20	0.28612614
211	0xbe8e1be5	-0.27755657
212	0x3ba84d9a	0.005136204
213	0xbdeeac81	-0.11653996
214	0x3e2b6aea	0.16740003
215	0xbe419bd3	-0.18907098
216	0xbd9dda7a	-0.07707687
217	0x3deebeca	0.11657484
218	0xbda1082c	-0.07862887
219	0xbdb11f91	-0.08648599
220	0xbd1a8ffc	-0.03773497
221	0xbe55b8cd	-0.20871277
222	0xbe3c3ed7	-0.18383346
223	0xbe713074	-0.2355364
224	0x3db219a9	0.086963005
225	0xbe057d58	-0.13036096
226	0x3c67f184	0.014156703
227	0x3e9698e9	0.29413536
228	0xbe1b5e96	-0.151728
229	0xbdb025eb	-0.08600982
230	0xbe355fea	-0.1771237
231	0xbe042b74	-0.12907201
232	0x3c072bc2	0.008250179
233	0xbe2a0ca3	-0.16606383
234	0x3d9d1c9e	0.07671474
235	0x3e42082c	0.1894843
236	0x3db33dde	0.087520346
237	0x3e07f792	0.13278034
238	0x3e50f2bc	0.20405096
239	0xbe3da56a	-0.18520132
240	0xbdbd8c6d	-0.092553
241	0x3dbde41a	0.092720225
242	0xbe101e81	-0.14074136
243	0x3e8773e4	0.26455605
244	0x3a557219	0.0008142307
245	0x3e4cef18	0.20013082
246	0x3d8d35a9	0.068950005
247	0xbd319bd4	-0.0433615
248	0x3c25d5c6	0.010121768
249	0xbe54bd03	-0.20775227
250	0x3cc0de65	0.023543546
251	0x3d9e6663	0.077343725
252	0xbe21e772	-0.15810946
253	0xbe117cf6	-0.14207825
254	0x3e37b13b	0.17938702
255	0x3c8f3a96	0.01748399

rnn.bias_ih_l1 f4 [72]
0	0x3d88e6e5	0.06684665
1	0x3df7bb6f	0.12096297
2	0x3ea4693b	0.32111534
3	0x3e60ad7f	0.21941184
4	0xbca6bf57	-0.02035491
5	0xbe00fa27	-0.12595426
6	0x3e54d2ba	0.20783511
7	0x3c9e9f82	0.019363169
8	0x3de48d79	0.11159796
9	0x3d5f8e85	0.054579277
10	0xbe1479c8	-0.14499581
11	0xbce35b6c	-0.027753554
12	0xbdf3cd4a	-0.1190439
13	0x3c969771	0.01838276
14	0xbdf85b1e	-0.12126754
15	0xbde3f4f2	-0.11130704
16	0x3e01791f	0.1264386
17	0x3dc591c4	0.09646943
18	0xbcb541fb	-0.022126189
19	0x3de5b670	0.11216438
20	0xbd3a4601	-0.045476917
21	0xbe03c9a8	-0.12869895
22	0xbd9ce0d9	-0.07660074
23	0x3e1ab5f2	0.15108469
24	0xbe95e972	-0.29279667
25	0xbe77bc57	-0.2419294
26	0xbf098781	-0.5372239
27	0xbe86ff37	-0.26366588
28	0xbe9d72a0	-0.30751514
29	0xbd8d83fe	-0.06909941
30	0xbeb8dbb0	-0.36105108
31	0xbd8f97d3	-0.0701138
32	0xbef706f3	-0.4824749
33	0xbeda7337	-0.42666027
34	0xbdc35775	-0.095381655
35	0xbe8a7c6f	-0.2704806
36	0xbf070607	-0.5274357
37	0xbe5000e8	-0.20312846
38	0xbec6cb12	-0.38826805
39	0xbf223f50	-0.6337786
40	0xbef5ce44	-0.4800893
41	0xbf08f4da	-0.53498614
42	0xbf15dfaf	-0.5854444
43	0xbe240039	-0.1601571
44	0xbe69a77b	-0.22817795
45	0xbdab81b6	-0.0837435
46	0xbe906e2d	-0.28209057
47	0xbe499b85	-0.19688232
48	0xbc8f4912	-0.017490897
49	0x3e3edc78	0.1863879
50	0x3eb8f774	0.36126292
51	0x3cbc97ba	0.023021568
52	0xbc899168	-0.016792968
53	0x3dceba29	0.10094101
54	0xbe022d2f	-0.12712549
55	0xbd86a340	-0.06574106
56	0x3dea0b53	0.11427941
57	0xbe764c9d	-0.24052663
58	0x3e2250eb	0.1585118
59	0xbe168cd7	-0.14702164
60	0x3e9e818b	0.30958208
61	0xbdfab275	-0.12241069
62	0x3bfbc825	0.007683771
63	0xbc2bd9df	-0.010488956
64	0x3ea31dd3	0.31858692
65	0x3d1715e9	0.03688613
66	0xbe81fcf9	-0.25388315
67	0x3e4440c2	0.19165328
68	0x3e8affcd	0.27148286
69	0x3e50d00c	0.20391864
70	0xbeac4273	-0.33644447
71	0xbc84ec91	-0.016226085

rnn.bias_hh_l1 f4 [72]
0	0x3cf77b5d	0.030210191
1	0xbc08b02b	-0.008342783
2	0x3e581fb7	0.21105848
3	0x3db7d652	0.08976425
4	0xbe52e93d	-0.20596786
5	0xbdf79ba7	-0.12090235
6	0xbdf344e4	-0.11878374
7	0x3e9a3282	0.3011666
8	0xbdecc00f	-0.1156007
9	0x3e6dc98f	0.2322142
10	0x3a821c84	0.0009926711
11	0xbc8f18bf	-0.017467855
12	0x3e60cccd	0.21953125
13	0x3d7eb769	0.062186632
14	0x3d99368c	0.07481107
15	0xb9e33d36	-0.0004334242
16	0x3eac75a4	0.33683503
17	0x3e1c24dd	0.15248437
18	0x3eb84141	0.35987285
19	0x3d828333	0.063726805
20	0xbe35f4bf	-0.17769144
21	0x3d83b6d3	0.06431355
22	0x3d14d179	0.03633258
23	0xbdbf8c62	-0.09352948
24	0xbee173bc	-0.4403361
25	0xbcfa3d9c	-0.030546956
26	0xbf1c045d	-0.6094416
27	0xbe20dff1	-0.15710427
28	0x3c69fa61	0.014280886
29	0xbea27aa3	-0.3173419
30	0xbf13e8bd	-0.57777005
31	0xbe986590	-0.29764986
32	0xbe89fdca	-0.26951438
33	0xbeb30418	-0.3496406
34	0xbe0db50f	-0.138386
35	0xbbfe501c	-0.0077610146
36	0xbece19e6	-0.40254134
37	0xbe0d9195	-0.13825066
38	0xbf1712e9	-0.5901323
39	0xbf323595	-0.6961301
40	0xbf09c70a	-0.53819335
41	0xbe847119	-0.25867537
42	0xbeb54d9c	-0.35410774
43	0xbe149973	-0.14511661
44	0xbe6d821a	-0.23194161
45	0xbe126708	-0.14297116
46	0xbec58dac	-0.3858465
47	0xbea1aceb	-0.31577238
48	0x3d166baf	0.03672379
49	0x3d3ccebc	0.046095595
50	0x3f17efcc	0.59350276
51	0x3db258ec	0.08708367
52	0x3da2e071	0.07952965
53	0x3db726ac	0.08942923
54	0xbe80a3ac	-0.25124872
55	0xbe300fc9	-0.17193522
56	0xbe2b8773	-0.16750889
57	0xbea64134	-0.3247162
58	0x3d2f6018	0.04281625
59	0xbe09dc3e	-0.13462922
60	0x3e5f1f6a	0.21789327
61	0x3e0e8c73	0.13920765
62	0xbdfdd35a	-0.12393828
63	0x3df324db	0.11872264
64	0x3cb79e01	0.02241421
65	0x3c53d3b0	0.012928888
66	0xbeea9d36	-0.45823067
67	0x3e65758e	0.22408125
68	0xbdfd6511	-0.123727925
69	0x3be162b4	0.0068782214
70	0xbe86bbef	-0.26315257
71	0x3dfd12b4	0.12357083

rnn.weight_ih_l2 f4 [72, 24]
0	0x3e480cf1	0.19536187
1	0xbe0eaea8	-0.13933814
2	0x3ec835f9	0.39103678
3	0x3ea154a8	0.315099
4	0x3e877037	0.264528
5	0x3de01108	0.109407485
6	0xbed70ea1	-0.42003348
7	0x3e073783	0.1320477
8	0x3d688c06	0.05677416
9	0x3cf6c564	0.03012342
10	0xbd712831	-0.05887622
11	0xbe1a46f6	-0.15066132
12	0xbe8075ef	-0.25089976
13	0xbd0fb8ba	-0.03508828
14	0xbf37a27b	-0.717323
15	0x3db19585	0.08671097
16	0x3e16cd33	0.14726715
17	0xbec66d37	-0.387552
18	0xbf53a5a3	-0.82674617
19	0x3e017243	0.12641244
20	0x3ddf93f4	0.10916892
21	0xbe3db764	-0.18526989
22	0xbe9e8da1	-0.3096743
23	0x3f021681	0.5081559
24	0x3db9b75d	0.09068177
25	0x3e7e0a04	0.24808508
26	0x3e342ad5	0.17594464
27	0x3eaa1445	0.3321859
28	0x3da4ad7d	0.08040903
29	0x3dee9145	0.11648802
30	0xbd8b6249	-0.06805856
31	0xbe6f119b	-0.2334656
32	0x3e41ffb0	0.18945193
33	0xbe841bc5	-0.25802436
34	0x3da3cf58	0.07998532
35	0xbe67f634	-0.22652513
36	0x3dd8df1e	0.10589431
37	0xbedbd87c	-0.42938602
38	0x3d03e67c	0.03220223
39	0x3c8432a3	0.016137427
40	0xbda186b0	-0.07887018
41	0xbe5eb006	-0.21746835
42	0xbe973574	-0.2953297
43	0xbd86f621	-0.06589914
44	0x3e0f5d90	0.14000535
45	0x3e180d6a	0.14848867
46	0xbe9b9838	-0.3038957
47	0xbe1d0e8f	-0.15337585
48	0xbe00bfc8	-0.12573159
49	0x3d6cfb2d	0.057856727
50	0x3e9236d3	0.28557453
51	0x3e3641ec	0.17798585
52	0x3dd19342	0.10233165
53	0xbda27437	-0.079323225
54	0xbd1a6a04	-0.03769876
55	0x3ddaba5f	0.10680079
56	0xbd7d477c	-0.06183575
57	0xbe648fd4	-0.22320491
58	0xbe265a3a	-0.16245356
59	0x3d0cd9d7	0.034387436
60	0xbd0234b4	-0.031788543
61	0x3dade452	0.08490814
62	0x3bff10e1	0.0077839945
63	0xbe7009d1	-0.23441245
64	0xbd8eafef	-0.069671504
65	0xbe0d5a88	-0.13804066
66	0xbe9ac841	-0.30230907
67	0x3e1d015b	0.15332548
68	0x3dfbf7c3	0.12303116
69	0x3dbdef54	0.09274164
70	0x3e2de7c3	0.16982941
71	0xbe26faa0	-0.16306543
72	0xbd4257b4	-0.04744692
73	0xbdc3053a	-0.09522481
74	0xbe4f1efc	-0.20226663
75	0x3d252f6c	0.04032843
76	0xbd10d579	-0.035359833
77	0xbd0d15b5	-0.03444453
78	0x3d84ea46	0.064899966
79	0x3e556ac0	0.20841503
80	0x3d99e2cd	0.07513962
81	0x3ddd853b	0.10816427
82	0xbdc5c425	-0.09656552
83	0xbdbd5880	-0.09245396
84	0xbe316200	-0.1732254
85	0xbb564c56	-0.0032699308
86	0xbd314793	-0.04328115
87	0x3e09d1aa	0.13458887
88	0xbe6e54ba	-0.23274508
89	0x3e67148b	0.2256643
90	0x3dba8c48	0.09108788
91	0xbd8072bc	-0.06271884
92	0x3de3aa71	0.111164935
93	0xbd6a6ba6	-0.057231568
94	0xbdcc9fba	-0.09991403
95	0x3d17be4e	0.037046723
96	0x3c6a7461	0.014309973
97	0x3b9db512	0.004812845
98	0xbdae4b05	-0.085104026
99	0xbd920b6b	-0.07131084
100	0xbe5cd9db	-0.2156748
101	0xbe6bb678	-0.23018825
102	0x3e253261	0.161325
103	0x3ec241ea	0.37940913
104	0x3c5a258b	0.013314615
105	0xbd02b594	-0.031911448
106	0x3c56609e	0.013084559
107	0x3e20f7a7	0.15719472
108	0x3d8a491a	0.06752224
109	0xbb0653f8	-0.0020496827
110	0x3e0a6100	0.13513565
111	0xbd4cc04b	-0.049988072
112	0xbdc15f5e	-0.09442018
113	0x3e262a24	0.16227013
114	0x3c665160	0.014057487
115	0xbd434e05	-0.047681827
116	0xbe15da9e	-0.14634177
117	0x3d34a646	0.044103883
118	0x3d94a2e1	0.07257629
119	0x3e053971	0.13010193
120	0xbdeabe84	-0.11462119
121	0xbe2ca0e7	-0.16858254
122	0xbc42e827	-0.01189617
123	0xbd816590	-0.063182
124	0x3e215800	0.15756226
125	0xbc414f79	-0.011798733
126	0x3e063be8	0.1310879
127	0x3d4f84f2	0.050663896
128	0x3c5cb561	0.0134709785
129	0x3dc6f6e0	0.097150564
130	0xbe3d0f74	-0.18462926
131	0x3e06345a	0.13105908
132	0xbe5fdbc9	-0.21861185
133	0xbdd95810	-0.106125
134	0xbe076823	-0.13223319
135	0xbe3a5c57	-0.18199287
136	0x3da0eb9f	0.07857441
137	0x3e3309f0	0.1748426
138	0x3e824e25	0.25450245
139	0x3dcf357a	0.10117622
140	0xbe7ef2f5	-0.24897368
141	0xbe92c40c	-0.28665197
142	0x3e6e7cc5	0.23289783
143	0xbe858e70	-0.26085234
144	0x3da78fe3	0.08181741
145	0xbe42c525	-0.19020517
146	0x3e099eb2	0.13439444
147	0xbccc63ee	-0.024949994
148	0x3d9b643c	0.075874776
149	0xbdafe839	-0.08589215
150	0x3db09dbf	0.08623838
151	0xbd690305	-0.056887645
152	0xbd13610b	-0.03598122
153	0x3e9e7118	0.3094566
154	0x3d0744ca	0.033024587
155	0x3e85c130	0.26123953
156	0x3c463fc1	0.012100161
157	0x3e069fc3	0.13146882
158	0x3d8a40bc	0.06750628
159	0xbe1b563f	-0.15169619
160	0xbe1edb96	-0.15513453
161	0x3e7cf10d	0.24701329
162	0x3e332e2a	0.17498079
163	0x3c627023	0.013820681
164	0xbd4226f5	-0.047400434
165	0xbe1dccfd	-0.15410228
166	0xbdb78b59	-0.08962125
167	0x3dc47ea0	0.09594464
168	0xbe47b873	-0.19503956
169	0x3d38ecb4	0.045147613
170	0xbe4d70e1	-0.20062591
171	0xbe25bf49	-0.16186251
172	0xbe07d57f	-0.13265036
173	0xbe6762ce	-0.22596285
174	0xbd82bb0f	-0.06383335
175	0x3e61a9ba	0.22037402
176	0xbbeae0e8	-0.007167924
177	0xbe2c57b5	-0.16830333
178	0xbd6be639	-0.057592604
179	0x3e47d2f3	0.19514064
180	0xbdb5f23c	-0.08884093
181	0x3e09c1c1	0.13452817
182	0x3ce5eaff	0.028066156
183	0x3d064446	0.032779954
184	0x3e102304	0.14075857
185	0x3e81ae44	0.25328267
186	0xbe0bfd6b	-0.1367089
187	0xbebc2dcd	-0.36753693
188	0xbd98a35a	-0.07453032
189	0xbe1e7e1f	-0.15477799
190	0x3e0ffab9	0.14060487
191	0x3e64b1d5	0.22333463
192	0x3da5142f	0.0806049
193	0xbe08be08	-0.13353741
194	0xbdce5f2e	-0.10076748
195	0xbd7e1215	-0.062028963
196	0xbe864106	-0.26221484
197	0x3d487339	0.04893801
198	0x3e9aab48	0.30208802
199	0x3e86f5f9	0.26359537
200	0x3e015586	0.12630281
201	0x3e4443f4	0.19166547
202	0xbc858faf	-0.016303865
203	0x3e9ba4d4	0.3039919
204	0xbdb86c38	-0.09005016
205	0x3d81686e	0.063187465
206	0x3e1b8815	0.1518863
207	0xbd8ee757	-0.06977718
208	0xbf1f033e	-0.6211432
209	0x3eadf4f0	0.33975935
210	0x3e73c001	0.23803712
211	0x3c76c486	0.015061503
212	0xbe2b9beb	-0.16758697
213	0xbe96eccc	-0.29477537
214	0x3e4e34e4	0.20137364
215	0xbe357afa	-0.17722693
216	0x3e0e5d00	0.13902664
217	0xbe34fb25	-0.17673929
218	0xbe214a70	-0.15751052
219	0xbdccf17b	-0.10006996
220	0xbcb62085	-0.022232303
221	0xbe151965	-0.14560468
222	0xbcc42d25	-0.023947308
223	0x3d89f51c	0.06736204
224	0xbdc01ad3	-0.09380116
225	0x3e2ab3e7	0.1667019
226	0x3e1bc340	0.152112
227	0x3d6965d0	0.05698186
228	0xbdda5531	-0.1066078
229	0xbe5a2f41	-0.21307088
230	0x3e657e0f	0.22411369
231	0xbd34d99a	-0.044152834
232	0x3d65aaed	0.05607121
233	0x3d59508a	0.053055324
234	0xbdb82461	-0.08991314
235	0xbe10f96e	-0.1415765
236	0xbe68a855	-0.22720464
237	0xbe17238e	-0.14759657
238	0xbd20af14	-0.039229468
239	0xbe3c0094	-0.18359596
240	0x3d9118d9	0.070848174
241	0x3e4c4bd0	0.19950795
242	0x3f1f55f2	0.6224052
243	0x3efb4915	0.49079195
244	0x3e1cf4c3	0.15327744
245	0x3d8bba64	0.068226606
246	0xbe8440ca	-0.2583068
247	0xbec9564b	-0.3932365
248	0x3e176f4e	0.14788553
249	0xbe2cd6cf	-0.16878818
250	0x3e10aaac	0.14127606
251	0xbebdb296	-0.37050313
252	0xbcceca07	-0.025242819
253	0x3e4ce46d	0.20009013
254	0xbf54622a	-0.82962286
255	0x3f190187	0.59767956

rnn.weight_hh_l2 f4 [72, 24]
0	0x3ce3737c	0.027765028
1	0x3eae8fbc	0.34094036
2	0xbe600de6	-0.21880302
3	0x3e631fd0	0.22180104
4	0x3ce64cd1	0.0281128
5	0xbe3b2f01	-0.1827965
6	0xbd8186db	-0.0632455
7	0x3e07ec83	0.13273816
8	0x3c8fe10e	0.01756337
9	0x3dd78395	0.10523144
10	0x3bfd2ae6	0.007726061
11	0x3c10e1e2	0.008842917
12	0x3e05c6d6	0.13064131
13	0x3e651ab2	0.22373465
14	0xbdeff2bd	-0.117162205
15	0xbea1b545	-0.3158361
16	0xbd0d5074	-0.034500554
17	0xbdcaa9b8	-0.098956525
18	0xbe3c2089	-0.18371786
19	0x3dcc8acc	0.09987411
20	0xbe8d80bb	-0.27637276
21	0x3e17bfff	0.14819334
22	0xbe4b2b9c	-0.19840854
23	0xbde14e63	-0.11001279
24	0x3de808ef	0.11329829
25	0x3e82fddd	0.25584307
26	0x3e7b8ade	0.24564692
27	0xbd55c7a1	-0.052192334
28	0x3e33ee77	0.17571436
29	0xbe0a58ac	-0.13510388
30	0xbe963bea	-0.29342586
31	0xbe3aaa42	-0.1822901
32	0x3ec85ff7	0.39135715
33	0xbe4a1523	-0.19734626
34	0xbe21e0ae	-0.15808365
35	0xbb4655e9	-0.0030263609
36	0xbe2cc9c4	-0.16873842
37	0x3e9d1d6b	0.30686507
38	0x3ed9e201	0.4255524
39	0xbe765f70	-0.24059844
40	0xbc5e4b37	-0.013567737
41	0x3e5c796e	0.21530697
42	0xbe2496c3	-0.16073136
43	0xbe993fb1	-0.29931405
44	0xbdbedf26	-0.09319906
45	0x3dc606b1	0.09669245
46	0x3cdf822f	0.027283756
47	0x3e16021c	0.14649242
48	0xbda5fca3	-0.08104827
49	0x3e18a4e2	0.14906648
50	0xbc70a448	-0.014687605
51	0xbd568d85	-0.052381057
52	0xbd2dc812	-0.04242713
53	0x3e49bdc4	0.19701296
54	0xbda675d6	-0.08127944
55	0x3dfc11c1	0.12308074
56	0xbe24d05f	-0.16095112
57	0x3cf89f25	0.030349324
58	0xbd4a3b74	-0.049373105
59	0xbe338fde	-0.1753535
60	0xbdf4f735	-0.119612135
61	0x3c804d15	0.015661756
62	0xbc01afc5	-0.007915442
63	0xbd3196d1	-0.04335672
64	0xbde77e77	-0.11303418
65	0xbda0b335	-0.07846681
66	0xbdca6352	-0.09882225
67	0xbe773a89	-0.24143423
68	0x3e29f96c	0.16599053
69	0x3e2e5674	0.17025167
70	0x3d1d0740	0.038336992
71	0x3e1e4c3e	0.15458772
72	0x3d11ec4f	0.035625752
73	0xbdd39bf7	-0.10332482
74	0xbda382b4	-0.07983914
75	0xbc18b91b	-0.009321476
76	0x3e965459	0.29361227
77	0xbe8f85f7	-0.28031895
78	0x3ca43ee5	0.020049522
79	0x3e12096d	0.14261408
80	0x3d531a6c	0.05153887
81	0xbc9b574a	-0.018962521
82	0xbe295747	-0.165372
83	0x3de2a528	0.11066657
84	0xbd6fb5a6	-0.058522843
85	0x3e0c2bfa	0.1368865
86	0x3e77f7ff	0.24215697
87	0x3d32467e	0.043524258
88	0xbdd7ccbe	-0.10537098
89	0xbe058df0	-0.13042426
90	0x3e2e352c	0.17012471
91	0x3a8689d5	0.0010264466
92	0x3e366b6d	0.17814417
93	0xbd87e0bd	-0.06634662
94	0x3d14d7ed	0.036338735
95	0xbd657852	-0.05602295
96	0x3e618b48	0.22025788
97	0x3d77fb09	0.06054214
98	0x3dd85ba7	0.10564356
99	0x3e60419a	0.21900025
100	0xbbead9dd	-0.0071670846
101	0xbdb2f5f8	-0.08738321
102	0x3e3f3f2b	0.1867644
103	0x3d987800	0.07444763
104	0xbdbe660b	-0.09296807
105	0x3d70d120	0.058793187
106	0x3e05f178	0.13080394
107	0xbde04d1d	-0.10952208
108	0x3db49c66	0.08818893
109	0x3e3f06c9	0.18654932
110	0x3e1267c5	0.14297397
111	0x3dc72784	0.09724334
112	0xbe18fd7a	-0.14940444
113	0x3dc25c09	0.094902106
114	0x3e0867ba	0.13320819
115	0xbd9d7f31	-0.076902755
116	0xbe8b6824	-0.2722789
117	0x3e7a4479	0.24440183
118	0xbb0d8ca5	-0.0021598723
119	0xbd8b09ab	-0.067889534
120	0x3d7333fb	0.059375744
121	0x3db46468	0.088082135
122	0xbe0ea98f	-0.13931869
123	0xbdd62021	-0.10455347
124	0xbd441695	-0.0478731
125	0xbd552462	-0.05203665
126	0x3dc2316c	0.09482083
127	0x3e26b0d3	0.1627839
128	0xbd2a03e4	-0.041507617
129	0x3e146190	0.14490342
130	0xbd9f34da	-0.077737525
131	0x3e0a790c	0.13522738
132	0xbd8603c1	-0.06543685
133	0xbe89d570	-0.26920652
134	0xbc45f93d	-0.012083349
135	0xbe920225	-0.2851726
136	0xbe4c928d	-0.1997778
137	0xbe32163a	-0.17391291
138	0x3cdf376d	0.027248109
139	0xbdfc91cd	-0.12332497
140	0x3d9ab12e	0.075533256
141	0x3e1980dc	0.14990562
142	0xbd538f9e	-0.051650636
143	0x3ddeda13	0.10881438
144	0x3e7eade8	0.24871027
145	0x3dcbf3cb	0.09958609
146	0xbc1f02a2	-0.009705218
147	0xbe38edc9	-0.18059458
148	0x3e662858	0.22476327
149	0xbe2199bc	-0.15781301
150	0x3db6fdf8	0.089351594
151	0x3e0c38fb	0.13693611
152	0x3e66ae12	0.2252734
153	0xbe067052	-0.13128784
154	0xbc9f03b3	-0.019410944
155	0x3cb007e1	0.021488132
156	0x3d311ae4	0.043238536
157	0x3ce254df	0.02762836
158	0xbe097abc	-0.13425726
159	0x3e7dc968	0.24783862
160	0x3e971b7c	0.29513156
161	0xbe2df21d	-0.1698689
162	0xbde0e66d	-0.1098145
163	0x3e171ca2	0.14757016
164	0x3cb63af6	0.022244912
165	0xbde2e6e2	-0.11079194
166	0xbdedf798	-0.116194904
167	0xbd9a9426	-0.07547788
168	0xbdb8255d	-0.089915015
169	0xbe681039	-0.22662438
170	0xbe37bb27	-0.17942487
171	0x3e76db84	0.24107176
172	0x3dc717ea	0.09721358
173	0xbc1a6e60	-0.0094257295
174	0x3e4aef5a	0.19817868
175	0x3e647db3	0.22313575
176	0x3dc19b15	0.09453408
177	0x3e190d99	0.14946593
178	0x3e2919a7	0.16513692
179	0x3d8b475d	0.06800721
180	0xbc39e116	-0.011345169
181	0xbcd408b9	-0.025883066
182	0x3de6665e	0.11249994
183	0x3df08372	0.11743821
184	0x3e0b629b	0.13611834
185	0xbb6c70cd	-0.0036077977
186	0xbdc9a375	-0.0984563
187	0x3dd45beb	0.103690945
188	0xbd45fda5	-0.048337597
189	0xbeade2bc	-0.33962047
190	0x3e220916	0.15823779
191	0x3de2acde	0.11068128
192	0xbd263469	-0.040577326
193	0xbe8ff72b	-0.28118262
194	0x3db4fb84	0.08837035
195	0xbe01a8c8	-0.12662041
196	0x3e9eac20	0.30990696
197	0xbe2e30c6	-0.17010793
198	0x3dbf3180	0.09335613
199	0xbdae8eda	-0.085233405
200	0x3db7bf64	0.08972052
201	0x3d8ada03	0.06779864
202	0x3e078556	0.13234457
203	0x3e28f0b6	0.16498074
204	0x3dca4a8b	0.09877499
205	0x3e1c0176	0.15234932
206	0xbe22f489	-0.15913595
207	0x3e175397	0.1477798
208	0x3e3ffa90	0.18747926
209	0xbd9f562c	-0.07780108
210	0xbd7aa909	-0.06119636
211	0xbdc6b2dd	-0.09702084
212	0xbd64a1d4	-0.055818394
213	0xbe951a6c	-0.2912172
214	0x3d8d302e	0.06893955
215	0x3b742eb7	0.003725929
216	0xbdb5bbc9	-0.08873708
217	0xbe595fba	-0.21227923
218	0x3d400eba	0.046889044
219	0xbd9020cf	-0.07037508
220	0x3e34c571	0.17653443
221	0xbaeba272	-0.001797749
222	0x3e14b178	0.14520824
223	0x3d4394c4	0.047749296
224	0x3e2b6d6b	0.16740958
225	0x3e5c9ea3	0.2154489
226	0x3d0b1bf9	0.033962224
227	0xbe9450d9	-0.28967932
228	0x3d686b9c	0.05674325
229	0x3d407b15	0.04699238
230	0xbd233cb6	-0.03985282
231	0xbd935da1	-0.07195593
232	0xbe4515ff	-0.19246672
233	0x3dbc7ee1	0.09203888
234	0x3e5be425	0.21473749
235	0xbdac168e	-0.084027395
236	0xbe934f44	-0.28771412
237	0xbdbb2717	-0.09138315
238	0xbcdcf73c	-0.02697336
239	0xbbe7b073	-0.007070595
240	0x3ef3ae1d	0.47593775
241	0xbd987370	-0.07443893
242	0xbd099c10	-0.0335961
243	0xbd01edbc	-0.03172086
244	0xbdcbb4de	-0.09946607
245	0xbf0844c3	-0.5322992
246	0xbd3938b4	-0.045220092
247	0xbe035e29	-0.12828888
248	0xbd603f91	-0.05474812
249	0x3cf329fe	0.02968311
250	0xbe475864	-0.19467312
251	0x3e8b49dd	0.2720479
252	0x3ed1c7b9	0.4097269
253	0x3ec38219	0.38185194
254	0x3d1256e3	0.035727393
255	0x3f60f2bb	0.8787038

rnn.bias_ih_l2 f4 [72]
0	0x3d9988b9	0.07496781
1	0x3e0cc881	0.13748361
2	0x3dbaeec0	0.09127569
3	0x3dd838ad	0.10557685
4	0xbd1cc8b8	-0.038277358
5	0x3c3a00a8	0.0113526955
6	0xbdef70a3	-0.116914056
7	0xbd332b6e	-0.04374259
8	0x3d109acc	0.035303876
9	0xbe779cd3	-0.24180917
10	0x3e12687e	0.14297673
11	0xbdf6e5e8	-0.1205557
12	0xbc2c497a	-0.010515565
13	0xbe7a47ac	-0.24441403
14	0xbdc3a5ca	-0.09553106
15	0x3f04f082	0.51929486
16	0xbe483133	-0.19550018
17	0x3e19b935	0.15012057
18	0x3e91f7f6	0.28509492
19	0x3c86fe34	0.016478635
20	0x3d001f14	0.03127964
21	0x3d852c8e	0.06502639
22	0xbd2f54ef	-0.04280561
23	0x3ed458e6	0.41474074
24	0xbf28dea9	-0.6596475
25	0xbedaa1be	-0.42701524
26	0xbb93c197	-0.0045091617
27	0xbebdcedb	-0.3707188
28	0xbeb6a7e9	-0.3567498
29	0xbeb35e3f	-0.35032842
30	0xbead8427	-0.33889887
31	0xbee4930e	-0.44643444
32	0xbf020228	-0.5078454
33	0xbe80ee62	-0.25181872
34	0xbeb8fe8c	-0.36131704
35	0xbbb79dae	-0.0056035137
36	0xbe181c5a	-0.14854565
37	0xbeda7eee	-0.42674965
38	0xbeb2a3b9	-0.34890535
39	0xbf44ba17	-0.7684645
40	0xbee3987c	-0.44452274
41	0xbeb7df52	-0.35912567
42	0xbe9347a1	-0.28765586
43	0xbd82ff8c	-0.06396398
44	0xbf21c1e1	-0.6318646
45	0xbf1849d4	-0.5948765
46	0xbcecedb1	-0.028921934
47	0xbf294870	-0.66126156
48	0x3c536624	0.01290277
49	0x3dfb4955	0.12269846
50	0x3cdd931f	0.027047692
51	0x3d5dff0b	0.054198306
52	0xbe5b013c	-0.2138719
53	0xbdfab4c6	-0.12241511
54	0xbddfab39	-0.1092133
55	0xbe07d6b6	-0.132655
56	0xbe14d774	-0.14535314
57	0xbe7f076c	-0.24905175
58	0xbe1b4e93	-0.15166692
59	0x3e924204	0.2856599
60	0x3da861f9	0.08221812
61	0xbd679b6d	-0.05654471
62	0x3e001b66	0.12510452
63	0xb98a7cdb	-0.00026414436
64	0xbdcd89d8	-0.10036057
65	0x3dc96991	0.09834588
66	0xbeba3287	-0.36366674
67	0xbec9c44f	-0.39407584
68	0x3b445b1d	0.0029961534
69	0x3e810ae1	0.25203612
70	0xbea77769	-0.3270829
71	0xbda95f52	-0.08270134
