Checkpoints/promising1_sines_checkpoint.pth (torch, 717514 bytes, 207 tensors)

rnn.weight_ih_l0 f4 [72, 5]
00000000: ac52 c83e dbd5 833c 864c 86bd 5482 953e
00000010: 66ed 843e de03 52bd 0dea b13b 8304 9dbd
00000020: 1a09 84be e2fa 56bd 2fb4 5abe 4bd7 993d
00000030: 4f9c c53e b226 5a3d 96fd d7bc 5a52 4b3f
00000040: 601a 093f 3bc6 e63c 065a 6cbe fb64 e43e
00000050: dc02 f6bd bedc 903e 2489 e7be f047 403f
00000060: 0b81 d2be 2539 bb3c 0d4a 513e 2510 28be
00000070: 96ba 133e b3d7 083e c857 d5bd bb4c e93d
00000080: a70e e9be 1451 0fbe f82e 613e 7edc c53b
00000090: eae4 913e a462 80bc e2bb 163e 934c 453e
000000a0: 8a38 e7bd c42f 993e 922b b23d 640c 9e3e
000000b0: d573 203e cc35 9cbd f6df 543d 1e35 a2bd
000000c0: db15 0d3e 64be f5bc 21e8 90be f4a4 113e
000000d0: beb7 063f 8854 153e d7fc ba3e 8c2f 91be
000000e0: 1603 2a3e cbfe cf3d 0f70 25be 19d9 843d
000000f0: d738 a93c b440 e23e b163 dd3d 9a3a 833d
00000100: 88b0 e1bb 3424 8abe 04a9 b7be 097a 1c3f
00000110: 4a8c 383f 38e7 11bf c89b 11be e570 85bd
00000120: 03c3 a23d e1c0 59bd 4f52 42bd 43f2 fabd
00000130: 79f2 06bf 338d ba3e 8653 07be 5949 4e3f
00000140: a08d 50be 4bbb e33d badc 423e c338 0bbe
00000150: 5b0c 7e3e 2982 ed3d 2ad0 743d dde5 be3e
00000160: 7112 4dbd fece bb3e 57de 7a3c f23b d5bd
00000170: cb30 bc3d 21fd 833e 2a61 db3d f8ac 2a3c
00000180: c6d3 6d3d 6769 843e 8784 5bbe 02bf 07bd
00000190: c969 febe 76a5 053e e795 b13e 8f23 3d3d
000001a0: 90d3 103e 9a26 d4ba d7c3 593c b4f1 0bbd
000001b0: eac8 a93d 06b5 a53d 5774 c83d 70f6 053f
000001c0: 9caa 753e f083 7cbe 5700 df3e 1230 cebc
000001d0: 203e 1e3f 92d3 b3be 7376 003f b722 7f3e
000001e0: cf69 9abe 9cf2 38bf 16f1 b6be 1bd8 40be
000001f0: 5032 7bbf 004c 32bf d144 ca3d 071c 5e3d
00000200: a2c2 04bf f837 263e 1e65 06bf 2370 16be
00000210: 47d3 1ebf 3d1b 24bf 7939 5fbe 807f 89be
00000220: fa33 69bf 04ed acbe 3896 983e e879 2bbf
00000230: 9760 4bbf 560e 75be daa2 05be 59f5 073e
00000240: c996 c0be bf0d ebbe b40a 843e 4218 34bf
00000250: 234f 14bf f40b a1bd ad40 a8bd f0ee 523c
00000260: 3730 18be fe31 3cbf 9dfc 7a3d c7c7 29be
00000270: 9fc0 21be 59dd 30be d1e2 273e f2c2 6cbd
00000280: 14fc 3fbf 5cae 9abe e1ce b5bd 5871 d5be
00000290: 1dd6 3a3c 9a66 0c3f 3f8c 32bf b9d4 4cbf
000002a0: 213a 143e 6611 9dbe 67c9 08bf 4a8c 33be
000002b0: 57a8 8bbe 1711 30be 7a6d c3bd 5ea7 febe
000002c0: e380 22bd 4ad2 153d 4b86 a6be a330 cc3d
000002d0: 572c a9be f5da 05bf 9e58 193e 9daf 25bf
000002e0: 7123 1dbf 7071 96be d944 45be 44b1 2ebf
000002f0: 3a46 88bf e027 d2be 138b 8ebe 41be 5fbd
00000300: 2e06 ea3c 5781 d73c a82f babd 55cc cabe
00000310: 9ded 90be 4ee9 e7be a17b 8cbf a759 a3be
00000320: d7c0 0ebf 2194 c9be 584b 26be d97d f83d
00000330: cd78 93be 4e73 27bf 9f50 c5bc 72c2 52bf
00000340: 8875 48bf 85df b9ba 27a5 993d e3e2 a3be
00000350: e123 fdbe 4fa7 87bd 249d 05bf 0e1e 07bf
00000360: 0882 81bf 8bf1 9bbe 8cf6 d1bd 510a 38bf
00000370: 21fc f3be fa25 62bf 3af8 fc3d caca c93e
00000380: c431 c7be f636 2b3e 8537 343e 6c0b 613d
00000390: cef6 ba3d 10c8 9e3c bea2 06bf ef71 53bf
000003a0: fd3d 4ebe 4105 2bbf da47 ffbe 82ee b5be
000003b0: 8c2a 81bf 9576 91bf 6b3b 5fbf 92f5 343f
000003c0: 55c8 c3be 4ac7 883e 3cce 913e 2682 6ebe
000003d0: c4e0 4bbe 5440 11bc 6832 96be 6370 393d
000003e0: 145d 6abe 766b cbbd 59d6 a0be 4cf8 cfbe
000003f0: 0a4c eebd eaf1 dd3d ff88 67be 0dda 093e
0.39125574 0.016093185 -0.065575644 0.29200995 0.2596237 -0.05127322 0.0054295124 -0.07666876
-0.25788194 -0.052485354 -0.21357797 0.07511767 0.38595816 0.05325956 -0.026366036 0.79422534
0.5355587 0.028170696 -0.23081216 0.44608292 -0.12012264 0.28293413 -0.45221817 0.7510977
-0.41114077 0.022854397 0.20438404 -0.16412409 0.14426646 0.13363533 -0.104171336 0.11391588
-0.4551899 -0.13995773 0.21990573 0.0060382476 0.2849496 -0.015672036 0.14720109 0.19267492
-0.11290081 0.29919255 0.08699717 0.30868828 0.15669186 -0.076274484 0.0519714 -0.079202875
0.13777868 -0.029998012 -0.283021 0.14223081 0.5262412 0.14583027 0.36521026 -0.28356588
0.1660274 0.1015602 -0.16156028 0.064867206 0.020656986 0.4418999 0.1081003 0.06407662
-0.0068874992 -0.26980746 -0.35871136 0.6112371 0.72089064 -0.56993437 -0.14219582 -0.065156735
0.07947352 -0.05316246 -0.047441777 -0.12253239 -0.52713734 0.3643585 -0.13215455 0.8058067
-0.20366526 0.11119708 0.19029513 -0.13595872 0.248094 0.11597092 0.059768833 0.37284747
-0.050066415 0.3668136 0.015311799 -0.10411824 0.09188994 0.2577906 0.10711892 0.0104172155
0.05806329 0.25861666 -0.21437274 -0.033141144 -0.49690083 0.130514 0.3468468 0.04617649
0.14143205 -0.001618582 0.013291321 -0.034166053 0.082902744 0.08091168 0.09787815 0.5232916
0.23990864 -0.24659705 0.43554947 -0.025169406 0.61813545 -0.35122353 0.5018074 0.24915586
-0.3015885 -0.7224519 -0.3573081 -0.18832438 -0.98123646 -0.69647217 0.09876407 0.054225948
-0.51859486 0.16232288 -0.5249804 -0.14691214 -0.62041134 -0.6410406 -0.21799268 -0.26855087
-0.91094935 -0.3377458 0.29802108 -0.6698289 -0.7944426 -0.2393125 -0.13050404 0.13277186
-0.3761504 -0.45908925 0.25789416 -0.70349514 -0.57933253 -0.07863608 -0.08215461 0.01287435
-0.14862143 -0.7351378 0.061276067 -0.16580115 -0.15796135 -0.17271937 0.16395117 -0.0578031
-0.74994016 -0.3021115 -0.0887735 -0.41688037 0.011403588 0.5484406 -0.6974525 -0.8001209
0.144753 -0.30677336 -0.53432316 -0.17533985 -0.2727687 -0.1719402 -0.09542365 -0.49737066
-0.039673697 0.0365775 -0.32524332 0.09970214 -0.3304164 -0.52287227 0.14975211 -0.6472109
-0.61382204 -0.2938342 -0.19264545 -0.68239236 -1.0646431 -0.41046047 -0.2784048 -0.0546248
0.0285674 0.026306791 -0.09091121 -0.39609018 -0.28306285 -0.45295185 -1.0975229 -0.31904337
-0.55763 -0.39370826 -0.16239679 0.121333785 -0.288031 -0.65410316 -0.024086295 -0.8232795
-0.7830434 -0.0014180994 0.075022034 -0.32009038 -0.49441436 -0.066237085 -0.521929 -0.52780235
-1.0117807 -0.3045772 -0.10252103 -0.7189074 -0.47653297 -0.883392 0.12352033 0.39412528
-0.38905156 0.16720185 0.17599304 0.054942533 0.091291055 0.019382507 -0.52592075 -0.82595724
-0.20140834 -0.6680489 -0.49859506 -0.3553353 -1.0091109 -1.1364313 -0.8720004 0.7068721
-0.3823878 0.26714545 0.28477657 -0.23291835 -0.1990996 -0.008865435 -0.29335332 0.045273196
-0.22887069 -0.09932606 -0.31413534 -0.40619123 -0.11635597 0.10837157 -0.22610854 0.13462086

rnn.weight_hh_l0 f4 [72, 24]
00000000: c728 663b 1589 113d e102 e6bd c064 e03e
00000010: 91d3 e53d e4a9 8b3e b0b3 4c3e 39c9 fcbc
00000020: b5c7 b23c be4a 67be 2a46 863d 023b b13d
00000030: 7f80 5dbd 7edc 003e fd59 cc3d 21b5 9b3d
00000040: b240 ed3d b22b 70bd a928 263e 3ce0 d23c
00000050: 6540 c73d cddc 28be f404 bfbd 92c8 533d
00000060: 2219 743b b755 1dbd 3132 ad3d 8497 febe
00000070: 2864 b5bc 6d23 f0bd 6ff3 e8bc 283a 98bd
00000080: 0537 d3bd deef 96bd fadf 8cbd 0eda f33d
00000090: 2716 fa3d 8fbd 813e 00f3 7bbd aa9d 88be
000000a0: 37f7 58be 40d5 133d a0aa 823d 0638 46be
000000b0: 6e99 03be 12f1 fabd 28fe 853e e0fe e73c
000000c0: 40c6 dfbc f5f1 95bd b67d 2a3e 212b 56be
000000d0: adbe 923d c1fa c5bd c9bc ec3d f8f5 2a3d
000000e0: 1f12 55be e5ac c03c 87ca e2bd b642 333e
000000f0: cdb9 4bbe e036 fe3d ca45 ea3d 6139 59be
00000100: 9ff4 47bc f52c ac3d a0bc 593e e380 bc3d
00000110: eb5c 3b3e de42 7d3e d820 a6bc a320 34bf
00000120: 57fb 41bd 16c2 823c c90b f9be 5ad8 b33e
00000130: afec e53e 76b9 063e d597 d03d 899c 1f3e
00000140: 6048 07bd 727d bdbe 1502 b0be ff66 8f3e
00000150: f391 3b3d 060c 233e f1c3 3ebd c289 35be
00000160: 19cb 0abf 2e3d 21be 93e4 ef3d c1c4 bc3d
00000170: 3795 213e 03d0 d7bd c3ae 28bd 0651 77be
00000180: e078 afbe 0dc3 2ebe 794c 39be acbf 69be
00000190: 1015 e93e 80ae 873d d8d5 213c 1e70 b23d
000001a0: d299 3abd 53de de3d f005 afbd e126 953e
000001b0: 5e07 83bd 3b7d 38be 47fc 1dbe a5ae 133e
000001c0: a161 6e3e 05ff d9be 2fd2 103f 1416 debe
000001d0: d71d 31bc ea56 c1bd e414 afbd 2c07 733e
000001e0: ceab 133e cd86 0f3e 4b27 b03d e90c c5be
000001f0: 3623 c0bd 03cb a2be a156 763e d020 0dbe
00000200: 3530 efbd be36 c73e 784a 053e 10be b6bd
00000210: 0aa5 a33d b4aa c2bd df37 0c3e 009c 47bd
00000220: ec0a ce3c 312c 64ba f8bd 223e b3a4 2cbe
00000230: c448 523c c18c d2bc d0fc ee3d 77b2 0f3d
00000240: fca5 5b3e a4de 86be 46c8 d6bd a9c2 83bd
00000250: dc87 72be c115 b3bd 5687 9ebd 0351 a4bb
00000260: 4d0e e3bc 7bbb 993e ce70 61bd e5fb 31be
00000270: 0773 1b3e d8f4 863d c626 903b f531 353d
00000280: 00ac 51bd b8f6 4ebd 1e4f edbb 51dd 7dbd
00000290: 6f08 89bc ff43 223c 3f91 05be ccb6 6d3e
000002a0: 7a21 62be d9fc 3dbd 9565 953c 4424 1ebf
000002b0: 3b70 6d3e c676 66be 712f 3c3e 4360 4c3d
000002c0: c17f 65bd 1a8d c83d 9992 1b3c 25ff fa3c
000002d0: 80b1 79be 9f7e 993e 77bd 50be 93c1 e4bd
000002e0: d5a8 7f3d 1df8 173d b5cb d73d c42e 81be
000002f0: dc39 87bc 19ca 45be b147 833d 7562 283d
00000300: a419 893d b6d2 32be 9d58 60bd d519 bdbe
00000310: aeee a6bd 355a 623e d290 623e 68fd 7c3e
00000320: ad0f 32be ca14 9c3e 7c15 7ebe 5a57 7a3e
00000330: 378e 23be 7187 adbd 3cec 1dbc 5b83 1bbe
00000340: 3a39 013d f212 ab3d 2db3 cfbd 806d 453d
00000350: bfa0 243e 9a27 1fbe 6ba1 fcbd ce95 15be
00000360: 0a92 af3d 8c8c c53c 8ef7 cf3b 8456 85be
00000370: bdbd 1abf 02dc 7dbe db2f 1a3e f958 d83d
00000380: 8fac d3bd 6b10 d63e 70f9 ef3d d84e 41be
00000390: 8434 f0bd 579d eebd 379a f0bd 7487 48bd
000003a0: d1ff a83e 1adc 5dbe 9e4a 073e 02e9 17be
000003b0: 2acb debd 9dc4 003d 4f79 123e 0b28 8c3e
000003c0: 5987 f5bd fa36 333e 262d b93c 1177 dcbe
000003d0: ef27 5e3e 5224 2e3c 3f99 0c3e 0505 013d
000003e0: 5f05 3dbe 54b1 da3c b62e 4ebe e1be f43d
000003f0: c947 56be 0774 183e ed12 5cbc e42e e33d
0.003511952 0.035531122 -0.11231018 0.43826866 0.11221994 0.27278054 0.1999042 -0.03085767
0.021823743 -0.22587106 0.065563515 0.08653833 -0.05407762 0.12584111 0.099781014 0.07602907
0.11584605 -0.05863542 0.16226448 0.025741689 0.09729079 -0.16490479 -0.093271166 0.05170495
0.0037246426 -0.038411822 0.08456839 -0.49724972 -0.022142485 -0.11725507 -0.02843639 -0.074329674
-0.103132285 -0.0736997 -0.06878658 0.11906825 0.122112565 0.25339934 -0.06151104 -0.26682788
-0.21188055 0.036092043 0.063802004 -0.19357309 -0.12851498 -0.12253012 0.26170468 0.028319776
-0.027316213 -0.0732154 0.16649517 -0.2091489 0.07165275 -0.09666968 0.115594454 0.04173848
-0.20807694 0.023519943 -0.11073785 0.17505917 -0.19895096 0.1241281 0.114390925 -0.21213295
-0.012204318 0.084070124 0.21263361 0.09204271 0.18297164 0.24732539 -0.020279333 -0.703623
-0.047358837 0.015961688 -0.48641804 0.35126 0.44907138 0.13156685 0.1018521 0.15587057
-0.033028007 -0.3700977 -0.34376588 0.28008267 0.045793485 0.15922555 -0.046573583 -0.17728332
-0.5421615 -0.15745994 0.11713519 0.09217215 0.15779577 -0.10537722 -0.04118229 -0.24152002
-0.34271908 -0.17066593 -0.18095578 -0.22827023 0.45523882 0.0662508 0.0098776445 0.08712791
-0.04555685 0.10882249 -0.08546054 0.29131225 -0.063978896 -0.18016522 -0.15428267 0.1442209
0.2327943 -0.42577377 0.56570715 -0.4337622 -0.010810337 -0.09440406 -0.085489064 0.23733205
0.14421007 0.14016266 0.086012445 -0.38486412 -0.09381716 -0.3179551 0.24056484 -0.13782048
-0.11679117 0.38908952 0.13016689 -0.0892297 0.07990463 -0.09505215 0.13693188 -0.048732758
0.025151692 -0.0008704095 0.1589278 -0.16859703 0.0128347315 -0.025701882 0.11669314 0.035082307
0.21450037 -0.26341736 -0.10487418 -0.06433613 -0.23684639 -0.087443836 -0.07740657 -0.00501454
-0.02771678 0.3002585 -0.05503922 -0.17381246 0.15180598 0.06589669 0.0043991534 0.044237096
-0.051189423 -0.050528258 -0.0072420975 -0.061978642 -0.016727654 0.009903907 -0.13043688 0.23214263
-0.22083083 -0.046383712 0.018236915 -0.61774087 0.23187344 -0.22506246 0.18377472 0.04989649
-0.05603004 0.09792538 0.009495401 0.03063924 -0.24384117 0.29979417 -0.20384775 -0.11169734
0.06241687 0.037101854 0.10536901 -0.25230992 -0.016507082 -0.19315375 0.064101584 0.04110952
0.06694344 -0.17463192 -0.05477201 -0.3693377 -0.08150993 0.22104724 0.22125557 0.24706042
-0.17388792 0.3048461 -0.24812883 0.24447384 -0.1597222 -0.08473099 -0.009638842 -0.15186827
0.031548716 0.08353223 -0.10141597 0.04820013 0.16076945 -0.1554245 -0.123354755 -0.14607927
0.085727766 0.02411487 0.0063466495 -0.2604257 -0.6044577 -0.24790958 0.15057318 0.10563845
-0.10335647 0.418094 0.11717498 -0.18877733 -0.117287666 -0.11651104 -0.11748164 -0.048957303
0.33007672 -0.21665993 0.13212058 -0.14834979 -0.10878594 0.031437505 0.14304088 0.273743
-0.11988706 0.1750144 0.022604536 -0.4305959 0.21694921 0.010628777 0.13730334 0.031498928
-0.1845908 0.026695885 -0.20135006 0.1195047 -0.20925821 0.14888011 -0.013432247 0.11092928

rnn.bias_ih_l0 f4 [72]
00000000: 2ae6 e0bd 8fc4 5c3e 6660 853e 93b3 b2bd
00000010: dc97 da3d 4155 283e 19af 023e 1672 babc
00000020: 51e5 5abd 27fb 66bd 4e0b dabd 22fa 17be
00000030: d347 133e 062d 683e fd92 893d b4f5 313e
00000040: 1db4 3a3e 12da 6e3e 80c9 19be 2d63 863e
00000050: 36fc 743e 8737 6e3d 67c4 1c3d 7887 e83c
00000060: f4fc 733d 22c0 5e3d 5e85 e9be 0d1f 19bf
00000070: bd85 b9be fd64 3a3d 0256 8bbe 375a 133e
00000080: a707 243e 3688 7e3e 574b 213d 645f 62bd
00000090: 79af 5bbe 88e0 89be 0826 3c3e 20c8 2abe
000000a0: 6edf 0dbe 1b3f 93be 8be4 153e ba85 1abf
000000b0: 2c68 a1bd 3360 2c3e 0c1a bbbe 10a1 793e
000000c0: f741 113d 4bc2 e53d 16ff b2bd 855f 073e
000000d0: e73e 8dbe 2ce2 a7bd 8bee be3d aa4f be3d
000000e0: aec9 c9bd d884 fabd 7a89 3ebe 11a9 833e
000000f0: c381 e9bd 1d3e 243e 0937 24be 8f25 12be
00000100: a6c6 3c3c 6ab3 df3d 9342 d53c 0d10 ebba
00000110: 0e84 85bd aa5e 9fbd c067 253c b34d a23d
-0.109814 0.21559356 0.2605011 -0.08725657 0.10673496 0.16438772 0.12762107 -0.022759479
-0.05344135 -0.05639186 -0.106466874 -0.14841512 0.14382868 0.22673425 0.06717489 0.17378885
0.1823277 0.23325375 -0.15018272 0.2624754 0.23924336 0.058158424 0.03827324 0.028384909
0.059567407 0.05438245 -0.45609564 -0.59813005 -0.36234847 0.045506466 -0.27214056 0.14389883
0.16018544 0.24856648 0.03937849 -0.055266753 -0.21453656 -0.26929116 0.18373883 -0.16677904
-0.13854763 -0.28759083 0.14637963 -0.603603 -0.07881197 0.16833572 -0.3654331 0.24377847
0.0354633 0.11218699 -0.0874006 0.13220032 -0.27587053 -0.08197436 0.09322842 0.092925385
-0.098529205 -0.12232369 -0.1860713 0.25714925 -0.11401703 0.1603932 -0.16036619 -0.1427214
0.011521971 0.109228924 0.026032722 -0.0017933861 -0.06519328 -0.077817276 0.010095537 0.07924976

rnn.bias_hh_l0 f4 [72]
00000000: b1c9 1a3d 2dc8 683e a879 533e cf73 b5bb
00000010: 79db bd3d e4b4 593e c672 58be 977d a33c
00000020: bcbb e4bc e1cb 953b 68a9 c4bb 5290 dd3d
00000030: 21c0 13bd 9224 fb3c dfda bfbd e433 3b3e
00000040: 67a3 273e f65a 773c 97cc c9bd a16e 27bc
00000050: 5ecb 633b de16 0a3e 2a70 b53d 4b28 fdbd
00000060: dca2 113e 4e5b 3bbc 55ee 00bf b3e1 13bf
00000070: 0ce7 03bf 482b 6e3e 5b47 85be 79e0 ccbd
00000080: 66ef 38be 1f7f 043e 2155 a03c 7242 c9bd
00000090: 46d3 55be ec91 afbe 5f10 12bd ad1a 74be
000000a0: cf27 d9bd f842 2cbc 030e 653e 6d11 36bf
000000b0: 4d4e 2abe 4b38 293d ecae e4be 615e e73e
000000c0: 1e00 f4bd 1441 663e a1e2 23bd fb9b 6dbd
000000d0: e5aa a73d 5ca0 39be b8d6 3e3d 2344 bb3c
000000e0: b959 70be 2472 cebd a07b 98bd 6a9c 92bc
000000f0: 3ee4 f3bc 664e b1bd 554c 76be e533 3cbe
00000100: 82f5 403e 0928 2c3d 1a19 523e 3002 dc3d
00000110: 28e1 f6bd 3a19 263d 0f00 ef3d d71b 2a3d
0.037790004 0.22732611 0.20651877 -0.005537487 0.09270377 0.2126041 -0.21137533 0.019957347
-0.02792155 0.0045714234 -0.00600164 0.108185425 -0.0360719 0.030657087 -0.09367918 0.18281513
0.16370927 0.01509737 -0.098534755 -0.010219247 0.0034758667 0.13485286 0.08859284 -0.12361201
0.14222282 -0.011435343 -0.50363666 -0.57766265 -0.51524425 0.23258698 -0.26031002 -0.10003752
-0.18060073 0.12939118 0.019571843 -0.098271266 -0.20881376 -0.34291017 -0.035660144 -0.23838301
-0.10603296 -0.0105140135 0.22368626 -0.7112034 -0.16631432 0.04131345 -0.44664705 0.45189193
-0.11914085 0.22485763 -0.040011052 -0.058010083 0.081868924 -0.18127578 0.04659149 0.022859639
-0.23471726 -0.10080364 -0.074454546 -0.01789685 -0.02977192 -0.086575314 -0.24052556 -0.18379171
0.18843654 0.042030368 0.20517388 0.10742605 -0.12054664 0.0405514 0.11669933 0.041530456

rnn.weight_ih_l1 f4 [72, 24]
00000000: 3438 893e 63f4 b5bd f419 5bbe e078 923e
00000010: 2cf7 b33e e661 bebd 924a 76be 2930 f83d
00000020: 17d5 02be cb21 7d3e d407 2fbd 701f f13d
00000030: 8065 5d3e f8e2 743e 82af 67bd 51ab 1ebe
00000040: 7a29 28be 272f 10be e0ef 3dbe d94d b33a
00000050: d65c 65be 89d9 b9bd 58e7 33be 5a97 f8bd
00000060: e10e b6bd f5ca 1c3e 2cf2 a2bd ee2e 85bd
00000070: f884 12bf 3bc9 f63e d359 d23d e601 3a3e
00000080: ded6 b33d 55b0 e53d 382d 20be 8a88 d13b
00000090: b9a5 c33d 285d 0fbd d1f8 ab3d 0895 2abe
000000a0: ccb5 2bbe c7af 0dbe 19f4 183d d138 86bd
000000b0: d896 463e 47f8 3cbe 47e2 8a3e 34aa 223f
000000c0: 3e5c 8abd 9b96 01be 0968 7a3e f467 2cbf
000000d0: 2f46 e2be 90c0 4ebf 6634 7abe d0c3 293e
000000e0: cef8 cebe 83a5 093f 115a 653d 6913 f23d
000000f0: 5c9d 683d 019b 753e 3e81 a7bd ac29 02be
00000100: 1750 5b3d 4d0a cebd 402c 84bd cf31 ebbe
00000110: c76a c13d 7036 ef3d d9a3 e43d 3e74 943f
00000120: aeb0 8dbd 1dc5 9a3e 2b29 df3d 6a40 7f3e
00000130: 42fc debe 711e 6ebd e338 d93c d080 d73d
00000140: c798 f1bd f785 21be e505 23be daa8 27be
00000150: d083 853e 10c3 a3bd dca3 f43c 7e21 1bbd
00000160: 83a3 53be e66c 04bd fcbb a23c 4010 a43e
00000170: b938 97bd 5f21 e1bc e2d1 d13c 0c6a 453e
00000180: 8d45 a83d 5af9 b33d 80c0 05bd cd62 793e
00000190: 118f e13b fcbb 243d 356a 3e3e 2921 603d
000001a0: 9493 573d 1e7f a2be 5b35 dabd 443a 323e
000001b0: 29ce 2abd 229c 503e 0673 58be 9b9b 10be
000001c0: da20 4abd 6a94 f33d 21d2 babd 4f95 103d
000001d0: 6b89 f63b fda9 debd 2c90 88bd 817e a63c
000001e0: 2d2e 2dbb 096f 233e 05f4 c0be 4a01 56be
000001f0: 9005 b13e a0d3 263e d739 e73e a037 cd3e
00000200: 035c 1dbe 4e3e 6b3c 437b 41be 12db 8a3e
00000210: 889d e2bc 71b8 0a3e 3e8f 2ebe 97ef 4bbe
00000220: eabd dfbe bd2a 723d 2170 393e 76dc 65be
00000230: c688 8e3d bb01 96be 6e81 69bd cd2a efbd
00000240: 525f b43c ce1f 2a3e bdc0 0ebe 923d 493c
00000250: 16b6 c3be fa9d 17bd a4c8 a03e 1e62 273e
00000260: bbb3 10be 544f ec3c 19a5 adbe ad41 153e
00000270: 3ced 333d 71b7 b03d cf3d edbd a8b6 c2bd
00000280: 8b13 a4be c361 e33d 5575 0a3e e1d2 23be
00000290: 73e7 823b 4932 90be 514f 993e 509d 963e
000002a0: e1da 163e 1241 07be cfb4 9fbe e053 2abd
000002b0: 0410 9e3d 0afd 243d 1446 533e 0ddf af3d
000002c0: 5959 73bd c699 8a3c b5f2 81bc d7e0 d3bc
000002d0: 0195 a63d 9ad5 2abd b2a2 febd 76a2 943c
000002e0: 6528 b33d dcfd 7fbe 9b85 2f3e 89ae 4abe
000002f0: ea48 6f3a d62b 803c b06c 8e3d 5d49 c83d
00000300: 53c1 253e e507 833e 86e5 67bb 92d8 00be
00000310: 7647 efbe 1a15 23be b344 73bc ff8b 93bd
00000320: 024f 2cbe c2a2 bcbe 4edc c5bd a1e1 14be
00000330: 2497 1fbe b608 e53d 8011 bc3d 6d50 98be
00000340: 5400 1cbd 391f f03d 22b1 01be b6ca 653c
00000350: a5c7 ecbd b2a0 283e a632 c83e a6e6 a83c
00000360: be96 58be 0033 0d3d d414 e93c 5336 0c3e
00000370: ddc8 6dbe 32b8 7dbd 26ed efbd 4bc0 2ebd
00000380: 0515 52be 381f f6bd 11c6 50be 0e85 923d
00000390: 1403 ac3d 6c12 623e fe15 83bd b451 0cbc
000003a0: 9e3b dfbd 0530 1f3e 7f4c b43d f993 5ebd
000003b0: 54b1 4cbe 68e1 023e be4d 883e 9a09 d7bd
000003c0: 43ec b63d 9a4a d23d dadd 88be 60de 723e
000003d0: a3f0 59bd 129c 06be 345b a73e ce0d 893e
000003e0: c608 003d 02b8 89be 7ec5 95bd 3df8 4b3e
000003f0: 30e2 b6be bdae f23b 1b0a 7abe 9d5c 92be
0.26800692 -0.08884504 -0.21396619 0.28607845 0.35149515 -0.092960164 -0.24051884 0.12118561
-0.127766 0.24719922 -0.042732075 0.11773574 0.2162075 0.23914707 -0.05656386 -0.1549504
-0.16422072 -0.14080487 -0.18548536 0.0013679817 -0.22398695 -0.09074695 -0.1756872 -0.12138243
-0.08889557 0.15311797 -0.07956347 -0.06503092 -0.57234144 0.48200402 0.10271039 0.18164787
0.08781217 0.11215273 -0.1564225 0.0063944506 0.095530935 -0.03500095 0.08397067 -0.16658413
-0.16768569 -0.13836585 0.037342165 -0.065538056 0.1939348 -0.18454085 0.2712576 0.6354096
-0.06755875 -0.12655108 0.24453749 -0.6734612 -0.4419417 -0.8076258 -0.24434051 0.16578603
-0.40424198 0.53768176 0.055994097 0.118201084 0.056790695 0.2398491 -0.08178948 -0.12711209
0.053543177 -0.100605585 -0.064537525 -0.45936438 0.09444194 0.11680305 0.11164064 1.1597974
-0.069184646 0.3022851 0.10896524 0.24926916 -0.43551832 -0.0581345 0.026516384 0.10522616
-0.11796718 -0.1577376 -0.15920217 -0.16373006 0.26077127 -0.079961896 0.02986329 -0.037873738
-0.20667844 -0.032330416 0.019865029 0.32043648 -0.07383866 -0.027481733 0.025612775 0.19278735
0.08216391 0.087877944 -0.032654285 0.24354096 0.00688351 0.04021834 0.18595202 0.054719124
0.052630976 -0.31737608 -0.10654708 0.17405039 -0.041700516 0.2037206 -0.21137628 -0.14121859
-0.049347736 0.11893542 -0.0912211 0.03529864 0.0075237057 -0.108722664 -0.066681236 0.020323994
-0.0026425228 0.15960325 -0.37686172 -0.20898929 0.34574556 0.16291666 0.45161316 0.400815
-0.15367131 0.014358116 -0.18894677 0.27120262 -0.027663007 0.13546921 -0.1704683 -0.19915615
-0.4369958 0.05912279 0.1810918 -0.2244738 0.06959681 -0.29298195 -0.0570082 -0.116780855
0.022018109 0.16613695 -0.13940711 0.012282746 -0.38224858 -0.037015893 0.31403077 0.16346022
-0.14131062 0.02884642 -0.33915022 0.14575835 0.043927416 0.08628739 -0.11584055 -0.09507495
-0.3204616 0.11102631 0.13521321 -0.15998413 0.003994876 -0.28163365 0.29943326 0.29416895
0.14731933 -0.13208416 -0.31192634 -0.041583896 0.077178985 0.04028038 0.20632201 0.085874654
-0.05941138 0.016919028 -0.015862802 -0.025864048 0.08133889 -0.041707613 -0.124333754 0.018143874
0.08747939 -0.24999183 0.1714081 -0.19793142 0.00091279915 0.015645903 0.06954324 0.09779618
0.16187029 0.2559196 -0.003538461 -0.12582615 -0.46734208 -0.15926018 -0.014847922 -0.072044365
-0.16827014 -0.36842924 -0.096611604 -0.14539196 -0.15585 0.11183302 0.09183025 -0.2974886
-0.03808625 0.11724705 -0.12665227 0.014025381 -0.11561517 0.1646755 0.39101142 0.020617794
-0.21151254 0.034472466 0.028452314 0.13692598 -0.23221155 -0.06194324 -0.11715154 -0.042663854
-0.20515831 -0.12017673 -0.20388056 0.071542844 0.083990246 0.2207734 -0.06400679 -0.008564401
-0.10900043 0.15545662 0.08803653 -0.054340336 -0.1998952 0.12781298 0.26621813 -0.10499878
0.08931782 0.10268135 -0.2673176 0.23717642 -0.053208005 -0.13145474 0.3268677 0.26768345
0.031258367 -0.268982 -0.07313059 0.19918914 -0.35719442 0.0074060843 -0.24417917 -0.28586283

rnn.weight_hh_l1 f4 [72, 24]
00000000: 67a9 00bd ba7c 473e 897f de3d d2d4 51bd
00000010: 2b0b 873e b048 813d a760 e43d 360e 503e
00000020: ab97 9e3d 684b ee3d e77a cbbd a0da 08bc
00000030: cbb2 8dbe d42f 193e 112e 88be ec97 48bd
00000040: 7172 343e d7fd e03d 510e 5bbd 6d7d 5f3e
00000050: 711b f2bb 6e98 303e d8f3 8dbd 9c8b 9a3e
00000060: 3589 90be 5cf5 6c3d e6e8 c7bd afac 5ebe
00000070: 8a52 7e3d 7470 dfbd 7d42 52be 99f2 19bd
00000080: e298 12be e8df d3bd e4cc 8fbd 689f babe
00000090: 8df1 f13d 6106 bf3e 935b 973d 3bbe 903c
000000a0: 5816 edbd 7cae 463d 335c 933d 85df 3e3d
000000b0: a5fa e1ba eca4 60be 27f8 53be d452 e23d
000000c0: 8621 b23e 5ed5 c43d fce5 5fbe 7bc2 59be
000000d0: 4da7 ab3d 147b 013e 4b59 693e 14a7 5e3d
000000e0: 75fd 2bbd d449 ebbc 99e0 013e 6b6b c13e
000000f0: 3afa 59bd 5b6b 89be 3caf 953d 9bd6 563e
00000100: 0a72 dd3d 9c53 2cbe 5338 90be 7ef6 10be
00000110: 2bda a4bc 6130 c5be bcf6 59be 3be9 79be
00000120: e138 12bd 53be 013e 4f7a bf3b 3a74 653c
00000130: ceda 723d 0267 b4bd 892c 2abe f0bb 4abe
00000140: eac4 fdbd b1fe f93b 6f7a 8b3c 5724 75be
00000150: c898 f13c 1882 533e c91a d9bd 5ee6 983c
00000160: cdb5 e93d 7d9c 373d 12d3 37be 7cf6 6a3e
00000170: 5f34 3bbe eb3b 38be e540 173c 669e 2d3e
00000180: 48a5 b4bd 5078 05be 835b 593e f759 9cbe
00000190: 93fe 263d e511 a4bd 0ea5 93bd 9dbf 813e
000001a0: 08fb 8fbe 27ce d83d 8121 3c3e 0ca5 a4bd
000001b0: bd86 073d 690b a6bd f108 c1bd 8818 f53d
000001c0: ed65 ff3d 98d0 e93d 8572 bfbd b775 143e
000001d0: fa8e 4ebe bc9c 393e 185d 783c 7506 fc3d
000001e0: 5b9a 3abc ab8d 393e 1a64 69be c798 91be
000001f0: f97f 693e 750a ebbd a1ad 03bd fd3f b3bb
00000200: db5b 23be 125a 31bd b150 c0bc 2f86 0a3e
00000210: 9c4d 57be 7522 793d 31c3 99be 59ea 9e3d
00000220: 5804 9abe e445 05be a19a 2fbe f0d5 273e
00000230: 1e76 4fbd 4e66 65bc 579a 1ebe ac2d 90be
00000240: 28b4 84bc 0a6f 7e3c fd46 9d3e 9fe8 e0bd
00000250: 2d51 ae3e 1da6 f1bc 17fe 85be c1cd 283d
00000260: 5184 c43d 8091 983d 2249 b1bd d27c 3f3d
00000270: 38e1 53be 60c4 cdbd 5a9b 47bd 777c 963e
00000280: 5612 53be 7bec 9bbe bf9c a9be 0bda 8a3e
00000290: 5afd e5bd e2d4 d8bd 1a7a 81bd 41f6 94bd
000002a0: b232 8dbd bdb5 71bd a422 ec3d 389d 5036
000002b0: 4870 163e 7f1c 7dbe 55bc 42bd 69dd e0bd
000002c0: 8d2d 1b3e 1743 2abd a0d7 7f3d d9db 20bd
000002d0: 6747 c33d 2e94 823d b08d 38bd eeaa 653e
000002e0: db08 f63c eeb7 29be f8af 323d 0e93 b03d
000002f0: a7f5 7abe c3af 53be f9b1 643e c3d0 3b3e
00000300: f71f 873d 18e2 08bd 5f0c 663e a52e 4fbd
00000310: 162f 3e3d 263e efbd e597 67bd a400 9d3b
00000320: cb02 01bd 33f8 debc d7e6 5a3e ad54 c2bd
00000330: 03a9 ba3d bfd4 de3d fb88 e53d 0cd3 eebb
00000340: bf63 35be 017a 56be ddbd 58be 8f24 053e
00000350: cca1 8a3d 96d1 81bd 0b09 8c3e 901a e13c
00000360: c471 2c3e 81fe b13e e9ac e3bd ad6f 10be
00000370: c220 8d3e 3808 21bd 8a40 733d f58d f23d
00000380: bfb0 1bbe eb2c 863d b81a 61bc 1713 cbbe
00000390: 8771 8bbe acbe 833e 9d08 91be 5447 0a3e
000003a0: 3b1f 2c3c 7535 65be ffd4 38be 4d4c 943b
000003b0: 7cd6 7a3d aa5f c43d feb0 87bd 9bce 683e
000003c0: c8af c8bd d465 833e fe98 2c3e ca3f 6dbe
000003d0: 49bd 1f3e a4c1 9bbe e3a6 fdbd 1a05 0f3e
000003e0: 4f71 ef3d 0993 1a3e 9b5d a03c c2e2 53be
000003f0: e4d5 a2be efd6 383d bb30 87bd 926b d6bd
-0.031411555 0.19481173 0.10864169 -0.051228352 0.26375708 0.06312692 0.111512475 0.20317921
0.07743772 0.11635476 -0.09935551 -0.0083529055 -0.2767547 0.14959651 -0.26597646 -0.04897301
0.17621781 0.10985916 -0.05348045 0.2182519 -0.007388525 0.17245647 -0.06931275 0.30184639
-0.2822968 0.05785118 -0.09761219 -0.21745561 0.062090434 -0.109101206 -0.20533176 -0.037584875
-0.14316133 -0.10345441 -0.07021502 -0.36449742 0.1181365 0.37309554 0.07390513 0.017668834
-0.11576527 0.048506245 0.0719532 0.046599884 -0.0017240836 -0.21937913 -0.20700131 0.110509545
0.347912 0.09611009 -0.21865076 -0.21265595 0.083815195 0.12644607 0.22787969 0.054358557
-0.041989762 -0.028721727 0.12683333 0.37777266 -0.05321715 -0.26839718 0.07308814 0.20980303
0.10812767 -0.1682877 -0.28167972 -0.1415653 -0.020123562 -0.38513473 -0.21285528 -0.24405377
-0.035698775 0.12670259 0.0058434377 0.014004761 0.0592907 -0.0880871 -0.16618551 -0.19798255
-0.12391074 0.0076292385 0.017026154 -0.23939644 0.029491797 0.20655096 -0.10600812 0.018664535
0.11411629 0.044826973 -0.1795161 0.22945589 -0.18281697 -0.17991607 0.009231781 0.16954955
-0.088205874 -0.13034177 0.21226315 -0.30537388 0.040770125 -0.080112256 -0.07209216 0.25341502
-0.2812121 0.105861954 0.18372156 -0.08039293 0.03308748 -0.08107645 -0.094255336 0.119675696
0.12470613 0.11416739 -0.09348015 0.1449803 -0.20171729 0.18126196 0.015158914 0.12305919
-0.01138934 0.18120448 -0.22792092 -0.28436872 0.22802724 -0.11476604 -0.032148007 -0.0054702745
-0.15953009 -0.04329879 -0.023475977 0.1352775 -0.210257 0.060823876 -0.30031732 0.07759542
-0.3008144 -0.13014942 -0.1714883 0.16390204 -0.050649755 -0.014001442 -0.15488563 -0.28159845
-0.016199186 0.015529403 0.30718222 -0.10981869 0.34046307 -0.029498154 -0.26170418 0.041211847
0.0959555 0.07449627 -0.08656527 0.046749897 -0.20691383 -0.10047221 -0.04873214 0.29391834
-0.20612463 -0.30453858 -0.331274 0.2711948 -0.112299636 -0.10587479 -0.06322117 -0.07273532
-0.06894435 -0.05901121 0.11530045 3.1085929e-06 0.1469127 -0.24717902 -0.04754289 -0.10979731
0.15154095 -0.041567888 0.062461495 -0.039272163 0.09535103 0.06375919 -0.045057 0.22428486
0.03003352 -0.1657407 0.043624848 0.086217985 -0.24507771 -0.20672517 0.22333516 0.18341355
0.06597894 -0.033418745 0.22465657 -0.050581593 0.046431623 -0.11681776 -0.056541342 0.004791336
-0.031496804 -0.02721796 0.21377121 -0.09488807 0.09114268 0.10880422 0.112077676 -0.0072883423
-0.17713831 -0.20944978 -0.21166177 0.13002227 0.067691416 -0.063388035 0.2735065 0.027478486
0.16840273 0.34764484 -0.11116964 -0.14105101 0.27564055 -0.03931448 0.05938772 0.118434824
-0.15204142 0.06551536 -0.01373928 -0.39663002 -0.27235052 0.2573141 -0.28326884 0.13503772
0.010505493 -0.22383673 -0.18050002 0.0045256973 0.061239704 0.09588559 -0.066255555 0.22735064
-0.097991526 0.25663626 0.16855237 -0.23168865 0.1559955 -0.30421174 -0.12385347 0.1396679
0.11691534 0.15095152 0.019575885 -0.2069197 -0.3180381 0.04512685 -0.066010915 -0.10469736

rnn.bias_ih_l1 f4 [72]
00000000: 82f0 fa3d 8fbc 17be 1ff4 043e df96 87bd
00000010: 428e d73d d6e4 62bc f2d6 683c 514a 2b3e
00000020: 6bfb 593d 21f1 363d 9b2f 9f3e 9aff 22bd
00000030: f138 bdbd 2e66 ab3e 20c4 34bd 191c 0a3e
00000040: 4f8e 8abc 932b 7f3e e5b0 3a3e 020c 4f3d
00000050: 6a88 6dbe a53c 12be 6ac5 57bc 5846 973b
00000060: 993a babe edfe edbd 5c6f afbe dd79 61be
00000070: e379 a93c b919 8fbe e25f eebd c48a 17bf
00000080: e399 75bd b26b c23d 0d6f 4c3e 2003 36be
00000090: 1478 64be 592a 53bc ed24 92be 3aa1 803d
000000a0: 55c2 75be 978a 29be 9013 9dbe 0753 ccbe
000000b0: 2cc9 9bbe ed9b f9be 29b7 a3be f9b8 47be
000000c0: eecf 833d 29b5 643e 2596 7dbd 387d 22be
000000d0: 0f0f 863e 5a14 263d 9b96 42be 8e3f a63d
000000e0: d1ab 2dbe fd45 ce3c c424 55bd 03c4 82bd
000000f0: 19cb e4bd b307 833c c242 03be 0f35 ad3d
00000100: 999b d43d ff78 aebd 2c79 39be c011 033e
00000110: 9cf5 50bb 5110 db3d 7435 b4bd 2947 403e
0.122529045 -0.14818023 0.1298375 -0.06620573 0.105251804 -0.013848504 0.014211403 0.16727568
0.053218286 0.044663552 0.31091008 -0.039794542 -0.09239376 0.33476394 -0.044132352 0.13487281
-0.016913561 0.24918966 0.18231542 0.05054856 -0.23196569 -0.14280947 -0.013169626 0.00461654
-0.3637283 -0.11620889 -0.34264648 -0.22019143 0.020688003 -0.27949312 -0.11639382 -0.59196115
-0.05996121 0.094931975 0.19964238 -0.1777463 -0.22311431 -0.012888514 -0.28543797 0.062807515
-0.23999913 -0.16556774 -0.30678988 -0.39907095 -0.3042692 -0.48751774 -0.31975678 -0.19504155
0.06436144 0.22334732 -0.061910767 -0.1586808 0.26183364 0.040546753 -0.19002764 0.08117591
-0.16960074 0.025179857 -0.052037016 -0.063850425 -0.1117155 0.015994882 -0.12818435 0.08457386
0.103812404 -0.08519172 -0.1811263 0.1279974 -0.0031884676 0.106964715 -0.08799258 0.18777145

rnn.bias_hh_l1 f4 [72]
00000000: ebf7 4e3e 59b8 3b3e 496b 783e 3ce1 eebd
00000010: 2d3d 003c e523 af3d 4e04 763d 0290 813e
00000020: 982c bcbd 93ee 813e 7769 623e feb5 fa3c
00000030: 4aba 493d c7e8 163d 0373 4d3e 5126 283e
00000040: dbe5 913d 0195 bc3c 8268 933e 016f 483e
00000050: 93d8 8abd e58b 16be 0f26 163c 6dfd 8b3e
00000060: 2162 eabe 672d f53d 07ff 8abe 3bb7 99be
00000070: c23f 28bd e91d 84be 24fc 90be 13b2 45be
00000080: 1341 98be 36ca 84bc 983e d23d 7cd2 1fbe
00000090: 4fe7 93be 801f 71bc 988d d9be d832 a63d
000000a0: 11fa b83c 1d39 adbd b408 41be b73d 26bf
000000b0: 8c1e 83be ab15 a8be 8692 0bbf 88ff c3be
000000c0: 90da 143e 65b3 a83d d600 4a3e 347f f7bd
000000d0: a4d5 643e 66f1 553d faa8 a6bc 5fab c4bc
000000e0: f1b0 04be 7d55 6a3e f692 3e3e b445 33be
000000f0: e101 8e3e 876e 20bd c5b2 1dbe 5094 673e
00000100: d515 ecbd eedd 55be 72d3 66be 5479 f3bc
00000110: 7a27 8e3d f1d1 f8bd 0ac3 bf3c 2dec a4bd
0.2021176 0.18332042 0.24259676 -0.11664054 0.007827085 0.08551768 0.0600627 0.25305182
-0.09188193 0.2537733 0.22110544 0.030604359 0.049249925 0.036843088 0.20063405 0.16420867
0.071239196 0.02302027 0.2879067 0.19573595 -0.067795895 -0.14701803 0.009164347 0.27341786
-0.4577799 0.119715504 -0.27147695 -0.30022606 -0.04107643 -0.2580407 -0.28317368 -0.19306211
-0.29737148 -0.016209703 0.10265845 -0.15607637 -0.28887412 -0.014716983 -0.4249084 0.081151664
0.022580178 -0.08458159 -0.18850976 -0.6493792 -0.25609243 -0.3282903 -0.5452045 -0.38280892
0.145365 0.08237342 0.19726881 -0.12084809 0.22347122 0.05223217 -0.020344246 -0.024007497
-0.12958123 0.22884174 0.18610749 -0.17507058 0.27735808 -0.039167907 -0.15400226 0.2261517
-0.11527602 -0.2088544 -0.22541597 -0.02972094 0.06941123 -0.12149418 0.023408432 -0.080528595

rnn.weight_ih_l2 f4 [72, 24]
00000000: ca26 a13e 4a76 4a3e 2a2d 8c3e ac6a 68be
00000010: 91b6 c8bd 3ae1 5fbe ba3b a43d 6e98 f5be
00000020: f238 febe dc40 2f3d a24c 1d3f 5981 e7be
00000030: 205f 6dbe 0c99 8a3d 36e4 48be 4b9f a93e
00000040: 1c65 6d3d 1b90 913d 8795 8abe 443c 533d
00000050: 7fdc 89be e013 a93c c227 64bd e597 533e
00000060: 3881 8fbe f3ee d83d 00ce cf3e 630f a33e
00000070: beb7 25be d17d 8dbe aa14 573e 8555 ad3d
00000080: 8dd5 15bd cdd1 a0be 37e5 a3bd 7267 91be
00000090: db5a fdbd 6413 9abd f7ae 2abe 5d56 0cbd
000000a0: b5de 3bbd 61e6 14be 0588 443d 7be2 073e
000000b0: e0e0 4e3d 25c0 363d 9101 a23e 88b8 9c3e
000000c0: 2ae6 423d 89b1 3f3e 7a47 253f 9475 143e
000000d0: dc1a 0b3e 0519 a9bd 09d5 a73b e067 ce3d
000000e0: 7e78 8cbd d2f0 d5bd 80ab e03d 9060 29bf
000000f0: 11dc df3d 8562 8cbe d74c d6bd bfe7 3fbe
00000100: f0a3 febb 2f64 e23c 064d 60be 7703 6d3e
00000110: 37cf 93bd 3548 3abc 63f7 e13e 8f1b 3c3e
00000120: c58f 26be 74c8 11bd fca9 bd3d bed2 e2bd
00000130: 71dc 5a3d 1665 d0bb 6a33 8abe 06e0 e53d
00000140: 6c68 97bd 22f6 7e3d 2700 4cbe 7808 1d3d
00000150: ef25 1b3e 1ce5 dfbd 0e75 cf3d 9959 57be
00000160: 5691 7fbe 3251 173e df73 963d b02c f63d
00000170: dd80 873d 02de 173e 7f32 943e 43b3 7f3b
00000180: 8deb 81bd 2524 8a3d f220 2cbd d163 2f3e
00000190: e0f2 343e 0624 51be ebe2 87bd 511a 9f3e
000001a0: 6572 a43e af43 073e 634e 233d 1120 0dbd
000001b0: 365f 6fbe 062a 823e 79ad e13d 9d9b 9b3d
000001c0: 5e54 873e 9f24 1ebe ccb1 19bd c3af 693d
000001d0: 29bf a5bd 2987 5fbe bda3 b33e 6ca8 4dbc
000001e0: 0bf7 77be 0233 fcbc 9ce9 c1be 0b6d f23e
000001f0: fbe0 00be 1c60 5f3d d36c 563e 760a e33e
00000200: 977d 813e 5ae5 8bbe b4f4 f0bd 57a7 183f
00000210: 653e c7bd 7b6e 31bd c6df 09bd 9f2b 4cbb
00000220: 2e45 debe 0eda fb3d c7b7 123f 8e87 3bbe
00000230: a9c6 8c3e ce4f 013e 86aa 453e e226 59be
00000240: 3513 6cbe f1a7 dcbc 47e3 bd3d d1ec b93e
00000250: a826 023e 57bb 53be 4025 a83e 274a 763e
00000260: 5efa c53e 1223 a6bb 8d45 87bd 9bb3 dcbe
00000270: c6ca 5f3d f192 9e3d d457 15be 5ecb 2fbe
00000280: dc36 093e 9df5 853e 298a 283e 241c 7f3e
00000290: b58e d43d 8247 a13c 5d12 3e3e f566 2a3e
000002a0: d94f c8be 35aa 0c3e df85 593d 95bd a93e
000002b0: 8077 c0bd 687e 2ebe 0bd1 8c3b 7b32 753e
000002c0: 97ff 193e b037 953d e4d2 b23d 59b2 23be
000002d0: c13d 23be e56c 493c 8af0 d6bd 5b80 7abe
000002e0: 3522 2d3e e90a fd3d 7f4a cabd ef8b bc3c
000002f0: db9a 2b3e 5a2c 51be acdd af3e 7f49 573e
00000300: 7dd9 2f3d bac9 133e 0336 b2be b6bd 54be
00000310: 5670 9f3c 8a5d f33d bd78 4fbc bc39 553e
00000320: 8177 dbbd 945b 5abc 97b6 603c 2eea 8f3c
00000330: 30ec 0bbe d0fa 0abd 1091 713d a7d1 cebc
00000340: 5dad 5fbe c86b 7cbe 02dd 403c 5ec8 4abc
00000350: d6d7 2b3e 91f1 e8bd b96d ddbe 1c1a 0d3e
00000360: 761e f33d 7e81 cabd 8522 63be f4f7 1ebd
00000370: 017b b53b d204 153e 14c8 053e 9bee 71be
00000380: 6c12 60bd 9614 433e ec7f 6d3d 1104 87bd
00000390: d311 913d 925b c73c 6d31 483e 7d0c 823c
000003a0: 7943 223e a687 30bc 383e df3c f826 8fbe
000003b0: 7b8a 54be 3e64 a23d d518 09be 8219 8bbe
000003c0: a086 5ebe 04e2 05be f37d 68bc e7a7 ea3e
000003d0: 4107 d03c 4258 22bd 7b32 ccbc 7728 ca3e
000003e0: 48da 653e 4707 a2be 8a58 76be d503 2ebe
000003f0: f4f4 09bc ea37 0abd 478c bbbd 4136 bc3b
0.31474906 0.19771686 0.27378207 -0.22696942 -0.09800447 -0.21863261 0.080192044 -0.47967857
-0.4965282 0.042786464 0.6144506 -0.45215872 -0.23180819 0.067674726 -0.19618306 0.33129343
0.057957754 0.07107564 -0.27067205 0.051571146 -0.26926038 0.02063936 -0.05570198 0.20663412
-0.28028274 0.10592451 0.40586853 0.31847677 -0.16183373 -0.27635053 0.21003976 0.08463577
-0.03658061 -0.31410065 -0.08002704 -0.28399235 -0.12370845 -0.0752323 -0.16668306 -0.03426205
-0.045866687 -0.14541008 0.04798128 0.13269989 0.050507426 0.044616837 0.3164182 0.30609536
0.047582783 0.18720068 0.6456219 0.14497977 0.13584465 -0.08256725 0.0051218313 0.10078406
-0.068589196 -0.104463235 0.10970211 -0.6616297 0.10930646 -0.27418914 -0.10463875 -0.18740748
-0.0077710077 0.027635662 -0.21904382 0.23145853 -0.072172575 -0.011369755 0.44134054 0.18369888
-0.16265781 -0.035591558 0.092609376 -0.11075352 0.053432886 -0.0063597066 -0.2699235 0.1122437
-0.07392964 0.06224645 -0.19921933 0.038338155 0.1515119 -0.10932371 0.10129748 -0.21030273
-0.24957785 0.14777067 0.073463194 0.12020242 0.066163756 0.14830783 0.28944775 0.003901676
-0.06343756 0.06745175 -0.042023607 0.1712792 0.17670774 -0.20423898 -0.06635078 0.31074765
0.32118526 0.13209413 0.039869677 -0.03445441 -0.23376164 0.25422686 0.110194154 0.0759804
0.26431555 -0.15443657 -0.037523076 0.057052385 -0.080931015 -0.21828903 0.3508586 -0.012552362
-0.24215333 -0.030786041 -0.37873542 0.47348818 -0.12585823 0.054535016 0.2093995 0.4434392
0.2529113 -0.2732342 -0.117654234 0.5963034 -0.09728698 -0.043318253 -0.033660673 -0.003115393
-0.43412155 0.1229745 0.5731167 -0.18313429 0.27495316 0.126281 0.19303331 -0.21206239
-0.23054202 -0.02693555 0.09271865 0.3631349 0.12710059 -0.20676933 0.3284092 0.24051724
0.38667578 -0.0050700987 -0.06605063 -0.43105778 0.05463674 0.077428706 -0.14584285 -0.17167422
0.13399833 0.2616395 0.16458954 0.24913079 0.10378782 0.019687418 0.18561693 0.16640837
-0.3912342 0.13736804 0.053106185 0.33152452 -0.09397793 -0.17040408 0.004297381 0.23945038
0.15038906 0.07286012 0.087316304 -0.15986003 -0.15941526 0.012294029 -0.10495098 -0.24463026
0.1690758 0.123555966 -0.0987749 0.023015944 0.16758291 -0.20427075 0.3434881 0.2102413
0.042932022 0.14432421 -0.34806833 -0.20775494 0.019462746 0.118830755 -0.012663064 0.20822805
-0.10716153 -0.013327498 0.013715408 0.01756772 -0.13664317 -0.0339306 0.058976233 -0.025246454
-0.21843477 -0.2465049 0.011771442 -0.012376873 0.16781554 -0.113742 -0.43247774 0.13779491
0.11871044 -0.0988798 -0.22181137 -0.038810685 0.005538345 0.1455262 0.13064605 -0.23626177
-0.05470507 0.19050822 0.057983324 -0.065925725 0.07083478 0.024335656 0.19550104 0.015875096
0.15846051 -0.010774529 0.027251348 -0.27959418 -0.20755951 0.07929276 -0.13388379 -0.27167898
-0.21731043 -0.130745 -0.014190185 0.45831224 0.025394084 -0.03963495 -0.024926415 0.39483997
0.22446549 -0.31646177 -0.24057212 -0.1699365 -0.008420218 -0.03374473 -0.09157615 0.0057437723

rnn.weight_hh_l2 f4 [72, 24]
00000000: 7e16 16bf 37c4 633d 9d12 813e 56a0 4ebe
00000010: 5345 a63d 4aef 1a3e 47a7 883d 89f7 e2bd
00000020: 7600 e03d 9250 1ebe f4cb bfbe 8385 0a3e
00000030: 2451 25be c46f 7f3e 63a3 8cbe 07ad 88be
00000040: ffa3 0b3c 8043 363e 8509 7e3e b000 0e3d
00000050: dcb5 563e b173 acbd 8db2 84bd 9a58 34bd
00000060: a1ea 893e 4c50 2abe cacf 8d3d 31a1 c13d
00000070: 2ae1 bc3d dff6 9abd 7e3e 583e 32c3 d03d
00000080: d3b2 353e 0eac 953d 1aad 7cbd 2e52 99bc
00000090: 6e21 d3bc 3572 2bbe 20e7 dc39 f711 0ebe
000000a0: ee6c 883d 1881 7e3e c573 ad3e ac12 04be
000000b0: b168 a23d a9fb d33e c762 0a3e 5369 7c3c
000000c0: 9889 7e3e 1b14 76be c261 b9bd f1f6 91be
000000d0: 6fc8 0f3c a9f5 e1bd ddb8 ac3b cbc6 5fbe
000000e0: 66b3 f2bd ce08 163c a53c 123d 5116 403e
000000f0: b2c7 503e 7908 d6be 0f95 e9bc 8c14 fbbc
00000100: 1c46 da3c 9688 373e e186 733e dfab 06be
00000110: 6132 473b f1cc 993e c195 2c3e dc48 153d
00000120: af87 22bc e9f5 133e e642 a33d 2006 3a3b
00000130: 3e8f fcbd d429 36be f621 a63d dfab 32be
00000140: 2a4d 66be 62f5 2fbe fea6 acbd 66bb 273e
00000150: 7520 833e 9f91 48be c2a4 c23d 86ec 31be
00000160: baf0 ff3d 6a61 b93c b8b9 cfbe 3438 bf3d
00000170: 0876 2fbe 45c8 05be 4615 07bd 7f2a a1bd
00000180: 2ba6 533e 4c4c 87bd 8fce c23d ecbc 26be
00000190: f513 ddbd 0057 a6bd d5fe 8f3e 41ba 453e
000001a0: 8ef7 7a3d 37ee 593e e1b3 a8bd 53f2 d0bd
000001b0: 78a0 393e 21c1 38be e548 5bbe f11c 903d
000001c0: f306 bc3c 6229 753e 1d7a 653e aca2 7ebd
000001d0: 1469 eb3d 1281 23bd 8d72 7abe 4234 0f3d
000001e0: f776 883e 300c 97bd 01b3 ec3d 7117 953e
000001f0: 331d 16be 1d9e 603e e46b 55be 98af 8e3d
00000200: 4b76 263e 1f46 913b dda3 0c3e fd5f 02be
00000210: aa7f 0ebe 12e3 aa3e e124 82be cba7 dcbd
00000220: 2e60 cabc 71df 113d 3cfd 1abe b0d8 023f
00000230: 1167 333e 25c9 8b3d b5f7 ed3d 50d5 93be
00000240: a26d 9c3e 0da8 103e ceee fa3d 77c0 b93d
00000250: d980 a93b 3ab0 07be 6a7e 263e 65e1 883e
00000260: 296e 483e c14c 86bd 1747 c6bd 0198 4a3e
00000270: a367 e9bc 8c42 e93d 3e51 8bbe 2ceb 063d
00000280: 0ddc cebc 97d2 3e3e fc98 e23e 6a4c a13d
00000290: 6f5a b33c 90c8 b0bd c5fc e4be 6486 473d
000002a0: eb99 c0bc cb69 8dbd afe9 48bd 74c1 133e
000002b0: a0b7 aa3e 59c4 4a3e fad6 9c3e 961a 1c3e
000002c0: 62b3 303e 177d d83d 8edd acbe c059 683e
000002d0: 9729 713d dc50 943d 26aa acbe f4d5 84bd
000002e0: 127c 18bd 4319 3dbd af62 a73e a2a8 57be
000002f0: 36f9 95be 36f2 9f3e c7f3 7dbe a0d0 73be
00000300: ec93 833d a1b1 fb3d f71d f33d a145 623d
00000310: 35a6 c2bc 08f9 1cbd b3fb debd bdde e9bd
00000320: 91e7 bbbd c33d 4e3d 1560 073d 33df ee3d
00000330: 69b3 0e3e 05f6 2fbd 8907 2bbd 939e 25be
00000340: 41cf 08be 0a11 0b3e 3c02 07bf ebe7 1a3e
00000350: be43 b23c c1cb 1b3d 02fa 54bd 2448 a3be
00000360: d502 01be b8e0 4b3e eb62 f8bd 20b4 02be
00000370: 8942 c3bd d2e5 3d3e ebcf d5bd eb55 c03d
00000380: ee16 233e 7d05 d2bd 2e71 86be 1489 36bc
00000390: 48b8 cb3d e0c4 af3e ccd3 bd3c 64b9 3e3e
000003a0: 9321 dfbd eec5 53be c785 863d 6b7a a43e
000003b0: ae1f 1abe 4172 07be 777c 48bd 8962 75be
000003c0: 4f2c af3e 3c53 b43c 8ea8 17be 0756 c63e
000003d0: 09ce 9f3e 5ef7 8e3e afd3 083e 7433 263d
000003e0: 09b7 6b3e 71a8 6dbd 8bb0 303d ade0 363e
000003f0: 3c21 1bbe 859e 9bbe a258 f0be 5dde 7d3e
-0.5862807 0.055607047 0.25209513 -0.20178351 0.08118691 0.15130344 0.066725306 -0.1108237
0.10937588 -0.15460423 -0.3746029 0.13527493 -0.16144234 0.24944979 -0.27468404 -0.2669451
0.008522986 0.17799187 0.24808319 0.034668624 0.20967811 -0.08420504 -0.06479368 -0.04402981
0.2693682 -0.16632193 0.06924398 0.09454573 0.09222634 -0.07566618 0.21117589 0.101934806
0.17743997 0.073082075 -0.06168852 -0.018715944 -0.025772776 -0.16742785 0.00042133871 -0.1387404
0.06661402 0.24853933 0.33877388 -0.12897748 0.079301246 0.4140294 0.13514243 0.015405971
0.24857175 -0.24031107 -0.09051849 -0.28508714 0.008775814 -0.11033184 0.005271061 -0.21853177
-0.11850624 0.009157373 0.035702366 0.18758513 0.20388678 -0.4180334 -0.02851346 -0.030649446
0.026644759 0.17923197 0.23781921 -0.13151501 0.0030395018 0.3003917 0.16854002 0.036446437
-0.009920045 0.14449276 0.07971744 0.0028384998 -0.12332009 -0.17789394 0.08111946 -0.17448376
-0.22490373 -0.1718345 -0.08430289 0.1638008 0.256107 -0.195868 0.09504081 -0.17375383
0.12497087 0.022629458 -0.4057138 0.09336892 -0.17134869 -0.13064678 -0.032979272 -0.078694336
0.20668857 -0.06606349 0.09512054 -0.16283005 -0.10794822 -0.08122063 0.2812411 0.19309331
0.061271243 0.21282278 -0.08237434 -0.1020247 0.1812762 -0.18042423 -0.21414526 0.0703677
0.022952532 0.23941568 0.22409864 -0.062166855 0.114946514 -0.039918013 -0.2445776 0.034961946
0.26653263 -0.073753715 0.1155758 0.29119447 -0.14659576 0.21935315 -0.20841938 0.069670856
0.16256063 0.004433408 0.13734384 -0.12731929 -0.13915887 0.33376366 -0.2541876 -0.107741915
-0.024704065 0.03561348 -0.15135664 0.5111189 0.17519785 0.06825475 0.11619512 -0.28873682
0.30552393 0.14126606 0.1225258 0.09069913 0.0051728305 -0.13250819 0.1625916 0.26734462
0.19573273 -0.065576084 -0.09681528 0.19784547 -0.0284918 0.11389646 -0.2721042 0.03293912
-0.025251413 0.18635021 0.44257343 0.07875903 0.021893708 -0.08632004 -0.44724098 0.04871215
-0.023510894 -0.06904944 -0.049050983 0.14429265 0.3334322 0.19801463 0.30632764 0.15244517
0.17255929 0.10570734 -0.33762783 0.22690487 0.058877554 0.07241985 -0.33723563 -0.06486121
-0.037227698 -0.04616667 0.32692477 -0.21060422 -0.29291695 0.3123948 -0.24800025 -0.23810053
0.06424698 0.122897394 0.1187095 0.055242185 -0.023760894 -0.038323432 -0.108878516 -0.11419437
-0.09175027 0.05035187 0.033050615 0.116636656 0.13935627 -0.042959232 -0.041755233 -0.16173773
-0.13360311 0.13580719 -0.52737784 0.15127532 0.021760818 0.03803611 -0.05199624 -0.31890976
-0.12598737 0.19909942 -0.12128242 -0.12764025 -0.09534175 0.185447 -0.10440048 0.093913876
0.15926716 -0.10254953 -0.26258224 -0.01114108 0.09947258 0.3432989 0.023172282 0.18625408
-0.10895076 -0.20680973 0.06568485 0.32124647 -0.15051147 -0.13227178 -0.048946824 -0.2396337
0.34213492 0.022012345 -0.14810392 0.3873751 0.3121188 0.279231 0.13362001 0.040576413
0.23019041 -0.058021966 0.043137114 0.17859145 -0.15149397 -0.30394378 -0.4694262 0.24791856

rnn.bias_ih_l2 f4 [72]
00000000: f377 f53b a091 323d 52bc fd3d 4b05 3b3e
00000010: 10ee efbd fb3b 383e 9b3f d63d 858d ee3b
00000020: cbad 253e 61d0 05be bbe5 fb3d 42f7 d2bd
00000030: d209 fd3c 2aba f8bc 6ea7 433e 8f3d 963d
00000040: 0a8a 26be 2e5c 83bc 9256 eabd 398c 1d3e
00000050: 5eb1 33bd fe69 743e dd34 b63c 0ce5 653d
00000060: 19ad eabe 9180 4bbf 3103 bdbe eeeb 7cbe
00000070: 33c3 a0be 4436 32be 96c9 3abf 39f3 08bf
00000080: 04d0 15bf eb1c e5be 9caa 94be 92b3 b53d
00000090: cccf 85bd 4a27 9dbe b14c 86be 9b26 1bbe
000000a0: a4dc 403d 1c41 b1be b001 52bf 937c 74be
000000b0: 51fd 3abf e652 e9be b3f6 49bf b8fb 80be
000000c0: 67dc 1fbe cb50 843d f7ee 3a3e 085d 35be
000000d0: c14c 88bd 5bc7 8ebd e40d 2fbe c72d 9a3c
000000e0: e92a 6a3c 85f9 ca3d 4182 45bd 0050 bdbd
000000f0: 0d77 4b3d 8f11 3ebe f076 d1bd a60b 71bd
00000100: 2281 843d 5f4e 433e aa83 50be ffd4 85be
00000110: 43ff b2bd 4616 283e 1f3c bd3d e85c 203e
0.0074911057 0.04359591 0.12389435 0.18263738 -0.11715329 0.1799163 0.104613505 0.007280054
0.16179578 -0.13067771 0.12299677 -0.10301067 0.030888472 -0.030362207 0.19106838 0.0733596
-0.16263595 -0.016035166 -0.11442293 0.15385522 -0.043870322 0.23868558 0.022242004 0.05612664
-0.45835188 -0.7949305 -0.36916497 -0.24699375 -0.31398925 -0.17403513 -0.72963846 -0.5349613
-0.5852053 -0.44748625 -0.29036415 0.08872141 -0.06533775 -0.30694038 -0.26230386 -0.15151446
0.04708542 -0.34619987 -0.82033825 -0.23875646 -0.7304278 -0.4557106 -0.7889206 -0.25192046
-0.1561142 0.064607225 0.1825522 -0.1771127 -0.06655265 -0.06971618 -0.17095143 0.018820656
0.014292457 0.09910873 -0.048219923 -0.092437744 0.049674083 -0.18561386 -0.10227764 -0.058849
0.06469943 0.19072865 -0.20362726 -0.26139066 -0.087400936 0.16414747 0.09239983 0.15660441

rnn.bias_hh_l2 f4 [72]
00000000: 37c4 223e ab9d e5bd 8708 fabd aaa4 253e
00000010: 3214 933d bf3a 5abd 51e1 05bd 50ee 863d
00000020: 79c0 ab3e 31ce 103e 7678 ecbd 0d53 cc3d
00000030: 41d8 653e 4393 9c3d 997b b6bd d6f6 06be
00000040: ab09 123d f249 c6bd e11d 32bb 1ca9 5c3e
00000050: f141 dd3d f0af 203e f1af babb e1f6 183e
00000060: eb99 7abe f2c1 4dbf 0ea1 ebbe 77a5 a7be
00000070: 427e 81bd ba91 79be a688 08bf 1515 d2be
00000080: c525 88be 8daf 9ebe 2215 5abe 1930 623c
00000090: e1ca 173e 8692 cfbe 39cb 04bf 1a7b edbd
000000a0: dab3 d23c 87d5 3cbf effa f0be 9e65 2bbe
000000b0: 2887 40bf 32ac a5be accc 27bf 890d 67be
000000c0: ffe4 90be 9a87 a2bd daf8 ef3c 1ed0 ad3c
000000d0: d759 ff3d 43ed d63d eb73 a23d 8eda ddbd
000000e0: cd25 66be 1dd2 32bc ce48 7ebd 3f2c 05bc
000000f0: d7d0 213d 4b50 ccbc f944 8fbd 4dac 86be
00000100: f6a5 b9bd 1c4e 903d d361 e33d 7943 bcbb
00000110: cd17 163e 8d78 0ebe 35e7 7ebc 4440 06be
0.15895163 -0.112117134 -0.12208658 0.16176096 0.07181586 -0.05327868 -0.03268558 0.06588423
0.33545282 0.14141156 -0.115464136 0.09976778 0.22445776 0.076452754 -0.08910293 -0.13180098
0.03565375 -0.09682073 -0.0027178454 0.21548885 0.10803593 0.15692115 -0.0056972434 0.14937927
-0.24472778 -0.8037406 -0.46021312 -0.32743427 -0.0632291 -0.24371997 -0.5333351 -0.4103171
-0.26591316 -0.3099331 -0.21297124 0.013805413 0.14823486 -0.40541476 -0.51872593 -0.115957454
0.025720526 -0.73763317 -0.47066447 -0.16737983 -0.7520623 -0.32357937 -0.6554668 -0.22563757
-0.2829971 -0.0793602 0.029293466 0.021217402 0.124683075 0.10494473 0.07932266 -0.108327016
-0.22475357 -0.010914353 -0.06208115 -0.008128225 0.039505806 -0.02494063 -0.06995577 -0.2630333
-0.09064858 0.07046148 0.11102643 -0.005745348 0.14657517 -0.13913174 -0.015558054 -0.13110453
