Checkpoints/TEST3_sines_checkpoint.pth (torch, 467786 bytes, 138 tensors)

rnn.weight_ih_l0 f4 [72, 5]
00000000: 27d0 283f 7c5f 9f3c 5ade 423e f3e5 043e
00000010: 406c 9eba 85cc 3e3f 1950 f2bd b5f9 bd3d
00000020: 08b4 e53d 9ee7 aebe 8c47 93be f9f9 24bf
00000030: f072 a3bf 6a78 09bf a05f 97bf 9a06 0c3e
00000040: 76d8 18be 4c9f 1abf 4c69 1dbf d770 f0be
00000050: 184a b3be 5bc7 e5be 6a12 bcbe 9800 b9be
00000060: 39d0 19be c9a1 c73e a35c 34bd 72cf 063e
00000070: 3887 e9bd 5fcf 79bf 12e2 5b3f 8ed2 11bf
00000080: 60ca a1be 7676 bbbd 6473 a1bd 341e fd3f
00000090: 8ff3 373e 9532 cc3e 2e9b d73e 1261 ea3e
000000a0: 4111 45bf 5eea afbe 1846 62bf cf24 afbe
000000b0: 34a9 9fbf 79ae 5b3f 4898 dc3d dd41 bb3e
000000c0: ded3 a93e 4b59 babe e86f ca3d a59b 38bf
000000d0: 8102 07bf 8c17 9ebe 5a43 4cbf 46e5 0c3e
000000e0: 629f 37bd 6b44 453e 12f3 823e b152 d6bd
000000f0: 07d8 4d3e b7dd 2fbf cceb b5bd 5d73 cabe
00000100: 7933 1fbf 967b 203f 6a16 8dbe 4cdd b5bd
00000110: 2831 d5be fcda 94bf ffaf ef3e 2a30 a03d
00000120: 6fd2 3c3e d2c4 95bc bd93 15bf 2f2b 75bf
00000130: 451a c8be 9556 1cbf 32e9 efbe b714 83bf
00000140: 48ac d43e b6f8 993e 80ed b83e 958d ef3e
00000150: 7590 1c3f 0331 293e 6c04 eabe 034a a9be
00000160: 2ede 94be f259 20bf edb3 ac3e 42f9 81bf
00000170: 670b 29bf fbfc 8bbe 1317 adbe 6e17 aabe
00000180: 9485 fbbe 8804 22bf b099 fdbe c418 40bf
00000190: 2b7d 12c0 c08a a3be 0b3c 66bf f32e 47bf
000001a0: d42d c0be b3f8 f53e c8d1 2e3e d3d0 43be
000001b0: 37c6 6f3e 2887 553e 04a7 9d3e 30f4 32be
000001c0: e22f 92be 128b d3be 2e28 9bbf c498 a4bd
000001d0: 463e 84bd 2a49 32be 619e c13b 8ff7 b4bf
000001e0: fb71 37bf ec09 e6be 4283 19bf 04d3 12bf
000001f0: 919f b2be 2542 c0bf 4657 1cbf 9e59 80be
00000200: 336a e5be 65d7 21bf 39e9 47bf 6229 c2bd
00000210: acf1 0abf 1486 77be 25ed 2ebf 4522 48bf
00000220: a0eb 72be 40c8 76bd 6dd2 cabe a1c6 38bf
00000230: ec80 9dbe b362 8bbd 46fc 3b3d c9cb 123e
00000240: 7780 7abd e714 b9bf a8c5 d1be bbb1 34bf
00000250: 7e09 2ebf 0066 1dbf 8224 75be dcad b53e
00000260: 6aaf 413e b517 fe3c f1b8 023f 12fd f4bf
00000270: e905 18bf 4835 44bf 9273 44bf 1454 2abe
00000280: c050 bcbe d931 36be 7484 01bf e208 09bf
00000290: 9d4a 4abf 9e98 d5bf e7ec 9dbe c6c7 04bf
000002a0: 0b16 92be d606 03bf 99a2 8c3e b94b 92be
000002b0: f7cd 85be df00 c8be ab99 8ebf 8515 e7bf
000002c0: 5c07 eebe ccc7 69bf 6681 3cbf 2663 2cbf
000002d0: 55fc cbbf 9fe1 75bf 054c 82bf e44a 8fbf
000002e0: 816a 8bbf 3261 81bf 6a0f ccbd 3eca 0abd
000002f0: 148a 16bf a59c 1f3f 7e44 c1bf 575b 25bf
00000300: 16c7 62bf 6c93 70bf d4a0 edbe 2fa4 10bf
00000310: 1e52 4cbf 65a0 67bf bd95 7ebf ae2e d9bf
00000320: 613d 0fbf d087 73be 7a51 973d 7b9f d6be
00000330: ee0c a33e d91c 793e fe31 f33e e380 433f
00000340: ebfa 053f 1e49 893f 3550 78bf 5e2a 65be
00000350: f8b3 00bf bc17 03bf 54a5 adbd 04de 14be
00000360: c9be 363e ba3c 223f 0b87 003e f404 053f
00000370: 9261 8ebf 81a6 3bbf 8aca 62bf 1303 87bf
00000380: f0f7 a3bf 189e c1be 2e86 ff3d 0c8a cd3e
00000390: 1ead 8d3e 254a be3e 89bc 63bf 78f9 2fbf
000003a0: 1139 4abf 7af9 05bf 0ebc 01bf 9b74 a7bf
000003b0: a8b2 3b3c 51ab 24bf 3648 58bf 87a9 b8bc
000003c0: d2e3 dd3c 6c81 1f3e 60b3 ec3e 6ef8 b23e
000003d0: bdb0 783f fc18 763f fbc9 443d 662b 923e
000003e0: 14ba b93d 319f 19bf b828 373d 7251 0b3e
000003f0: ce1c a13e e9dc 4d3e 4a85 8f3f 524d 44be
0.65942615 0.01945471 0.19030133 0.12978344 -0.0012086704 0.7453082 -0.11831684 0.092761435
0.11215979 -0.34161085 -0.28765523 -0.6444393 -1.2769451 -0.5369936 -1.1826057 0.13674393
-0.14926323 -0.6039932 -0.61488795 -0.4696109 -0.35017467 -0.4487866 -0.367328 -0.36133265
-0.15020837 0.3899062 -0.044033658 0.13165072 -0.11402744 -0.9758205 0.8589183 -0.56961906
-0.31599712 -0.09153454 -0.07883337 1.9774842 0.17964004 0.3988234 0.4211058 0.45777184
-0.7697945 -0.34358495 -0.88388205 -0.3420777 -1.2473512 0.858131 0.10771233 0.36573687
0.33169454 -0.3639625 0.09884626 -0.72112495 -0.52738196 -0.3087734 -0.7979027 0.13759336
-0.044829734 0.1926438 0.25576073 -0.10464991 0.20101939 -0.68697685 -0.08882865 -0.3954114
-0.62187916 0.6268858 -0.27556163 -0.088801 -0.41639066 -1.1629329 0.46813962 0.078216866
0.18439649 -0.018282328 -0.58428556 -0.9576902 -0.39082542 -0.61069614 -0.468576 -1.0240697
0.4153769 0.30072564 0.36118698 0.46787706 0.61157924 0.16522603 -0.457065 -0.3306428
-0.2907576 -0.62637246 0.33731022 -1.0154192 -0.66033024 -0.27341446 -0.33806667 -0.33221
-0.4912535 -0.63288164 -0.49531317 -0.7503779 -2.2888896 -0.31941795 -0.8993537 -0.77806014
-0.37534964 0.48041305 0.17072213 -0.19122629 0.23415457 0.2085234 0.30791485 -0.17475963
-0.28552157 -0.4131704 -1.2121637 -0.0803695 -0.0645719 -0.17410722 0.005908773 -1.4138049
-0.71658295 -0.44929445 -0.5996591 -0.57353234 -0.34887365 -1.5020186 -0.6107067 -0.25068372
-0.44807586 -0.6321929 -0.78090245 -0.094805494 -0.5427501 -0.2417224 -0.68330604 -0.7817729
-0.23722696 -0.060249567 -0.39613667 -0.72178084 -0.30762422 -0.06805935 0.045894884 0.1433555
-0.06115767 -1.4459504 -0.40971112 -0.70583695 -0.67983234 -0.61483765 -0.23939708 0.35484207
0.18914571 0.031017164 0.5106345 -1.9139731 -0.5938402 -0.766438 -0.76738846 -0.16633636
-0.36780357 -0.17792453 -0.5059273 -0.5352918 -0.790201 -1.66872 -0.30844805 -0.5186733
-0.28532442 -0.51182306 0.27467802 -0.28573397 -0.261337 -0.39063165 -1.1140646 -1.8053442
-0.4648999 -0.9132049 -0.73634946 -0.6733879 -1.5936381 -0.96047395 -1.0179449 -1.119473
-1.0891877 -1.0107787 -0.099638775 -0.03388428 -0.5880444 0.62348396 -1.5099027 -0.645925
-0.8858503 -0.9397495 -0.46411765 -0.56500524 -0.798128 -0.9047912 -0.9944723 -1.696737
-0.5595303 -0.23782277 0.07388587 -0.4191855 0.31845802 0.24327411 0.4749908 0.7636854
0.52335995 1.0725439 -0.96997386 -0.22379443 -0.5027461 -0.5120809 -0.084787995 -0.14537817
0.17846216 0.6337391 0.12551515 0.5196068 -1.1123526 -0.7330094 -0.885903 -1.0547813
-1.281004 -0.37815928 0.124767646 0.40144384 0.2767114 0.37165943 -0.88959557 -0.68740034
-0.78993326 -0.52333796 -0.50677574 -1.308246 0.011456169 -0.6432391 -0.84485185 -0.022541774
0.027086172 0.15576714 0.46230602 0.34955162 0.9714468 0.96131873 0.048044186 0.28548735
0.09068695 -0.6000853 0.044716567 0.13605288 0.3146729 0.20103802 1.1212552 -0.1917012

rnn.weight_hh_l0 f4 [72, 24]
00000000: 4dc9 9c3e 5998 1ebf 34a6 e5bd 4812 823f
00000010: 1c08 103e 138e 4c3e 17c7 a5be 726c 7bbc
00000020: ae4d 83be bd4f 53be 0965 19be cee8 c6bd
00000030: e909 22bf e537 9f3e 336c fc3e d667 a1be
00000040: 4fcb 26bf 303a 04bc a024 cd3d 4e21 10bf
00000050: bb6f f43e 2d13 913e aebd e6bd 2bc9 233e
00000060: 4c5a 003f 4ba2 33bf 07e3 e53e afbf 943e
00000070: ce72 a2be e0db 51be eeb7 f83d 4438 39be
00000080: 724b 023e f137 bc3c b9ac a33e 1e00 4cbe
00000090: 9f6f 293e 5890 c43c a09e ce3c 4d3a bb3e
000000a0: 27e0 ccbe 0165 003d c260 bdbe c9fd 933d
000000b0: 4320 2ebf e2f2 e0be b395 343f 68b4 d63d
000000c0: 3ee1 533d 6320 22be f3d3 7ebf db69 3a3e
000000d0: a382 d1bd e1b7 3bbe 5ed6 5bbe 3d0d 093f
000000e0: b1ae 663f 1a8b 5a3e 9125 b93e 7f78 0d3f
000000f0: b48e abbe 930e e93e 7443 f43e 2355 2fbf
00000100: 4f5e e43e 5c7c f0bd ef1a 323f d3c6 db3c
00000110: 4b1b 3fbe 0a4d e63c a2db 9bbd 06db 0a3e
00000120: 0912 133f 9613 a8be ccad 9b3e ae89 893e
00000130: b7b4 c7be a7ad 16be df0f a23e 2b59 503e
00000140: 4592 46bd 068c 9c3e 326a d9bd 85c3 98be
00000150: 7077 0aba 5dd4 15be 259a e9be 57b9 3dbd
00000160: 3d4a 49be 324d 8e3d 2901 2abf 60ce 813e
00000170: 4ef7 fabc d623 c0be 947d 803c a05c f43c
00000180: 0989 8b3e 034e 943e 2cff 023f 5494 82bd
00000190: 6003 48be b6a9 89be 193a 09be 0a24 223f
000001a0: 6419 11bf 0957 5a3e 9221 363e d451 23bd
000001b0: df17 52bf 1455 05bf 4b55 d93e 68ab 7bbb
000001c0: 7492 ac3e 06a8 953f 6389 a23d 7a89 933d
000001d0: e893 353f be07 89be 650d 87bf e7de c5be
000001e0: a3cd a3bd d942 d2be 644a eabd e2e1 c8be
000001f0: 5b4a 9dbe 2bb4 bfbe c0f9 1f3f 9f7b ef3c
00000200: 8873 773e 6a85 663d 16a7 283f ffb3 89be
00000210: e095 293f 87ad 393f 9f8f 3bbf 5478 02bb
00000220: 4dbd f4bd dcc0 843e 043a 07bf e6c0 c9bd
00000230: 9472 bebe 3005 fdbe ea92 2a3e 2669 3b3d
00000240: b4cd a9be 3f27 af3e 1bbd 3c3f 91b9 2c3f
00000250: 5a2e 393e e57c a8be c254 953e b6d7 f93e
00000260: 4d90 ebbe 8023 873e 4a5c 60be 3d93 843e
00000270: adfb 01bf 05b9 99be 0b05 673e 7023 8dbd
00000280: 4029 b53e 15b2 663f d25a 8c3e c55e e73d
00000290: 21e3 483f 30b0 61be d74f 6fbe fb3d 173e
000002a0: 0e16 bdbe 887f 733d 0345 c23e 02ff f23d
000002b0: 4ffc 863f da5a d8be 63e6 62bf b296 5d3e
000002c0: 4afe 3ebe ffb7 453e 2208 39bf d580 dd3e
000002d0: a20c 9cbe 8719 9ebe e11d 593f 3e23 a23d
000002e0: 7bb1 7bbe 887f 1e3f 98c1 bd3e dc92 bbbd
000002f0: e41d 3e3f d6db 9f3d 9925 5e3d 3dd7 9f3d
00000300: d0ff 5b3e e853 27be bec7 4dbe cf79 0abf
00000310: 60d2 f8bc d1cf 033e eb24 883e c999 1ebe
00000320: b8ed 083e 2743 b13e 5b53 fb3e d2d6 ec3e
00000330: da4e 9b3e 9340 4c3e c4eb b9bc 6ff8 f33e
00000340: a82b 983e f047 4b3e a388 d5bd a430 f03e
00000350: 5b93 2bbf 506b 32be 65e4 b43d 62ee c93e
00000360: bee1 d0bc 7d0a 0d3e 100e acbd 76ea 85bc
00000370: 7ff1 123d 98d2 9cbe 67e3 e9bd cf7e 1b3e
00000380: da22 f83e 3011 1f3e e8c6 2dbd 59e6 df3d
00000390: 0ecb 203f ee29 5a3d c3e9 4ebe efff 0abe
000003a0: 7d29 c2be 08cf 81bc e99b 0f3e 1649 3ebd
000003b0: 2fe9 c23d 34fc 2d3e 8ded 6c3e 4da6 933e
000003c0: ed97 833e e7f4 3abe e39d ffbe 0882 853e
000003d0: 95df 9dbe 488e 9cbe e8f6 473e ec4a a23e
000003e0: 3d17 1d3d 31d6 cb3e dff5 173f d0f5 d33e
000003f0: b537 ecbe b864 4d3e a9ae 0dbe 4032 e43d
0.3062233 -0.61951214 -0.11213341 1.0161829 0.14065593 0.19976072 -0.32378456 -0.01534568
-0.25645202 -0.20635886 -0.14979948 -0.09712373 -0.6329637 0.31097332 0.493013 -0.31524533
-0.65153974 -0.008070514 0.10016751 -0.5630082 0.47741494 0.28334942 -0.11266647 0.15994708
0.5013778 -0.70169514 0.4489977 0.29052493 -0.31728214 -0.20494032 0.12144457 -0.1808787
0.12724093 0.022975894 0.31967714 -0.1992192 0.16546486 0.02399461 0.025222123 0.36567917
-0.40014765 0.031346325 -0.36987883 0.0722614 -0.6801798 -0.43935305 0.7054092 0.104836285
0.05172848 -0.15832667 -0.9954216 0.18204443 -0.10229995 -0.18331863 -0.21468493 0.53535825
0.9011031 0.21342126 0.36161473 0.5526199 -0.3350731 0.45518932 0.47707713 -0.68489283
0.44603202 -0.1174247 0.6957235 0.026828205 -0.18662755 0.028112907 -0.07610251 0.13560113
0.57449394 -0.32827443 0.30406034 0.26862854 -0.39005062 -0.1471468 0.31652734 0.20346515
-0.048479337 0.3057558 -0.10615958 -0.2983667 -0.000528208 -0.14631791 -0.45625415 -0.046319332
-0.19657226 0.069483176 -0.6640802 0.25352764 -0.030635502 -0.3752734 0.01568488 0.029829323
0.27252987 0.28965768 0.5117061 -0.063759476 -0.19532537 -0.26887292 -0.13401069 0.6333624
-0.5667937 0.21322264 0.17786244 -0.03987296 -0.82067674 -0.52082944 0.42447886 -0.0038401727
0.33705485 1.1691902 0.07936361 0.07203956 0.7092881 -0.2676372 -1.0550963 -0.38646623
-0.079982065 -0.41066626 -0.1143997 -0.39234835 -0.3072079 -0.37442145 0.62490463 0.029233752
0.24165165 0.056279577 0.6587995 -0.2689514 0.66244316 0.72530407 -0.73266023 -0.0019908147
-0.11950169 0.2592839 -0.528229 -0.098512456 -0.3719679 -0.4941802 0.16657606 0.045754574
-0.33164752 0.3420963 0.7372605 0.6747065 0.18084088 -0.32907787 0.29166228 0.48797387
-0.4600853 0.26394272 -0.21910205 0.25893584 -0.5077465 -0.3002397 0.22560517 -0.06891525
0.35383034 0.9011548 0.2741304 0.11297373 0.7847157 -0.22039866 -0.233703 0.14769737
-0.3693089 0.059447795 0.37943277 0.11865045 1.0545748 -0.42256814 -0.8863279 0.21639517
-0.18651691 0.1930847 -0.72278035 0.43262354 -0.30478388 -0.3087885 0.84811217 0.07916878
-0.24579422 0.6191335 0.37061763 -0.091588706 0.7426436 0.07805602 0.054235075 0.07804725
0.21484303 -0.16340601 -0.20095727 -0.54092115 -0.030373752 0.12872244 0.26590666 -0.15488352
0.13371933 0.34621546 0.49087033 0.46257645 0.30333596 0.19946508 -0.02269543 0.47650477
0.29720807 0.1985166 -0.10426452 0.4691211 -0.6702172 -0.17423749 0.08832625 0.39439684
-0.025498267 0.13773532 -0.0840112 -0.016347151 0.03587484 -0.3062942 -0.11420327 0.15185092
0.4846409 0.155339 -0.04242602 0.10932607 0.62809837 0.053262644 -0.2020636 -0.13574193
-0.37922278 -0.01584579 0.14024319 -0.04645642 0.095171325 0.16990739 0.23137493 0.28837815
0.25701848 -0.18257485 -0.49925146 0.26075768 -0.30834642 -0.30577302 0.19527781 0.31697786
0.03835224 0.39811853 0.59359545 0.41398478 -0.4613625 0.20057952 -0.13836159 0.11142397

rnn.bias_ih_l0 f4 [72]
00000000: 0c38 e43d 9722 1f3e fd90 db3d baae 4fbe
00000010: b226 49bf a97e 1a3f 99da 0dbf ef77 5c3e
00000020: 0168 073e 7cf9 0b3f ec09 b9be 7456 84be
00000030: 33e5 073e dce0 ddbe 6fae 83be c5f7 51bf
00000040: 2c8e 1dbf 10be c9bd 95c7 35be cb2b 32bf
00000050: 8e2a 49bf 3f1b 1fbe 2fab 10bf ce53 803e
00000060: e883 943c 216c d6bd 6bcb 0f3f 693c 59be
00000070: 3674 8a3e d522 1fbf 1c6b 6cbd 5adc 9bbc
00000080: f338 053e 5170 50be 4dca da3e 88f2 d2be
00000090: 69af 3cbf 80ee 45bf 0fe3 03bf af5d 58bf
000000a0: 6cdb 283f 8bef 293f 1ffd c0bd 55f6 163f
000000b0: d830 90be e7ef a13e b697 7abe a0b2 0e3e
000000c0: ec94 7fbd 7f1a 60be 0c46 a7be f3b1 16be
000000d0: a495 86be ba2b 363d 2d5e 363e 3876 9abe
000000e0: 465f d63e bec0 16be 7a24 dc3d b865 25be
000000f0: e502 b33d 3cf8 ce3e 7e4a 86be 2a47 273c
00000100: d81a f1bb 66a7 833c 28eb 8cbe 3b04 24bd
00000110: 08ba 21be e71d c4bd 1d09 973d 6545 573d
0.111435026 0.15540539 0.10721014 -0.20281497 -0.7857467 0.6034952 -0.5541168 0.21530126
0.13223268 0.5467756 -0.36140382 -0.25847208 0.13271026 -0.43335617 -0.2571902 -0.8201869
-0.6154506 -0.09850705 -0.17751916 -0.6959807 -0.7858056 -0.15537737 -0.56511205 0.25063938
0.018129304 -0.10469843 0.56169766 -0.21214451 0.27041787 -0.62162524 -0.057719335 -0.01902597
0.13010006 -0.20355345 0.42732468 -0.41200662 -0.73705155 -0.7731705 -0.5151834 -0.8451795
0.6595981 0.6638114 -0.09423279 0.5896962 -0.28162265 0.31628343 -0.24471936 0.13935328
-0.062397882 -0.21885107 -0.3267063 -0.1471632 -0.26286042 0.044475295 0.17809363 -0.3016832
0.41869563 -0.14721963 0.10749145 -0.16152084 0.087407865 0.40423763 -0.26228708 0.010209838
-0.0073579364 0.016071033 -0.2752316 -0.040043097 -0.15793622 -0.09576016 0.07374785 0.052556414

rnn.bias_hh_l0 f4 [72]
00000000: d49e 923c b02a a5bc 927f b1bb e51b 0cbf
00000010: e7ed 64bf a09d ef3e 0f3e 01bf 8dbf 983d
00000020: 7e15 51bd e69d d43e e440 0bbf cbc6 22be
00000030: 0089 e63a e6b7 e4be af6c ebbe 446f 3fbf
00000040: 54b4 bcbe 9ff1 dcbe 2897 d7be 149b 67bf
00000050: e665 8abf b184 acbe e4b1 d0be 8e4a be3e
00000060: 7095 133d f149 1f3e c6c2 f63e 7b3e 5cbe
00000070: e614 9a3e 0cc3 f8be eeaf 843e b5d6 abbe
00000080: 384c dc3d 628c 353c fe44 f03e 620d 16be
00000090: a419 0abf e1c6 2cbf 0a8f 08bf 24bf 54bf
000000a0: f3c3 3a3f 9d9f 333f c421 85be 06b1 0e3f
000000b0: a249 92be debd cd3e b6ac 30be ccdc dcbc
000000c0: 24fc a0bc ce14 82be 2162 99be 00dc 5f3a
000000d0: 781f 6bbb cf82 5dbe 5481 453e 7c83 d4be
000000e0: 0a2c 413f 4ba0 5bbe 9fb1 4f3e a5ce 6abe
000000f0: a6d4 323e 1b69 8e3e 3d4b cfbe de2e 42be
00000100: b69c b3bc fbdb 1fbe 0868 ff3b 04ad 2f3e
00000110: 5400 243e 6188 973e 64c2 903d 8a19 36bd
0.017898 -0.020161957 -0.005416819 -0.54730064 -0.8942551 0.46799946 -0.5048532 0.074584104
-0.051045887 0.41526717 -0.5439589 -0.15896146 0.0017588437 -0.44671553 -0.45981357 -0.7477915
-0.3685633 -0.43153092 -0.4210751 -0.90471005 -1.0812347 -0.33694986 -0.4076072 0.37166256
0.036031187 0.1555555 0.48195475 -0.2150821 0.3009407 -0.4858631 0.25915474 -0.33562246
0.10756725 0.011080833 0.46927637 -0.14653543 -0.53945374 -0.67490965 -0.5334326 -0.8310416
0.72955245 0.70165426 -0.26002324 0.55738866 -0.28571802 0.4018392 -0.17253384 -0.026960753
-0.01965148 -0.25406498 -0.2995768 0.00085395575 -0.003587691 -0.21631931 0.19287616 -0.41506565
0.75457823 -0.21447866 0.20282601 -0.22930391 0.17463931 0.27814564 -0.4048709 -0.18963191
-0.021925312 -0.1561126 0.007794384 0.17155844 0.1601575 0.29596236 0.07068327 -0.04445795

rnn.weight_ih_l1 f4 [72, 24]
00000000: 8e78 d73d 01e2 803e 2262 c33d c46a 443f
00000010: 23cf 14be 5ef5 81be f110 8c3e d467 a8be
00000020: 2a99 07bf 3c57 d6be 0358 ccbe a399 21bd
00000030: 1d9f d4be 5be7 27bd 02e6 38be 38e5 a4be
00000040: a542 643e 1250 173f 1a13 50bd ea98 013e
00000050: e5e6 633f 897b 9bbd 3652 e5be 74d2 8abe
00000060: f4e7 00be f35a 96be dcf0 acbf 640a 87be
00000070: 71f7 0fbf 4f94 22be ad45 173f d885 babe
00000080: 5229 e93e 3665 143d aae7 2d3e fbd3 82be
00000090: cc03 86be f104 383f b250 87bf 52d2 41bf
000000a0: d3b7 823e c641 94be 67e5 4fbf 408e 213e
000000b0: fe4d e93d a98f 17bc 0fa2 11bf c0d7 95bd
000000c0: 3f93 4e3f fae8 dc3d 749d 6c3e ca13 76be
000000d0: 26b2 4e3e eb3a 04bf bfe9 8fbe 8fe1 ba3e
000000e0: 893c 24bf acad 3cbe 8a74 90be 291b e1be
000000f0: 7ff8 56be 7aa8 4cbc 2399 a63e 9013 d33d
00000100: 9ab9 3f3f 08b5 fc3e bd7a 103f df29 783e
00000110: d8c4 583c 0027 01bf 2b8e a7be d26d 0dbf
00000120: c8bf b4be 953d 943f afe7 633e be99 82bc
00000130: 2435 8bbd ad6e 123d dd9c e73e 4906 22bf
00000140: a43c 03bf d426 f0be fc25 083f 1f81 abbe
00000150: d2be 323f b91c 1cbf a855 ebbd a1af 653f
00000160: b5c3 9b3d c7fc 013f 6cfa 24be cc07 2e3e
00000170: 8970 3cbf d445 fabe bb10 533e 1eee 09be
00000180: d99a 303e aa8a 983e b53b d53e dda3 99bd
00000190: 9425 adbd fcf6 94bd afad a8bd d8bb 6a3e
000001a0: 521c 0dbf 5670 843e 1d89 953d 370c 3bbe
000001b0: f616 a2be a334 e3be ee95 82bd 5600 333e
000001c0: 983e 843e 2d7e adbd ec9c 563e 80ea 4939
000001d0: a631 97bd 7470 ebbc c6d4 ffbe 0f02 88be
000001e0: 9a51 573e 1047 26bf bee6 783e b108 013f
000001f0: 67a5 0c3e 4299 94be 071d 963e 096d 613e
00000200: 6ae1 b4be e6f7 bbbd 7e58 a0be 1841 60be
00000210: b345 efbe b7f1 253f cac0 963c f075 1ebf
00000220: 563d 10bc 3523 b3be 97f2 813e a46d 19be
00000230: c55f bd3e 949c 3e3e 8bba 0ebf 6230 02bf
00000240: 5bbb 81bc 4396 abbe 43d6 1dbe f9c9 a43e
00000250: 5d75 0fbd dfdd 1a3e bcd2 47be 3b64 903e
00000260: 66d2 73bd d7d4 83bd cc08 38bb a2a6 973d
00000270: cffb cc3c 4d7a 9fbe 4e5f 053e 5d9a 803e
00000280: e854 3cbd 1591 423e e730 733e 1890 9cbc
00000290: 8307 eebd aa9a 0abe 6aad a93d 7190 333e
000002a0: 2e0e ba3e cb4e c0be 502b eebe fc52 9a3e
000002b0: c020 2ebe d727 02be 1630 ec3e d777 a9be
000002c0: c07a 353e f772 c3be 68d1 25be 1b84 f5be
000002d0: db45 13be aa05 843f b432 14bf 2099 2cbf
000002e0: 68c7 0b3f 3946 6a3d 5b21 66be 91f8 293e
000002f0: c6bd 243e 0ec3 653e ae6c 40be 4f71 29bf
00000300: ab04 ab3e dbd3 99bf 4984 74bc 7929 1e3f
00000310: 3f2d 983d 8454 b1be ff33 923d aaad cd3d
00000320: 2dd7 f6be 9300 56bd 0f42 29bf 2721 1fbf
00000330: 1cda 68bf 3d42 bb3e 9e6c 1cbe f2df 84bf
00000340: eeac 4e3b f25d bfbd 123d b2bd b964 2abd
00000350: 0eab 663f cec7 26be ce9f 17bf a718 03bf
00000360: 56ea 4abc 4ef5 b3be 4597 603e a153 a5bd
00000370: 021f 70bf 220e 4f3d 8a32 003f 302d 4a3e
00000380: 0062 77ba bab7 91bd 6801 923e edf6 a2be
00000390: 416c 5abf b212 163e 9345 6dbe 88f1 34bf
000003a0: 1722 bb3e b363 a4bd 5364 abbe f823 133f
000003b0: 279c 483e c0cc 7dbf f37c 2bbf 8a0e 0ebd
000003c0: dd8e d7be 3d47 2bbf 3722 1bbf 76b3 d63e
000003d0: 29dc d6be 094f 76be ea77 c23e 7cbc 1fbd
000003e0: 7498 0d3f 94c8 7f3d e7b2 273e ad2f bbbd
000003f0: 832b 91be 8384 173f 5c1f 65be 82fb 4ebf
0.10521041 0.25172427 0.09540202 0.7672541 -0.14532141 -0.25382513 0.27356675 -0.32891715
-0.52968085 -0.4186343 -0.39910898 -0.03945316 -0.41527644 -0.040992122 -0.18056491 -0.3220613
0.22291048 0.5910655 -0.050799467 0.12655988 0.8902419 -0.07591922 -0.44789284 -0.27113688
-0.12588483 -0.29366264 -1.3511004 -0.26375115 -0.5623694 -0.15876888 0.5909069 -0.3643024
0.45539337 0.036229335 0.16982904 -0.25552353 -0.26174772 0.7188254 -1.0571501 -0.7571155
0.25530872 -0.2895643 -0.81209415 0.1577692 0.11391829 -0.00925056 -0.56887907 -0.07316542
0.8069343 0.10786624 0.23106939 -0.24030986 0.20185146 -0.516524 -0.28108022 0.36500213
-0.6415487 -0.18425626 -0.28213912 -0.43966034 -0.20993231 -0.01249134 0.3253871 0.103064656
0.7489258 0.49356866 0.56437284 0.24234723 0.013230525 -0.50450134 -0.32725653 -0.552457
-0.35302567 1.1581293 0.22256349 -0.01594245 -0.06797245 0.03575008 0.45236865 -0.6329084
-0.51264405 -0.46904624 0.5318296 -0.3349695 0.6982242 -0.6098133 -0.11490947 0.89721113
0.076056875 0.5077633 -0.16111153 0.16995162 -0.73609215 -0.488814 0.20611851 -0.13469741
0.1724657 0.29793292 0.41647115 -0.075019576 -0.08454433 -0.07273671 -0.082362525 0.22923219
-0.5512134 0.25866956 0.07301543 -0.18266378 -0.31658143 -0.44376096 -0.06376253 0.17480597
0.25829005 -0.08471332 0.20958298 0.00019256212 -0.073825166 -0.028740145 -0.4996702 -0.2656407
0.21027222 -0.6495218 0.24306771 0.5040389 0.13734971 -0.29023176 0.2931902 0.2201425
-0.35328227 -0.09178142 -0.31317514 -0.21899831 -0.46732864 0.6482195 0.018402476 -0.6189871
-0.008803686 -0.34987798 0.25380394 -0.14983231 0.3698713 0.18614417 -0.5575339 -0.50855076
-0.015836408 -0.33513078 -0.15413766 0.32185343 -0.035024036 0.151237 -0.19513983 0.2820147
-0.059526823 -0.0643708 -0.0028081415 0.074048296 0.025022415 -0.31147996 0.13024637 0.2511777
-0.04597941 0.19000657 0.23749124 -0.019111678 -0.116225265 -0.13535562 0.08285029 0.17535569
0.36338943 -0.37560114 -0.4651742 0.30141437 -0.1700468 -0.1271051 0.46130437 -0.33099243
0.17722607 -0.3817365 -0.16193163 -0.4795235 -0.14382116 1.0314229 -0.57889867 -0.6742115
0.54601145 0.057195876 -0.22473662 0.16598727 0.16088018 0.22437689 -0.18791458 -0.6618852
0.33402 -1.2017778 -0.014924117 0.6178203 0.07430505 -0.34634793 0.07138824 0.100428894
-0.4821104 -0.05224664 -0.6611642 -0.6215996 -0.9095781 0.36573973 -0.15275809 -1.0380843
0.003153618 -0.093440905 -0.087030545 -0.041599963 0.9010476 -0.16287157 -0.5922822 -0.5120949
-0.012384972 -0.3514809 0.21932705 -0.080725916 -0.93797314 0.050550587 0.50077116 0.197438
-0.00094369054 -0.07115121 0.28516698 -0.31829014 -0.8532143 0.14655569 -0.23171072 -0.7068105
0.36549446 -0.080268286 -0.3347498 0.5747676 0.19590817 -0.9914055 -0.6698753 -0.034681834
-0.42101184 -0.66905576 -0.6059908 0.41933793 -0.41964844 -0.24053587 0.37982112 -0.038998112
0.5531075 0.062447146 0.1637684 -0.09139953 -0.2835351 0.5918657 -0.22375244 -0.8085252

rnn.weight_hh_l1 f4 [72, 24]
00000000: 7cb2 903e c538 823e 2616 6b3e c74a babd
00000010: 0add 343f 5a4d dfbc 85d0 113e a0b4 ff3e
00000020: 00ce cabe d0b5 c8be 4c3d 383f 340a 9d3d
00000030: e093 543e 6170 06bf 5745 993d 6220 333d
00000040: 1ecd 8f3e 98c0 893e 1624 5dbe d065 913d
00000050: a7eb 85bd 6d93 3bbe 11f1 a73e 7396 75be
00000060: cee9 d2be 0731 113e 68f3 45bd 7c54 543d
00000070: 8ba3 fb3d 0ff9 613e 48b5 ed3d 7095 913e
00000080: 025d c83d 0abe 8a3e 9056 e03e d45e bb3e
00000090: c508 aa3e 2d5e 513e 8eae f3bd 7c20 5f3e
000000a0: 73ff e33e 1d2f 94be 2d74 a0be 612f 3b3e
000000b0: 4502 a63d 6ec0 22be 61af 08bf 99b5 19be
000000c0: c197 933d 96bd 86be f5e6 713e a14d da3d
000000d0: 95cd 893e 6d21 993d c21d 90be 140d e3be
000000e0: 3941 f5be aafb f2be dfd1 79be 37a3 3abf
000000f0: 8067 e43e 130d 2a3e ba18 77be 886d a33d
00000100: dd79 d7be 8136 503e 5f65 10be 6d14 e83e
00000110: fa14 8ebe 21b9 a7be 66f6 a63e 508a cfbe
00000120: 4ced b5be 1e04 f63d b426 d2be 5ec1 0e3f
00000130: 6978 a63e 1d73 37be 727c ffbc 5533 603e
00000140: e3f0 f0be 64e3 b2bc 24ef f13e a38c 213d
00000150: 5ef0 fb3d 2c60 c93c 4a08 39bf b89e 2c3e
00000160: 6c27 c33e d03b 383d 5a71 dcbd a248 ad3e
00000170: 639a 0f3e 0fa3 b53e 7f05 9e3e 219c 48be
00000180: 35ba 37be d813 47be 785e 8dbe dc93 3dbd
00000190: 18a9 023f 47e6 693d eb62 76be abff c53c
000001a0: 01e4 a9be 3d24 543d e218 f83d 03bc 17bf
000001b0: 805f a73e 2e77 153e 0957 4d3e fbfa c03e
000001c0: 18a5 c03e 0492 293f e140 483e 5ed9 1d3e
000001d0: 8fdd 2b3e ec35 dfbd fddd ce3e 00d9 0ebb
000001e0: 48aa f1be 0a54 043e 1118 883e 9794 153e
000001f0: 10ab e8bd f0ea 773e 1925 943e cc68 bbbd
00000200: 3a88 0dbe 6a97 703d 784d 593b f552 afbd
00000210: 2c1b c13d 722b 073e 48f6 cabe fb63 57be
00000220: 8992 ea3e d5c5 103f 2d4c b73b 9817 73bd
00000230: 1af4 443e 26e1 09be 10a7 82be c303 85be
00000240: bdc7 673c a5e5 b83e 58cf 47be dbfa ebbd
00000250: bf64 fd3d fb1f ea3e fba8 1dbd 3450 0b3d
00000260: f94d 95be 2d7d 80be 8ea4 1a3d fe71 cc3d
00000270: aa65 6abe c0a1 14be a7d1 9cbd 9651 9cbe
00000280: 16fd febd e603 843e 0654 00be e089 58be
00000290: 3271 9f3e 67d5 c83e f0de 51be 58cf 6b3e
000002a0: 5073 8a3c 47d4 36be 4ca3 413f db07 8ebb
000002b0: 7af2 0f3f 58ac b33e 1f50 b23e 7cda 733c
000002c0: c10f 7cbe bd22 36be 0e1e f23e ebc8 563e
000002d0: d940 f03e 407c 17be 86c1 9bbd 0faf 303f
000002e0: 8b90 043f a636 733e ae81 f3be 033e de3e
000002f0: 8e0e 7dbe 80c5 9bbe fa24 a3be 2cf0 1dbf
00000300: 2705 e4be 937f f6bd aa69 b03e 6205 b3bd
00000310: 0445 553e 1f6d 41bd 5af8 4fbe 16a1 cebc
00000320: f5f5 2bbf e617 d8bd 71e3 033d 562c 26be
00000330: 38db 613c e1e2 36be eeda 2bbf 9331 043e
00000340: a188 df3e 4c0b 993e 62e2 783e fa13 efbc
00000350: 049f d4bd 1682 8fbe 179d 8dbd 7afc 97be
00000360: 7e48 82be 891f babd f9d7 0d3d 5706 90be
00000370: 7328 333f e054 283f 8978 35be ffe8 da3e
00000380: 6e5d 20bf fb2c 89be 6b7f 203f e22a d1bc
00000390: 5635 b93e c750 113e aa0e 80bc f01e 3c3f
000003a0: 7f70 543e 05ee 443f 149d a9be 7db3 183f
000003b0: c01e 2abe 121c 3e3e 84a7 b43c fc04 1abf
000003c0: 0480 08bf 7e2c 8ebe c1eb a4be a85d 89bd
000003d0: aa3b 9f3e bc33 873e f3fb 533e 2286 0fbd
000003e0: 7325 7a3e 751a 803d 0963 043f 437f 423e
000003f0: d89d 2ebd 3c57 043d c7df a0be 8415 3c3e
0.28261173 0.25433937 0.22957668 -0.09096294 0.7064978 -0.027258564 0.142397 0.49942493
-0.3961029 -0.39201212 0.7196853 0.07667962 0.20759535 -0.52515227 0.07483929 0.043732055
0.2808618 0.2690475 -0.21595797 0.07099497 -0.06539088 -0.18317957 0.32801107 -0.23983173
-0.41194004 0.14178859 -0.048327833 0.051838383 0.12287053 0.22067665 0.11606842 0.28434324
0.09783365 0.27098113 0.43816042 0.36595786 0.33209816 0.20446081 -0.11898528 0.21789736
0.4453083 -0.28942195 -0.31338635 0.18279792 0.08105902 -0.15893719 -0.53392607 -0.1501068
0.07206679 -0.26316518 0.2362326 0.10659338 0.2691466 0.074770786 -0.28147703 -0.44345915
-0.47901323 -0.4745763 -0.24396466 -0.72905296 0.44610214 0.1660655 -0.24130526 0.07979876
-0.42085162 0.20333292 -0.1410117 0.45328084 -0.2775038 -0.3275843 0.32609862 -0.40535212
-0.35532606 0.12012504 -0.41045153 0.55763805 0.3251374 -0.17915006 -0.03118727 0.21894582
-0.47058782 -0.021836944 0.47252762 0.039440762 0.12301706 0.024581991 -0.72278273 0.16857421
0.38116014 0.044978917 -0.107638076 0.33844477 0.14023738 0.35475966 0.30863568 -0.19590808
-0.17942126 -0.19441164 -0.27611136 -0.046283588 0.51039267 0.057104375 -0.24061172 0.024169764
-0.33181766 0.051792372 0.12114121 -0.5927126 0.32690048 0.14596245 0.20052733 0.37691483
0.37625957 0.6623843 0.19556 0.1541495 0.16783737 -0.10898957 0.4040374 -0.0021796823
-0.47200227 0.12922683 0.2658086 0.14607464 -0.113607526 0.24210715 0.28934553 -0.09150848
-0.13821498 0.05873815 0.0033157747 -0.08560745 0.09429011 0.13200167 -0.39641023 -0.21034233
0.45814922 0.5655187 0.0055937977 -0.059348673 0.19233742 -0.13464794 -0.25518084 -0.25979432
0.014146742 0.36112705 -0.19512689 -0.11522456 0.123727314 0.45727524 -0.03849123 0.034012035
-0.2916105 -0.25095502 0.037754588 0.0998268 -0.22890344 -0.14514828 -0.076571755 -0.30530995
-0.12450616 0.25784224 -0.12532052 -0.21146345 0.3114105 0.39225313 -0.204952 0.23028314
0.016900688 -0.17854415 0.75639796 -0.0043344325 0.56229365 0.35092425 0.34826753 0.014883634
-0.24615385 -0.17786689 0.47288555 0.20975082 0.46924475 -0.14793491 -0.07605271 0.6901712
0.51783055 0.23751315 -0.47559875 0.43406686 -0.24712583 -0.30424118 -0.31864148 -0.616946
-0.4453518 -0.120360516 0.34455615 -0.08741261 0.20827109 -0.047223207 -0.20309582 -0.025223296
-0.67172176 -0.10551433 0.032199327 -0.1622785 0.013785176 -0.17859985 -0.67130935 0.12909536
0.43658927 0.2989143 0.24305108 -0.02918433 -0.10381892 -0.28028935 -0.06914728 -0.29684812
-0.25445932 -0.09088046 0.034629796 -0.28129837 0.69983596 0.6575451 -0.17721762 0.42755887
-0.6264256 -0.2679213 0.62694424 -0.025533143 0.36173505 0.1419097 -0.015631992 0.73484707
0.20746039 0.7692569 -0.33127654 0.5964888 -0.16613293 0.18565395 0.022052534 -0.60163856
-0.53320336 -0.2776832 -0.32211116 -0.06707317 0.31100208 0.26406658 0.2070158 -0.03504003
0.24428348 0.06255046 0.51713616 0.18993859 -0.042631 0.032309756 -0.3142073 0.18367583

rnn.bias_ih_l1 f4 [72]
00000000: 8370 f8be 3eb1 183e ad7c 003e e7fb 26bf
00000010: d217 abbd 237f 99bd 6d4e bfbe 0d5b 5bbd
00000020: bfb7 0dbe 5204 febe 087b 333e 2fb7 c73e
00000030: dd59 01bf 78d4 873e 3833 26bf b803 3cbd
00000040: 7563 43be 3340 983e 2940 fabd a3f5 2ebf
00000050: a307 fbbe 15fe 3fbe 33c8 d6be 0bbb 0e3e
00000060: 6aad bfbe 97dd 1abf 9caa b5be 0e2f 9fbe
00000070: 418f 64be 36a0 283f c08d 253f 4c1e d8be
00000080: 71d2 53bf 8f09 c5be d7cc 233e 77c9 dcbe
00000090: aafe 173f 915b 863d 3292 7dbe f67a 0c3f
000000a0: 1da0 bd3e cb99 2e3d 3788 fa3e 85f8 1fbf
000000b0: fd7a 3cbf c4ca 343e a858 10be 5df3 293e
000000c0: edf7 283e e13e 8bbe 97ed c53d 1b74 b63c
000000d0: b8db f4be fa03 5bbe f1bc 0ebe b290 a6be
000000e0: 5a01 a63e b89c 023e 53d9 9dbe 3ab2 5ebe
000000f0: fcdb b4bd 8648 dd3d cc6e 68bd 98a2 81be
00000100: e6da 05be 98b1 243e a188 623e 2573 0bbe
00000110: 3a13 5dbe 600c 00be 2bf0 ce3d 01b9 203f
-0.4852334 0.14911363 0.1254756 -0.6522812 -0.08354153 -0.074949525 -0.37364522 -0.05355363
-0.13839625 -0.4961267 0.17527401 0.39006945 -0.50527745 0.26529288 -0.64921904 -0.045901984
-0.19080909 0.2973648 -0.12219269 -0.6834356 -0.49029264 -0.18749268 -0.41949615 0.13938539
-0.37436992 -0.6049437 -0.35481727 -0.31090587 -0.22320272 0.6586946 0.6466942 -0.42210615
-0.82742983 -0.38483855 0.15996109 -0.43122455 0.5937296 0.06560434 -0.247628 0.54875124
0.3703622 0.042627137 0.4893205 -0.62488586 -0.73625165 0.17655474 -0.1409632 0.16596742
0.16500826 -0.2719641 0.09664457 0.02227216 -0.47823882 -0.21388236 -0.13939263 -0.3253227
0.32422906 0.12755096 -0.30829868 -0.21747676 -0.08831021 0.108048484 -0.05674629 -0.25319362
-0.13071784 0.16083372 0.22122432 -0.13618143 -0.21589366 -0.1250472 0.10104402 0.62782294

rnn.bias_hh_l1 f4 [72]
00000000: 4e9a bebe a201 dc3d 3478 3dbe 8672 03bf
00000010: d94c aabe c011 3c3e 510f c9be a395 923e
00000020: ad03 84bd 22fa febe 5832 f9bc 2416 473e
00000030: 1894 fdbe 408d 9f3e 3cb0 e9be acd2 14be
00000040: d338 debd 582a 433e d93f 533c b19f d1be
00000050: 8069 65be 33bd 8d3c 737c b3be 3341 033e
00000060: 647c c4be 7f5f 0ebf b107 74be 3141 04bf
00000070: 7237 adbe af01 173f 05d5 053f 7584 e5be
00000080: c57d 1ebf dfd3 ffbe 8841 d8bd 682f 7fbe
00000090: f93f 263f 9637 c93c 923b 95bc 5d0c 033f
000000a0: 921c 923c 415b 7c3d 1f9f e13e 03d0 ecbe
000000b0: abc5 44bf daf5 da3e 6eaa b23d b626 553e
000000c0: 3556 32bd b6fd ecbe 4930 1abe b484 b9bd
000000d0: 99ce f5bd 508b 41bd 0586 e6bd 9bf0 e4be
000000e0: 4d05 f53e c136 c4bc 0fa9 a4be 610d ddbe
000000f0: c7e4 b7bd 8faf b33e 56ab babd 2b00 95bd
00000100: 9736 953d ae17 b53d 3041 3b3e 09b4 7cbe
00000110: 6ecf b93d eccf 7abe 6651 783e de66 d03e
-0.372271 0.10742499 -0.18502885 -0.51346624 -0.33261755 0.18366146 -0.39269498 0.2862979
-0.064460136 -0.4980021 -0.030419514 0.1944204 -0.4952705 0.31162453 -0.4564227 -0.1453349
-0.10850682 0.19059122 0.01289364 -0.40942147 -0.22403526 0.017302131 -0.35055885 0.1281784
-0.38376153 -0.55614465 -0.23831059 -0.51661974 -0.33831364 0.58986944 0.52278167 -0.4482762
-0.6191066 -0.49966332 -0.10559374 -0.24920428 0.64941365 0.024562638 -0.018216882 0.5119074
0.017835889 0.061610464 0.44066712 -0.4625245 -0.7686412 0.42765695 0.08723913 0.20815548
-0.043539245 -0.46287316 -0.15057482 -0.09058514 -0.12002296 -0.047252 -0.11256031 -0.44714817
0.47855607 -0.02395189 -0.3216023 -0.4317427 -0.08979183 0.35094878 -0.09114711 -0.07275423
0.07285803 0.08842407 0.18286586 -0.24678053 0.09072767 -0.24493378 0.24249801 0.4070348

rnn.weight_ih_l2 f4 [72, 24]
00000000: d836 333c 95a5 d1be fa84 6c3e 5a8a 973e
00000010: 9aea 683e efaf fdbe 05db ecbd 5938 abbf
00000020: d843 433e 62f4 c13d b6c4 9fbe fe52 2fbf
00000030: bb47 023f 6348 e1be 8a65 2cbf b479 053e
00000040: 54fe 883d 64bb 4b3d 5f47 043f f255 05bf
00000050: b3f7 8f3e 15a5 99be 5513 683f 40b6 25be
00000060: 4042 26bf c8c1 05be fb8e aebe 4c2c 6b3e
00000070: e81b df3e 4217 ce3e a067 013e 4207 833e
00000080: 04f3 63bd 9ad4 ccbb 97b5 1f3f a167 d53d
00000090: f553 e23e 6670 13be 966e bfbe 3361 543d
000000a0: bb2e 4e3e 27e7 973e 6bd4 42bf 281e 53be
000000b0: e9c7 223e 4f67 e33e 827c 8dbe 3092 c5be
000000c0: 8913 16be 87d6 02bf bcb0 36be 8c3d dbbc
000000d0: e27f 693e f9ae c13d f89f c83e 1d5b fbbd
000000e0: 0b1e 18be a3a5 94be efa0 773d 3f57 03bf
000000f0: 3d83 893e 9741 d43e 5c7c 7abe 93a1 473f
00000100: 06c9 b03d bece 243f 90fe 8cbe 2336 053e
00000110: 8c07 05be 118f 253f 43a8 cebe 6482 1fbf
00000120: e72e 8c3e 285d bbbe 6bfa ba3e 3bd1 6fbe
00000130: ac28 ccbd 9061 c2bd db64 cdbe e11b b3bc
00000140: beba b83c e65b ac3e c65c 473e b885 45be
00000150: d190 763e ef95 f3be 4605 56be 3ac2 11be
00000160: 5a5b 773e cad7 223d 092a 323e 38f6 bcbd
00000170: 6670 58be ee74 9ebe 8c27 443f 02aa ff3c
00000180: 1268 233f a4e7 2dbf 62eb 4b3e 0af3 46bf
00000190: fe87 a93e 3bd8 603e 9bd0 e0be 66c3 29bf
000001a0: c51a 6fbf 55e9 77bf 2647 b6be fe2a 31bf
000001b0: ac2d a93d e367 c03e 96e7 dc3e 7f8d 5d3e
000001c0: a0c7 f7be f674 133f 268b c43e e645 553f
000001d0: 6758 acbe ab08 f3bd 33b9 053e 79d1 973d
000001e0: 37aa 713e 3b07 4ebf 2aa2 963e 4980 26bf
000001f0: 6ce1 143f 1e88 51bd a053 ff3e 243d 3dbf
00000200: 2c15 a9be 73a0 0fbf 1602 4b3d 78e5 37bf
00000210: 4295 0f3f 3a40 b03e cc66 82bd 780c 113f
00000220: fc5a 9c3e b2c9 2f3f 58f2 5fbe 2808 ab3e
00000230: acbe b0be 3d28 17bd dabb 253f 1ff0 98be
00000240: 05ef 97be 2cc4 13be c46c 5d3d 9db0 103f
00000250: 63aa 9c3d 0749 1b3e 7b15 5dbe cded 50bd
00000260: 308e 4f3e aaa4 e03e 3b3e f83e 774a 0dbd
00000270: 87ec a2be 4a4c 83bc 00d2 4e3e e2e2 dabc
00000280: 7161 793e da3b 17bd 46ca ff3d 8e1d a7be
00000290: 8397 2f3e 3f22 f63e f886 273e 897a 0ebe
000002a0: 23ab c63e 5adc 043f c0b2 08be a2f4 87be
000002b0: ea1a 72bf b9f3 f4be b0a6 4bbf 1782 9bbe
000002c0: 0421 2d3f 949f dcbc 5c52 c5be 9c3b a13e
000002d0: 1516 20bf 2af5 51be 09bd 4ebe 744e 52bf
000002e0: d9d8 8e3d 5aec efbe 4930 0c3f aa49 0abf
000002f0: 2984 ecbd f30e b4be 1cf6 cc3d a8ea 753f
00000300: 8f28 d1be de82 e8bd e336 b6be b085 813a
00000310: ce10 a3bd 2371 ddbd c61c 7b3d 67ee c3be
00000320: de08 203e 00a0 abbe 1275 fcbe 46c5 2dbd
00000330: 1a00 87be 49dc fd3e bb5c ed3c ff81 763e
00000340: dce8 c03d 5799 d83d 1216 a03e 9377 cd3d
00000350: fd24 15be ab14 23be b176 f3be bd22 273e
00000360: 3195 adbe 4792 5dbf fe5b ffbd 3d3b 03bf
00000370: acb5 7bbc e9df 17be 3cdb 0b3f 4c75 abbe
00000380: 0c27 a6be 32ae 04bf 413b 35be 87a9 19bf
00000390: 2d45 253f aaed dc3e 8377 a4be 50f6 f53b
000003a0: 4afb d93e b83a b73d 4a37 2ebd 8ea4 05be
000003b0: 73a9 1cbf 4182 1dbf bea2 1c3f fe7e 68bc
000003c0: a222 c73d 334e 493e d3ec a03d 96b2 e93e
000003d0: 181a 41be 9171 27bf 79df a1bd 431a a1be
000003e0: df75 b33e b472 7b3c 27c3 dcbe 73ed ab3d
000003f0: 7794 ee3d 50c8 0fbd 3409 8bbc 0384 18bd
0.010938369 -0.40946642 0.23097602 0.2959774 0.22745743 -0.4954829 -0.11565212 -1.3376571
0.19068849 0.094704404 -0.31204766 -0.6848601 0.508907 -0.4400054 -0.67342436 0.13034707
0.06689134 0.049739257 0.51671404 -0.5208427 0.28118667 -0.3000876 0.906545 -0.16182804
-0.6494484 -0.13062203 -0.3409346 0.22966117 0.43575978 0.4025212 0.12637186 0.25591475
-0.05565168 -0.00625093 0.6238646 0.10420156 0.4420468 -0.14398345 -0.37389058 0.05185051
0.20135014 0.29668543 -0.76105374 -0.20616972 0.15896572 0.44414756 -0.27634054 -0.38588095
-0.1465589 -0.5110859 -0.17840856 -0.026762746 0.2280269 0.094572015 0.39184546 -0.12273238
-0.1485521 -0.2903262 0.060456213 -0.51305 0.2685794 0.4145629 -0.24461502 0.7798092
0.08632092 0.64377964 -0.27537966 0.13008933 -0.1299116 0.64671427 -0.40362749 -0.62308335
0.27379534 -0.3659451 0.3651918 -0.23419659 -0.09968695 -0.09491265 -0.4011601 -0.02186388
0.022549983 0.33663863 0.19468984 -0.19289291 0.2407868 -0.47575328 -0.20900449 -0.14234248
0.24155942 0.039756574 0.17398848 -0.0922665 -0.21136627 -0.30948585 0.76622844 0.031208996
0.63830674 -0.6793158 0.1991401 -0.777146 0.33111566 0.21957485 -0.43909153 -0.6631378
-0.9340022 -0.9684041 -0.35601157 -0.69206226 0.08260664 0.3757926 0.43145436 0.21636008
-0.4839449 0.57600343 0.38387412 0.8330978 -0.33661196 -0.11866888 0.13058929 0.074130006
0.23600088 -0.8047978 0.29420596 -0.650395 0.58156466 -0.051155202 0.49868488 -0.7392142
-0.33023965 -0.561042 0.049562536 -0.71834517 0.56087124 0.34424 -0.06367263 0.5665965
0.30538166 0.6866714 -0.2186979 0.3340466 -0.3452047 -0.03690361 0.64739764 -0.29870698
-0.29674545 -0.14430302 0.054058805 0.5651949 0.07649686 0.15164576 -0.21590225 -0.051008034
0.20269084 0.4387563 0.48484978 -0.034494843 -0.3182108 -0.016027588 0.20197296 -0.026719514
0.24353577 -0.036922313 0.124897525 -0.32639736 0.17147641 0.48073003 0.1636008 -0.13913931
0.38802442 0.5189873 -0.13349438 -0.26553828 -0.9457232 -0.47842196 -0.7955122 -0.30372688
0.676285 -0.026931562 -0.38539398 0.3149079 -0.62533695 -0.20503679 -0.20189299 -0.8215096
0.06974954 -0.4686001 0.5476118 -0.5401865 -0.11548645 -0.35167655 0.10007879 0.9606118
-0.40851256 -0.11353086 -0.3558875 0.0009881761 -0.079621896 -0.10812595 0.061306737 -0.38267824
0.15628383 -0.33520508 -0.49308068 -0.042424463 -0.26367265 0.49582127 0.028974881 0.24073027
0.094194144 0.10576122 0.31266838 0.100325726 -0.14564891 -0.15925853 -0.47551492 0.16321845
-0.33902887 -0.86551327 -0.12468718 -0.51262265 -0.015363138 -0.14831509 0.546314 -0.33487928
-0.32451665 -0.518283 -0.17698385 -0.60024303 0.6455868 0.43150073 -0.3212243 0.0075061694
0.4257453 0.089467466 -0.042533197 -0.13051054 -0.6119606 -0.61526877 0.61185825 -0.014190434
0.097234026 0.19658737 0.07857671 0.45644063 -0.1885761 -0.65407664 -0.07903952 -0.3146535
0.35050866 0.015347172 -0.4311764 0.08394899 0.11649411 -0.035103142 -0.016972162 -0.03723527

rnn.weight_hh_l2 f4 [72, 24]
00000000: 2fed 723e fee5 a7be d01d ba3e cef6 a6bd
00000010: b881 c5be 6634 b0be 42db 82bf dfca c03e
00000020: ed2f 673e 14ba d7be 992d 783e b9a1 2dbe
00000030: a61f 443e 03dc 283e 8c65 95be 3bd4 0b3e
00000040: be83 593e 81de 47be d952 f93e b336 2bbe
00000050: 06bc efbe 9273 0b3e 9279 1abf 68e0 91be
00000060: 045b 1c3e 80ef 84be e026 c13e 8832 81be
00000070: ec2a c8be b662 163e ab60 9dbd 4558 0a3f
00000080: e995 0b3f 6d11 0f3e 514b 383e df8a 5d3e
00000090: 9654 c03e 2dae 2bbe 139a d6be 4c19 88ba
000000a0: 1bad d7be 87da 8bbe 1ab4 26be 00be 88bd
000000b0: eb77 0e3e 62c6 053f e8d5 01be 74d0 b8be
000000c0: 8edf df3e 61b6 dbbd cf78 103e 0976 d93e
000000d0: e9a2 53bd ee22 813e 98ef 16bf 5fe6 893e
000000e0: 6966 783e 3b49 8b3e de11 30be 8656 67be
000000f0: e6cd 963e 39be 98bc 0588 ecbc f442 66bd
00000100: 4830 f3bd 3ccf 063e fd08 293e c1bd 0e3d
00000110: c1fc b4be 146e 153f 7e93 113e 4b2d 8abe
00000120: 1d81 2d3e 6c2c e43e b434 28be b545 403f
00000130: a23c 473d cf7e 53be fbc1 45be 6dce 513e
00000140: cf38 aabe 4299 8bbe c865 d53e d8e3 013a
00000150: 555e 74bd 3ea2 c73e 8b9f 9c3e 9642 ad3e
00000160: f0ce 75be eefb bc3e 6064 0cbc a33f b43e
00000170: dc3c 463d 6f47 12be 58f0 7ebe ec49 63be
00000180: 1b6e 8cbd de7c 303d 14fe 0c3f 5956 01bd
00000190: 223d cd3d 5651 453e 337a 0abe 50c4 a13d
000001a0: 2455 22bf 5d89 163e 5232 88bd a97f e9bd
000001b0: 01c6 103e 1caa 1e3e 054e 4d3d a739 6ebd
000001c0: 2d85 d13e e9ea 303f ecdc 20be eede c53e
000001d0: 6dfd 1ebf ec47 903c 6496 c1be 41e0 273f
000001e0: b0c1 3e3c 34ea 813d 46fa 933e 7213 02be
000001f0: 88a2 353e 25eb c13e e851 ec3e 596f bb3e
00000200: 7df7 62be 1f7f 59be 2812 093e db55 3f3e
00000210: 29c0 c93e 052b 96be 290d d53d 8878 0dbe
00000220: a5f1 c33e 44b1 fa3e 1217 4ebe 61fe 843e
00000230: 3b34 e0be cea7 983e a6e4 183d 5e01 203e
00000240: bfa8 ec3e 2097 f2bd a0b0 07be e17e 403e
00000250: d58f 983d 4199 06be e4c3 fcbe 6e26 fd3e
00000260: f301 303f 845e 283d 4a71 56be cdd5 1f3e
00000270: 7499 193d 9511 b8be 9b91 39be 7a9d a4bd
00000280: a83f 9bbe 2681 57bf 3256 113f 9256 20bf
00000290: f133 833e baa8 0a3e d645 9a3e 6422 3abf
000002a0: d67c c1bd 6bbb debc 1115 24bf 9f0a ae3d
000002b0: 004a 133e 8a4e 39be c80d 303e 7767 f2bd
000002c0: 8686 7f3e d76e 4b3e d2e1 44be b91a 0e3e
000002d0: fa39 e73d d2df 223d f4e4 3abe bf24 623d
000002e0: f31b ccbd eff0 2ebe 0d65 85be f621 eb3c
000002f0: 8784 e23e f657 45be 9896 79bd 19a0 77be
00000300: 8c2d e43e c94c 23bf ffd7 25be d3b3 7e3e
00000310: 87d8 de3e dcda 883e 92b9 b9be 1e06 d2bd
00000320: 742e 223e 9f98 c9bd 4534 10bf 6ca5 32bd
00000330: 25da b43e 396a 95be 7530 cebd 5907 6abe
00000340: 3a5c 64be c2c0 573d 65c9 da3e fd5c c8be
00000350: 3a53 00bd 12c1 253e 79dc 393e 6ec9 e2be
00000360: 5505 2abe 43ed e83d ffd0 103f 3658 fdbd
00000370: 849b 3e3e ac33 a8be eb34 d5be c81f 163f
00000380: f10e a9be 4ed5 e1be aa9c fa3d 41d1 813e
00000390: 6739 d5bd 4cda 13be 4d48 c23e 79ea bf3e
000003a0: 9c26 053f aa52 a03d ae84 abbd 96f9 6f3e
000003b0: 9dc4 dbbe 5e6d 863c 74c7 febd 3992 be3d
000003c0: b0ca a33a 8003 aabd 4e1a 14be dbbb cf3e
000003d0: 2ff1 7c3e f451 e9bc d855 01bb 798f f03d
000003e0: 3239 b73d 8fe2 b13d 63c6 8cbd 2349 a9be
000003f0: e65d 64be 9850 7dbe c905 073d 6e06 61be
0.23723291 -0.32792658 0.3635087 -0.08152543 -0.3857553 -0.34414977 -1.0223162 0.37654778
0.22576876 -0.42134154 0.24236144 -0.16956224 0.19152698 0.16490178 -0.29179037 0.13655178
0.21241662 -0.19518472 0.4869602 -0.16720085 -0.46823138 0.13618305 -0.6034175 -0.2849152
0.15269095 -0.25963974 0.37724972 -0.25233865 -0.39095247 0.14686093 -0.076844536 0.5404094
0.5452562 0.13971491 0.17997481 0.21635006 0.37564534 -0.16765662 -0.41914424 -0.0010383516
-0.42124256 -0.2731516 -0.16279641 -0.066768646 0.13912933 0.52255833 -0.12679255 -0.36096537
0.43725246 -0.107281454 0.14108585 0.42472866 -0.051669035 0.25221962 -0.5895934 0.26933572
0.24257816 0.27204308 -0.17194316 -0.225916 0.29453963 -0.018645393 -0.028873453 -0.056216195
-0.11874443 0.13164991 0.16507335 0.034848932 -0.35349086 0.5837109 0.1421642 -0.2698768
0.16943784 0.4456514 -0.16426355 0.75106364 0.04864181 -0.20653842 -0.19312279 0.20488901
-0.33246467 -0.27265364 0.41679215 0.0004954911 -0.059660275 0.38990968 0.30590472 0.33839864
-0.24004722 0.36910957 -0.008568853 0.352048 0.048397884 -0.14285062 -0.24896371 -0.22196168
-0.068569385 0.043087833 0.5507519 -0.03157649 0.10021426 0.19269308 -0.13523178 0.07898772
-0.63411164 0.14700837 -0.06650223 -0.11401302 0.14138032 0.15494579 0.050123233 -0.05816045
0.40921918 0.69108444 -0.15709275 0.38646644 -0.6210545 0.01761242 -0.3781005 0.6557656
0.011642858 0.06343499 0.2890188 -0.1270273 0.17737782 0.37874714 0.4615624 0.3660839
-0.22164722 -0.21239899 0.13385832 0.18685095 0.3940442 -0.29329696 0.10402901 -0.1381551
0.38270298 0.48963368 -0.20125988 0.25975326 -0.4378985 0.29815525 0.03732743 0.15625522
0.46222493 -0.11845231 -0.13250971 0.187984 0.07449309 -0.13144399 -0.49368203 0.49443382
0.68752974 0.041105762 -0.20941654 0.15608902 0.03749986 -0.35950914 -0.1812195 -0.08037849
-0.30322003 -0.8418144 0.5677215 -0.62632096 0.25625566 0.13540927 0.30131406 -0.72708726
-0.09447639 -0.027188977 -0.64094645 0.084981196 0.14383698 -0.18096367 0.17192757 -0.118361406
0.2495366 0.19866501 -0.19226769 0.13877381 0.11290355 0.039764233 -0.18251401 0.055210825
-0.099662684 -0.17084096 -0.26053658 0.028702717 0.44241735 -0.19271836 -0.060934633 -0.24182166
0.44566 -0.6378904 -0.16195677 0.24873285 0.43524572 0.26729476 -0.3627439 -0.10255073
0.15838033 -0.09843563 -0.56329757 -0.04361479 0.3532268 -0.29182604 -0.10067836 -0.22854365
-0.22300807 0.052674063 0.42731777 -0.39133444 -0.03132937 0.16186932 0.1815051 -0.44294304
-0.16603597 0.11373379 0.565689 -0.123703405 0.18614012 -0.32851923 -0.41641936 0.58642244
-0.33019212 -0.4410805 0.122369125 0.2535496 -0.10411339 -0.14438742 0.37945786 0.37483576
0.5201204 0.07828267 -0.08374916 0.23435053 -0.42923442 0.016409572 -0.124403864 0.093052335
0.0012496319 -0.08301449 -0.1446316 0.4057301 0.24701379 -0.028481461 -0.0019735005 0.11746115
0.08946456 0.08685791 -0.06873777 -0.3306361 -0.22301444 -0.24737775 0.0329645 -0.21975109

rnn.bias_ih_l2 f4 [72]
00000000: 8f8c 93be 559d 2dbf 3e30 c2be 75ae b0be
00000010: 8cec d0bc f2be c2bd e6ff bebd dca5 ab3e
00000020: d3f8 e43d 6b23 c83d aa06 1f3f 18fc 16bf
00000030: 0cfe d7be a103 3bbe 7247 1ebe aa87 e33d
00000040: d1ab e7bd 3d45 f13d b031 a8be f306 b03e
00000050: 0d1a 74be a2cf 94bd 9d72 36be 7fe6 603e
00000060: 6b20 41bf 1f10 393f 8034 90be 62cf 07be
00000070: 2625 8fbc 9b14 4ebf acc5 37bf 7f2d f9be
00000080: 64c9 e4be 31d8 16bf a752 31bf ee64 213f
00000090: 7215 58bc 252a 5bbe 9179 473e e550 e53e
000000a0: 3a76 e43e b2fc cebe 7553 f0be 7cc9 8abe
000000b0: bf04 01bf 3591 273e 5bfd d7be d4fe bfbe
000000c0: f09f 9cbc 78a5 21b9 48e9 663e fe4f fdbd
000000d0: d357 c83d 605f 8ebe 485e 783e 4d62 df3d
000000e0: c62c 783d ee81 a5be 19a4 263e fba2 d53d
000000f0: 1298 9cbe 4013 323c a31c f53d c5a7 68be
00000100: 738a 5ebd bcda 123d f5a5 38be c45a 3d3e
00000110: 70ec e1bd 5bd1 ecbe 6a2c dabe 6c34 703e
-0.28818175 -0.67818195 -0.3792743 -0.345081 -0.02550342 -0.09509076 -0.093261525 0.33524978
0.11180272 0.097723804 0.62119544 -0.58978415 -0.4218601 -0.18263103 -0.15456942 0.1110986
-0.11312068 0.11780784 -0.3285041 0.34380302 -0.23838063 -0.07266165 -0.17817159 0.21962927
-0.7544009 0.72290224 -0.28165054 -0.13262704 -0.017473768 -0.8050019 -0.71786 -0.48667523
-0.446849 -0.5892363 -0.6926674 0.6304463 -0.013188707 -0.21402796 0.19479968 0.4478828
0.4462145 -0.40427166 -0.46938673 -0.27106845 -0.50397867 0.16363986 -0.42185482 -0.37499106
-0.019119233 -0.00015415798 0.22549927 -0.12368773 0.09782376 -0.2780714 0.24254715 0.10907421
0.060589574 -0.3232569 0.16273536 0.10431477 -0.3058477 0.010868847 0.11968353 -0.22720249
-0.054331254 0.035853133 -0.18032058 0.18491656 -0.11031425 -0.46253476 -0.4261201 0.23457497

rnn.bias_hh_l2 f4 [72]
00000000: 600a 183d efa6 1cbf 6ecb b8be b2e2 c6be
00000010: e0f7 bd3d a7be 44be ec69 12be 67a0 e53e
00000020: 7ca3 da3d 1464 e93d 4342 823e 635f 78be
00000030: 1cc7 ccbe 9280 4fbd 4e6e b1be fd6a c63d
00000040: f990 3dbe 7b1a 973e 58cf b5be 4bfa 703d
00000050: e1fc b8be 8c5e b3bd d43a bbbb 10aa e83e
00000060: d0ed 23bf 6428 d93e 5810 0dbe b07a 153e
00000070: 2652 5dbd 62cf 60bf 3ffe 58bf 7800 05bf
00000080: 2c7c 85be afa6 58bf a0a2 15bf b1a5 313f
00000090: 3f69 66bd c52e 12be 516c 9e3e 9268 0b3f
000000a0: 96bb ec3e a628 e7be 245c 26bf 2caa 9ebe
000000b0: 086d 85be ca89 02be 7c64 f9be 0d42 dfbe
000000c0: f5b0 7dbe 744b 8c3d 9262 0f3e 50e9 55be
000000d0: c2b4 a53e e818 bcbe 3c92 473e 660a a93e
000000e0: b230 a1be 1315 edbd f0b0 753e 6ad3 b33d
000000f0: f9e2 67be 12cb 033e e22b a03c fe14 9c3b
00000100: 32c2 1dbd 50b3 f53b 5206 66be f26d a63e
00000110: 4cb1 a2bd 28cf 05bf 3c6e b3be 0d26 c33d
0.03711927 -0.6119222 -0.36092705 -0.3884483 0.09275794 -0.19213353 -0.14298218 0.4484894
0.106757134 0.113960415 0.2544118 -0.24255137 -0.39995658 -0.050659724 -0.34654468 0.09688375
-0.18512334 0.2951239 -0.35509753 0.058832448 -0.3613043 -0.08758268 -0.0057138 0.45442247
-0.6403475 0.42413628 -0.13775766 0.14597583 -0.05403342 -0.8781644 -0.8476295 -0.5195384
-0.26071298 -0.8462934 -0.5845127 0.6939345 -0.056252714 -0.14275654 0.30942014 0.54456437
0.46236867 -0.451482 -0.64984345 -0.30989206 -0.26059747 -0.12747875 -0.48709476 -0.4360508
-0.24774535 0.06850329 0.14002445 -0.20889783 0.3236447 -0.36737752 0.19489378 0.33015746
-0.31482464 -0.11576285 0.23993278 0.087805584 -0.22645177 0.12870434 0.019552175 0.0047632447
-0.038515277 0.0074981824 -0.22463349 0.32505757 -0.07943973 -0.5226922 -0.3504504 0.09528742
