Checkpoints/TEST_ckd_checkpoint.pth (torch, 427686 bytes, 125 tensors)

rnn.weight_ih_l0 f4 [72, 7]
0.12049181 -0.09035089 0.097212955 0.020239145 0.26784626 -0.5463976 -0.33205938 0.21571599
-0.20739482 -0.1392828 0.003763128 0.15587156 -0.53484976 -0.42499015 -0.03101532 0.1273179
0.39101326 0.3117074 -0.26734278 -0.58704376 0.2729263 0.33260697 -0.046764888 0.06334269
0.077275336 0.2995562 -0.6670263 -0.32326975 0.069641404 0.23037933 0.085505165 -0.20727472
-0.035939097 -0.5637544 -0.16443233 0.25023842 0.13340262 -0.03170284 -0.15938772 -0.039135247
0.41768515 0.024194384 -0.23700503 -0.05299532 0.052932635 0.03432022 -0.023783946 0.26128867
-0.25360698 0.08090141 -0.077086575 -0.31329432 0.08103529 0.12777422 -0.4534041 -0.36610526
-0.049861442 0.09731622 0.19573858 0.36198485 -0.18074802 -0.952169 -0.34066266 0.38755226
0.24021477 -0.19892804 0.06934253 0.24523512 -0.31773272 -0.29657114 -0.06995893 0.0084964195
-0.22140747 0.13111712 0.41435665 -0.3709834 -0.17429681 0.25393346 -0.024367454 0.05781717
0.28293264 0.04865853 -0.47941715 -0.22144656 -0.40233436 -0.03964341 -0.20965017 -0.17769355
-0.01008248 0.42895257 0.19454291 -0.0565633 -0.06365775 0.003050889 -0.045079444 0.27077377
0.27921796 -0.08781402 0.021825451 0.057427555 -0.23016426 -0.2313678 -0.0016922153 0.19362542
-0.0017301729 0.0699318 0.0027277814 0.20100844 0.44096515 0.28094894 -0.69584924 -0.06483157
0.04701307 -0.07263583 0.37612402 0.26879883 0.09280388 0.0855684 0.35780913 -0.22866307
-0.1410937 0.107083924 0.08243246 -0.061452083 0.5243566 -0.016886815 0.045102563 0.15867703
-0.22065833 -0.0138122095 0.18895483 -0.7706405 -0.46796042 0.31638676 0.24869971 0.1810128
0.022188311 0.013083377 -0.3256872 -0.10787212 -0.27247873 0.22546546 0.32655382 0.080377005
0.0059380024 0.18454267 0.40961844 0.33965585 -0.0992757 0.30753967 0.4031412 0.27346727
-0.5293515 -0.18588072 -0.005434568 0.3473726 0.19227605 0.23012027 0.36929962 -0.17385077
-0.13484229 0.15204453 -0.014689816 -0.119886495 0.30628675 0.20751064 -0.59063214 -0.2355254
-0.48824626 -0.055901505 0.08918919 -0.22277354 -0.1966269 -0.031167515 0.019120466 -0.08293831
-0.21808931 0.04280065 0.085170105 -0.40318492 -0.052270744 0.15765084 -0.33126733 -0.20965172
-0.42394617 -0.20238458 0.2977812 0.7189783 -0.19575804 -0.21618879 -0.23634978 0.12792759
-0.33960038 -0.36081326 0.25579685 -0.15635441 -0.1682696 -0.15377198 -0.15037526 -0.18776146
0.025346013 0.30611697 -0.369361 -0.37017283 0.050685532 -0.21318808 -0.37021786 -0.13810313
0.37750357 -0.0021156205 -0.10592576 -0.14774981 -0.1993813 -0.3396866 -0.35949916 0.5909919
-0.15122107 -0.27154374 -0.17181438 -0.20031756 0.0056060986 -0.7766554 -0.14708371 0.06310823
-0.6510842 -0.14191261 -0.21488604 -0.12552597 -0.7895942 0.004241981 0.041661285 -0.2592784
-0.17780805 0.068307295 0.05711567 -0.35162225 0.4107043 0.10873454 -0.58955246 -0.44482446
-0.73763704 -0.6468879 -0.89648116 -0.4348701 -0.32498085 -0.12859835 -0.23820238 -0.03310402
-0.38687226 -0.0706006 0.46823186 -0.20726825 -0.3391641 -0.24626318 -0.040990647 -0.023436382
00000000: 69c4 f63d e309 b9bd 9617 c73d 90cc a53c
00000010: 2523 893e b7e0 0bbf b003 aabe a7e4 5c3e
00000020: 4f5f 54be 26a0 0ebe d09e 763b cb9c 1f3e
00000030: eaeb 08bf 4f98 d9be d713 febc a05f 023e
00000040: e432 c83e 1d98 9f3e 27e1 88be 8048 16bf
00000050: ffbc 8b3e 764b aa3e 8a8c 3fbd d0b9 813d
00000060: 8842 9e3d 6e5f 993e 3cc2 2abf 9d83 a5be
00000070: 27a0 8e3d 8fe8 6b3e 551d af3d d33f 54be
00000080: e034 13bd 3552 10bf f360 28be 401f 803e
00000090: b29a 083e d6da 01bd 8936 23be 484c 20bd
000000a0: d4da d53e 4d33 c63c 72b1 72be 9f11 59bd
000000b0: e4cf 583d 5c93 0c3d 8dd6 c2bc a1c7 853e
000000c0: c6d8 81be a3af a53d 91df 9dbd 1d68 a0be
000000d0: d5f5 a53d 3fd7 023e 9524 e8be 2672 bbbe
000000e0: 833b 4cbd ba4d c73d b26f 483e 1456 b93e
000000f0: 0216 39be 59c1 73bf 566b aebe 406d c63e
00000100: dcfa 753e cbb3 4bbe 7503 8e3d ea1e 7b3e
00000110: ddad a2be 2cd8 97be a146 8fbd 9134 0b3c
00000120: a4b8 62be 9143 063e 8e26 d43e 89f1 bdbe
00000130: dd7a 32be 9103 823e 419e c7bc b2d1 6c3d
00000140: 8cdc 903e 2b4e 473d 2a76 f5be e3c2 62be
00000150: c5fe cdbe 2161 22bd 89ae 56be 4cf5 35be
00000160: fc30 25bc ac9f db3e 4236 473e ebae 67bd
00000170: ff5e 82bd 6cf1 473b 39a5 38bd dca2 8a3e
00000180: a8f5 8e3e d6d7 b3bd 4acb b23c 2839 6b3d
00000190: 2eb0 6bbe aeeb 6cbe 53cd ddba be45 463e
000001a0: f8c6 e2ba 6738 8f3d 94c4 323b 28d5 4d3e
000001b0: 2fc6 e13e 8ad8 8f3e 2d23 32bf 6ac6 84bd
000001c0: c790 403d 18c2 94bd 5493 c03e 00a0 893e
000001d0: f60f be3d 7c3e af3d c232 b73e a726 6abe
000001e0: de7a 10be d14e db3d 59d2 a83d 2eb5 7bbd
000001f0: 3c3c 063f 3856 8abc 77bd 383d 3b7c 223e
00000200: 42f4 61be 9b4c 62bc 607d 413e b248 45bf
00000210: 8298 efbe 72fd a13e 23ab 7e3e 6b5b 393e
00000220: 43c4 b53c a95b 563c 79c0 a6be 0fec dcbd
00000230: 5582 8bbe 6be0 663e 1032 a73e b39c a43d
00000240: 9393 c23b c1f8 3c3e 82b9 d13e 5fe7 ad3e
00000250: 0f51 cbbd d775 9d3e 8668 ce3e e703 8c3e
00000260: 9483 07bf 8457 3ebe 7614 b2bb d2da b13e
00000270: 03e4 443e a6a4 6b3e d714 bd3e f005 32be
00000280: 1914 0abe 90b1 1b3e 8ead 70bc 0d87 f5bd
00000290: 9ed1 9c3e ab7d 543e ab33 17bf 922d 71be
000002a0: 6afb f9be faf8 64bd d2a8 b63d bf1e 64be
000002b0: 9058 49be 0453 ffbc 86a2 9c3c 90db a9bd
000002c0: ce52 5fbe bc4f 2f3d aa6d ae3d 416e cebe
000002d0: d919 56bd 396f 213e df9b a9be f1ae 56be
000002e0: 790f d9be e73d 4fbe c776 983e f60e 383f
000002f0: cc74 48be 9860 5dbe ad05 72be 73ff 023e
00000300: 1ae0 adbe 84bc b8be cef7 823e 5f1b 20be
00000310: de4e 2cbe 6776 1dbe f9fb 19be 8a44 40be
00000320: 71a2 cf3c 5dbb 9c3e e31c bdbe 4b87 bdbe
00000330: a29b 4f3d fa4d 5abe 328d bdbe e86a 0dbe
00000340: 2648 c13e 39a6 0abb 9bef d8bd ba4b 17be
00000350: 9d2a 4cbe 67eb adbe 4610 b8be 3f4b 173f
00000360: b2d9 1abe c807 8bbe 1cf0 2fbe 0c20 4dbe
00000370: 5db3 b73b e3d2 46bf 1d9d 16be e33e 813d
00000380: 74ad 26bf 8a51 11be 160b 5cbe e189 00be
00000390: d822 4abf 5100 8b3b 06a5 2a3d 23c0 84be
000003a0: 5013 36be b2e4 8b3d 1ff2 693d d507 b4be
000003b0: d647 d23e 37b0 de3d e9ec 16bf 08c0 e3be
000003c0: c8d5 3cbf 729a 25bf ca7f 65bf 4ba7 debe
000003d0: e463 a6be 49af 03be 53eb 73be 1598 07bd
000003e0: 1f14 c6be 0c97 90bd 16bc ef3e 213e 54be
000003f0: eba6 adbe 6a2c 7cbe cfe5 27bd a8fd bfbc

rnn.weight_hh_l0 f4 [72, 24]
-0.109731235 0.29484493 0.21809554 0.069741435 -0.09514385 0.12832385 -0.0059586167 0.1894361
-0.17032555 -0.06232516 0.54454124 -0.15329072 -0.18209632 -0.059302565 -0.08147342 -0.2753831
0.089400604 0.33351964 0.29868224 -0.041734025 0.13572784 0.18558903 -0.17801319 0.02364441
-0.0948986 0.048936773 -0.07376477 0.02785835 -0.13170356 0.16174091 0.0028553815 0.22478244
0.16884592 0.09598437 0.3740043 0.021360727 0.20689698 -0.062754504 -0.23884806 -0.06958695
0.10474537 0.05929207 -0.069335826 0.05695141 0.31590536 0.3042368 0.1966998 0.02193422
0.12597185 -0.06547599 0.037328918 -0.027897915 0.17988 0.17683958 -0.06115563 0.21014373
-0.14638115 0.18264411 0.08484753 -0.35937324 0.24671601 -0.36960512 0.17303178 -0.20828442
0.051514186 0.16923727 -0.079560444 0.23659752 -0.022678105 0.32165676 -0.056038167 0.0928278
-0.23157442 0.27781907 -0.1450365 -0.27103138 -0.10454085 0.08012135 0.1785987 0.052259956
0.075427115 0.3197946 0.37856802 -0.046814036 -0.2735388 -0.03469311 -0.0180857 -0.23640186
-0.109475635 0.4236318 -0.100006916 0.13390438 0.018497234 -0.0061760936 0.012437942 0.14141919
-1.4150428e-06 0.04645252 -0.1402293 0.22129121 0.0639214 0.12436428 -0.14717697 -0.09745099
0.018358478 0.076071635 0.11900431 0.16351369 -0.21798803 -0.24551448 -0.19930635 -0.12792127
0.09454256 0.23242609 -0.014263254 -0.080654874 -0.0819633 0.016295813 0.120347895 0.12103633
-0.29017866 -0.08166072 0.27036673 -0.046768177 0.053739235 -0.20392817 -0.036810067 0.28344494
0.13385895 0.2976655 0.46962512 0.25769725 -0.24573769 -0.12836996 -0.064303756 -0.10766925
-0.13276142 0.043205738 0.2097519 0.106651485 -0.21112874 0.26260626 -0.09267203 -0.16297649
0.08412036 0.11534027 0.23123997 -0.24408297 -0.10541538 -0.19242378 -0.022644399 0.02684437
0.1874575 0.038788714 -0.20241155 0.27815598 -0.14695418 0.16390114 -0.08902624 -0.25658053
-0.14756763 0.008831803 -0.10339807 0.008234828 0.014246308 -0.053459287 -0.07797424 0.038356483
0.08812069 0.0056565227 -0.056068916 -0.05521786 0.059999865 0.110813834 -0.14030042 0.27176842
0.11689613 -0.013481976 0.24379675 -0.19830012 -0.28249454 -0.048755173 0.0024330062 -0.12099887
-0.29057 0.37162772 -0.03551247 0.08139279 0.044331025 0.2613059 0.0770796 0.07646633
-0.13643008 -0.060415108 0.26105744 -0.07369577 -0.21502143 -0.09647106 0.097081095 -0.05557833
-0.07858844 -0.053826015 -0.4530266 -0.1777661 -0.059138566 0.17534807 0.009952751 -0.12380757
-0.20172808 -0.02152251 -0.36341983 0.21374747 0.22106804 -0.36522996 0.16964868 0.3171554
-0.2669606 0.20999637 0.020419193 -0.02706686 -0.23315226 -0.10100361 0.25079906 0.05045807
0.17785606 0.08900433 0.17964031 0.12371134 0.013638206 -0.18125287 0.17850778 -0.06909183
-0.11965224 0.1210725 -0.107316874 0.046680577 -0.033036657 0.14374463 -0.27576578 -0.10401094
0.112509266 0.059133727 -0.014242554 -0.11065623 0.07399771 0.12148441 -0.35891426 -0.09788956
0.16410129 -0.17760004 0.123656474 0.326155 0.21462072 0.25786063 -0.07749938 -0.009874741
00000000: c5ba e0bd eaf5 963e 7054 5f3e 99d4 8e3d
00000010: c7da c2bd 5467 033e 8040 c3bb 89fb 413e
00000020: d269 2ebe ab48 7fbd 0e67 0b3f 3ef8 1cbe
00000030: 7577 3abe 3fe7 72bd 89db a6bd 04ff 8cbe
00000040: aa17 b73d 16c3 aa3e e1ec 983e 4cf1 2abd
00000050: 3dfc 0a3e 0d0b 3e3e 1749 36be ecb1 c13c
00000060: 325a c2bd ed71 483d fc11 97bd 3237 e43c
00000070: 4cdd 06be 699f 253e 5a21 3b3b 5e2d 663e
00000080: f2e5 2c3e 7493 c43d 7e7d bf3e b1fc ae3c
00000090: cddc 533e 6f85 80bd 9694 74be 9a83 8ebd
000000a0: be84 d63d 3edc 723d f1ff 8dbd e245 693d
000000b0: 59be a13e edc4 9b3e ac6b 493e 65af b33c
000000c0: c4fe 003e 4718 86bd 35e6 183d 2b8a e4bc
000000d0: 7632 383e 6f15 353e 537e 7abd eb2f 573e
000000e0: f1e4 15be 0f07 3b3e 8bc4 ad3d c5ff b7be
000000f0: 1fa3 7c3e e23c bdbe 3e2f 313e 8348 55be
00000100: 8a00 533d 894c 2d3e 96f0 a2bd 9f46 723e
00000110: 6fc7 b9bc 32b0 a43e 4788 65bd 801c be3d
00000120: d821 6dbe 4d3e 8e3e 7384 14be a0c4 8abe
00000130: 8319 d6bd aa16 a43d 94e2 363e 890e 563d
00000140: 8879 9a3d 1ebc a33e abd3 c13e 13c0 3fbd
00000150: 470d 8cbe 5d1a 0ebd 7628 94bc 5413 72be
00000160: c334 e0bd 44e6 d83e 6dd0 ccbd 3b1e 093e
00000170: 8387 973c d460 cabb 83c8 4b3c 31d0 103e
00000180: 80ec bdb5 ff44 3e3d 4598 0fbe 2a9a 623e
00000190: 39e9 823d b3b2 fe3d 8fb5 16be 6294 c7bd
000001a0: 8564 963c 72cb 9b3d 88b8 f33d 2270 273e
000001b0: 4138 5fbe 2668 7bbe f716 4cbe cbfd 02be
000001c0: 889f c13d 1b01 6e3e 6cb0 69bc 622e a5bd
000001d0: 60dc a7bd cc7e 853c f578 f63d e5e1 f73d
000001e0: 4c92 94be bc3d a7bd 826d 8a3e fd8f 3fbd
000001f0: ac1d 5c3d 8cd2 50be 27c6 16bd b21f 913e
00000200: 5212 093e 9d67 983e b472 f03e e5f0 833e
00000210: a9a2 7bbe 6a73 03be b0b1 83bd b281 dcbd
00000220: 9cf2 07be 80f8 303d 34c9 563e 186c da3d
00000230: 2232 58be 5474 863e d5ca bdbd 4fe3 26be
00000240: 4c47 ac3d 8537 ec3d 2cca 6c3e e3f0 79be
00000250: 05e4 d7bd bd0a 45be bf80 b9bc b9e8 db3c
00000260: dcf4 3f3e eae0 1e3d f944 4fbe 766a 8e3e
00000270: 287b 16be b3d5 273e 6453 b6bd 865e 83be
00000280: f81b 17be 44b3 103c 5ec2 d3bd 5feb 063c
00000290: 5969 693c 20f8 5abd f5b0 9fbd b01b 1d3d
000002a0: 9f78 b43d 5a5a b93b 85a8 65bd 1f2c 62bd
000002b0: 6bc2 753d 5df2 e23d eaaa 0fbe 3b25 8b3e
000002c0: 3d67 ef3d 82e3 5cbc dba5 793e 300f 4bbe
000002d0: 20a3 90be 81b3 47bd 1273 1f3b 41ce f7bd
000002e0: 97c5 94be fd45 be3e 8675 11bd 43b1 a63d
000002f0: 7394 353d e3c9 853e e9db 9d3d 619a 9c3d
00000300: 54b4 0bbe d575 77bd 52a9 853e cfed 96bd
00000310: 942e 5cbe 9e92 c5bd 74d2 c63d 1aa6 63bd
00000320: faf2 a0bd ab78 5cbd 1af3 e7be 5108 36be
00000330: 483b 72bd 728e 333e dd10 233c d38e fdbd
00000340: ce91 4ebe fa4f b0bc 2a12 babe 9ee0 5a3e
00000350: a95f 623e 6cff babe 62b8 2d3e 3162 a23e
00000360: 0faf 88be 4a09 573e 2746 a73c 52bb ddbc
00000370: 77bf 6ebe fbda cebd bc68 803e 1fad 4e3d
00000380: e61f 363e e747 b63d a1f3 373e 5f5c fd3d
00000390: c872 5f3c 5a9a 39be beca 363e 0480 8dbd
000003a0: 3c0c f5bd dcf4 f73d f3c8 dbbd 2234 3f3d
000003b0: 7251 07bd cb31 133e 2c31 8dbe b003 d5bd
000003c0: 426b e63d 3536 723d 9a59 69bc bc9f e2bd
000003d0: 1d8c 973d d1cc f83d 9cc3 b7be 527a c8bd
000003e0: 2b0a 283e c9dc 35be 9b3f fd3d cafd a63e
000003f0: 89c5 5b3e 4f06 843e ffb7 9ebd aac9 21bc

rnn.bias_ih_l0 f4 [72]
0.1200243 -0.2679678 0.00998771 0.12081553 -0.24235654 0.026164789 -0.18283801 0.10340157
-0.04877597 -0.13500892 -0.047700707 -0.017110227 -0.0069692875 0.04253424 0.13537017 0.15495192
0.056934323 0.025544284 0.020577515 0.15250857 0.06894313 0.15924554 0.04829614 -0.12852418
-0.27603403 -0.070179425 -0.30487302 -0.019991286 -0.16824651 -0.22707957 0.089698 -0.49126214
-0.1128298 -0.17592505 -0.73436177 -0.41156054 -0.13354225 -0.0889132 -0.06310615 0.0058879675
-0.12773941 -0.16750668 -0.21529037 -0.07942473 -0.52806354 -0.20496601 -0.3293614 -0.6646348
0.1929929 0.057271764 0.1984231 0.058413174 -0.1714417 -0.056668144 -0.045446742 -0.13238622
0.05199612 0.22495255 -0.023449657 0.08741277 -0.070820116 0.16383174 0.16594325 0.04468519
0.23702423 -0.018939903 0.19267027 0.16992228 -0.042523332 0.12244276 -0.044379704 -0.021560134
00000000: 4dcf f53d 1333 89be 7ea3 233c 226e f73d
00000010: 502c 78be 8a57 d63c e339 3bbe 34c4 d33d
00000020: 50c9 47bd c73f 0abe d161 43bd bf2a 8cbc
00000030: 9f5e e4bb 6238 2e3d 7a9e 0a3e b7ab 1e3e
00000040: f733 693d 3f42 d13c 2d92 a83c 352b 1c3e
00000050: 0e32 8d3d 4311 233e 2cd2 453d d89b 03be
00000060: 5554 8dbe 3bba 8fbd 5118 9cbe c4c4 a3bc
00000070: d048 2cbe 8c87 68be 96b3 b73d b686 fbbe
00000080: 4f13 e7bd b225 34be 22ff 3bbf 10b8 d2be
00000090: 4dbf 08be 2018 b6bd cc3d 81bd daef c03b
000000a0: 1fce 02be df86 2bbe 1475 5cbe 6fa9 a2bd
000000b0: 2c2f 07bf 9ce2 51be 0fa2 a8be 8225 2abf
000000c0: ee9f 453e cc95 6a3d 6d2f 4b3e a742 6f3d
000000d0: 6a8e 2fbe db1c 68bd 5d26 3abd 4190 07be
000000e0: e2f9 543d f659 663e 7f19 c0bc 7705 b33d
000000f0: 230a 91bd 82c3 273e 07ed 293e d107 373d
00000100: 7bb6 723e db27 9bbc 5b4b 453e 1b00 2e3e
00000110: f22c 2ebd 45c3 fa3d 7ec7 35bd e19e b0bc

rnn.bias_hh_l0 f4 [72]
-0.17541459 -0.112795554 -0.09063483 0.12708724 0.037325136 -0.07683851 -0.1531905 -0.11085882
0.088784024 0.01415644 0.060844596 -0.028075853 0.18035623 -0.1857357 -0.073215075 0.14175096
0.16257869 0.14183642 -0.105481714 0.15328908 0.18806314 0.25455058 0.34712505 -0.093073346
-0.12271478 0.028115906 -0.20378548 -0.18330996 -0.012386779 -0.11060893 -0.2737243 -0.49103066
-0.31529918 0.08019028 -0.6079045 -0.22650436 -0.13379186 -0.07495292 -0.08504974 -0.10107658
-0.30721718 -0.4051338 -0.12834947 -0.20480591 -0.7568146 -0.0926683 -0.48317802 -0.4754753
-0.09322522 0.09667844 0.1772222 -0.2435026 -0.19507137 0.041907057 -0.15665841 0.02804573
0.009214003 0.16560712 0.18573944 0.16173877 0.23681222 -0.11184408 -0.16467085 -0.05345082
0.16697675 -0.20741285 -0.10772631 0.23635125 -0.32341677 -0.1506889 -0.17584161 0.03574961
00000000: e29f 33be 5b01 e7bd c19e b9bd 2823 023e
00000010: 3ee2 183d 825d 9dbd f8dd 1cbe f309 e3bd
00000020: 66d4 b53d 6af0 673c 2f38 793d 55ff e5bc
00000030: 4eaf 383e 8031 3ebe c9f1 95bd 2a27 113e
00000040: 077b 263e 913d 113e cc06 d8bd d0f7 1c3e
00000050: a093 403e 7454 823e 60ba b13e 3d9d bebd
00000060: e351 fbbd 5453 e63c 24ad 50be 9bb5 3bbe
00000070: ebf1 4abc ef86 e2bd 9725 8cbe 5f68 fbbe
00000080: e56e a1be cd3a a43d a19f 1bbf c2f0 67be
00000090: bc00 09be eb80 99bd 8f2e aebd 3d01 cfbd
000000a0: 924b 9dbe b36d cfbe 0b6e 03be a4b8 51be
000000b0: 9abe 41bf e1c8 bdbd 1c63 f7be 8071 f3be
000000c0: ddec bebd 59ff c53d bd79 353e bf58 79be
000000d0: cac0 47be bca6 2b3d 106b 20be 29c0 e53c
000000e0: 54f6 163c ea94 293e 7b32 3e3e d99e 253e
000000f0: e77e 723e 820e e5bd 7a9f 28be 3fef 5abd
00000100: f4fb 2a3e 0964 54be 9d9f dcbd 1006 723e
00000110: e296 a5be 314e 1abe d30f 34be 2f6e 123d

rnn.weight_ih_l1 f4 [72, 24]
-0.09823196 0.22773264 0.36131802 -0.0893432 -0.30874857 -0.26834157 0.22505708 0.20351422
0.03341898 0.0035162652 -0.14550124 -0.111436605 -0.15035181 0.47765604 0.030258652 -0.002543438
0.00820008 -0.10541592 -0.1716802 0.30362958 -0.26904997 -0.37423226 0.22986592 -0.09633743
-0.10854635 0.017334403 -0.0795362 -0.16064583 0.1267102 -0.04206337 0.083017275 0.14515184
0.2462288 0.122295804 -0.17721675 0.096641615 0.11235544 0.12620518 0.19228232 0.111362964
-0.22563277 0.35373405 -0.54973924 -0.075607315 0.33965865 0.11589498 0.19478396 0.28799403
-0.13854642 -0.07529951 -0.13130692 -0.050489895 0.11119284 0.0020073962 -0.12174587 0.50151974
0.20280237 0.056083433 -0.81787634 -0.2009497 -0.17085482 0.037021253 0.1534752 -0.14712304
-0.051369898 0.24827924 -0.65687436 -0.10834981 0.34946284 -0.28511244 0.5302766 0.30659547
-0.06595811 0.11832548 -0.13966945 -0.14350626 -0.06921082 -0.21269864 0.060289707 0.40428427
0.44999903 0.24807772 -0.71560353 -0.05330275 -0.28146306 0.22827636 0.15447897 -0.25325465
-0.48655593 0.14014968 -0.7913146 -0.021161858 0.5916981 -0.14369193 0.5729062 0.23875007
0.11368382 0.09615919 0.12802981 -0.11580421 -0.044781156 0.093346216 -0.09348902 -0.04098523
0.11846356 0.22952002 -0.048648696 0.29732946 0.0034832966 0.2329127 0.2546633 -0.075279206
-0.21453844 0.04077465 -0.15519474 0.07564542 0.15349276 -0.31159365 0.099811584 0.09848167
0.14613104 -0.26761147 0.15766579 -0.064606786 0.017087983 0.21606915 -0.110568546 -0.12557188
0.06558523 -0.15153803 -0.10484818 0.2129195 0.27342668 -0.058284014 0.0149187585 0.16025586
-0.064345114 -0.03760803 -0.0031101867 -0.11950177 -0.07641862 0.12479494 -0.12941088 -0.068851896
-0.08258609 0.23076393 0.32120728 -0.29547295 -0.20378809 -0.08347186 0.12764737 0.34288058
-0.14439811 0.13512403 -0.12874171 -0.24778396 -0.21503635 0.16206682 0.028812002 0.04083902
0.28908712 -0.12217255 -0.37365642 0.27856264 0.06332541 -0.28692406 -0.14401233 -0.2047965
-0.025120063 0.19273375 0.22039893 -0.32335514 -0.23402156 -0.2088044 -0.112826794 0.061593223
0.16098115 0.05539493 -0.21390267 0.17660293 -0.30883467 0.5320411 0.2615126 0.18382049
-0.085508674 0.1790789 -0.4522379 0.28298718 0.3795921 -0.4347545 0.14397897 0.39916334
-0.07397467 -0.008727046 -0.008796375 -0.20066197 -0.070123516 -0.29710516 -0.10975762 -0.18425487
0.061591994 -0.1063127 -0.6111696 0.3726712 -0.14748257 0.28795657 0.038834613 0.11446157
-0.2852207 -0.26247296 -0.35721526 0.11522628 0.2867575 -0.47712567 0.39052805 0.17801937
0.5536679 -0.38649988 0.09214144 0.38899896 -0.058631122 0.05783184 -0.22938693 -0.53109556
-0.06656868 -0.37670985 -0.22757171 0.4882671 0.24800003 0.14175926 -0.21227443 0.34931615
-0.085575685 -0.30135992 0.16761836 -0.25290728 -0.28875148 -0.3111859 -0.057194468 -0.2642654
-0.008406956 -0.07188861 0.104542285 -0.07852677 0.21690919 0.09227684 -0.14693156 -0.07967686
-0.21365255 -0.079652086 -0.5671847 0.31523496 0.22939193 -0.016113754 -0.20104799 0.24739741
00000000: d62d c9bd bf32 693e adfe b83e 91f9 b6bd
00000010: 4b14 9ebe 1164 89be 5d75 663e 0866 503e
00000020: 57e2 083d 2471 663b 47fe 14be e038 e4bd
00000030: d3f5 19be 558f f43e fee0 f73c cfaf 26bb
00000040: a159 063c 4de4 d7bd efcc 2fbe 5675 9b3e
00000050: ebc0 89be 5f9b bfbe f961 6b3e 8f4c c5bd
00000060: 8c4d debd e100 8e3c e0e3 a2bd 5780 24be
00000070: 52c0 013e a44a 2cbd f604 aa3d afa2 143e
00000080: 6723 7c3e 3976 fa3d 4f78 35be 0aec c53d
00000090: 9c1a e63d ee3b 013e a8e5 443e 4412 e43d
000000a0: 470c 67be a11c b53e b6bb 0cbf 02d8 9abd
000000b0: bde7 ad3e 595a ed3d 7275 473e f473 933e
000000c0: 1ddf 0dbe a136 9abd 5275 06be 7ece 4ebd
000000d0: 12b9 e33d 858e 033b e655 f9bd 9963 003f
000000e0: 6dab 4f3e beb7 653d 5860 51bf c2c5 4dbe
000000f0: 91f4 2ebe 99a3 173d 9a28 1d3e 6ca7 16be
00000100: 3e69 52bd ea3c 7e3e eb28 28bf 81e6 ddbd
00000110: cbec b23e 42fa 91be 35c0 073f 15fa 9c3e
00000120: 0c15 87bd a154 f23d 8205 0fbe 4ef3 12be
00000130: 67be 8dbd accd 59be 57f2 763d 59fe ce3e
00000140: 4666 e63e 1608 7e3e cb31 37bf fc53 5abd
00000150: ed1b 90be 47c1 693e bc2f 1e3e 98aa 81be
00000160: dc1d f9be 6683 0f3e 9893 4abf a25b adbc
00000170: 8779 173f fa23 13be fba9 123f e67a 743e
00000180: 10d3 e83d 1cef c43d 3f1a 033e c22a edbd
00000190: 726c 37bd 4d2c bf3d 2c77 bfbd 21e0 27bd
000001a0: 069d f23d 4c07 6b3e db43 47bd 913b 983e
000001b0: 0548 643b ab80 6e3e 3a63 823e fc2b 9abd
000001c0: f7af 5bbe 5203 273d 5feb 1ebe fceb 9a3d
000001d0: 352d 1d3e 3489 9fbe 046a cc3d c2b0 c93d
000001e0: 60a3 153e 5f04 89be 2473 213e 9050 84bd
000001f0: 19fc 8b3c 3b41 5d3e c371 e2bd ea95 00be
00000200: 8d51 863d c92c 1bbe a5ba d6bd 9207 5a3e
00000210: 95fe 8b3e 38bb 6ebd cf6d 743c 1d1a 243e
00000220: 5fc7 83bd e10a 1abd 46d4 4bbb 58bd f4bd
00000230: 5e81 9cbd 7d94 ff3d 4984 04be 3902 8dbd
00000240: e522 a9bd 614d 6c3e 4875 a43e 3b48 97be
00000250: d3ad 50be 4bf3 aabd feb5 023e 0b8e af3e
00000260: 19dd 13be f45d 0a3e ded4 03be 14bb 7dbe
00000270: 7d32 5cbe d8f4 253e 2607 ec3c d146 273d
00000280: 3a03 943e 9a35 fabd e54f bfbe c39f 8e3e
00000290: c1b0 813d b6e7 92be f877 13be 2cb6 51be
000002a0: 97c8 cdbc ff5b 453e 42b0 613e ce8e a5be
000002b0: 59a3 6fbe d2d0 55be bc11 e7bd 2d49 7c3d
000002c0: 3ed8 243e cbe5 623d 4d09 5bbe 66d7 343e
000002d0: 941f 9ebe d833 083f fbe4 853e 703b 3c3e
000002e0: 2c1f afbd 7660 373e ba8b e7be b2e3 903e
000002f0: e559 c23e 2498 debe 396f 133e 235f cc3e
00000300: 0880 97bd e2fb 0ebc ac1e 10bc 557a 4dbe
00000310: eb9c 8fbd 2b1e 98be 9ac8 e0bd 4fad 3cbe
00000320: e347 7c3d 79ba d9bd 9c75 1cbf c2ce be3e
00000330: ac05 17be 0b6f 933e 0b11 1f3d d46a ea3d
00000340: 7308 92be db62 86be ebe4 b6be c2fb eb3d
00000350: e1d1 923e d149 f4be 4bf3 c73e b64a 363e
00000360: 2ebd 0d3f 50e3 c5be a7b4 bc3d df2a c73e
00000370: 3027 70bd 14e1 6c3d 68e4 6abe e1f5 07bf
00000380: 2955 88bd 1de0 c0be 8f08 69be 25fe f93e
00000390: b8f3 7d3e 5729 113e 785e 59be 91d9 b23e
000003a0: 4e42 afbd d94b 9abe 26a4 2b3e 107d 81be
000003b0: 3cd7 93be c253 9fbe bf44 6abd cb4d 87be
000003c0: 54bd 09bc 563a 93bd 441a d63d a5d2 a0bd
000003d0: 711d 5e3e a4fb bc3d 3a75 16be 9f2d a3bd
000003e0: bcc7 5abe a220 a3bd 0433 11bf 7a66 a13e
000003f0: b8e5 6a3e fe00 84bc 86df 4dbe bf55 7d3e

rnn.weight_hh_l1 f4 [72, 24]
0.03789358 0.014443543 0.23523402 0.07300185 -0.28647244 -0.33127898 0.0008804069 0.062475268
-0.44201186 -0.1545838 0.14227842 -0.013334905 0.123300344 0.0542948 -0.21760131 -0.45354232
-0.14371993 -0.17912994 -0.11978257 -0.37200093 0.3976595 -0.09792006 -0.18661293 -0.14340872
0.14899482 -0.11728787 0.087554745 -0.20611873 0.07120694 0.12668432 0.16410777 -0.016878475
0.082348846 -0.1326494 0.35738653 0.24153945 0.14481851 0.17463136 0.16207857 -0.093276106
-0.20051044 0.09925883 -0.2118692 0.22565131 0.02129543 -0.2887143 0.1360645 -0.030583391
-0.06394003 -0.04752156 0.06903407 -0.17820251 -0.24504949 -0.062429205 0.22280528 0.13310191
-0.009680373 -0.10817647 0.03615127 0.27727556 0.148468 -0.011882217 -0.02795508 -0.1736393
0.0014144059 0.23401996 0.08199284 0.20023678 -0.059787102 -0.15854289 -0.034365118 0.03163408
0.14346112 0.03485521 -0.037852224 -0.25904262 0.17442465 0.003305405 0.089201495 -0.03958677
-0.15114252 0.02442311 0.2718664 -0.030276915 0.06639986 -0.16669968 0.18461181 0.19603708
-0.10078571 0.224943 -0.09496372 -0.01355081 -0.022630202 -0.25955743 0.20969898 -0.12150021
0.029489461 0.20175098 -0.03618427 0.15391752 0.039068203 -0.10522423 -0.17060126 0.17095935
-0.024032634 -0.031724446 -0.034600176 -0.061084844 0.052177098 -0.18179366 0.07911191 -0.17544056
-0.085271485 0.15234654 0.2536167 -0.06225844 0.25163794 0.21393973 0.16568646 0.11825701
-0.13588114 0.30515718 -0.25501898 -0.13668294 -0.08029004 0.2812383 -0.06395122 -0.20038004
0.062170137 -0.07048032 -0.0625516 0.03252831 0.011556232 -0.25857246 0.13418142 -0.087214164
0.16053829 -0.14937666 0.24585922 0.03018396 -0.07952367 0.011661966 -0.045912694 0.047311474
-0.055173125 -0.06480617 0.1949162 0.00808109 0.21020696 0.2770785 -0.21664283 0.11412609
-0.09920045 0.011226384 -0.09173868 -0.13829303 0.12582943 0.044797637 -0.26864067 -0.111126594
0.24707319 -0.08600754 -0.16088147 0.02256462 0.0063496507 0.19960792 -0.30271053 -0.0951774
-0.15903081 -0.059810642 -0.11736121 0.0045451894 -0.05051605 -0.13597327 0.061235834 0.100394405
-0.12750411 -0.11520235 0.115303084 0.03723842 0.1870871 -0.100928254 0.12063785 -0.10539035
-0.25380728 0.31058058 -0.11640741 0.07852902 0.06468451 -0.07629529 0.019084025 0.015296229
-0.16144484 0.117831014 -0.12925431 0.07327283 -0.16192815 0.30457518 0.07057504 -0.12705167
0.006303223 -0.34545332 0.1556165 0.15179259 0.03622348 -0.11371296 -0.12461913 -0.15142852
-0.07747622 0.25437877 0.1062926 -0.042390496 0.15638234 0.058430277 0.17003216 -0.21848688
0.3047322 -0.006417514 -0.062002126 0.10579984 -0.12697078 0.38587955 0.23861092 -0.03472469
0.11393273 -0.3042813 -0.10627129 0.23824108 -0.1057137 -0.1012131 0.014995434 -0.12290776
0.028129734 -0.14973465 0.27216914 0.22127676 -0.11463462 -0.09838579 0.31663612 -0.044767648
0.15192112 0.0806972 -0.06348325 0.01666683 -0.19090813 -0.17023504 0.15984003 -0.19823194
0.10453481 -0.24043798 -0.045767926 0.109003775 0.076663345 0.030298881 0.06996607 0.0215688
00000000: 4c36 1b3d 9ca4 6c3c 30e1 703e fe81 953d
00000010: 84ac 92be 669d a9be 1bcb 663a 11e6 7f3d
00000020: 614f e2be 374b 1ebe 6fb1 113e a57a 5abc
00000030: e484 fc3d 3964 5e3d e1d2 5ebe b336 e8be
00000040: 512b 13be d76d 37be 9050 f5bd e876 bebe
00000050: 079a cb3e 508a c8bd 7617 3fbe bcd9 12be
00000060: 1992 183e 9f34 f0bd e74f b33d ca10 53be
00000070: f2d4 913d 89b9 013e de0b 283e ba44 8abc
00000080: 83a6 a83d 3fd5 07be 5efb b63e 1e56 773e
00000090: 4e4b 143e 90d2 323e edf7 253e 8b07 bfbd
000000a0: 9c52 4dbe 3748 cb3d 3df4 58be 2311 673e
000000b0: c173 ae3c 5cd2 93be 7e54 0b3e 058a fabc
000000c0: fef2 82bd f8a5 42bd bc61 8d3d b87a 36be
000000d0: 41ee 7abe c4b5 7fbd 1127 643e de4b 083e
000000e0: 6d9a 1ebc a08b ddbd 5b13 143d 10f7 8d3e
000000f0: ff07 183e a1ad 42bc 0d02 e5bc 80ce 31be
00000100: 9663 b93a eea2 6f3e ddeb a73d df0a 4d3e
00000110: 52e3 74bd 1159 22be 70c2 0cbd bd92 013d
00000120: 79e7 123e 56c4 0e3d ef0a 1bbd 3ca1 84be
00000130: 609c 323e 7e9f 583b 46af b63d bd25 22bd
00000140: 1bc5 1abe f912 c83c 1332 8b3e 4b07 f8bc
00000150: a6fc 873d 52b3 2abe e10a 3d3e f2bd 483e
00000160: bd68 cebd 7557 663e 577c c2bd 3704 5ebc
00000170: f962 b9bc b6e4 84be 54bb 563e 1ad5 f8bd
00000180: e293 f13c cf97 4e3e f535 14bd 8e9c 1d3e
00000190: fb05 203d cd7f d7bd 19b2 2ebe f80f 2f3e
000001a0: 16e0 c4bc 7ef1 01bd eab8 0dbd 1a34 7abd
000001b0: a7b7 553d 1e28 3abe 6d05 a23d b1a6 33be
000001c0: d1a2 aebd bb00 1c3e 0cda 813e b502 7fbd
000001d0: b0d6 803e 0413 5b3e b6a9 293e bb30 f23d
000001e0: 6d24 0bbe 903d 9c3e d991 82be 9df6 0bbe
000001f0: 1b6f a4bd 77fe 8f3e dbf8 82bd 6d30 4dbe
00000200: 1da6 7e3d fc57 90bd 0e1b 80bd 683c 053d
00000210: 5a56 3d3c 9c63 84be db66 093e 579d b2bd
00000220: 2664 243e 32f6 18be 85c2 7b3e 5a44 f73c
00000230: 4edd a2bd d511 3f3c f30e 3cbd adc9 413d
00000240: 37fd 61bd 19b9 84bd 1d98 473e 8c66 043c
00000250: 7e40 573e 3cdd 8d3e 9ed7 5dbe f1ba e93d
00000260: 9b29 cbbd deee 373c 7de1 bbbd b09c 0dbe
00000270: 6ed9 003e ba7d 373d 458b 89be 5796 e3bd
00000280: c100 7d3e b924 b0bd 1dbe 24be 70d9 b83c
00000290: bb10 d03b 0566 4c3e e0fc 9abe 5eec c2bd
000002a0: f9d8 22be 01fc 74bd 135b f0bd d0ef 943b
000002b0: ebe9 4ebd 943c 0bbe 6dd2 7a3d 959b cd3d
000002c0: 7090 02be 36ef ebbd 0624 ec3d 5087 183d
000002d0: c393 3f3e 79b3 cebd fa10 f73d e5d6 d7bd
000002e0: 07f3 81be 6b04 9f3e 0267 eebd d3d3 a03d
000002f0: 5079 843d b440 9cbd 1a56 9c3c 099d 7a3c
00000300: cc51 25be 6351 f13d 3e5b 04be 1110 963d
00000310: 7ed0 25be 47f1 9b3e a689 903d d519 02be
00000320: 448b ce3b 42df b0be ef59 1f3e 846f 1b3e
00000330: 125f 143d 57e2 e8bd 5038 ffbd 1410 1bbe
00000340: daab 9ebd ef3d 823e efaf d93d a8a1 2dbd
00000350: b122 203e 9654 6f3d e91c 2e3e 06bb 5fbe
00000360: dc05 9c3e 024a d2bb f1f5 7dbd 96ad d83d
00000370: a104 02be 0192 c53e 6c56 743e 7a3b 0ebd
00000380: 9055 e93d c2ca 9bbe c3a4 d9bd 78f5 733e
00000390: 6d80 d8bd d048 cfbd 69af 753c 10b7 fbbd
000003a0: 5470 e63c 0a54 19be c159 8b3e 6096 623e
000003b0: 8ec5 eabd 7d7e c9bd 211e a23e 485e 37bd
000003c0: 3691 1b3e 9344 a53d 8203 82bd e088 883c
000003d0: 6c7d 43be 1852 2ebe 1bad 233e 50fd 4abe
000003e0: 5916 d63d 6035 76be 2677 3bbd 5f3d df3d
000003f0: ac01 9d3d 5c35 f83c 5f4a 8f3d 0db1 b03c

rnn.bias_ih_l1 f4 [72]
0.005663269 -0.08494082 -0.15602551 -0.12346903 -0.063620456 -0.22561161 -0.008488905 0.17004132
0.19775577 0.091329575 -0.12732634 -0.22869241 0.056164004 0.08495478 -0.03356621 -0.2150766
0.09942371 -0.041138504 -0.16327661 0.13723516 -0.015629223 0.0769004 -0.19271809 -0.16515177
-0.056498874 -0.0476357 -0.54351574 -0.41424894 -0.038654573 0.06056972 -0.040705077 -0.22248723
-0.2638159 -0.30222854 -0.06618802 -0.100320816 -0.11095538 -0.6961364 -0.36191183 -0.13272478
-0.027957594 -0.38187483 -0.32742402 0.09020749 -0.21895061 -0.39090714 -0.074327044 0.054622903
0.009926243 -0.09939781 0.19596688 0.106509954 -0.24928293 -0.102613136 -0.16600864 0.22759673
-0.14487267 -0.17812763 0.14422278 0.08312782 0.2054931 0.013574588 0.034864772 -0.24495362
-0.17280379 -0.22019114 -0.15195468 -0.16751067 0.12225263 0.09830455 0.13365595 -0.24074654
00000000: f292 b93b 74f5 adbd 27c5 1fbe 55dd fcbd
00000010: 714b 82bd bb06 67be 0c15 0bbc 501f 2e3e
00000020: 7d80 4a3e 000b bb3d d661 02be 582e 6abe
00000030: 3a0c 663d c6fc ad3d b97c 09bd 0a3d 5cbe
00000040: a89e cb3d d980 28bd fc31 27be 6087 0c3e
00000050: db08 80bc f57d 9d3d e457 45be 8c1d 29be
00000060: 5d6b 67bd a71d 43bd d923 0bbf 7018 d4be
00000070: 4254 1ebd f417 783d 5eba 26bd b1d3 63be
00000080: e112 87be b3bd 9abe 968d 87bd 0075 cdbd
00000090: 933c e3bd ff35 32bf 824c b9be 01e9 07be
000000a0: 5307 e5bc 1985 c3be 1fa4 a7be b4be b83d
000000b0: 9734 60be fb24 c8be c738 98bd 44bc 5f3d
000000c0: aea1 223c 1491 cbbd 8bab 483e e421 da3d
000000d0: 0644 7fbe d626 d2bd 2bfe 29be 1e0f 693e
000000e0: 8059 14be 1767 36be 23af 133e eb3e aa3d
000000f0: c96c 523e f367 5e3c 5dce 0e3d 1fd5 7abe
00000100: 7af3 30be c979 61be 029a 1bbe eb87 2bbe
00000110: 965f fa3d e553 c93d 1bdd 083e 4386 76be

rnn.bias_hh_l1 f4 [72]
0.22210515 -0.19439901 -0.34115973 -0.030702546 0.21204019 -0.061441656 0.31566736 0.03228832
0.18742771 -0.1901633 -0.22666857 -0.09571968 0.14667813 0.13959259 0.07928849 0.08913631
-0.17963716 -0.16626406 0.035824228 -0.25609797 -0.097052455 0.08058775 -0.18690729 0.06984689
0.024677949 0.05233275 -0.81209606 -0.14341871 -0.11111128 0.01954218 -0.1206053 -0.0055754
-0.032058798 -0.54185843 -0.08812718 0.024035746 0.13879296 -0.55548084 -0.21107908 -0.004113889
-0.050106797 -0.49339944 -0.26659805 0.06826622 -0.3148581 -0.10989246 -0.15990974 -0.0003420454
-0.16951518 -0.004730824 -0.07603162 -0.17076692 -0.15212901 0.098296404 -0.2783024 0.21467026
-0.17729053 0.0973383 -0.06858805 0.026817733 0.036411833 0.30388585 0.086934574 0.122733615
-0.19270997 -0.011207687 -0.048551537 0.014840241 0.14668201 -0.15386355 -0.07203388 -0.108621895
00000000: 886f 633e 8910 47be 7dac aebe e883 fbbc
00000010: 1021 593e 3faa 7bbd 279f a13e c240 043d
00000020: 0ded 3f3e 2bba 42be ce1b 68be ae08 c4bd
00000030: cb32 163e 5cf1 0e3e 0162 a23d 198d b63d
00000040: cef2 37be 2041 2abe 6dbc 123d 461f 83be
00000050: 70c3 c6bd 310b a53d a064 3fbe e30b 8f3d
00000060: 6929 ca3c de5a 563d 87e5 4fbf 5bdc 12be
00000070: 508e e3bd ec16 a03c e9ff f6bd d8b1 b6bb
00000080: 1650 03bd 3cb7 0abf 067c b4bd 9de6 c43c
00000090: be1f 0e3e fe33 0ebf 1d25 58be cdcd 86bb
000000a0: c93c 4dbd da9e fcbe 8a7f 88be 29cf 8b3d
000000b0: 1535 a1be 4c0f e1bd 61bf 23be 8e54 b3b9
000000c0: 6395 2dbe 0705 9bbb 77b6 9bbd 86dd 2ebe
000000d0: b5c7 1bbe a04f c93d a77d 8ebe 85d2 5b3e
000000e0: a68b 35be 4d59 c73d e477 8cbd ddb0 db3c
000000f0: 9324 153d ed96 9b3e c10a b23d c35b fb3d
00000100: c355 45be 72a0 37bc fadd 46bd 7b24 733c
00000110: cf33 163e 688e 1dbe 8086 93bd 2875 debd

rnn.weight_ih_l2 f4 [72, 24]
0.010741913 0.11993538 0.13661475 0.3406981 0.06385921 0.019577654 -0.031191183 0.20544876
0.14909972 -0.111397356 -0.165235 -0.11844101 0.069521904 0.19966891 -0.10147002 0.06326215
-0.009803426 -0.28364474 0.3116709 0.09309413 -0.05678019 0.2082258 -0.41179153 -0.14915442
-0.14699714 -0.3084337 -0.3396525 -0.23342572 -0.082840145 -0.28765067 -0.029129667 0.2439665
-0.32448852 -0.33539534 0.22342229 0.29882687 0.21175307 -0.13848585 0.3249156 -0.24504271
-0.22315106 0.26475877 -0.13778304 -0.16354212 0.37761304 -0.31964788 0.12160079 0.027682174
-0.08605933 -0.1189205 -0.10069195 -0.48520473 -0.21185122 -0.31639975 0.024637543 -0.15656607
-0.2535015 -0.37207782 0.43522853 0.2604413 -0.034145325 -0.21919614 0.32005054 -0.08672148
-0.09943246 0.07671665 -0.3017194 0.08767818 -0.007865693 -0.19657297 0.051134456 -0.16836554
-0.20670529 -0.27786672 -0.09502032 0.044487793 -0.12123054 -0.22906041 0.068970256 -0.07499076
0.038544964 -0.063346915 -0.11969823 -0.007967076 0.19322398 -0.29511806 -0.16263673 -0.22197442
-0.04678406 0.029177163 0.25731155 -0.037277464 -0.046856858 0.010972497 0.21959993 -0.24752437
-0.13089553 0.11977441 -0.14378902 0.18772699 -0.11791766 0.18505122 0.08885438 -0.20527443
0.23203202 0.005823707 0.04002225 0.12171252 -0.055274345 -0.022555279 -0.19621235 -0.04426863
-0.14568159 -0.12055689 0.19218637 0.29409915 0.12629038 -0.15460177 0.10020205 0.0062174657
0.006319059 0.070096865 -0.034350958 -0.098925665 0.032040436 -0.2183603 0.238205 0.2115323
-0.1984606 -0.21031082 0.08161186 0.3386814 -0.16737668 -0.361424 0.14767975 0.15076861
-0.06706607 0.07275046 -0.14374767 0.18699601 0.12426506 -0.21290997 0.21742389 0.0025692154
-0.04741201 -0.049426552 -0.52224636 -0.1420903 0.035517216 -0.27406913 0.06273688 -0.060726035
0.16444845 0.073967084 0.38792518 0.21073279 -0.12861478 -0.2638304 0.20215632 -0.072714135
0.08607686 0.39548355 -0.0015022086 0.16893137 0.1951887 -0.22317183 0.17927031 -0.15255931
0.21534665 -0.14416838 -0.41696998 -0.34296238 -0.115676545 0.08331207 0.034947317 0.120505266
-0.102599576 -0.38091207 -0.01852193 0.30723476 0.1885403 -0.29948777 -0.06038748 0.017919725
0.121276185 0.34368914 0.19511977 -0.117008395 0.20180969 -0.20548142 0.04647336 -0.07212127
-0.060660932 -0.0059430925 -0.15751083 -0.40983072 -0.070278645 -0.26030895 0.066022016 -0.18323267
-0.016570834 -0.28261557 0.18480232 0.23570481 0.09749144 -0.32399142 0.3534361 -0.12604868
-0.020445386 0.12481214 0.039742265 -0.1119676 0.08869119 -0.44839862 0.0657336 -0.2344152
0.11218624 0.08716692 -0.30908853 -0.03510901 -0.10356163 -0.22584039 -0.006203688 0.2004995
-0.25253966 -0.35430077 0.19146156 0.31001595 -0.043353662 -0.32288766 0.23412307 0.05886536
0.015471524 0.29652473 -0.08934527 -0.09641403 0.039636184 -0.17311981 0.24162683 -0.058264308
0.16458869 0.14317988 -0.507761 -0.13236244 -0.1794599 0.06433523 0.16524896 0.23532154
-0.2087851 -0.42595878 0.1983824 0.13453898 -0.013871845 -0.24027094 0.22010113 -0.19469182
00000000: d9fe 2f3c aea0 f53d bde4 0b3e fb6f ae3e
00000010: 9ec8 823d 5161 a03c a784 ffbc 2961 523e
00000020: 99ad 183e 4c24 e4bd 5d33 29be 3391 f2bd
00000030: 8061 8e3d 0276 4c3e 84cf cfbd 968f 813d
00000040: 8d9e 20bc e239 91be 5493 9f3e 23a8 be3d
00000050: 5892 68bd 2539 553e 57d6 d2be f0bb 18be
00000060: 6b86 16be 06eb 9dbe efe6 adbe 2707 6fbe
00000070: 18a8 a9bd f346 93be 57a1 eebc 5bd2 793e
00000080: 5c23 a6be f0b8 abbe d0c8 643e d6ff 983e
00000090: ccd5 583e 3ccf 0dbe 565b a63e 7aec 7abe
000000a0: b681 64be 768e 873e ff16 0dbe 9677 27be
000000b0: 7f56 c13e e3a8 a3be d609 f93d bac5 e23c
000000c0: e03f b0bd 978c f3bd 9537 cebd c16c f8be
000000d0: 87ef 58be 26ff a1be acd4 c93c db52 20be
000000e0: f3ca 81be fc80 bebe 46d6 de3e 9058 853e
000000f0: f8db 0bbd f474 60be aadd a33e 089b b1bd
00000100: 3fa3 cbbd 9e1d 9d3d f77a 9abe 9e90 b33d
00000110: 1cdf 00bc 6d4a 49be 5d72 513d 0468 2cbe
00000120: 8daa 53be 8c44 8ebe 039a c2bd d538 363d
00000130: b847 f8bd d08e 6abe 4740 8d3d c194 99bd
00000140: 53e1 1d3d 07bc 81bd 5824 f5bd 5788 02bc
00000150: 82dc 453e b719 97be 3e8a 26be 434d 63be
00000160: a4a0 3fbd f204 ef3c 57be 833e 41b0 18bd
00000170: faec 3fbd fdc5 333c cede 603e 0777 7dbe
00000180: 7a09 06be 494c f53d 6e3d 13be 813b 403e
00000190: d07e f1bd 117e 3d3e 49f9 b53d 7633 52be
000001a0: cd99 6d3e ccd4 be3b 5fee 233d 6a44 f93d
000001b0: 5a67 62bd d9c5 b8bc e4eb 48be 0653 35bd
000001c0: 8e2d 15be 88e6 f6bd 81cc 443e 2a94 963e
000001d0: 4452 013e ed4f 1ebe bb36 cd3d e2bb cb3b
000001e0: 1c10 cf3b f28e 8f3d 97b3 0cbd 8a99 cabd
000001f0: d53c 033d d899 5fbe 03ec 733e ec9b 583e
00000200: 4139 4bbe b85b 57be 1e24 a73d a667 ad3e
00000210: cb64 2bbe 910c b9be 5c39 173e 1663 1a3e
00000220: f059 89bd 31fe 943d 9732 13be e27b 3f3e
00000230: ae7e fe3d 1205 5abe 5ea4 5e3e 4860 283b
00000240: 1933 42bd 7f73 4abd f0b1 05bf 1f80 11be
00000250: 807a 113d ca52 8cbe 317c 803d ddbb 78bd
00000260: 2d65 283e 0e7c 973d 219e c63e 56ca 573e
00000270: 98b3 03be c714 87be 1102 4f3e 26eb 94bd
00000280: 1149 b03d d27c ca3e c2e5 c4ba 58fc 2c3e
00000290: 8cdf 473e 2887 64be a392 373e 8238 1cbe
000002a0: d583 5c3e e0a0 13be 177d d5be c498 afbe
000002b0: d3e7 ecbd 859f aa3d eb24 0f3d 77cb f63d
000002c0: ba1f d2bd e806 c3be 4dbb 97bc e04d 9d3e
000002d0: b510 413e 7656 99be dd58 77bd 63cc 923c
000002e0: a65f f83d 06f8 af3e 7acd 473e 19a2 efbd
000002f0: 33a7 4e3e b969 52be da5a 3e3d 51b4 93bd
00000300: 9977 78bd 46be c2bb 854a 21be 55d5 d1be
00000310: 40ee 8fbd 3747 85be 8d36 873d 58a1 3bbe
00000320: 8fbf 87bc fdb2 90be d23c 3d3e 9a5c 713e
00000330: 98a9 c73d 34e2 a5be 94f5 b43e e812 01be
00000340: 157d a7bc 829d ff3d c9c8 223d 454f e5bd
00000350: baa3 b53d 8194 e5be 569f 863d 8a0a 70be
00000360: e6c1 e53d 9284 b23d da40 9ebe 77ce 0fbd
00000370: 1f18 d4bd b442 67be 4f48 cbbb be4f 4d3e
00000380: e14c 81be e966 b5be 800e 443e 69ba 9e3e
00000390: 9c93 31bd 8851 a5be f5bd 6f3e ce1c 713d
000003a0: 467c 7d3c 17d2 973e a7fa b6bd b874 c5bd
000003b0: 8d59 223d 5246 31be 066d 773e 8ea6 6ebd
000003c0: f089 283e bf9d 123e a0fc 01bf 058a 07be
000003d0: 56c4 37be 30c2 833d 0637 293e 21f8 703e
000003e0: c3cb 55be 4517 dabe c224 4b3e 96c4 093e
000003f0: bc46 63bc 9609 76be 3162 613e 4b5d 47be

rnn.weight_hh_l2 f4 [72, 24]
0.08035424 0.18102694 0.275959 0.11240181 0.11027021 -0.1564205 0.05381535 0.027689293
0.22077915 0.05876873 -0.034863386 -0.06459319 -0.08641625 -0.18023323 0.14331844 0.12843436
0.009686083 0.12858464 -0.081158064 0.01312419 0.24535102 -0.21122509 0.013942961 -0.010187414
-0.015927555 0.1684434 -0.063530184 0.07084433 0.28113824 -0.039680142 0.13942131 -0.022473129
-0.03316262 -0.24777117 -0.12726942 0.08608586 -0.25689068 -0.24268019 0.115436435 0.16279827
-0.093790434 0.16164486 -0.11155844 -0.12681985 -0.04316849 0.0011228591 0.14621305 0.08191183
-0.15327758 0.0031775306 0.16307075 0.07412017 -0.038588624 0.0048254356 0.099210076 -0.04504914
-0.08409253 0.023930917 0.079230875 -0.022906844 -0.37137765 0.26547924 -0.035806213 0.22153689
-0.16492988 0.08842198 0.1667009 -0.34393862 -0.18727566 0.23534527 0.1801446 -0.07959424
0.1525683 0.1866923 0.10794386 -0.05170796 0.044433575 -0.18552998 -0.18229695 0.08073638
-0.1709707 0.12696606 0.23547278 -0.124333456 -0.2538219 0.023524942 0.049829338 -0.15301074
-0.08074643 0.07746983 0.19422014 -0.05373079 -0.1941497 0.20416819 0.15149306 -0.062073488
0.059078626 -0.023721455 -0.11932232 0.028176552 -0.12937033 -0.067788556 -0.13936651 0.024497025
-0.0023203678 -0.08648166 0.07639323 -0.058398694 -0.06347418 0.055438705 0.11308003 0.21216184
-0.17570034 0.123019494 0.04966417 -0.18081485 -0.046697244 0.075779915 0.024993004 -0.106841974
-0.11822093 -0.020923851 -0.2508105 0.10773517 0.124384664 0.020504279 0.10175347 0.25124592
-0.21575437 -0.07324963 -0.08412454 0.24948068 -0.19126394 0.11733305 -0.176592 0.026126547
0.1287668 -0.04132209 -0.060519926 -0.09319238 -0.15390947 0.25328252 0.22208346 0.099716805
-0.14045046 0.05762817 -0.21772583 -0.051745366 -0.045995392 0.039740894 -0.08847792 0.056191415
-0.12974359 -0.16063692 -0.04757228 0.013533827 -0.37146983 0.0284097 -0.027128948 0.1813458
0.025548652 -0.10761563 -0.12686221 -0.16746792 -0.072329655 -0.16939129 0.3257135 0.0026754336
-0.10320804 -0.11179081 -0.097260796 0.106042996 0.16701454 -0.31105107 -0.26295155 0.3468508
-0.06767275 -0.23011108 0.21660006 0.2633418 -0.21045732 -0.03991989 -0.11330147 0.11827138
-0.056052998 0.17562117 0.21977814 0.032206617 0.069066145 0.27711084 0.21549916 0.038282625
-0.08244309 0.271275 0.08965224 0.2821282 0.23792894 0.06909534 -0.21092202 0.17959523
-0.092198625 -0.040138878 0.2986933 0.026395101 -0.40031067 0.28963798 -0.059994485 0.13262789
0.14133039 0.16971044 0.24577026 -0.21550761 0.09042224 0.09136859 0.16425712 0.017934922
0.1865293 -0.10633712 0.04374244 -0.09224624 0.26395464 -0.09843897 -0.08578605 0.27545607
-0.31604442 -0.31657138 0.1539297 0.17273864 -0.19196677 0.13633953 0.07307278 0.034512088
0.12847276 -0.048646815 0.13521528 -0.4002133 -0.17670569 0.26972336 0.31325042 0.13419363
-0.18132655 -0.123123065 -0.17535491 0.011323666 0.009873772 -0.103531055 -0.19399069 -0.0034552761
0.03501178 -0.1517052 -0.015527503 0.17435189 0.12060098 0.13000461 0.06877545 0.16068906
00000000: c490 a43d 205f 393e 804a 8d3e ec32 e63d
00000010: 59d5 e13d b22c 20be 7c6d 5c3d a8d4 e23c
00000020: ee13 623e 7bb7 703d e9cc 0ebd 6f49 84bd
00000030: 01fb b0bd 0f8f 38be 12c2 123e 4c84 033e
00000040: 60b2 1e3c b1ab 033e 3336 a6bd d806 573c
00000050: 4c3d 7b3e 644b 58be 0471 643c 1ce9 26bc
00000060: 817a 82bc 6d7c 2c3e 1d1c 82bd d516 913d
00000070: 5af1 8f3e a587 22bd 76c4 0e3e 9119 b8bc
00000080: 87d5 07bd bab7 7dbe ea52 02be c94d b03d
00000090: 2d87 83be 2881 78be f069 ec3d 97b4 263e
000000a0: 3315 c0bd 3b86 253e c078 e4bd 10dd 01be
000000b0: 71d1 30bd e62c 933a e0b8 153e 64c1 a73d
000000c0: ccf4 1cbe 1e3e 503b 05fc 263e 51cc 973d
000000d0: 1b0f 1ebd b01e 9e3b a72e cb3d 7285 38bd
000000e0: b438 acbd c50a c43c cc43 a23d 22a7 bbbc
000000f0: 3625 bebe e5ec 873e 89a9 12bd 91da 623e
00000100: 61e3 28be 9516 b53d a4b3 2a3e b918 b0be
00000110: 31c5 3fbe 5afe 703e d377 383e 4e02 a3bd
00000120: dd3a 1c3e 442c 3f3e ac11 dd3d bacb 53bd
00000130: fbff 353d 92fb 3dbe 0dac 3abe 1d59 a53d
00000140: f112 2fbe 6403 023e c71f 713e 8aa2 febd
00000150: f2f4 81be 61b7 c03c d919 4c3d d9ae 1cbe
00000160: 625e a5bd 81a8 9e3d a5e1 463e d114 5cbd
00000170: 2ecf 46be 7711 513e ff20 1b3e c540 7ebd
00000180: 6efc 713d 7f53 c2bc 435f f4bd 83d2 e63c
00000190: a879 04be bad4 8abd 18b6 0ebe fcad c83c
000001a0: 5011 18bb 4c1d b1bd 0e74 9c3d 7833 6fbd
000001b0: c0fe 81bd b213 633d 8196 e73d f440 593e
000001c0: caea 33be a5f1 fb3d a86c 4b3d 8727 39be
000001d0: 9c45 3fbd 8032 9b3d 21be cc3c f7cf dabd
000001e0: d11d f2bd 7f68 abbc 3c6a 80be 42a4 dc3d
000001f0: 63bd fe3d 97f8 a73c 2064 d03d 4ea3 803e
00000200: b7ee 5cbe e703 96bd 7d49 acbd dd77 7f3e
00000210: b2da 43be 4f4c f03d 89d4 34be 5707 d63c
00000220: 72db 033e 5a41 29bd bee3 77bd a6db bebd
00000230: 729a 1dbe 3fae 813e d969 633e 5338 cc3d
00000240: 3fd2 0fbe 840b 6c3d 85f3 5ebe f3f2 53bd
00000250: aa65 3cbd 59c7 223d e933 b5bd f828 663d
00000260: 81db 04be 017e 24be 27db 42bd fcbc 5d3c
00000270: 4b31 bebe 76bb e83c 873d debc b7b2 393e
00000280: 684b d13c 9565 dcbd 2be8 01be b67c 2bbe
00000290: 9221 94bd e974 2dbe ebc3 a63e 5456 2f3b
000002a0: bd5e d3bd 95f2 e4bd ab30 c7bd 122d d93d
000002b0: dc05 2b3e 1642 9fbe 96a1 86be 6e96 b13e
000002c0: 0398 8abd 3da2 6bbe 68cc 5d3e bdd4 863e
000002d0: 2082 57be 0a83 23bd 9a0a e8bd 4438 f23d
000002e0: d497 65bd 09d6 333e 850d 613e 16eb 033d
000002f0: 8d72 8d3d 79e1 8d3e d0ab 5c3e 3ece 1c3d
00000300: ecd7 a8bd 8fe4 8a3e 989b b73d 1c73 903e
00000310: a5a3 733e dc81 8d3d f1fb 57be d0e7 373e
00000320: a2d2 bcbd aa68 24bd 54ee 983e 8a3a d83c
00000330: 85f5 ccbe 6e4b 943e c7bc 75bd 9bcf 073e
00000340: eab8 103e 93c8 2d3e 33ab 7b3e 07ae 5cbe
00000350: 4c2f b93d 751f bb3d 0533 283e 42ec 923c
00000360: 8901 3f3e 47c7 d9bd 462b 333d 99eb bcbd
00000370: 1025 873e 5f9a c9bd 99b0 afbd 9408 8d3e
00000380: 93d0 a1be a515 a2be bf9f 1d3e 66e2 303e
00000390: f092 44be 979c 0b3e 2fa7 953d 8c5c 0d3d
000003a0: 5d8e 033e e241 47bd e075 0a3e c2e8 ccbe
000003b0: 56f2 34be 2e19 8a3e 5c62 a03e 0e6a 093e
000003c0: abad 39be f227 fcbd 3d90 33be e686 393c
000003d0: 9ac5 213c 1708 d4bd 7fa5 46be ea71 62bb
000003e0: 8368 0f3d 9c58 1bbe 1167 7ebc 4d89 323e
000003f0: a6fd f63d ee1f 053e 25da 8c3d ac8b 243e

rnn.bias_ih_l2 f4 [72]
0.14920759 -0.1343511 -0.20444028 0.06777105 -0.10230479 0.13465132 0.14627223 -0.1951699
-0.16181254 -0.10882403 0.0016039212 -0.055969164 -0.16178371 0.00096426357 0.05477992 -0.005446087
-0.0013917808 0.05328795 -0.23563784 0.116009586 0.16788222 -0.010463988 0.2088344 -0.062016282
-0.5289115 -0.21959676 -0.60277843 -0.379018 -0.47556016 -0.35823706 -0.39123312 -0.10829506
-0.31611297 -0.3113148 -0.23303081 -0.27239028 -0.44736755 -0.19842926 -0.6686092 -0.510672
-0.46550646 -0.079653576 -0.31921977 -0.47276527 -0.53962225 -0.208613 -0.3628925 -0.41587725
0.13011913 -0.14368409 0.02452209 -0.025076788 0.055288512 -0.24334267 0.025171384 0.236787
-0.05944018 -0.12763792 0.21921971 0.1384096 -0.16233175 -0.15379013 0.1495313 -0.15770547
0.23595405 0.12208761 0.20525226 0.120442614 0.2037712 0.046921633 -0.046286788 0.075404085
00000000: e0c9 183e 5693 09be cb58 51be 8ccb 8a3d
00000010: 2c85 d1bd 09e2 093e 63c8 153e 9eda 47be
00000020: 30b2 25be 22df debd aa3a d23a ec3f 65bd
00000030: a1aa 25be a2c6 7c3a e960 603d 1775 b2bb
00000040: 6a6c b6ba 7744 5a3d 0c4b 71be 6f96 ed3d
00000050: 51e9 2b3e 2671 2bbc afd8 553e c904 7ebd
00000060: be66 07bf f9dd 60be b04f 1abf a60e c2be
00000070: 9f7c f3be d96a b7be b54f c8be cdc9 ddbd
00000080: 8fd9 a1be a764 9fbe a19f 6ebe bd76 8bbe
00000090: 5c0d e5be 0a31 4bbe f929 2bbf 66bb 02bf
000000a0: dd56 eebe 6a21 a3bd c670 a3be 4a0e f2be
000000b0: af24 0abf a59e 55be 0ccd b9be dded d4be
000000c0: f33d 053e ec21 13be 8de2 c83c d66d cdbc
000000d0: 3576 623d d22e 79be 3834 ce3c 4b78 723e
000000e0: 8c77 73bd 84b3 02be 227b 603e 3fbb 0d3e
000000f0: 4b3a 26be 297b 1dbe bc1e 193e 8b7d 21be
00000100: f09d 713e 1209 fa3d a62d 523e 9eaa f63d
00000110: 66a9 503e e630 403d 3797 3dbd 756d 9a3d

rnn.bias_hh_l2 f4 [72]
-0.060843635 0.24531789 -0.034458544 0.070267715 0.009007377 0.18075256 0.10125468 -0.12508732
-0.09856346 -0.1660847 0.17262453 0.30403814 0.115904406 0.25227582 0.04919096 0.14411706
0.11527391 -0.16147132 -0.25424665 0.14140947 -0.0920103 0.13590775 0.21150585 -0.11367566
-0.33500704 -0.40274853 -0.33437863 -0.13211213 -0.33821362 -0.1556564 -0.50925314 -0.071036674
-0.3149912 -0.2113178 -0.2037138 -0.1422712 -0.45930302 -0.5072287 -0.37886468 -0.45303798
-0.57360005 -0.45249173 -0.44762656 -0.26381502 -0.2045836 -0.38135287 -0.1675656 -0.29629833
0.16598876 0.060434032 -0.015798358 0.040707465 -0.0045869066 -0.15698013 -0.08804658 0.20220703
-0.054475084 -0.06585607 0.13362241 0.063005656 -0.034974128 -0.116803445 0.17796312 -0.1858553
-0.115369804 0.118755184 -0.06585253 -0.20890762 0.08531368 -0.23440236 0.1440848 0.07225162
00000000: 2d37 79bd 9d34 7b3e 6724 0dbd 85e8 8f3d
00000010: ad93 133c 3317 393e 9d5e cf3d e416 00be
00000020: a4db c9bd 1c12 2abe 7cc4 303e e3aa 9b3e
00000030: 4a5f ed3d 4c2a 813e 767c 493d 6c93 133e
00000040: ba14 ec3d bd58 25be 9e2c 82be a5cd 103e
00000050: e56f bcbd 672b 0b3e fd94 583e c9ce e8bd
00000060: 0b86 abbe 0e35 cebe ad33 abbe 6748 07be
00000070: 562a adbe 6464 1fbe 6a5e 02bf ad7b 91bd
00000080: 8746 a1be b263 58be 5a9a 50be 8baf 11be
00000090: c429 ebbe bdd9 01bf 8dfa c1be 98f4 e7be
000000a0: 74d7 12bf ffac e7be 4f2f e5be c312 87be
000000b0: 5d7e 51be af40 c3be 5196 2bbe 6ab4 97be
000000c0: f5f8 293e ad89 773d 8f6b 81bc dfbc 263d
000000d0: c34d 96bb 66bf 20be c451 b4bd 5c0f 4f3e
000000e0: 4421 5fbd 8cdf 86bd 50d4 083e 1c09 813d
000000f0: 0841 0fbd a536 efbd f73b 363e da50 3ebe
00000100: 0147 ecbd eb35 f33d b1dd 86bd e1eb 55be
00000110: f0b8 ae3d 2c07 70be f78a 133e a8f8 933d
