Checkpoints/TEST_ckd_checkpoint.pth (torch, 618478 bytes, 179 tensors)

rnn.weight_ih_l0 f4 [72, 7]
00000000: 043e a53d 4179 4abe 039c 3c3e 7d7a f03c
00000010: f50a b23e 630b e3be e092 51be d7c9 8d3d
00000020: 4974 313d a8c3 59be 2214 e63d 0485 2e3e
00000030: 6b6a 4abf 29e5 1bbf 2bef 4d3e c251 d6be
00000040: e5dc 1f3f d57d 1f3e d7a4 19be 55e7 ffbe
00000050: 2e96 e33e cf2f a13e 95e1 933d fb11 643e
00000060: dd05 153e 3169 783e 6bdc 2dbf ba23 cdbe
00000070: 12bf b13e 69e9 63be f8d6 253e 9b1c 88be
00000080: 2670 b33d 84d2 8fbf 4209 c43b 389a 723e
00000090: 81c4 a13e 1155 90bc 5fe6 35bc 763b 8dbd
000000a0: fd0e 403f b51a 043c 99d4 a4be 0d3c 21be
000000b0: 48fd 233d f9e5 cc3d 0780 123e f564 d2be
000000c0: a712 c1be a9a4 4e3c 9df7 48bd 5fa7 95be
000000d0: 0839 0f3e 22b0 a8bd fef4 57be e209 21bf
000000e0: a673 a7bd c1c7 fe3e c2c3 013f 5059 b83e
000000f0: 53ed 5e3e 0a69 3ebf 9893 19bf ac18 b03e
00000100: ea30 923e 398c 3fbd 973a bb3d c6f6 6d3e
00000110: b7ac c7be 3daf d9be ff68 adbd e265 90bc
00000120: 76c6 8cbe 469b 8c3d 795c 0f3f 9b5d a8bf
00000130: be32 4dbe 1003 8c3e 7602 4abd 0557 b03d
00000140: f75d c33e d1a3 983e 68db 0fbf b738 bbbd
00000150: 8aa9 e6be d182 3bbe 4eee c8be 0627 6fbe
00000160: 0f80 3bbe 9ffb 1c3e 27cc f33d 5030 f4bc
00000170: 30f7 66be 5ed0 083e 0857 78be 5a96 853e
00000180: 2684 463e 6b5c 80be 3990 1cbe 4df9 59bd
00000190: b0e1 00bf 1e9f 16be 2026 7cbe 0fd1 febd
000001a0: 2a62 73be ccb2 a1be 1114 9dbe 7eed 983a
000001b0: a278 903e 81a8 f73e 0190 a4bf b2a5 08be
000001c0: 2a6f 983d 9d29 10bd 37da d73e d70e 333e
000001d0: 505b 393e 4c4d 27be a74e a33e b3d5 ccbe
000001e0: 13c0 85be b61e c43d 4511 a83d 29fa 4d3e
000001f0: 8c8d 0e3f 5c5d 0fbe 3d43 793e de58 9fbe
00000200: 1525 8fbe 322a 09be a1a8 1abf 11bc 8fbe
00000210: 0522 dcbe 7e62 053f f4ba f03d c5eb 7c3d
00000220: 2f1b 2a3e 1bb4 0e3f fb81 d93d 215c 873e
00000230: 6406 8fbe cecc c33e 2097 c73e 7197 4d3d
00000240: 823e 313e 4637 b13c 493f 333e 3362 9b3e
00000250: 9eb9 41bf ec61 5e3f e0ce 9f3e caa3 483f
00000260: d2bb a1be b27f 4bbf 90eb 5e3d 9b7e 8c3e
00000270: 1203 a23e 9425 403e 3923 4a3e a863 35be
00000280: 8ce5 91be 6ea8 a13c 6ed3 d43d 80bf 703d
00000290: adb7 fd3e 09fd fd3e 2bd9 00bf debc 93be
000002a0: b60b 02bf 38f6 f23d a77f 8a3e 4521 3ebe
000002b0: 688d e13c 29e1 e0be ec9a f2be ee0d 64be
000002c0: 6f16 a1be e561 94bb a630 3fbe 023e 5cbf
000002d0: 5af0 67bf 5fa0 133d 8e55 d2be 560e 823e
000002e0: 33da 2ebf 02d5 e0bd 10df 903e 808e 783d
000002f0: 0dcc 48be aa06 83be 3830 35be 956b e83c
00000300: 2fc7 c1be 4b71 d6be 6e0a 37be 8904 cfbe
00000310: a9fd cdbe d1b5 7bbe 775d f5be f9ea 30be
00000320: c8dc af3d 2678 233d 3a69 febe a78a 05bf
00000330: 642d 673e f244 d1be d526 9dbe 77ad 51bd
00000340: 4726 d8bd 0549 31be 5a1d a7be 05fd 4ebe
00000350: 0a9c 13bf 0083 0fbf dc7b 06bf 1037 3b3f
00000360: 326c 97be 17b0 d2bc 909f b5be 7e2e 7e3d
00000370: 8554 7c3d 692d 61bf ad9b fabe 2592 83be
00000380: 0fd0 62bd e7d3 6a3e fb12 873e 1cf2 d53e
00000390: e0fb c1be 5660 f43e b051 1b3f 2213 9ebe
000003a0: 2e5f d1be 6a61 91bc 695d c4bd 0759 a5be
000003b0: 4b25 c13e df65 78be 7e7c 23bf e006 343f
000003c0: 0415 77bf d4a0 dcbe cea7 d7bf f641 28bf
000003d0: 8ca9 013f 4804 c6be 5777 8dbe 4a5f b1be
000003e0: 105d 5bbf 7910 3bbf 732a 3fbe 653f 01bf
000003f0: 6e3a 16bf 64d0 a4bd 0ce5 15bd 94ae 48bd
0.08068469 -0.19772817 0.18418889 0.029355282 0.34773985 -0.44344625 -0.20466185 0.069232635
0.04332379 -0.21266043 0.11234309 0.17042929 -0.7906863 -0.60896546 0.20110767 -0.4185925
0.62446433 0.15575345 -0.15004288 -0.4998118 0.44450516 0.31481788 0.07220761 0.22272484
0.14553018 0.24258877 -0.67914456 -0.4006632 0.34716088 -0.22257008 0.16195285 -0.26584324
0.08761625 -1.1236119 0.005982549 0.23691642 0.31595233 -0.017618688 -0.011102288 -0.06896107
0.7502287 0.008063008 -0.3219345 -0.15745564 0.04003647 0.10004801 0.14306651 -0.4109265
-0.37709543 0.0126125 -0.049064267 -0.29229257 0.139866 -0.0823672 -0.21089551 -0.62905705
-0.08176355 0.49761775 0.5068933 0.3600564 0.2177022 -0.74379027 -0.59990835 0.34393823
0.28552943 -0.046764586 0.091420345 0.23238668 -0.38998958 -0.4251651 -0.08467292 -0.017626707
-0.27495164 0.068655536 0.5600048 -1.3153566 -0.20038888 0.27346087 -0.049318753 0.08610348
0.38157627 0.29812482 -0.5619416 -0.09141677 -0.45051223 -0.18311621 -0.39244312 -0.2335473
-0.18310569 0.15330361 0.11904173 -0.029808193 -0.22555232 0.13360736 -0.2425195 0.26091272
0.19386348 -0.2507051 -0.15289392 -0.053216267 -0.5034437 -0.14709136 -0.24623919 -0.124422185
-0.23767915 -0.31581724 -0.30679372 0.0011667458 0.28217036 0.48370746 -1.2856447 -0.13344458
0.07443078 -0.035195936 0.42158672 0.1748613 0.18101239 -0.1633808 0.31895944 -0.4000679
-0.26123103 0.0957617 0.08206419 0.2011496 0.55684733 -0.14000458 0.24342056 -0.31122488
-0.2795798 -0.13395002 -0.6041356 -0.2807317 -0.42994705 0.5210341 0.117544085 0.061748285
0.16611932 0.5574357 0.10620495 0.26437476 -0.27934563 0.3824219 0.38982487 0.050193254
0.17309001 0.021632802 0.1750461 0.30348358 -0.75673854 0.86868167 0.3121252 0.7837492
-0.31588608 -0.7949172 0.05442387 0.27440342 0.31642967 0.18764335 0.19739999 -0.17713797
-0.28495443 0.019733634 0.103918895 0.05877638 0.49554196 0.49607113 -0.5033137 -0.28855032
-0.5079912 0.11863369 0.27050516 -0.18567379 0.027533248 -0.43921784 -0.4738382 -0.22270939
-0.31462428 -0.0045282715 -0.18670902 -0.86032116 -0.9060112 0.036041614 -0.41080898 0.25401562
-0.68301696 -0.10978128 0.28295183 0.060682774 -0.19609089 -0.25591022 -0.17694175 0.028371612
-0.37847278 -0.4188331 -0.17875072 -0.40433148 -0.4023259 -0.24581076 -0.4792287 -0.17277135
0.085870326 0.039909504 -0.49689656 -0.5216469 0.22575909 -0.40872914 -0.3069369 -0.05119082
-0.10554176 -0.17313011 -0.3263958 -0.20213707 -0.5765997 -0.56059265 -0.52532744 0.73130894
-0.29574734 -0.025718732 -0.354733 0.062056057 0.06160404 -0.87959915 -0.48946896 -0.25697437
-0.0553742 0.22932397 0.26381668 0.41786277 -0.37887478 0.47729748 0.6067152 -0.30873972
-0.4089293 -0.017746646 -0.09588129 -0.32294485 0.37723765 -0.2425761 -0.63861835 0.7032299
-0.9651644 -0.43091452 -1.6848085 -0.6572565 0.50649333 -0.3867514 -0.27630112 -0.34643012
-0.8568888 -0.7307201 -0.18668537 -0.5048736 -0.58682907 -0.0804756 -0.03659539 -0.048994616

rnn.weight_hh_l0 f4 [72, 24]
00000000: b159 b13d 2644 613d cb9f e03d a58a 363e
00000010: eb8f a7bd 7d6d 633e 1fd6 d13c ec51 f93d
00000020: 2544 47be ed08 50be 0368 d13e 8765 d4be
00000030: 06c0 86bc 614f 86be e562 4dbe a797 fb3c
00000040: f338 09ba 27d9 f53d a954 193f 23b1 5a3e
00000050: 8932 103e 81a1 483c a500 d7be 047a 663d
00000060: 4aa5 243d 2217 193e 5f07 c43d 520d 9d3d
00000070: 4551 30be 5f54 583e f80a 1bbe 6203 713e
00000080: def7 8f3e e397 673d 76aa d03e 6111 163f
00000090: 142c 9c3e 6385 1e3e eba7 9cbe 819b 1dbe
000000a0: b101 0b3e d670 5d3d acb7 ab3e 0c20 4d3e
000000b0: 5fc8 ab3e d004 5e3d 3eb8 943e 53a5 873e
000000c0: 5593 72be 2060 b7be 88b3 203e 8b9b 1ebe
000000d0: ebe2 ca3d eecc 303d fc34 ef3d 57ec 8e3d
000000e0: 6098 b0be 85c1 b13e 05b4 23bd 46ae 11bf
000000f0: d951 873d f1c2 46be ff65 e53e 6985 22be
00000100: 677a 2a3c ac30 7abd 0ccd 04bf 26ee d43e
00000110: 047e 3cbd 9112 453f 809e 9fbd 8186 14bd
00000120: 75e6 33be 88d6 bc3e b1a5 f5ba 44a1 a3be
00000130: cdab 2dbe 0a1e 1b3d 58b2 813e 6a7b 1b3e
00000140: dec6 553e 56ce b93e 2047 2b3e 5891 c53d
00000150: 466c 45be 740e fd3c e768 11bd b8c5 98be
00000160: 13e4 633c c111 d43e 247a 773e 7f9d 593e
00000170: 79da b0bd d179 98be 4f9f 0bbd 045d c93d
00000180: 8ab4 05be 7a5d ea3c e8e7 febd bc88 263d
00000190: 27ea 063e 8d6e 973a 9241 c8be fc6b 94be
000001a0: fa29 98bd b421 9b3e 945a 23be c16a 503e
000001b0: c023 17bf 86c7 123d 6c7e b83d 8221 8abd
000001c0: a21e 473d 5dc5 953e 0397 eabe 0491 75be
000001d0: a5a4 9bbc 3f82 393f 30cd 523e 4af6 9b3e
000001e0: 1acf 04be 794a 9ebc eb36 213e dec4 8ebd
000001f0: 1d1d d13c c57f 6cbe 1520 62bc 3bdc 023f
00000200: 4a97 dd3d fb20 6e3e 2e30 043f 35ae 993d
00000210: 98b1 69be c9c6 7bbe ea90 1ebe 9129 9cbd
00000220: 9c49 cbbd 509f 4a3e 2018 2c3f 8dd1 eb3c
00000230: c700 5cbe f658 643d 0719 53be 7c20 09be
00000240: 9f40 3c3d 746c 4c3e 1be8 923e f4dd 83be
00000250: 5243 88bd b1de 5cbe 4a20 79be 97b8 113e
00000260: 5461 2f3e 13ba 493d 64f7 1cbe 78ab 0e3f
00000270: 9f29 28be 89de 383e df4d c2bd 6eb0 b6be
00000280: 409c 4ebe 62d9 613c 8588 753e 037e 803d
00000290: b958 053c a9d2 76bd 00ed 95be fbaf 3b3e
000002a0: 6c4c a13e e923 2b3c 7fc5 73bd 2b7d 05bc
000002b0: d0ac 133c c94f 193e bfab 45be 7033 9d3e
000002c0: 899e 9d3e 210b 94bd 322d 18ba 03de 99be
000002d0: 7e40 29be d573 7d3c afb0 d8bd b013 75bd
000002e0: f301 80be 78eb a73e 9cdc 833e f843 83bc
000002f0: f3af df3c f4b8 c03d f7b4 db3d d0c0 2f3e
00000300: 7806 33be bb49 043e 41df 803e e3cd 1bbe
00000310: 4d12 24be 8566 36be 0bc9 1e3e f70d 6f3e
00000320: da50 cdbb f19f c73b a1e2 14be dcae 9bbe
00000330: f551 413d 237b f9bc b287 30bd bb81 92be
00000340: 42fd dcbc 37da d23d f08e dc3d 2a91 ba3e
00000350: 29ee 293d 16e7 00bf 906a 0abe 7b61 053e
00000360: 2cda 76be f1e8 0d3e 25f2 123e 0925 0abd
00000370: b474 55be 1e08 e7bd 5b1a 883e 1e9f 983d
00000380: 402b a83e 18bb bc3d 1f2c e33d 348e 783e
00000390: 681a ce3d 56f2 28be d475 113e a263 d53b
000003a0: d486 b8bd 7f77 343d ccde 1d3e be52 183e
000003b0: 866d a7bd 357a d73d e265 afbe 0fa5 10be
000003c0: 8813 97bc 2a2d ba3d 5489 283d 479f 05be
000003d0: 2c1e 873d 6a47 d33d d2b4 a3be 663b 2bbd
000003e0: 3eab 423e 1bf6 14be f3fe abbd ab8d 623f
000003f0: ab2e 2b3e ff27 903e cb8a c3bc 566b bebd
0.086596854 0.054996632 0.10967978 0.17826326 -0.08181747 0.22209735 0.025614796 0.121738285
-0.19459589 -0.20315905 0.40899667 -0.4148371 -0.016448986 -0.26232436 -0.20057257 0.030711962
-0.00052346213 0.12004309 0.59894806 0.21356635 0.14081778 0.012245537 -0.4199268 0.056268707
0.040196694 0.1495023 0.095717184 0.07668556 -0.17218502 0.21125935 -0.15140903 0.23536447
0.28118795 0.056541335 0.4075505 0.5862027 0.3050238 0.1548057 -0.3059686 -0.15391351
0.13574864 0.054062687 0.33538568 0.20031756 0.3355131 0.05420381 0.29046816 0.2649332
-0.23689015 -0.35815525 0.15693486 -0.15489022 0.099065624 0.043164186 0.11680028 0.06978672
-0.34491253 0.34717956 -0.039966602 -0.56906545 0.06607408 -0.19410302 0.4480438 -0.15871204
0.01040516 -0.061081573 -0.51875377 0.41587943 -0.046018615 0.76981455 -0.07793903 -0.036261085
-0.17568381 0.36882424 -0.0018741396 -0.31958973 -0.16960068 0.037870444 0.25331378 0.15183797
0.20876643 0.36290234 0.16726351 0.09646863 -0.19279584 0.03089068 -0.035500433 -0.29838347
0.013909358 0.41419795 0.24167687 0.21251486 -0.0863542 -0.2978044 -0.034087475 0.098321944
-0.13057151 0.028609026 -0.12446576 0.040657744 0.1317526 0.0011553332 -0.39112526 -0.28988636
-0.074298814 0.3029915 -0.15952522 0.20353223 -0.59038925 0.03583481 0.09008488 -0.06744672
0.048613198 0.2925214 -0.45818338 -0.239811 -0.018999407 0.72464365 0.20586085 0.3046134
-0.12969628 -0.01932262 0.15743606 -0.06971143 0.025526578 -0.23095615 -0.013801594 0.51117295
0.10819872 0.23254769 0.51636016 0.075039305 -0.22821653 -0.2458755 -0.15484968 -0.07625116
-0.09926149 0.19787335 0.6722431 0.028786445 -0.21484672 0.055748902 -0.20615016 -0.13391298
0.045960065 0.19963247 0.28692707 -0.25755274 -0.06653465 -0.21569325 -0.24328724 0.14230572
0.17126971 0.04924972 -0.15328747 0.5573039 -0.16422127 0.1805364 -0.09487509 -0.3568148
-0.20176792 0.013784738 0.2397786 0.06274035 0.008138829 -0.060259495 -0.2928238 0.1832885
0.31503618 0.010445573 -0.05951452 -0.008147518 0.00901337 0.14971842 -0.19303797 0.30703306
0.30785015 -0.07228685 -0.00058050745 -0.30052194 -0.16528508 0.015469511 -0.10580575 -0.05983323
-0.25001487 0.32796836 0.2575425 -0.016023621 0.027305579 0.09410277 0.10727876 0.17163396
-0.17482936 0.12918751 0.2517033 -0.15215258 -0.16022606 -0.17812546 0.1550638 0.23345171
-0.006265742 0.0060920645 -0.14539577 -0.30406845 0.0471973 -0.030454224 -0.04309816 -0.28614601
-0.026976231 0.102955274 0.10769451 0.36438876 0.041486893 -0.5035261 -0.13517213 0.13025467
-0.24106663 0.13858391 0.14350183 -0.033726726 -0.208453 -0.11280845 0.26582608 0.07452224
0.32845497 0.09215373 0.110924 0.24272996 0.1006363 -0.16498694 0.14205104 0.0065121213
-0.090100914 0.044059273 0.15417022 0.14875314 -0.08175187 0.10521356 -0.34257418 -0.14125465
-0.01844193 0.090906456 0.04114659 -0.1304904 0.06597552 0.103163555 -0.31973892 -0.041804694
0.19010636 -0.14547007 -0.08398237 0.8849742 0.16717021 0.28155515 -0.023869893 -0.092978165

rnn.bias_ih_l0 f4 [72]
00000000: 24ab 073e b023 90be fa67 473d 2131 313e
00000010: 6546 c2bd b295 20bd 4bd7 1ebe 2b85 da3d
00000020: 213b b33c b790 7fbd d042 94bc 9f59 3abd
00000030: 28c3 953b ef83 d53d 2e4a e23d 14cf 60bd
00000040: 93e3 393d 0ee5 a13c d20c d83d 8020 283e
00000050: 1b55 5a3d 019e 5fbd bbb7 933d 8d4c 04be
00000060: 2a9d 9bbe 038d 2ebe 252f 60be 391b 31bd
00000070: fba3 46be 6693 34be 7e89 aabc 48e5 f0be
00000080: 8e5e 693e 9aab 9dbe 9e32 05be be63 3fbf
00000090: 95e1 0dbe 3a17 a73d d6dc c3bd f1be 26be
000000a0: 89eb 44be 841d 2e3e 867c afbe de92 c23b
000000b0: 39cf 07bf 0a84 afbe c31f 31be 5288 08bf
000000c0: fe6a 373e e7b2 243d b561 093e e91f 903c
000000d0: 1011 07be 5825 61bd 5831 b3bd bdb1 13be
000000e0: 41cd 963d ea61 9d3e ba6f 7d3c d08a 073e
000000f0: c9c2 51bd 53e7 163e 26e7 5a3e e37b 7c3c
00000100: 4f06 743e 3dcc 4cbc 60a8 583e 7bc3 34bd
00000110: ed01 13bd 6d04 363e 9300 5bbd 5030 2cbd
0.13248879 -0.28152227 0.048683144 0.17303897 -0.09486083 -0.03920526 -0.15511815 0.10669931
0.02187878 -0.06239387 -0.018098265 -0.045495626 0.0045703836 0.10425555 0.11049305 -0.054884985
0.045383047 0.019762542 0.1054932 0.16418648 0.05330382 -0.054594044 0.07212778 -0.12919827
-0.30393344 -0.17045979 -0.21892984 -0.043238852 -0.19398491 -0.17634353 -0.020817515 -0.47049928
0.22789976 -0.30794984 -0.1300759 -0.7476157 -0.13855584 0.08158727 -0.095636055 -0.16283776
-0.19230475 0.17003447 -0.3427469 0.005937918 -0.5305057 -0.34280425 -0.17297272 -0.5333301
0.17911908 0.040209677 0.13416179 0.017593341 -0.13190103 -0.054967254 -0.08749646 -0.1442327
0.07363368 0.30738765 0.015468532 0.13236547 -0.051211152 0.1473668 0.21377239 0.015410396
0.23830532 -0.012499866 0.2115798 -0.044131737 -0.03589051 0.17775126 -0.053467344 -0.042038262

rnn.bias_hh_l0 f4 [72]
00000000: 72dc 26be d361 01be 54be 54bd 359d 373e
00000010: db41 3d3e 2b9f 11be 607b 00be 0849 dcbd
00000020: e543 233e 2fb5 b13d 533c b93d f243 67bd
00000030: 5380 443e 75fb fdbd aae4 c8bd c370 8bbd
00000040: fda6 1a3e ec51 0b3e a97a a8bc 20ed 283e
00000050: 0f90 303e a3c0 263d e3ed bd3e bffe bfbd
00000060: 723a 1abe ddca 93bd 4a57 f1bd eb83 53be
00000070: 5b29 1cbd 723d 75bd 37bb c4be eec6 f0be
00000080: b153 d03c 8d50 54bd 4329 6dbb e603 10bf
00000090: 0123 0ebe 70ae c33d bdcd f0bd 8623 8abe
000000a0: 575a bebe ea6d 8abd 28f9 82be 6f9e f4bd
000000b0: a75e 42bf 320a 6cbe e850 a7be fb36 b0be
000000c0: 8e6e cfbd d2d6 983d aaa9 e13d a070 90be
000000d0: 0fed 10be 515d 143d 4dbd 57be 0394 a7bc
000000e0: 65c5 1e3d a79c 743e 9a4a 813e 39ee 5a3e
000000f0: 24b0 8b3e f6fd 06be 6c71 12be 86d6 b2bd
00000100: 102f 293e afd3 26be f4b7 b9bd a760 213d
00000110: 6454 a3be 1781 ebbd 4b29 46be 2c10 a83c
-0.1629503 -0.12634973 -0.051939324 0.17931063 0.18482153 -0.14220874 -0.12547064 -0.10756117
0.15943868 0.08677136 0.09044709 -0.056461282 0.19189577 -0.12401477 -0.09809239 -0.06808617
0.15102763 0.1360547 -0.020566301 0.16496706 0.17242454 0.040711056 0.37095556 -0.09374761
-0.15061358 -0.072164275 -0.11784227 -0.20655791 -0.038125377 -0.059873052 -0.38424084 -0.4702677
0.025430532 -0.05183463 -0.0036187924 -0.5625595 -0.1388054 0.09554756 -0.117579915 -0.26980227
-0.371783 -0.06759246 -0.25580716 -0.11944281 -0.7592568 -0.23050764 -0.32678914 -0.34416947
-0.101285085 0.07462849 0.11018689 -0.28210926 -0.1415293 0.036221806 -0.21068306 -0.02045632
0.03876247 0.23887883 0.2525223 0.21379937 0.27282822 -0.13182816 -0.1430108 -0.08732323
0.16521859 -0.16291688 -0.090682894 0.039398815 -0.31900322 -0.11499231 -0.1935169 0.020515524

rnn.weight_ih_l1 f4 [72, 24]
00000000: 2bd6 67bd a921 38be 8d79 183e 4d60 2bbd
00000010: 4717 2dbe 91f4 53be 1b61 753e dc93 353a
00000020: 3052 91be 8ceb 16bd c503 f93e 5a24 d9be
00000030: 1d2d b9bc f80a 663e 8545 a0bc 5d89 903e
00000040: ba13 02be 6d0e 88be bf58 c4bc 6336 133e
00000050: cd28 6dbe 1b74 4c3d 418c ebbd 960e 69be
00000060: 28d0 96be 0e3e 8a3e c119 e83d 4ebf b9be
00000070: 4aca 8abb bbd5 60be 63ae 733e 88d0 ea3e
00000080: 7acc d63d 2809 a43e 0e14 c23c 0b33 c93e
00000090: 8416 043d 5bde 163e a22e ae3e 6d47 9bbe
000000a0: e9a8 1dbc 46f7 223f d5be 61be 1f75 ae3d
000000b0: 4a28 243e ef5e 7ebd 61ce 903d 1b1e f63d
000000c0: 38c7 06be b30d 0cbe b750 1cbe e7a4 ddbb
000000d0: 53be 2c3e 5771 793d afa3 1bbe 0a5b d03e
000000e0: cf43 a33e a997 6a3d 8658 39bf 682c 9c38
000000f0: c0ea a7bd 515f 1ebd 1010 0d3e e89c 14be
00000100: 715d a4bd 20c7 e73d 6c16 5fbf 301c c0bd
00000110: 8531 c43e b78e 81bd 989e ef3e 8cd2 4b3e
00000120: 7b0f 0bbe 0b4f e23d e32a 52be 651f 3dbe
00000130: 6730 f5bd 95e4 6cbe cb88 6f3e 6750 b13e
00000140: a565 d03e 0c58 ab3e ff3b 00bf 1b45 58be
00000150: 2599 9fbe 5639 473e f012 793e 0e98 adbe
00000160: 2d46 e2be 4036 8d3d 3ca4 94bf e8e8 a93c
00000170: c6d9 0b3f 6a7c 033d d51d cb3e d3f1 a4bd
00000180: 5fa9 c63e 40dd 003d 91a9 1d3e 2f7f 4ebd
00000190: 0025 07be 4a9a 073e aed3 c1bd 76c1 f43d
000001a0: a225 c53e 3caf d43d db97 dbbe e6a9 c93c
000001b0: 5789 203e 4ebe 313e f716 433d 51c6 493e
000001c0: 6e4d 47be 854e 8f3d d722 0c3e 95b0 bf3d
000001d0: 5bbd 2a3e 6fce d4be 59fb 373d b41e 9e3e
000001e0: cc08 39be f5a2 40be 8b6b fe3d 8346 86be
000001f0: 5c50 9ebd 793c 853d aaf9 3e3e 75b2 d63e
00000200: 94bd 443c 9411 b13c e669 af3d 36cc c6bd
00000210: 64a6 b53e 6103 edbe d34f 993d 2792 7cbe
00000220: bb70 fc3d 95fd 473c 1011 ef3e f631 4abe
00000230: cbce 84be c7bf 193e 10ad cdbe 0cd3 77be
00000240: 5d1b a9bc ffdd 793d e172 533e ff3c 7abe
00000250: 3869 a6bd 157c 0bbc 1ec1 383e 6ad2 883e
00000260: 4bd6 a33d 152b ce3d 676b 90be 9df4 40bf
00000270: 75fa cebd a59f 9ebd 0694 53bd 9f5d 5e3e
00000280: c77c 6e3e 812a 8bbe 8ab5 03bf aedd 903e
00000290: d1ec f13d fb24 933d 6521 e4be adaa c9be
000002a0: d9e5 d9bd 85cb 0b3e fa64 3c3f a376 a0be
000002b0: b398 40bd 451e 59be b06e 50be eee1 313e
000002c0: 5eba f33e f976 be3c 0642 2bbf a993 b23e
000002d0: 87fc f1bd ae63 103e 9b82 0f3e 9181 bf3e
000002e0: 52c9 f5bd 1aa6 533e 6b61 d1be 9195 fb3e
000002f0: f6b6 d43e e076 d1be 2db5 6fbd a3b0 063f
00000300: 1936 60bd 5265 edbc 4237 de3e 9b50 1dbe
00000310: 5bfd 0f3e ae3c 8fbe 48e4 ebbe 9e81 00bb
00000320: c528 d13e 62db 45be 2848 93bf a940 8e3f
00000330: c5fa 8c3c 4a45 a53e 393f 0cbe 4fd8 e13e
00000340: eb86 a8be b3d2 21be 32f9 b7be cc9f 793e
00000350: a453 aa3e c916 04bf 554a db3e e118 c23e
00000360: 3f8e ff3e e2aa e4bd 8bf4 893e 395b 7f3e
00000370: 3b5b 2fbe 0c9b 31bd 6b72 5dbe 9cf8 37be
00000380: 9416 223e 5e36 7cbe 858d a0bc ad70 763f
00000390: 1463 023f a9c0 20be ec79 82be 228c 013e
000003a0: c0d5 3c3e 7595 3bbe 63b0 7d3f 4a1c bebd
000003b0: 0970 eabe d86f 45bf f273 94be 99f2 8cbe
000003c0: efb3 25be 2679 923c bab8 74bb 1036 a6bd
000003d0: 0fed 843e 1cf6 bf3d 5a6c c4bd 7740 7cbe
000003e0: adad d8be b907 47bd 8234 84be a2be 113f
000003f0: cac5 053e 374a 08bc eb71 7bbd b075 9b3d
-0.05660073 -0.1798159 0.14890118 -0.041839886 -0.16903411 -0.20698763 0.23962824 0.0006926635
-0.28383017 -0.03684573 0.48635688 -0.42410547 -0.02260452 0.22465122 -0.0195644 0.282298
-0.12702838 -0.26573506 -0.023968099 0.14376216 -0.23160096 0.049915414 -0.11501361 -0.2275947
-0.29455686 0.2700047 0.11333037 -0.36278766 -0.0042355405 -0.21956532 0.23796992 0.45862222
0.104882196 0.32038236 0.023691203 0.39296755 0.032248035 0.1473326 0.34019953 -0.3032793
-0.009622791 0.6365856 -0.22045453 0.08518433 0.16030994 -0.062102254 0.07070614 0.12017461
-0.13161933 -0.13677101 -0.15265165 -0.0067640427 0.16869478 0.060899105 -0.15199159 0.40694457
0.3188767 0.05727354 -0.724007 7.446931e-05 -0.08199072 -0.03866512 0.13775659 -0.1451298
-0.08025635 0.11317277 -0.8714359 -0.09380376 0.3831903 -0.06326049 0.46800685 0.19904536
-0.13580124 0.110502325 -0.20524172 -0.18469007 -0.11972123 -0.23134072 0.23392026 0.34631655
0.4070255 0.33465612 -0.50091547 -0.21120112 -0.31171528 0.19455466 0.2432363 -0.3390507
-0.44194165 0.06895113 -1.161262 0.020740941 0.5462917 0.032101072 0.39671198 -0.08053937
0.38801095 0.031461 0.15396716 -0.05041426 -0.13197708 0.1324245 -0.09464203 0.11950962
0.38505274 0.10384986 -0.42889294 0.024617147 0.15677391 0.17357752 0.047629323 0.19704558
-0.19463131 0.06997398 0.13685165 0.09359852 0.16673796 -0.41563746 0.04491744 0.308828
-0.18069762 -0.18812163 0.12422856 -0.2622567 -0.07730171 0.06505675 0.18649927 0.41933027
0.01200809 0.021614827 0.085651204 -0.09706919 0.35478508 -0.4629164 0.074859284 -0.24665128
0.12326189 0.012206455 0.46692705 -0.19745621 -0.2593902 0.15014564 -0.401711 -0.24201602
-0.02064293 0.061002728 0.20649292 -0.2443733 -0.08125538 -0.00851347 0.18042418 0.26723033
0.079998575 0.10066811 -0.2820694 -0.7537325 -0.10106365 -0.077452935 -0.051654838 0.21715401
0.23289786 -0.27180865 -0.5144888 0.28294128 0.11812747 0.07184788 -0.44556728 -0.39388028
-0.10639543 0.13651855 0.7359158 -0.31340513 -0.047020625 -0.21202953 -0.20354724 0.17371342
0.47603124 0.02325009 -0.6689762 0.3487828 -0.11815744 0.14100525 0.14014666 0.3740354
-0.120012894 0.20668831 -0.40894637 0.49137548 0.41545838 -0.40911007 -0.058522392 0.52613276
-0.05473909 -0.028978977 0.43401533 -0.1536278 0.14061491 -0.27975982 -0.46072602 -0.0019608508
0.40851417 -0.19321969 -1.1506395 1.1113483 0.01720942 0.32279426 -0.13695993 0.44110343
-0.32915434 -0.15803032 -0.35932308 0.24377364 0.33266938 -0.5159727 0.42830148 0.37909606
0.49913213 -0.11165406 0.26944384 0.24937142 -0.17124645 -0.043360755 -0.21625678 -0.1796593
0.15828925 -0.24630114 -0.019598732 0.9626568 0.5093243 -0.15698494 -0.25483644 0.12651113
0.18440914 -0.18318732 0.9909727 -0.092827395 -0.457886 -0.77123785 -0.2899471 -0.27528837
-0.1618192 0.017880034 -0.003734155 -0.0811578 0.2596211 0.093731135 -0.09590979 -0.24633966
-0.42320004 -0.04859135 -0.2582131 0.5693151 0.13063732 -0.008318475 -0.061387938 0.075908065

rnn.weight_hh_l1 f4 [72, 24]
00000000: 4827 fabe 725d 91bd 8257 3cbe 682c 313e
00000010: ccfa c9be 173c 27bf 6aa5 b63e 76c3 a33c
00000020: 19a3 0ebf 84f3 b63e c8b1 563d 8123 b0bd
00000030: 8586 4fbe dd72 803c d035 d8ba 1c79 1fbf
00000040: c31b 53be a886 713e 4daf 88bd bb3a b9be
00000050: 5590 113f fd75 ba3d 6f99 033d c3dc 0fbe
00000060: 870e be3d fc37 7dbe b856 c03e 1c99 cbbd
00000070: dbcb 21be da87 ba3d 851e 353c 8832 6e3e
00000080: cfe7 5bbe 6847 96be 4b8d 083f 4e44 a03e
00000090: f1b1 053e fb14 e33e 6298 01bb 4b40 9abe
000000a0: fe5e d1be d6fd 5abd a53f 27be 1777 be3c
000000b0: 9e17 8b3e d1e6 d3be f0b6 663d 9770 70be
000000c0: af84 84bc 7691 30bc 4ef0 6a3d 5a51 5cbe
000000d0: 6600 52be 3b9c 22bd e6bd 9d3e aff1 a93d
000000e0: 74ac 2f3d 86a4 8a3b 09e3 0abc 1f01 6d3e
000000f0: 1aef 8e3e 1a4f 29bd b7f3 2d3c c52c f3bd
00000100: 3d6e 193d c294 7b3e 7fc0 c4bc a35d 7b3e
00000110: 8f06 d6bd 618f 15be be0a 163d 8d79 933d
00000120: 5f77 ee3d 44ad dabc 4472 70bc ef91 58be
00000130: 0565 2d3e f6dd 33bd de38 f13d 8787 00bd
00000140: c357 12be e0b5 a43d 2f6b b83e 8b7d a7bb
00000150: 0688 e53d 61c2 0abe c6cb 2a3e 4fa5 3f3e
00000160: ce1f 18be 7d96 303e 8dac 94be 12c1 6dbd
00000170: c209 3cbc c4f8 b3be f19b 543e 7efa f1bd
00000180: 96d4 253c 7a9c 903e f7c8 cabd 660d 363e
00000190: 4361 c13d ddcf dfbd 1692 a6be b53b f53d
000001a0: a4f4 223d ab0a 103d 5742 11be cf10 cdbc
000001b0: 6658 fe3d 7190 6abe 84a3 d63d a836 eebd
000001c0: 0a90 cbbc c4ba b33d d864 de3e 667d d0bd
000001d0: 3b7d 5f3e f9a6 ac3e 5885 253e b0fd 143e
000001e0: 1d30 4cbe d814 bf3c a79e 03be 3c29 2cbb
000001f0: 41ee 4ebe c664 5cbc 3528 46be dfd0 95bd
00000200: bd70 59bd e62d 2dbd 0005 bb3d 0feb 323e
00000210: b678 13bc c7e6 b7bd 6eed 933d 129f 64be
00000220: 3bf1 bb3d b385 8bbe 2798 833d 22e4 5fbe
00000230: d8de b73d bce0 44be a54b 15be 0fef 26bc
00000240: cfd0 05be 1f22 c8bd e49d 303e c627 003e
00000250: efa4 573e 3ff3 5a3e 61f2 7dbe 6dcc 053e
00000260: 6943 8abd fa82 383d fafb cebd 2ff1 edbd
00000270: 8cde 933d 92f9 833d 252e 93be 1bb7 ddbd
00000280: 34fa 673e 3627 73be 9082 52be 7873 413d
00000290: 0734 7f3c c47b 323e 0561 b0be 1a6f b4bd
000002a0: 13c1 38be 3b38 833d 03c3 51be d17a 913d
000002b0: 2f2f 05be 52c9 c6bd 3af7 1e3e 83db 1f3d
000002c0: 9ba8 e1bd 7f97 6abe 1e91 833d 4291 2c3d
000002d0: a2e9 6f3e 673b ecbd 200e 3b3e 3868 bebd
000002e0: 2bee 43be 8032 743e e9c2 433e 4de4 fe3d
000002f0: 8b6e 993d 4e47 63bc a9a1 f83c 586f 08bd
00000300: 5d14 43be d66f 783e 0e97 62be 3f78 f13d
00000310: eefb 7fbe e7a8 843e 14d4 cc3e 3b3a 54be
00000320: 38b2 d13c d3ca 0abf 6839 a83d 8381 433e
00000330: fd4d 713d 4971 0abe 0eb9 8dbd aca8 13be
00000340: 05e2 dabd a044 383e 53ec fa3e 55ad 1b3e
00000350: c163 503e 3117 103e 47f4 683e 0c89 8bbe
00000360: 0be4 ef3e a083 bb3d 9061 3b3e 0d25 d13e
00000370: 7df6 a7be aa75 b93e 231f 633e 2c8e ca3d
00000380: 2f38 85bd 3bbc c4be b3f2 3bbe a282 323e
00000390: cb4c 3cbe 6481 a33d a96d 7dbe 1621 64be
000003a0: 9c53 7d3e d6f5 e0be 5bcf 033f 79c5 b63d
000003b0: f063 ed3c f50d a33d 6b4e 3b3e f5ca 2ebe
000003c0: 835d 103e ce1b 363d 51fa d0bd 8b83 79bb
000003d0: b01e 16be bea4 6abe 0988 ba3e 5e0d 6fbe
000003e0: c9a4 0a3e 6681 fbbc e511 81bb e6be 7e3d
000003f0: 4880 2e3d 547d 98bb 73a3 f33d 9abb 763d
-0.48858094 -0.070979014 -0.18392757 0.17302096 -0.39449155 -0.65326065 0.35673076 0.019990664
-0.5571762 0.35732663 0.05241564 -0.08600522 -0.20266159 0.015679771 -0.001649553 -0.62294173
-0.20616059 0.23586524 -0.06674061 -0.3617762 0.5686086 0.09104536 0.032128748 -0.14049058
0.092801146 -0.24728388 0.3756616 -0.09941313 -0.15800421 0.09107943 0.01105464 0.23261464
-0.21475147 -0.29351354 0.53340596 0.31302112 0.1305616 0.44351944 -0.0019774665 -0.30127177
-0.40892786 -0.053464733 -0.16332872 0.023250146 0.27166456 -0.41387036 0.056326807 -0.2348045
-0.01617655 -0.010776868 0.05735808 -0.21515408 -0.20507964 -0.039699774 0.30808944 0.082980506
0.042889073 0.0042310385 -0.008476981 0.23144959 0.27916795 -0.041335203 0.010617188 -0.118737735
0.037458647 0.24568465 -0.02401757 0.24547438 -0.1045047 -0.14605476 0.03663134 0.07200918
0.11643862 -0.026693948 -0.014675681 -0.21149419 0.16933067 -0.04391285 0.11778425 -0.03137925
-0.14291291 0.080425024 0.36019275 -0.0051114014 0.11207585 -0.13550712 0.16679296 0.18715404
-0.14855883 0.17244907 -0.29037896 -0.058045454 -0.011476936 -0.3515073 0.20762612 -0.11815356
0.010121485 0.28244382 -0.09901612 0.17778549 0.09442379 -0.10928319 -0.3253333 0.11974279
0.03978409 0.035166424 -0.14185463 -0.025032429 0.124192044 -0.22906663 0.10480407 -0.116315186
-0.024848957 0.08775857 0.43436313 -0.10180168 0.21825115 0.3372114 0.16164148 0.14549899
-0.19940229 0.023325369 -0.1285349 -0.0026269695 -0.20208074 -0.013451761 -0.19351275 -0.073152296
-0.05308603 -0.0422801 0.09131813 0.1747248 -0.009000948 -0.08979564 0.072230205 -0.22326306
0.091768704 -0.27250442 0.06425505 -0.2186437 0.08978051 -0.19226354 -0.14579637 -0.010188832
-0.13067935 -0.09772133 0.1724773 0.12515172 0.21059011 0.21381854 -0.24799491 0.13066263
-0.06751139 0.045046784 -0.101066545 -0.11618268 0.07220182 0.06444086 -0.28746143 -0.1082594
0.22654039 -0.23745427 -0.20557618 0.04722926 0.015576369 0.17430025 -0.3444902 -0.088102534
-0.18042402 0.064072095 -0.20484547 0.071035035 -0.1300628 -0.097063676 0.15523997 0.039027702
-0.11018487 -0.22909354 0.06424163 0.042130716 0.23428968 -0.115347676 0.18267107 -0.09297222
-0.19133823 0.23847389 0.19117321 0.12445889 0.074917875 -0.013871981 0.030350523 -0.03330931
-0.19050737 0.24261412 -0.22127935 0.11790513 -0.24998447 0.25910112 0.40005553 -0.20725338
0.025597677 -0.54215735 0.082140744 0.19092374 0.058912266 -0.13519777 -0.06920062 -0.14419812
-0.10687641 0.17994928 0.49008426 0.1520284 0.20350553 0.14071347 0.22749434 -0.27252996
0.4685367 0.09155965 0.18298936 0.4084858 -0.32805243 0.36222583 0.22179846 0.098903984
-0.06504857 -0.38424858 -0.18354301 0.17432645 -0.18388669 0.07983664 -0.24748863 -0.22278246
0.24738926 -0.43937558 0.51488274 0.08924384 0.028978318 0.079616465 0.18291633 -0.1706961
0.14098172 0.04446011 -0.10203994 -0.003807279 -0.14660144 -0.22914407 0.36431912 -0.23344943
0.13539423 -0.03070135 -0.003938901 0.062193774 0.042602807 -0.004653612 0.1189641 0.060237505

rnn.bias_ih_l1 f4 [72]
00000000: 05f7 8fbd e950 de3d ef25 21be c369 2dbd
00000010: 61cd b4bd bdd0 a9bd dd75 5dbd 1666 3f3e
00000020: fecc 833e 3a9a 7a3e a5de 14be 82be 3cbd
00000030: 034c dd3d 216a 3b3e 5561 45bd 7d63 2fbe
00000040: 01cd 773e 934a a93b 46db 38be 2e01 263e
00000050: c099 283d 39a0 183e 2f8d 2dbe 0287 45be
00000060: d77a fbbd f616 fbbe 7a01 0cbf 3dbd ecbe
00000070: afda 2d3d 4584 a23d c437 43be 96b9 3cbe
00000080: 100c 4ebe 1cdc efbd 264f cabe eefc e3bd
00000090: 1429 e1be 825a 49bf 0bed ddbe ea2a 01be
000000a0: 5c16 16be de19 c1be 690b 26bf fba0 2e3d
000000b0: 8f99 41be 8e65 44bf 7825 06be 928c 8e3d
000000c0: 3b12 2f3e 8b09 3fbe 4a25 413e cd6e 333d
000000d0: 6689 66be 5ba7 6fbe e41f 15be 15bd 643e
000000e0: ca00 d2bd 8862 07be b09b f03d db20 0f3e
000000f0: ebe3 693e bfa8 bb3d a45b f43d cd0c 71be
00000100: c455 7bbe 090d 70be 5bd6 85be 1da8 aebd
00000110: 3611 bc3d 7349 393d 670d 353e cdfa 4abe
-0.07029537 0.10855276 -0.15737127 -0.04233719 -0.088282354 -0.08291767 -0.05406748 0.18691286
0.25742334 0.24472895 -0.14538057 -0.04608012 0.10805514 0.18302204 -0.048188526 -0.17127796
0.24199297 0.0051663606 -0.18052396 0.16211388 0.041162252 0.1490487 -0.16948389 -0.19289783
-0.12279289 -0.49040955 -0.54689753 -0.46238127 0.04244488 0.07935385 -0.19064242 -0.1843017
-0.20121789 -0.117119044 -0.3951351 -0.11132227 -0.43976653 -0.7865373 -0.43344912 -0.12614027
-0.14656967 -0.37715048 -0.6486116 0.04263399 -0.18906234 -0.7671746 -0.1310023 0.069604054
0.17096798 -0.18655984 0.18861881 0.04380684 -0.22513351 -0.23403685 -0.14562947 0.22337754
-0.10254057 -0.1322118 0.11748445 0.13977377 0.2284085 0.09163045 0.119315416 -0.2354004
-0.24544436 -0.23442473 -0.26140103 -0.08528159 0.0918297 0.045236062 0.17680894 -0.19822235

rnn.bias_hh_l1 f4 [72]
00000000: 6da7 153e db60 6dba db5c afbe fb8e 4e3d
00000010: 01e0 3f3e a067 a63d 3349 8a3e 015c 493d
00000020: 8f06 7d3e 9195 16bd 9998 7abe a6f4 b13d
00000030: b255 4b3e 265d 733e c06f 843d 1e20 083e
00000040: a3d3 17bd 41ad f5bd 8e2e 983c bec4 6cbe
00000050: a8e8 24bd d966 1c3e eb99 27be 2472 2c3d
00000060: 8f75 2abd dde7 c7be 27c3 50bf cf25 44be
00000070: 4ddb f5bc e7fb 1c3d 8f84 8abe 5992 053d
00000080: bf2e fa3c dba7 b6be c38a d5be 908d 553c
00000090: f993 42be 8158 25bf 1eb3 90be 05eb 213b
000000a0: abc4 2cbe a733 fabe 1f79 16bf c683 a93c
000000b0: 68e7 91be ede9 f8be 8cc8 5dbe 97d9 6f3c
000000c0: baaf 30bd 73f6 ffbd 3eb6 43bd ff3f 3ebe
000000d0: d972 0cbe 6e7a 86bd 74db 84be 8d73 4e3e
000000e0: 326b debd 83df 0b3e 8d25 09be 69b7 c03d
000000f0: 3e2b 0fbc 0658 ca3e 609d f83d da31 093e
00000100: 049d c8be 1c6b 65bd 75fa cdbd 1b7d d23d
00000110: 1d90 1c3e e831 6bbe e8f4 8cbd c7d0 7fbd
0.14614649 -0.0009055265 -0.3425053 0.050429326 0.18737794 0.08125234 0.27008972 0.049160007
0.24709533 -0.03676373 -0.24472274 0.08689241 0.19856909 0.23766002 0.06466627 0.13293502
-0.037067067 -0.11995936 0.018576887 -0.23121926 -0.04026094 0.15273608 -0.16367309 0.04210104
-0.04161602 -0.39044085 -0.8154778 -0.19155048 -0.030011797 0.03832617 -0.2705426 0.03261027
0.030539868 -0.3567494 -0.4170743 0.013034239 -0.1900176 -0.6458817 -0.28261656 0.0024706733
-0.16871898 -0.48867533 -0.58778566 0.020692717 -0.2849686 -0.4861597 -0.21658534 0.01463928
-0.043136336 -0.12498178 -0.04778122 -0.185791 -0.13715686 -0.0656632 -0.2594868 0.20161267
-0.1086029 0.13659482 -0.1339323 0.09409983 -0.008738337 0.39520282 0.12139392 0.13397923
-0.39182293 -0.05601035 -0.100575365 0.10277768 0.1528935 -0.22968256 -0.0688265 -0.062454965

rnn.weight_ih_l2 f4 [72, 24]
00000000: 29b1 37be efbd 1dbe 2a97 2a3d b023 043f
00000010: f084 47bc 451d b4be 0b9e b3bc bf0f 1c3e
00000020: 09ee b53d 5630 2fbe 3fc6 f33d 66d7 d53d
00000030: 26d6 8abd e9e7 7b3e 2e7a 703c 5308 00bd
00000040: 9a11 cdbe f207 bbbe 14d4 513e 3709 a13c
00000050: dc01 753d d1cb 61be 79ae febe 9914 3ebe
00000060: 5c8f 18be 31e4 67bf bf43 35be d0de dcbd
00000070: 8a55 2ebe 5759 3ebf 2f24 4bbe 0e46 c43e
00000080: 1bb9 dabe 3bb5 5abe 72f3 cc3e 4ab1 1a3f
00000090: 4c36 c43e 1422 b43d de02 8f3e 4b8c ccbe
000000a0: 076d ddbe 628d 033e 511b 0abf 44d6 f5be
000000b0: 5247 103f de57 23bf cf99 043d df45 6fbd
000000c0: 1a83 87bc 00bc 19be 4474 fc3c c751 1fbf
000000d0: 9314 e3be cbbf 48be 8f9e 9d3e 7ea1 8abc
000000e0: 91b9 0fbf d753 0cbf 5980 b53e e84d 983d
000000f0: d354 ecbe 850a 8bbe 940c 8f3e 8b8b 40be
00000100: b29b 9ebe 3b58 113d 9322 c8be 2d37 c83e
00000110: 9c5a 163d ba15 a8be 0f7f b03d 79ab 9dbd
00000120: fc23 30be ea1d 9fbe 38ed 99bc c584 d43d
00000130: 1f65 dcbd 64d6 69be 4461 423b 6823 45be
00000140: 2f6e e63d 2434 123d f0c2 1dbe df5a eabc
00000150: 3df2 743e b5df 95be 7f7a 5dbe 8bb8 4bbe
00000160: 0891 81bb aedc 96bd 58a2 fd3c 3e39 76bd
00000170: 959e a8bd 93bc 863c 35b4 833e 7336 59be
00000180: 4724 ddbd 3633 693d a42c 89bc 5f22 813e
00000190: 9ad5 86bd 65b2 3b3e 53ac e23d 26a8 a9be
000001a0: 6ee5 ac3e 7449 933e 8b8e 5dbe 6817 96bd
000001b0: ac13 383d 4163 933b a5bd aabe 8ca8 22bd
000001c0: 818c 99bd 7687 5bbe 8653 21be 6a83 013f
000001d0: 4223 4e3d f862 89bd 0dbe 2f3e 7dab 303e
000001e0: 40f2 7ebd e655 7f3d 5a3a cabd dc7d 7dbd
000001f0: dd1f fbbc a20d 2dbe 64c4 5a3e 6558 373e
00000200: 9661 24be 8dc9 09bf c22d 24bd 864d cb3e
00000210: c823 69be ca9e b4be 5aa7 093e bc53 ec3d
00000220: 7268 0cbe 4eb2 ba3b 4b86 d53d a005 9a3e
00000230: 8dae 113e b6e9 72be 8604 033e a1ea 17be
00000240: 9595 323e 5249 bd3d 16a9 bbbe dce3 4abe
00000250: f985 123e 6663 e6bd 1075 123e 514b 82bd
00000260: 0989 103e 62a5 9e3d 8a1f 643e 1a1b ff3c
00000270: aaf5 c23c 686d c6be debe 913d cde9 4a3d
00000280: 534d 473e 1927 903e 8718 f63d 3d80 de3e
00000290: a61e 593d 7b5f eebd 270b 9a3e a94e 24bd
000002a0: 5740 463e 350f 2cbd 481c 3cbf ae08 eebe
000002b0: 4b47 c9bd c194 45bc 9d64 543c 6d42 dabd
000002c0: 2f2f fbbc 06e9 bbbe 074b f43b 15b3 de3e
000002d0: da59 5a3e be50 c8be 12f6 803e 3cda d83d
000002e0: 428b eb3d fa8c e33e c351 503e 3ad3 afbc
000002f0: 6356 283e 32bb 19be 194e 513e cddc 3d3d
00000300: 6216 4d3e 1553 6d3e 0a3c 23bd 5015 0bbf
00000310: a08d e0bc ca65 93bd 4247 d03d 9310 a73c
00000320: 664e bcbd dedf 8bbe 3fba 9d3a 4909 fb3d
00000330: a4bc a33e 1a1f d3be f2cc e83e b11f 9ebc
00000340: d6c1 c83d a6ab 3b3d 7314 be3e dfd3 e43c
00000350: d667 ae3c 3268 a7be d32b 363e 5c5b 7ebe
00000360: 30c6 f33d d2cf 8c3d d754 88be c67c 74bd
00000370: fceb bdbd dcc3 5abe 87ba cd3d 183f 583e
00000380: 36c2 86be 1af1 7cbe 40f2 023e 0b7e 6a3e
00000390: bbde 35bd f6ba afbe 7c7e 3b3e 7618 833d
000003a0: db11 c7bb f4e3 9e3e a898 59be be8a 463c
000003b0: 0b2c 8a3c 2035 55be 064f 943e 9c60 39bd
000003c0: 5a64 5e3e b112 783d c302 00bf fa12 2cbe
000003d0: 436d 2cbe 5886 743c 0934 223e b4a9 813e
000003e0: 4ab6 7cbe d0e2 94be 1461 913e 464d 9f3d
000003f0: 09c8 e6bc f812 64be d4e3 863e 8451 31be
-0.17938675 -0.15404485 0.041648068 0.51616955 -0.012177691 -0.3517858 -0.021925947 0.15240382
0.08883292 -0.17108282 0.11903047 0.104414746 -0.06779127 0.24600185 0.014677567 -0.03125794
-0.4005249 -0.365295 0.20491058 0.019657714 0.059816226 -0.22050406 -0.49742487 -0.18562545
-0.14898437 -0.9058257 -0.17701624 -0.107846856 -0.17024818 -0.7435507 -0.19838022 0.38334697
-0.4271935 -0.21358196 0.40029484 0.6042677 0.38322675 0.087955624 0.27931875 -0.39950785
-0.43247244 0.12846902 -0.5394793 -0.48015034 0.56358826 -0.6380595 0.032373246 -0.058416244
-0.016542006 -0.15013123 0.030817159 -0.6223416 -0.44351634 -0.19604413 0.30785033 -0.016922709
-0.56142527 -0.5481543 0.35449484 0.074367344 -0.46158466 -0.27156463 0.27939284 -0.18803231
-0.3097816 0.035484534 -0.39088878 0.39104596 0.036707506 -0.32829076 0.086179845 -0.076987214
-0.17201227 -0.3107751 -0.018789873 0.10376886 -0.10761475 -0.2283569 0.0029660026 -0.19251788
0.112514846 0.035694256 -0.15406394 -0.028607784 0.23920532 -0.29272237 -0.2162876 -0.19894616
-0.0039540567 -0.0736631 0.0309612 -0.060113184 -0.08233372 0.016447341 0.25723425 -0.21212177
-0.10797935 0.056933604 -0.01674492 0.25221536 -0.0658371 0.18329771 0.110680245 -0.331361
0.3376879 0.28766978 -0.21636407 -0.07328683 0.044940636 0.004497916 -0.33347812 -0.03971152
-0.07497502 -0.21438393 -0.15754518 0.50591147 0.050326593 -0.0670833 0.17162342 0.17252918
-0.062242746 0.06233778 -0.09874411 -0.061887607 -0.030654842 -0.16899732 0.2136398 0.17904814
-0.16052851 -0.5382317 -0.0400827 0.39707583 -0.22767556 -0.35277396 0.13442746 0.115394086
-0.13711718 0.005697525 0.10426005 0.30082417 0.14226742 -0.23721966 0.12794694 -0.14835598
0.17439874 0.092425 -0.3665244 -0.19813484 0.14308919 -0.112494275 0.14302468 -0.06362022
0.14114775 0.07746388 0.22277656 0.031140853 0.023798782 -0.38755345 0.07116483 0.049539376
0.1946309 0.2815483 0.12016397 0.43457213 0.053007744 -0.11639305 0.30086634 -0.04011408
0.19360481 -0.04200669 -0.73480654 -0.46490997 -0.09828051 -0.0120593915 0.012963441 -0.10657201
-0.030662147 -0.3670122 0.007455233 0.43496004 0.21323338 -0.391241 0.25187737 0.105885
0.11501171 0.44443494 0.2034369 -0.021463025 0.16439204 -0.15012816 0.20439948 0.04635315
0.2002807 0.23176225 -0.03985218 -0.54329395 -0.027411282 -0.07197149 0.10169841 0.020393645
-0.09194641 -0.27319235 0.0012033655 0.122576304 0.3197986 -0.41234666 0.4546886 -0.019302221
0.09802596 0.045817994 0.37124977 0.02793306 0.021289747 -0.32696682 0.17790155 -0.24839538
0.11903036 0.06875576 -0.26627228 -0.059689306 -0.09273526 -0.21363777 0.10045343 0.21117818
-0.26320046 -0.24701348 0.12787724 0.22899644 -0.044401865 -0.34322327 0.18309969 0.0640115
-0.0060751266 0.3103329 -0.2124964 0.01211804 0.016866704 -0.20821047 0.2896654 -0.04525815
0.21717969 0.0605647 -0.50004214 -0.16804114 -0.16838555 0.014924608 0.15840162 0.25324786
-0.24678913 -0.29079294 0.28394377 0.077784106 -0.028171556 -0.22272861 0.26345694 -0.17316252

rnn.weight_hh_l2 f4 [72, 24]
00000000: e216 f13e 4dd6 e93e a168 183f 8bd1 ac3d
00000010: 801c b33e ae53 53be 8b0c 843e abe8 b0be
00000020: d9de e6bd 01f4 123e 5346 eb3c 2338 773e
00000030: 7e4b 03bf c86c 8a3b 9b29 fa3e 3b53 d33e
00000040: b462 993e e5f6 a53d 4c54 4dbe a3fc a53d
00000050: a6c5 353f 6286 12be b5f6 1b3e 8dcd d5bd
00000060: 17ad df3d a481 2f3e 1157 fd3d 0b23 2c3d
00000070: 83d4 933e 6c9b 05bd 82c1 983e aaea 4fbe
00000080: 131b 603c 05dc 33be 461b 2abe 644f 0dbc
00000090: 4d31 efbd c2df 5cbf f402 523e 4e93 6cbd
000000a0: c338 b53d d868 61bd d907 e0bd 1b83 ce3d
000000b0: 755e 083e e8c7 f0bc 3251 823d 0a75 97bd
000000c0: 24b5 a6be 35a0 88be 5a9a 633e e0b2 e3bd
000000d0: cd92 23be e4bf 713c 2bbd 003e abbd 003d
000000e0: 73ca 7b3d 8f4b 093f 4dfa a53e 5e93 64be
000000f0: 6db2 c4be 606b 343c 00b6 4dbd 4fea 84be
00000100: 3626 8dbe 28d2 4e3d f7ed b33c f023 a8be
00000110: bb41 72be f0d4 e73c 2f88 cf3d b227 3cbd
00000120: 3578 323e ecf3 cb3d beee 1d3e beab 21be
00000130: 18b6 8cbc 3586 07be 71a9 42be 2794 34bc
00000140: bfc8 cdbd 2958 7b3e d35b 333e ce15 3dbe
00000150: 0d35 25be bde4 d1bd 1574 873d 7d0e afbe
00000160: 51fc 65bd 0458 4bbe e2ed 6c3d 3c7a 673e
00000170: e843 34be 902b 583e 0386 a33d e8d6 31be
00000180: ad50 533e 9262 e0be ccfb 2f3d 90b3 b1be
00000190: dc2d d8be 39d8 123e b412 c5bd 4587 88be
000001a0: 5ca7 913d 7501 a23e d323 27be 5455 97be
000001b0: 69c3 703e db80 87be 7e03 843e 7add a83d
000001c0: 1e28 9ebd 7247 66be 72bf a5be 84b2 463e
000001d0: 376b 183d d023 a3bd 0321 8bbe 6bc4 b8be
000001e0: 438a e0bd 7230 623d 1d90 66be e11c 553e
000001f0: b7eb 863e bf86 1bbe ad1a eb3d a850 e23e
00000200: 3465 97be 2ba6 50be ab01 233d beec 933e
00000210: e737 75be 67f3 093e f27e 13be 4590 78be
00000220: 1b9e 263e 7c8d 833e b543 93bd ea1c abbe
00000230: f398 ffbd f65b 593e eef6 af3e 59cc ab3e
00000240: 68ea b4be d348 00bd 3e0f d0be 8342 31be
00000250: 4890 02be 3e17 353e 3492 a5be a459 303e
00000260: cabf 33be 2c51 81be c7a3 0bbe 203e 54bd
00000270: a1e7 8fbe 46eb 30bd 19d4 4cbe 532c 733e
00000280: 2b38 20be ffb2 aebd 0da1 d2be 0787 5bbe
00000290: 4d8c 65be e8a0 6f3d 7264 953e 7f9f 043e
000002a0: f90f 10be 024d ce3b 3e93 e4bd cefa a13d
000002b0: d6d5 8c3e e500 a9be 659a b5be a5dd d43e
000002c0: 0db9 c7bd 329b 33be 0adc 843e 2392 d93e
000002d0: 8464 2bbe 6ff4 033e d6b5 18be 1e85 903e
000002e0: 3290 b6bd b3b6 fb3e 2093 113e 00d7 48be
000002f0: da62 433d ea92 b53e bd69 993e bf3e 693e
00000300: a24d 95be 5250 73bc 3f36 ddbd f2d9 083e
00000310: 3afd e73d 4506 083e dd9a cebe 0562 903e
00000320: 9000 b4be 11ee 01be 7a41 373e 04e8 62be
00000330: 6eae cdbd c933 fb3d 1cfe 96be 1956 cd3d
00000340: 9b40 8fbd a2e9 c53e 7d48 863e 8d85 05bf
00000350: df41 24be f710 933e 1763 a93d c1cc b93d
00000360: cb43 2e3e d061 0cbe 1d06 1f3d 886c 20be
00000370: 72d9 753e ef36 95bd 5a4a ebbd 59d3 823e
00000380: 684f ecbe b5ca 8bbe 1132 073e 47d4 103e
00000390: 292f 52be 134a bd3d 3998 7d3d b304 e93d
000003a0: 849f e63d 2cfa 01be 2787 9e3d cfa8 babe
000003b0: 858f 43be db3b 933e 09d1 993e 44a8 043e
000003c0: 0224 42be e7d6 babd e0f8 48be 63e4 10bc
000003d0: 1b71 8dbc ae34 c4bd 8488 40be 6e46 43bd
000003e0: 55e6 d43d 28ca 16be a303 5bbb 6874 5c3d
000003f0: 46b8 f43d d770 05be 75ae 9e3d b54f 49bd
0.4708777 0.4567131 0.5953465 0.08438405 0.3498268 -0.2063739 0.2579082 -0.34552512
-0.112729736 0.14350893 0.028720057 0.24142508 -0.51287067 0.0042243935 0.48859867 0.41274437
0.29958117 0.08103732 -0.20051688 0.08104827 0.7100471 -0.14309075 0.1523083 -0.10439596
0.10921686 0.17139298 0.12370122 0.042025607 0.2887307 -0.032618925 0.29835135 -0.20304361
0.01367833 -0.175644 -0.16611966 -0.008624885 -0.11679325 -0.8627893 0.20508939 -0.05775767
0.08848717 -0.055031627 -0.10938997 0.100836 0.13317282 -0.029392198 0.06363143 -0.0739537
-0.32560074 -0.26684728 0.22226849 -0.11118102 -0.15973969 0.014755223 0.12572162 0.03143088
0.061472367 0.5363092 0.32417527 -0.22321841 -0.38417378 0.011011928 -0.050222397 -0.25960013
-0.27568215 0.05049339 0.021964056 -0.32839918 -0.23657887 0.028299779 0.10133397 -0.045936294
0.17428668 0.09958634 0.15423104 -0.1578817 -0.017176673 -0.1323479 -0.1900995 -0.01102165
-0.10048055 0.24545349 0.17515497 -0.18465349 -0.16133519 -0.102487065 0.06613938 -0.3419074
-0.05614883 -0.19857794 0.05784405 0.22605222 -0.17604029 0.21110368 0.07984545 -0.17367136
0.20636244 -0.43825203 0.04296474 -0.34707308 -0.42222488 0.14340295 -0.09622708 -0.26665702
0.071119994 0.31641737 -0.1632226 -0.29557288 0.23512043 -0.26465496 0.25783914 0.08245368
-0.077224955 -0.22488192 -0.32372624 0.19404036 0.037211623 -0.07965815 -0.27173623 -0.36087355
-0.10963871 0.055221982 -0.22515912 0.20811798 0.2635171 -0.1518812 0.114796974 0.4420216
-0.295694 -0.20375888 0.039796513 0.28891557 -0.23947106 0.13471757 -0.14403895 -0.24273784
0.1627125 0.25693882 -0.071906485 -0.33420497 -0.124803446 0.21226487 0.3436808 0.33554342
-0.35335088 -0.03131945 -0.4063663 -0.17310528 -0.12750351 0.17684647 -0.32338107 0.17221695
-0.1755363 -0.25257242 -0.13636695 -0.05181706 -0.28106406 -0.043193124 -0.20002784 0.23747377
-0.15646426 -0.085302345 -0.41138497 -0.21438228 -0.22416802 0.05850306 0.29178196 0.12951468
-0.14068593 0.006295801 -0.11160897 0.07909165 0.27506894 -0.33008495 -0.35469356 0.4157535
-0.097520925 -0.17539671 0.25949126 0.42494306 -0.16737562 0.12886213 -0.14913115 0.2822656
-0.08914222 0.49162826 0.1421628 -0.19613266 0.047701694 0.3546365 0.29963484 0.22777842
-0.29160792 -0.014850693 -0.10801362 0.1336439 0.11327596 0.13283642 -0.40352526 0.28199783
-0.3515668 -0.12688471 0.17896071 -0.2215882 -0.100430354 0.122657366 -0.29490745 0.100261874
-0.069947444 0.3865481 0.2622718 -0.5215691 -0.16040753 0.2872388 0.08270853 0.09072257
0.17018048 -0.13709188 0.03882419 -0.15666401 0.2400873 -0.072858684 -0.11488791 0.2555187
-0.46154332 -0.2730309 0.13202693 0.14143477 -0.20525803 0.09242644 0.06191275 0.113778494
0.11260894 -0.12693089 0.07740622 -0.36456916 -0.19097717 0.28756604 0.30042294 0.12954813
-0.18959048 -0.091230206 -0.19626188 -0.008843514 -0.017265847 -0.0958036 -0.18802077 -0.04767459
0.10395495 -0.14725554 -0.0033418916 0.05382195 0.1194921 -0.13031326 0.07748119 -0.04914828

rnn.bias_ih_l2 f4 [72]
00000000: b0aa 823e 843f ec3d 68a0 54be 9e3a b23d
00000010: e515 34bd 0108 053e 3919 a03d 8d41 86be
00000020: 2422 95be 1da0 06be 920b 9e3c e203 6cbc
00000030: 6f86 26bd 04ea 663d e477 043e 38a4 143e
00000040: 6577 413e 1d8e 9d3c d8b6 72bd ab9e 103e
00000050: 3e40 8f3e 98b0 d9bc a1b2 263e 8e88 d8bd
00000060: eeb8 0fbf 241b 67be eb21 2dbf 0a32 e2be
00000070: eaf1 0fbf b27b d0be 2b68 e2be 505b 35be
00000080: a46d cabe 1102 fbbe 751b aabe 9119 8bbe
00000090: 1c66 36bf d5a2 08be 76d5 36bf 7655 03bf
000000a0: a255 dabe e769 2dbd 9d63 c9be 4941 fbbe
000000b0: 4187 1fbf b8d4 77be 4f4c 23bf 9b8e 0cbf
000000c0: d9e3 e83c bb7d 73bd be5b b1bc b5d3 dfbc
000000d0: f20c 003d f698 28be b1cf 80bd 936b 293e
000000e0: 799c 3dbe 9f86 99bd 0d59 a93c e633 3a3e
000000f0: aa8e 6dbe 4d3b efbd eef1 f03d 2e45 05be
00000100: e464 803d ed6d 853d 67ef cc3d b3a3 0b3e
00000110: 62f2 733e 54ef e23d d020 33be 3734 00bd
0.2552085 0.11535552 -0.20764315 0.087025866 -0.043966193 0.12991334 0.07817311 -0.26221886
-0.2912761 -0.13147016 0.019292627 -0.014405223 -0.04065555 0.05637552 0.1293636 0.1451577
0.18893202 0.019232804 -0.059256405 0.14123027 0.279787 -0.026573464 0.16279079 -0.10572921
-0.56141555 -0.22568947 -0.6762988 -0.44178802 -0.56228507 -0.40719372 -0.442201 -0.17710614
-0.39536774 -0.49025014 -0.33224073 -0.27167943 -0.71249557 -0.13343365 -0.71419466 -0.5130228
-0.42643458 -0.042337324 -0.3933381 -0.49073246 -0.62315756 -0.2420224 -0.6378831 -0.549051
0.028428959 -0.059446078 -0.021650191 -0.02732263 0.031262346 -0.164646 -0.06289614 0.16544943
-0.18516721 -0.0749638 0.020672346 0.1818386 -0.23198953 -0.116812326 0.117648944 -0.13014671
0.06269243 0.06515107 0.100066 0.13636665 0.2382293 0.110808045 -0.17492986 -0.031299796

rnn.bias_hh_l2 f4 [72]
00000000: 65f6 383d d773 fd3e ba42 1abd 9757 b73d
00000010: a7ec 893d 2d3d 343e 17ce 073d 88bf 44be
00000020: e67f 69be b842 41be 80e1 423e a3f2 b03e
00000030: a0b8 723e 4c89 9d3e 817d fd3d 9fe5 963e
00000040: 5b77 9c3e 2e38 48be a477 9fbd 1ea1 2a3e
00000050: 07f9 a23c dd58 f53d ef6e 293e 572a 21be
00000060: 622a bcbe b753 d1be 5cd8 d0be 868f 47be
00000070: 7d91 d9be 4486 51be 866a 0fbf 4634 0fbe
00000080: 9cda c9be 44cf c7be d318 9bbe 5df5 10be
00000090: 5474 39bf 476c e2be 5b51 d9be c128 e9be
000000a0: cdd6 08bf e491 d4be 1891 05bf cb45 90be
000000b0: 3e84 93be c15b d4be c696 e2be dde3 dbbe
000000c0: 9ddc d93d de5e 263e b2e0 743d bc9d 123d
000000d0: 6d12 9ebc 091f 64bc c646 02be 464b d13d
000000e0: 9a99 57be 2bd5 dfbc d43c c0bd 483b d83d
000000f0: 4a2e 14be 6789 b5bd facc 293e abdd 23be
00000100: 7e95 6ebe f6c1 65bc 818d 4abe 5744 48be
00000110: 0045 2f3e 1875 35be 0c15 813d 9e21 c3bd
0.045156855 0.4950244 -0.03766129 0.08952253 0.06734591 0.17601462 0.033155527 -0.19213688
-0.22802696 -0.18873107 0.19031334 0.34560117 0.23703241 0.30768812 0.123774536 0.29472062
0.3055981 -0.19552681 -0.077864915 0.16663024 0.019894136 0.1197984 0.16546224 -0.15738808
-0.36751086 -0.40884182 -0.4079007 -0.19488344 -0.4249381 -0.20461375 -0.56021917 -0.13984784
-0.39424598 -0.3902532 -0.30292377 -0.14156099 -0.7244313 -0.44223234 -0.42444882 -0.45538905
-0.5345276 -0.41517556 -0.5217452 -0.28178248 -0.2881183 -0.41476253 -0.44255656 -0.42947283
0.10637782 0.16247126 0.0597846 0.03579496 -0.019295895 -0.013923415 -0.1272231 0.102194354
-0.21054688 -0.027323326 -0.09386602 0.10558182 -0.14470783 -0.08864098 0.16582099 -0.16002528
-0.23299214 -0.014023295 -0.19780542 -0.1955732 0.17116165 -0.17720449 0.063028425 -0.09527896
