Checkpoints/TEST_ckd_checkpoint.pth (torch, 610632 bytes, 179 tensors)

rnn.weight_ih_l0 f4 [72, 7]
000000 dc b0 02 3e 4b 42 33 be c5 86 2b 3e 6e 00 2c 3d
       0.12762779 -0.17505758 0.16750629 0.041992597
000010 a8 df cc 3e eb 16 e6 be cf 7c 49 be 40 11 be 3d
       0.40014386 -0.4493936 -0.19676517 0.09280634
000020 12 41 aa 3c 49 b5 63 be 30 b5 bf 3d bd 67 17 3e
       0.020782981 -0.22237124 0.09360731 0.14785667
000030 ba 20 45 bf fb 22 1a bf ed f1 2c 3e 36 55 d6 be
       -0.7700306 -0.60209626 0.16889162 -0.41861886
000040 c7 7d 20 3f e1 d9 12 3e 87 d1 06 be 7f 57 1f bf
       0.6269192 0.14340927 -0.13165866 -0.62242883
000050 ab b0 e0 3e 23 2b a5 3e 4b af 79 3d f5 7b 7d 3e
       0.43884787 0.32259473 0.060958188 0.24754317
000060 5a 92 13 3e 62 f6 63 3e f6 cb 25 bf a5 3f c7 be
       0.14411297 0.22261956 -0.64764345 -0.38915744
000070 fc 6b af 3e 0e c1 68 be eb 1a 20 3e 04 ed 88 be
       0.34262073 -0.22729895 0.15635268 -0.2674333
000080 39 b9 d2 3d 6c a3 7e bf bb cb ce bb a1 e9 80 3e
       0.10289235 -0.9946811 -0.0063109077 0.25178245
000090 9d ec ad 3e 17 5e b5 bb 5b 55 32 bc 20 5c a2 bd
       0.33969584 -0.005534898 -0.010884608 -0.07927728
0000a0 e3 59 3d 3f a9 8f 84 bc ab de b3 be 1d 4c 25 be
       0.7396528 -0.016181784 -0.3513082 -0.16142316
0000b0 b2 22 04 3a 91 6a ca 3d 07 47 03 3e 5b 87 c0 be
       0.00050405704 0.09883607 0.12820064 -0.37603268
0000c0 e4 de c6 be 9a 55 3f 39 bb 0d 8c bd fd 13 95 be
       -0.38841927 0.00018247069 -0.068385564 -0.29116812
0000d0 34 42 a5 3d 38 5f 89 bd 4d 7e b9 be 57 8c 21 bf
       0.08069268 -0.06707615 -0.36229172 -0.63104767
0000e0 f9 6f 9d bd 49 63 d1 3e 90 e5 f3 3e 10 0c b0 3e
       -0.07687373 0.4089606 0.4763608 0.34384203
0000f0 50 c3 98 3a f8 5f 2b bf b4 73 15 bf de cf b4 3e
       0.0011654887 -0.6694331 -0.58379674 0.3531484
000100 ec 57 91 3e 18 6e 2f bd da 0e b4 3d 27 5b 5c 3e
       0.28387392 -0.042829603 0.08791895 0.21519147
000110 ee 12 b0 be c3 4a d6 be 41 6c cb bd 19 55 47 3c
       -0.34389442 -0.41853914 -0.09932757 0.012166285
000120 81 30 9a be 7d 0c bd 3d 3a f5 08 3f 02 f8 99 bf
       -0.3011513 0.092308976 0.53499186 -1.2028811
000130 84 4d 6d be 11 10 92 3e a1 30 cd bc 08 d7 b3 3d
       -0.23174101 0.28527883 -0.025047602 0.08781248
000140 61 e8 c8 3e 56 2f 61 3e 77 a7 0d bf c0 17 b3 bd
       0.3923979 0.21990713 -0.55333656 -0.08744764
000150 be 08 ec be ba 5d 45 be fe 4a c9 be d8 a2 65 be
       -0.4610042 -0.19274035 -0.39315027 -0.22425401
000160 3e 3b f8 bd 8b bc d6 3d b5 88 0a 3e 44 38 22 bd
       -0.121206746 0.104851805 0.13528712 -0.03960444
000170 df f6 6a be 98 1f 15 3e 34 43 73 be 33 d6 8b 3e
       -0.22945736 0.14562833 -0.23756105 0.2731186
000180 3d ce 0f 3e a3 f3 6a be b1 01 19 be b9 f7 30 bd
       0.14043517 -0.22944503 -0.14942051 -0.043204997
000190 89 cf ff be b9 1f 0d be 1c 00 49 be e4 d1 98 be
       -0.49963024 -0.13781632 -0.19628948 -0.29847634
0001a0 ed ab 53 be 1a cf 96 be b7 d0 a4 be 5c d8 6a bc
       -0.20671053 -0.2945488 -0.32190487 -0.014333811
0001b0 c1 6e 8a 3e b9 c0 e5 3e a5 7a 90 bf f4 79 19 be
       0.27037624 0.44873598 -1.1287428 -0.14987928
0001c0 5f 01 93 3d 0f ac 23 bd 20 64 da 3e 6d b0 3e 3e
       0.07177996 -0.03995901 0.42654514 0.18621989
0001d0 2d 05 46 3e 83 df 08 be 31 aa aa 3e 5b 66 e9 be
       0.19337912 -0.13366513 0.3333297 -0.45585904
0001e0 bb b8 81 be 40 71 8a 3d 73 57 da 3c 28 00 29 3e
       -0.2533625 0.06759882 0.026653027 0.16503966
0001f0 d5 ad e5 3e 5c 20 22 be f1 f2 85 3e 5e 7c 98 be
       0.44859186 -0.15832657 0.26161912 -0.29782385
000200 56 b0 9a be e7 00 20 be 9b 5a fc be 55 85 e8 be
       -0.3021266 -0.15625344 -0.49287876 -0.45414224
000210 4c 5f e2 be d7 92 05 3f 15 87 0b 3e cc 83 7d 3d
       -0.4421333 0.52177185 0.13625748 0.06189327
000220 bf b2 22 3e 93 b6 fa 3e bc 0e 37 3d e3 65 8c 3e
       0.15888499 0.48967418 0.044691786 0.27421483
000230 33 74 8f be ac ac c7 3e 50 04 cf 3e 13 6b 35 3d
       -0.2801834 0.38998926 0.40432978 0.044291567
000240 54 58 0b 3e 47 c9 14 3d b4 81 60 3e eb 21 92 3e
       0.13607913 0.036324766 0.21924478 0.28541502
000250 8d 98 41 bf ae 2d 5a 3f 5d bc a1 3e b9 61 40 3f
       -0.756234 0.8522595 0.31589022 0.7514911
000260 24 f7 9f be 29 be 4f bf 3e 9f 97 3d d9 63 93 3e
       -0.3124324 -0.81149536 0.0740342 0.28787115
000270 bd 83 ab 3e e0 52 5a 3e c3 ef 6c 3e fe 03 f6 bd
       0.33498946 0.21320677 0.23138337 -0.1201248
000280 45 9a 90 be c2 23 1c 3d f7 dd d2 3d ac 5e 5a 3d
       -0.28242698 0.03812004 0.10296243 0.053312942
000290 ec b7 fe 3e d9 cb f0 3e 5f 3b e8 be 86 d1 93 be
       0.49749696 0.47030523 -0.45357797 -0.2887079
0002a0 59 72 02 bf 3d 46 f8 3d 3d 10 85 3e 8c 66 34 be
       -0.5095573 0.12122772 0.2598895 -0.17617244
0002b0 f0 94 aa 3d 6b 78 18 bf 5f ce fa be 6a 06 64 be
       0.08329189 -0.59558743 -0.48985574 -0.22268072
0002c0 86 fc a5 be 83 31 16 3c b2 77 26 be c3 f1 4f bf
       -0.32419223 0.009167078 -0.16256598 -0.81228274
0002d0 80 26 63 bf c1 34 58 3d d7 8f d6 be 35 e7 89 3e
       -0.8873062 0.052784685 -0.41906616 0.2693421
0002e0 74 13 30 bf 1d fc e5 bd 04 34 99 3e 94 8e 1f 3e
       -0.68779683 -0.112297274 0.29922497 0.15581733
0002f0 e1 ae 70 be 8f 9a 82 be e9 cd 39 be a3 b6 bf 3c
       -0.23504211 -0.25508544 -0.18144955 0.023402518
000300 d1 78 c5 be fc 5e cd be c5 3c 6d be 3b c7 cd be
       -0.38568738 -0.4011153 -0.23167713 -0.40191063
000310 ca 95 cb be cb 08 67 be 9f 17 f5 be 25 e3 24 be
       -0.39762717 -0.22561948 -0.47869584 -0.16102274
000320 86 fd a7 3d 0a ae 21 3c 0c 98 fa be 31 fd 06 bf
       0.08202653 0.009868154 -0.48944128 -0.5273009
000330 af c1 72 3e 41 fb d2 be b4 d5 9f be 82 7e 00 bd
       0.23706697 -0.41207317 -0.3121773 -0.031370647
000340 87 e0 36 be fb 89 3a be d5 fa a3 be 70 e7 90 be
       -0.17859088 -0.18216698 -0.32027307 -0.28301573
000350 c9 c8 1a bf fa 83 19 bf 93 3b 20 bf 22 1b 38 3f
       -0.60462624 -0.59967005 -0.62590903 0.719164
000360 07 02 a2 be 0f b1 b5 bc 2d d6 bd be d2 83 2a 3d
       -0.31642172 -0.022179155 -0.37077466 0.04162962
000370 98 16 98 3c eb 04 5d bf 19 07 2b bf 4b 5a 82 be
       0.018565461 -0.8633563 -0.66807705 -0.25459513
000380 2b 32 8a bd 13 83 76 3e 57 f5 89 3e 16 08 c0 3e
       -0.0674785 0.24073438 0.26944992 0.3750617
000390 0c a5 0d bf 53 b7 d6 3e 3f ca 1f 3f 16 9f a3 be
       -0.55329967 0.4193674 0.6241798 -0.3195731
0003a0 fa a9 d7 be e5 cf 82 bc b0 ca b3 bd d3 b9 9f be
       -0.4212187 -0.015968272 -0.08778894 -0.3119646
0003b0 43 90 bb 3e ac 07 78 be f1 81 24 bf f8 b4 30 3f
       0.366335 -0.24221677 -0.64260775 0.69026136
0003c0 49 17 77 bf e3 48 db be 74 a3 cb bf 76 a6 35 bf
       -0.96519905 -0.42829046 -1.5909257 -0.70957124
0003d0 57 f1 17 3f 39 3a b8 be 42 54 b1 be 50 6f bf be
       0.5935263 -0.3598192 -0.34634596 -0.37389612
0003e0 88 7a 5e bf 1f 02 33 bf 19 71 8c bc c8 0e f2 be
       -0.8690572 -0.6992511 -0.017143773 -0.47276902
0003f0 d3 82 16 bf b7 8f 5a bd 1a 6e b1 bc dd b9 83 bd
       -0.5879337 -0.053359713 -0.021658946 -0.06431935

rnn.weight_hh_l0 f4 [72, 24]
000000 fd 60 20 bd ce 29 47 3e 5a 2e bc 3d 6a 94 dd 3d
       -0.039154995 0.19449541 0.09188528 0.10819323
000010 a0 21 25 bd b1 87 1e 3e 4f 16 3c bd 11 fb 30 3e
       -0.04031527 0.1548145 -0.045919713 0.17283274
000020 86 4e b2 be bc f6 0a be 53 46 f3 3e 84 25 d0 be
       -0.34825534 -0.13570684 0.4751459 -0.40653622
000030 14 00 24 be 8f 02 27 be 23 43 f6 bd a6 7b 91 bd
       -0.16015655 -0.1630957 -0.12024524 -0.07103662
000040 16 bf 73 3d 31 02 45 3e cf 97 10 3f c4 0b a3 bd
       0.059508406 0.19239117 0.5648164 -0.079612285
000050 7f 7b f2 3d 4f 39 12 3e 85 c3 d0 be d8 1c ba 3c
       0.11839961 0.14279674 -0.4077417 0.022718832
000060 17 96 a1 3c 40 01 0f 3e 73 3c c1 3d c6 c3 a0 3d
       0.019724889 0.1396532 0.09435358 0.07849841
000070 8e 95 2e be 58 9b 59 3e 58 0a 0f be eb 67 6f 3e
       -0.17049238 0.21250665 -0.1396879 0.23379485
000080 4f f8 93 3e a7 20 5e 3d f1 fa c9 3e 45 f4 01 3f
       0.28900382 0.05423036 0.39449266 0.5076335
000090 c7 04 98 3e cd 07 fb 3d 1f d1 9c be 4f d6 17 be
       0.29691145 0.12257347 -0.30628297 -0.14827846
0000a0 ac 79 08 3e 2d bd 69 3d 14 69 93 3e 7a 8f 7b 3e
       0.13327664 0.057065178 0.28791106 0.2456645
0000b0 e7 36 ae 3e f4 a6 81 3d 58 90 9b 3e 5b 77 23 3e
       0.34026262 0.06330672 0.30383563 0.15963499
0000c0 3b b2 6c be c4 01 b0 be 9a 5e 23 3e 37 94 23 be
       -0.23114865 -0.34376347 0.15954056 -0.15974508
0000d0 3c a4 dd 3d e6 c1 40 3d e9 e4 b8 3d a5 ac 85 3d
       0.10822341 0.047059916 0.09028036 0.0652707
0000e0 29 81 a8 be 47 b2 b6 3e 36 ac 8a bd 43 fb 03 bf
       -0.3291104 0.3568289 -0.06771128 -0.5155527
0000f0 b8 0f 8d 3d 14 8f 37 be 3b 5b e4 3e 9f a8 2f be
       0.06887764 -0.17925674 0.44600853 -0.17154168
000100 63 c2 9a 3c 18 10 87 bd 37 8e 01 bf e6 5d cf 3e
       0.018891519 -0.065948665 -0.5060763 0.40501326
000110 74 65 1f bd 29 6d 42 3f a2 c3 8e bd 4f 80 d6 bc
       -0.038915113 0.75947815 -0.06970908 -0.02618423
000120 06 f1 39 be 69 4c ad 3e 12 ba 15 3c fc 6c 9f be
       -0.1815835 0.3384736 0.009138601 -0.31137836
000130 38 ba 24 be be 1b 0a 3d 62 c3 86 3e c5 28 2c 3e
       -0.16086662 0.033717863 0.2632094 0.16812427
000140 78 54 2d 3e a6 25 b1 3e 8b ca 2a 3e fc b1 24 3d
       0.16926754 0.34599036 0.16678827 0.0402088
000150 f5 18 44 be 7a 0f 0c 3d 76 1d 24 bd e0 fa 89 be
       -0.19150145 0.034194447 -0.04006716 -0.26949215
000160 f7 47 f3 3b d5 94 ba 3e 35 d9 6d 3e aa dc 6d 3e
       0.0074243504 0.36441675 0.23227389 0.23228708
000170 fb cd be bd 94 57 96 be 72 fa 46 bd fa 4e ba 3d
       -0.093166314 -0.29363692 -0.048578687 0.09097095
000180 cd 20 e8 bd 6e cd 86 3c 91 cc 10 be 1d 50 5e 3d
       -0.11334381 0.016455378 -0.14140536 0.05427562
000190 a8 61 ff 3d 5c 5e 73 3c 5c 0d c4 be aa 8c 97 be
       0.12469798 0.01485404 -0.38291442 -0.29599506
0001a0 e6 cf 60 bd 3a 14 95 3e 60 64 3b be d3 70 3b 3e
       -0.054885767 0.29116994 -0.18300009 0.18304758
0001b0 a6 86 14 bf a6 e4 68 3c 69 f1 a0 3d 3b 8b 58 bd
       -0.5801796 0.01421467 0.07858545 -0.052867156
0001c0 a5 27 1b 3d 30 8b 95 3e 30 a9 e6 be 9b 19 64 be
       0.037879605 0.29207754 -0.45050955 -0.22275393
0001d0 66 e8 47 bc 76 bc 3a 3f 7f 8a 58 3e 4f 3e 9d 3e
       -0.012201404 0.7294382 0.21146582 0.307116
0001e0 cf c9 1c be b7 39 20 bc 3b 81 20 3e 77 a4 9c bd
       -0.15311359 -0.009779385 0.15674298 -0.07648557
0001f0 3f e3 c4 3c ed 69 73 be c0 36 45 3c 63 6d 04 3f
       0.02403414 -0.23770876 0.012036979 0.5172941
000200 52 c6 91 3d a0 89 77 3e 0d 6d 06 3f 0d 41 a6 3d
       0.07117905 0.24173594 0.5251015 0.08117876
000210 44 ca 72 be 22 ad 83 be 61 f2 0f be b4 2a ba bd
       -0.2370997 -0.25718027 -0.14057304 -0.09090176
000220 10 f6 be bd 83 c2 34 3e e8 3e 19 3f f7 8d 38 3d
       -0.093242764 0.17652325 0.5986161 0.045057263
000230 5e 68 65 be 1c 7d 5c 3d 23 37 5a be ba 7c 27 be
       -0.22403094 0.05383025 -0.21310095 -0.16356173
000240 2f fa a8 3d b2 fb 33 3e e2 85 87 3e 8f 85 70 be
       0.08250844 0.17576483 0.26469332 -0.23488449
000250 d2 f4 91 bd d7 80 41 be 6d d4 81 be 51 59 d8 3d
       -0.07126774 -0.18896805 -0.2535738 0.10563911
000260 c3 b0 66 3e c4 bf 00 3d a1 c1 15 be ea a5 0a 3f
       0.22528367 0.031432882 -0.14624645 0.54159415
000270 18 fc 0d be a5 a3 29 3e 96 9e eb bd 0a 6f ab be
       -0.13865697 0.16566332 -0.11504857 -0.33483154
000280 1d a2 61 be fd 67 35 bb e0 1b 83 3e 30 f8 68 3d
       -0.22034498 -0.002768039 0.25607204 0.056877315
000290 23 5f d4 3c d1 0c 4a bd 56 e3 8a be d9 b1 47 3e
       0.025924271 -0.04932863 -0.2712657 0.19501437
0002a0 6a 95 84 3e d1 a7 f5 bc e5 1f 62 bd 8a 78 7a 3c
       0.25895244 -0.029987248 -0.0552062 0.015287528
0002b0 2d 5b 7a 3d f6 e4 32 3e a9 21 46 be 24 44 83 3e
       0.06112211 0.17470154 -0.19348778 0.25637925
0002c0 5d 8e 95 3e 3a 89 b6 bd 48 1c 46 3d 0e c4 6b be
       0.29210177 -0.08912893 0.048366815 -0.23024008
0002d0 ee 04 17 be 29 63 94 bc 61 cf c7 bd aa 96 36 bd
       -0.14747974 -0.01811369 -0.09756351 -0.04457728
0002e0 2e 60 8f be 4b ea 85 3e bb 30 23 3e 05 19 89 3d
       -0.28003067 0.26155314 0.15936558 0.06694225
0002f0 85 11 54 3d a2 61 bd 3d 31 50 0f 3e df 9a b8 3d
       0.05177452 0.092471376 0.13995434 0.09013914
000300 1d 69 c3 bd 13 b7 a6 3d 2a 0d 69 3e 21 61 0a be
       -0.09541533 0.081403874 0.22758928 -0.13513614
000310 d4 a1 6a be ec 77 20 be 8a 83 6f 3e 67 f2 51 3e
       -0.22913295 -0.15670747 0.23390022 0.20502625
000320 71 df a6 3d 24 4c 98 bc a2 8b 90 be b3 1c ec be
       0.08148087 -0.018590994 -0.2823153 -0.46115646
000330 c8 63 86 3d d0 dd f6 bc 05 6e ba bd 68 25 60 be
       0.065620005 -0.030135065 -0.09103016 -0.2188927
000340 17 53 e9 bc 87 3f 20 3d 92 a3 9a 3d b0 32 c4 3e
       -0.028482003 0.039123084 0.0755073 0.38319921
000350 72 f4 9f 3d 6b 40 00 bf 47 76 04 be 81 02 03 3e
       0.07810296 -0.50098294 -0.12935744 0.12793924
000360 51 3a 74 be c4 3e 04 3e d8 76 05 3e 28 d6 ec bc
       -0.23850371 0.12914568 0.13033617 -0.028910711
000370 cf 26 52 be 12 e9 e4 bd 1e 29 8f 3e e5 1f a5 3d
       -0.20522617 -0.11177267 0.27961057 0.08062724
000380 a7 91 9e 3e eb 5d ac 3d a4 bc 73 3d c0 3b 4b 3e
       0.309705 0.08416351 0.059506074 0.19847012
000390 b6 27 d2 3d b9 0a 37 be b6 87 12 3e f0 86 81 3c
       0.102614805 -0.17875184 0.14309582 0.015811414
0003a0 ce bd c0 bd 34 36 f8 3c 7d d5 1c 3e d1 f4 05 3e
       -0.09411202 0.030299284 0.15315814 0.13081671
0003b0 5b d7 ad bd 07 64 cb 3d f0 f0 b0 be 26 25 0c be
       -0.084883414 0.09931188 -0.3455882 -0.13686046
0003c0 cb f0 2e 3c 53 41 cc 3d 7f 15 14 3d 90 a1 f8 bd
       0.010677527 0.09973397 0.036153313 -0.121401906
0003d0 06 7b 6f 3d 61 02 eb 3d 92 5c b2 be 2c 2a 77 bd
       0.058466934 0.11475063 -0.3483625 -0.060342953
0003e0 7e 13 53 3e 03 24 19 be 01 11 fb bb 00 32 6a 3f
       0.20612904 -0.14955144 -0.007661939 0.91482544
0003f0 af 5d 36 3e ce 1c 93 3e 42 c9 fa bc d5 c3 d0 bd
       0.17809175 0.28732914 -0.030613545 -0.10193602

rnn.bias_ih_l0 f4 [72]
000000 92 87 23 3e dd 83 91 be 72 f6 5a 3d 53 5f 29 3e
       0.15969685 -0.28420916 0.053457685 0.1654027
000010 fe 0d c7 bd 89 01 1d bd 3f 72 25 be fa 5e a5 3d
       -0.09719466 -0.038331542 -0.16156863 0.08074756
000020 68 9c 09 3c a0 12 97 bd 02 1f 83 bc e4 c7 08 bd
       0.008399107 -0.07376599 -0.016005997 -0.033393756
000030 48 c9 ac 3b 0e b4 d2 3d 7d be f4 3d 2b e3 80 bd
       0.005273018 0.10288249 0.11950395 -0.06293329
000040 97 8e 3d 3d db 3d da 3a 11 ac f2 3d 1f 1b 44 3e
       0.046278562 0.0016650514 0.11849225 0.19150971
000050 9c dc 65 3d c4 c3 61 bd 6a 2f ac 3d 17 11 f7 bd
       0.056118593 -0.055118337 0.08407481 -0.120638065
000060 8f 1f 9a be 4f 0f 26 be be 2e 63 be d3 83 33 bd
       -0.30102202 -0.16216777 -0.221858 -0.04382689
000070 17 d3 41 be a7 6d 33 be ae bd 92 bd d3 e8 f6 be
       -0.1892818 -0.17522298 -0.07165085 -0.48224506
000080 f6 2b 4a 3e 0d bf 9d be cf dc 12 be 8a 13 41 bf
       0.19743332 -0.30809823 -0.14342044 -0.7542044
000090 02 41 08 be 30 26 8e 3d a3 32 d7 bd 31 83 21 be
       -0.13306049 0.069408774 -0.10507705 -0.15772702
0000a0 a1 0c 4f be 1a 18 11 3e 15 53 a3 be 67 4d fa bc
       -0.20219661 0.1416935 -0.31899324 -0.030554486
0000b0 73 b2 0d bf 5f cd c7 be 6b 83 4b be aa 91 0b bf
       -0.55350417 -0.39023873 -0.1987435 -0.5451914
0000c0 83 1e 2f 3e fb 7c 1f 3d 0a 9b 03 3e 3a 90 b9 3c
       0.17101483 0.03893755 0.12852111 0.02265178
0000d0 15 d7 04 be 1d ff 56 bd fa b8 b8 bd 68 22 11 be
       -0.12972672 -0.05248939 -0.090196565 -0.14173281
0000e0 9c 9a 88 3d 31 19 99 3e 38 ad 3e 3c d5 a2 fa 3d
       0.066701144 0.29902032 0.011637978 0.12238089
0000f0 0e b6 66 bd a5 fa 16 3e ae 54 59 3e a1 a1 a8 3c
       -0.056325965 0.14744051 0.21223709 0.020584883
000100 7d f1 75 3e 9b af 34 bc ff 3e 57 3e 71 e1 44 bd
       0.24017902 -0.011028196 0.21020125 -0.04806656
000110 21 11 1d bd 9e a7 34 3e d2 83 6a bd 66 41 33 bd
       -0.038346414 0.17642066 -0.05725462 -0.04376354

rnn.bias_hh_l0 f4 [72]
000000 04 00 0b be 33 22 04 be dd 2f 41 bd 67 cb 2f 3e
       -0.13574225 -0.12903671 -0.047164787 0.17167436
000010 13 de 3a 3e 25 ba 10 be 54 16 07 be 9e b7 08 be
       0.18248777 -0.14133509 -0.13192111 -0.13351294
000020 3d 76 15 3e ec 6a 9a 3d 3c 85 bd 3d 3a b2 35 bd
       0.14595886 0.07539925 0.09253928 -0.044359423
000030 86 38 45 3e a3 65 00 be 5a 70 b6 bd 58 ec 9b bd
       0.19259843 -0.12538771 -0.08908148 -0.07613438
000040 c1 91 1b 3e 69 93 f1 3d 53 f6 f7 bb be e7 44 3e
       0.1519232 0.117956944 -0.007567206 0.19229028
000050 ec 71 33 3e e0 9a 24 3d e6 0b c4 3e b0 76 ae bd
       0.17523926 0.040186763 0.38290328 -0.085187316
000060 5e 3f 17 be 7a cf 82 bd 65 56 f7 bd 0c 1e 54 be
       -0.14770266 -0.06387229 -0.12077025 -0.20714587
000070 ca e5 08 bd 82 a6 70 bd 03 c2 de be 79 ca f6 be
       -0.03342227 -0.058752544 -0.43507394 -0.4820135
000080 d1 04 a5 bb d3 eb 54 bd d8 f6 8a bc b4 b3 11 bf
       -0.0050359746 -0.051982712 -0.016963407 -0.5691483
000090 70 82 08 be 66 bd aa 3d c8 11 02 be a1 85 87 be
       -0.13331008 0.08336906 -0.12702096 -0.26469138
0000a0 d7 6a c3 be cb 78 c4 bd 64 9f 6d be 79 ad 1f be
       -0.3816745 -0.09593352 -0.23205334 -0.15593518
0000b0 e1 41 48 bf 72 4e 8e be c3 82 b4 be 9a 49 b6 be
       -0.78225523 -0.27794224 -0.35256013 -0.3560303
0000c0 20 af db bd 3c aa 92 3d 47 2f dd 3d 67 8f 8d be
       -0.10726762 0.07161376 0.10800033 -0.2764847
0000d0 36 08 12 be f2 b9 1e 3d 24 0e 5b be 57 72 af bc
       -0.14260945 0.03875155 -0.21392113 -0.021416826
0000e0 e3 b9 00 3d 73 f1 6c 3e f4 2b 7d 3e 1e 64 50 3e
       0.031427275 0.2313898 0.24723798 0.20350692
0000f0 49 c3 88 3e e8 e3 06 be e6 2c 1a be d3 82 96 bd
       0.2671149 -0.13172877 -0.1505619 -0.073491715
000100 fe 95 2b 3e 1b 87 2c be 2c 78 c2 bd 76 fc 16 3d
       0.16756436 -0.16848414 -0.09495577 0.03686186
000110 ee be a5 be ec 57 fa bd 7d d8 49 be 4d 0e a0 3c
       -0.3237223 -0.12223801 -0.1971149 0.01953807

rnn.weight_ih_l1 f4 [72, 24]
000000 fb a8 79 bd 81 ee 50 be da 39 14 3e 09 ba ad bc
       -0.060952168 -0.20403482 0.14475194 -0.021206873
000010 af bb 10 be 87 17 47 be 0c f7 80 3e b7 4b 75 3c
       -0.14134096 -0.19442569 0.25188482 0.014971665
000020 97 08 64 be e8 19 72 bd 20 2a da 3e d0 79 f8 be
       -0.22268902 -0.059106737 0.42610264 -0.48530436
000030 fb 7a 1e bc 0c cf 4f 3e 49 5a 1e bd b6 d8 9c 3e
       -0.0096728755 0.20293826 -0.03866032 0.30634087
000040 b3 b8 23 be 09 b6 79 be 7e df ac bd 58 9d 59 3e
       -0.15988426 -0.24385847 -0.08441065 0.21251428
000050 3b 49 53 be 7b 45 d5 3d 39 8e c3 bd be 92 24 be
       -0.20633404 0.10413643 -0.09548611 -0.16071603
000060 fe 38 97 be 20 41 85 3e 46 ff af 3d 93 5c b2 be
       -0.2953567 0.2602625 0.085936114 -0.34836254
000070 eb 6d 99 3b ca fc 4f be 7d b2 81 3e 9c c1 e9 3e
       0.0046822927 -0.20311275 0.25331488 0.45655525
000080 52 a0 22 3e 49 f9 a0 3e 75 6f 93 3c f3 49 b9 3e
       0.1588147 0.3144019 0.017997483 0.3618923
000090 09 58 1b 3d 0c f6 f0 3d a7 f0 a9 3e af bd 94 be
       0.037925754 0.1176568 0.33191416 -0.29050967
0000a0 b3 fd cb bc 62 5a 28 3f 90 ac 8b be e0 8c b3 3d
       -0.024901247 0.65762913 -0.27280092 0.08767104
0000b0 2e d4 39 3e 6e 83 dc bc ca 9a 8c 3d ae de f4 3d
       0.18147346 -0.02691814 0.06865461 0.11956535
0000c0 a5 6c ef bd 3f 5e 1a be 2d 84 21 be 80 3c 2e 3b
       -0.11690644 -0.15075015 -0.15773077 0.0026586354
0000d0 6e 81 25 3e 70 0b 90 3d 93 96 0c be a9 a5 c2 3e
       0.16162655 0.070334315 -0.13729315 0.38017014
0000e0 a6 2e a1 3e ce 2e 3e 3d 00 3f 3d bf 0f d4 2d bd
       0.31480902 0.046431355 -0.73924255 -0.042438563
0000f0 b5 2f 9e bd 80 62 b7 bc 19 5a 07 3e a4 e9 06 be
       -0.07723943 -0.022385836 0.13217963 -0.13175064
000100 b5 e3 b2 bd 28 4b a3 3d ed bd 5f bf f1 b4 ec bd
       -0.08734838 0.07973319 -0.8739918 -0.11557949
000110 ee ad c7 3e a7 54 d0 bd 32 a2 f5 3e c0 9a 48 3e
       0.38999885 -0.10172396 0.47975308 0.19590282
000120 d6 d8 14 be b3 1c dd 3d 9f 23 3f be 27 1d 40 be
       -0.14535841 0.107964896 -0.18665932 -0.1876112
000130 06 53 00 be 2b 06 71 be 43 16 72 3e 0a 01 ad 3e
       -0.12531671 -0.23537509 0.23641305 0.33789855
000140 85 60 cc 3e cd cb ac 3e 6a eb fd be 9b 43 30 be
       0.3991739 0.33749238 -0.4959367 -0.1721329
000150 8e f8 a0 be 44 86 60 3e e8 0b 80 3e 73 29 af be
       -0.31439632 0.21926218 0.25009084 -0.3421131
000160 e3 01 e1 be ae 5e 7b 3d c4 fe 93 bf 0e 22 d4 3c
       -0.43946752 0.06136959 -1.1562123 0.025895145
000170 70 e2 0a 3f 5a cc 75 3c b7 a0 cb 3e 24 cb 86 bd
       0.54251766 0.0150023345 0.39771053 -0.06581715
000180 8f e5 a3 3e 63 49 92 3c 76 4c 32 3e ed d9 4f bd
       0.32011077 0.01785726 0.1741198 -0.05074494
000190 11 88 95 bd c3 57 0a 3e ca 3a f3 bd ce 00 89 3d
       -0.07301343 0.13510041 -0.118764475 0.066896066
0001a0 e0 e3 8b 3e 77 4e da 3d dc cd cd be c0 1e ec 3d
       0.27322292 0.10659497 -0.4019612 0.115293026
0001b0 47 b4 0d 3e 54 69 56 3e 67 99 a6 3d 22 75 43 3e
       0.13838302 0.20938617 0.08134728 0.19087651
0001c0 15 fa 48 be a3 60 73 3c 3a 05 1b 3d bd 00 8c 3d
       -0.19626649 0.014854583 0.03784678 0.06836078
0001d0 e0 a7 2f 3e ce 3c db be c0 28 be 3d eb 9b 5e 3e
       0.17153883 -0.42819828 0.09285116 0.21739165
0001e0 60 e1 33 be 7f e9 5e be f5 3a cf 3d db 1b 7a be
       -0.17566442 -0.21768759 0.10118667 -0.24424689
0001f0 5f da 81 bd e3 17 a0 3d fb 32 69 3e 8c 90 df 3e
       -0.06340479 0.07817056 0.22773354 0.43664968
000200 9b e7 29 3d a5 83 05 b9 c7 ec 1b 3d 34 12 6d be
       0.04148064 -0.0001273291 0.038067605 -0.23151475
000210 52 fd be 3e b6 3c 04 bf 86 f6 48 3d 32 22 61 be
       0.37302643 -0.5165514 0.049063228 -0.219857
000220 c1 21 de 3d 8e e3 21 3d d0 9a e1 3e 1b a7 10 be
       0.10846282 0.039523654 0.44063425 -0.14126246
000230 92 bc 77 be 08 ec 0b 3e 71 1d c7 be 9a d2 71 be
       -0.24193028 0.13664258 -0.3888965 -0.23615494
000240 65 1d ef bc 4a f1 4d 3d 4a f5 67 3e 5f 07 78 be
       -0.029188821 0.05027894 0.22652164 -0.24221562
000250 09 4c db bd 77 ca 48 bc c4 a3 60 3e 59 aa 83 3e
       -0.10707862 -0.012255303 0.21937472 0.25715902
000260 49 7b a2 3d b6 8e c3 3d 8a f8 9c be 37 e5 45 bf
       0.07933671 0.09548704 -0.3065837 -0.7730288
000270 bb 77 df bd ea 58 f0 bc f8 46 32 bd 0c 27 62 3e
       -0.10911509 -0.029339273 -0.043524712 0.22085208
000280 19 31 6b 3e 5f c5 8b be 1a 73 0c bf 90 7b 98 3e
       0.22967948 -0.2729902 -0.5486313 0.2978177
000290 a5 b1 ed 3d 8f a1 6b 3d 6e 1a da be 24 7f c4 be
       0.11606149 0.05752712 -0.4259829 -0.3837825
0002a0 79 96 ef bd 87 ae 07 3e e3 71 37 3f 26 40 9f be
       -0.11698622 0.1325017 0.7165815 -0.3110363
0002b0 a5 2f df bc a1 b1 55 be 07 b2 4f be fa 32 2c 3e
       -0.027244398 -0.20868541 -0.20282756 0.16816321
0002c0 06 01 eb 3e 24 d5 b1 3c 53 a5 2b bf cd 07 b0 3e
       0.45899218 0.021708079 -0.6704914 0.34380952
0002d0 d3 bd f0 bd c4 71 2c 3e 35 ee 16 3e cf 49 bf 3e
       -0.11754956 0.16840273 0.14739306 0.37361
0002e0 ab 12 f9 bd 38 31 54 3e 4d 98 e3 be 64 99 f6 3e
       -0.12161764 0.207219 -0.44452134 0.48163903
0002f0 06 23 d6 3e c2 8b ce be 8d e1 63 bd 0e 52 f5 3e
       0.41823596 -0.40341002 -0.055635024 0.47914165
000300 22 62 40 bd 75 67 e9 bc 0c e0 d3 3e 5b 80 1e be
       -0.046968587 -0.028491715 0.41381872 -0.15478651
000310 82 5d 02 3e 6b 78 8e be 62 5a e4 be 79 0a ff bb
       0.12730983 -0.27826247 -0.44600207 -0.007783231
000320 8e c5 ce 3e 11 9a 44 be ec 45 92 bf 82 ae 89 3f
       0.40385097 -0.19199397 -1.1427588 1.075638
000330 a7 85 98 3c 8c 39 9f 3e 4f d5 08 be 65 12 e1 3e
       0.018618418 0.31098592 -0.13362621 0.43959346
000340 c4 94 a4 be 6e 01 26 be 1f d9 b2 be 9a 2f 5f 3e
       -0.3214475 -0.16211483 -0.34931275 0.21795502
000350 17 7b a9 3e e2 f2 03 bf 3e 12 da 3e 37 aa bc 3e
       0.33101723 -0.51542485 0.42592043 0.36848614
000360 5d 36 01 3f 00 46 f1 bd 61 bf 85 3e 11 4c 83 3e
       0.50473577 -0.117809296 0.26122573 0.25643972
000370 28 0d 30 be 2e de 0b bd 1a b2 59 be e0 41 5e be
       -0.17192519 -0.034147434 -0.21259347 -0.21704817
000380 b6 68 01 3e 1d 49 80 be 02 18 16 3c 6b ca 88 3f
       0.126376 -0.2505578 0.009160997 1.0686773
000390 b8 8c 03 3f 03 d1 1f be f7 4d 7d be e2 d3 01 3e
       0.51386595 -0.15607075 -0.24736772 0.12678483
0003a0 2c a7 3c 3e 50 52 74 be 56 84 7c 3f ef 77 00 be
       0.18423146 -0.23859525 0.9863943 -0.12545751
0003b0 22 1f ea be d5 89 55 bf 7d ad 92 be 31 80 af be
       -0.45726877 -0.8341344 -0.28647986 -0.3427749
0003c0 d0 5d c7 bd f8 27 4e 3c 0a 46 af 3c 2f 77 a8 bd
       -0.0973469 0.0125827715 0.021395702 -0.082258575
0003d0 95 83 45 3e 25 fc c2 3d bf 76 c9 bd a7 35 6f be
       0.19288476 0.09520749 -0.09837102 -0.2336031
0003e0 d8 e0 b6 be 22 17 56 bd 7a db 98 be 42 03 e5 3e
       -0.35718417 -0.052268155 -0.29854947 0.44729048
0003f0 a7 14 14 3e cd 8d 89 3c d1 a8 c2 bd cd 6d be 3d
       0.14461003 0.016791249 -0.095048554 0.092982866

rnn.weight_hh_l1 f4 [72, 24]
000000 69 84 03 bf 84 f6 4c bd 40 2a 58 be f6 80 35 3e
       -0.51373917 -0.050039783 -0.21109867 0.17724976
000010 34 7f c5 be 92 9e 1a bf 99 72 b1 3e e1 f7 e2 ba
       -0.3857361 -0.6039821 0.34657744 -0.0017316305
000020 0d 27 0a bf f6 ff b5 3e d2 06 84 3d 21 9d a3 bd
       -0.53965837 0.35546845 0.06446613 -0.07988954
000030 55 8e 40 be f2 57 54 bc 00 76 00 3a 84 ab 1a bf
       -0.18804295 -0.012960421 0.0004900396 -0.6041796
000040 ea bb 2b be ab f1 80 3e ac d2 51 bd f8 20 bd be
       -0.16770902 0.25184378 -0.051226303 -0.36939216
000050 e0 f8 0c 3f 18 1d c1 3d 40 f3 75 3c dd 91 ff bd
       0.55067253 0.09429377 0.015011609 -0.12478993
000060 4b 00 c8 3d 7e b4 6e be 4e 2b b7 3e fd 31 dc bd
       0.09765681 -0.2331104 0.35775226 -0.10751722
000070 3e 7a 1d be 0e af c0 3d 6d e5 72 3c 07 6b 54 3e
       -0.15378663 0.09408389 0.014825207 0.20743953
000080 65 44 3f be 14 86 96 be d2 09 11 3f c8 23 b5 3e
       -0.18678434 -0.29399168 0.5665561 0.3537886
000090 7a 87 0a 3e 56 87 d6 3e 64 e5 8d 3c e4 55 95 be
       0.13528243 0.41900128 0.017321296 -0.29167092
0000a0 4d 9a c4 be 8c fb 43 bd 60 0a 1c be 66 c2 04 3d
       -0.38398972 -0.047847316 -0.15238333 0.032411955
0000b0 2b c7 87 3e 0d ba df be 28 81 63 3d cf df 62 be
       0.2651914 -0.43696633 0.055543095 -0.22155689
0000c0 63 a7 ab bc e2 6f a5 ba 41 bb 46 3d e2 77 5a be
       -0.02095384 -0.0012621845 0.048518423 -0.21334794
0000d0 4f b0 4e be 6d da 07 bd bc de a0 3e be 5d 9d 3d
       -0.20184444 -0.03316729 0.31419933 0.076838955
0000e0 05 2c 43 3d b6 ce 42 bc 56 05 30 bc 01 a6 69 3e
       0.047649402 -0.011890104 -0.01074346 0.22817232
0000f0 9e 56 8f 3e fc da 4a bd d3 c3 11 3b 88 a9 e5 bd
       0.2799577 -0.049525246 0.0022241964 -0.11213976
000100 63 5a 49 3d 6e 91 79 3e 65 4b 7e bb c4 b6 81 3e
       0.049158465 0.24371883 -0.0038802263 0.25334752
000110 25 01 e8 bd 03 72 08 be 23 e9 cc 3c ad 44 9a 3d
       -0.11328343 -0.13324742 0.025013512 0.0753263
000120 e3 73 06 3e 33 22 ee bc 01 96 8f bb a5 b2 58 be
       0.13130145 -0.029069042 -0.0043818955 -0.21161897
000130 ee a0 20 3e 11 5b 24 bd 41 d9 e4 3d a3 6b a4 bc
       0.1568639 -0.04012591 0.111742504 -0.020070856
000140 ba 70 1f be bd 7c 63 3d 55 05 c0 3e 72 7a bf 3b
       -0.15570346 0.05553888 0.37504068 0.005843454
000150 1d 57 d8 3d 17 51 06 be 58 ba 26 3e d5 55 39 3e
       0.105634905 -0.13116871 0.16282022 0.18099149
000160 aa 88 15 be 04 95 1d 3e 04 fe 94 be 59 04 94 bd
       -0.14602914 0.15388876 -0.2910005 -0.07227392
000170 83 cc d2 bb 02 81 b4 be 6e e6 46 3e fb 0e 0a be
       -0.006433071 -0.35254675 0.1942384 -0.13482277
000180 4f c0 1f bc e7 10 90 3e 16 ca cb bd 33 08 35 3e
       -0.00975044 0.28137895 -0.09950654 0.17678909
000190 9e 9d ac 3d 49 59 f0 bd 5b 66 63 be 0f ef ea 3d
       0.084285006 -0.1173578 -0.22207014 0.11471378
0001a0 4a fc 41 3d 7e c9 49 3c ad 47 45 be 1f 7f 9e bd
       0.047359742 0.012316106 -0.19265623 -0.0773909
0001b0 c6 6d b8 3d 6e 43 67 be 30 e4 c0 3d 9a a2 f6 bd
       0.090053126 -0.22584316 0.09418523 -0.120427325
0001c0 10 a8 fe bc d1 d1 02 3e 53 a4 e1 3e 6b cf 05 3d
       -0.031085998 0.12775351 0.44070682 0.032668512
0001d0 e9 18 66 3e d6 ce a9 3e fc 1a 2e 3e dd 68 16 3e
       0.2247044 0.33165616 0.17002481 0.1468844
0001e0 41 ac 84 be ad 70 27 3d 1e 15 1a be e8 32 0e 3c
       -0.2591267 0.04087894 -0.15047118 0.008679129
0001f0 18 f1 42 be 23 40 94 bb 21 c0 36 be bc b5 bf bd
       -0.19037282 -0.0045242473 -0.17846729 -0.09360835
000200 39 7f 18 bd 0a d6 ef bc 09 c5 cb 3d 26 b5 33 3e
       -0.037230704 -0.029276866 0.09949691 0.17549571
000210 cc 10 96 bc 7f 8a e3 bd 85 20 8e 3d d2 52 57 be
       -0.018318556 -0.111104004 0.06939796 -0.21027687
000220 0a d2 db 3d a0 76 85 be 3c 79 c5 3d ab 5c 60 be
       0.10733421 -0.26067066 0.09642264 -0.2191035
000230 dc 15 97 3d 85 c6 44 be e1 54 22 be 62 22 ab 3b
       0.07377216 -0.19216354 -0.15852691 0.0052226046
000240 78 94 e7 bd 6b 3e be bd 92 9c 2f 3e 7e 67 fe 3d
       -0.11307615 -0.09289249 0.1714957 0.12422083
000250 f8 4b 56 3e ab b7 65 3e 1d 30 82 be 81 b3 05 3e
       0.20927417 0.22433345 -0.25427333 0.13056757
000260 c8 e6 93 bd 1f ed 1c 3c 1b 48 a0 bd 5b a5 dd bd
       -0.072217524 0.009578018 -0.07826253 -0.10822555
000270 c8 d5 9f 3d fb 02 6e 3d 0a a2 a0 be 69 f0 d8 bd
       0.078044474 0.05810831 -0.31373626 -0.105927296
000280 0a 4e 73 3e a7 1f 86 be 38 a2 42 be e7 16 7c 3c
       0.23760238 -0.26196024 -0.19007194 0.01538632
000290 db dc 22 3c 09 b9 30 3e ad ea bd be b1 15 c6 bd
       0.009940351 0.17258085 -0.37093106 -0.09672106
0002a0 3e 02 34 be 3c fc 85 3d 50 01 45 be 11 b0 87 3d
       -0.1757898 0.065422505 -0.19238782 0.06625379
0002b0 7d 68 03 be e3 eb c1 bd 26 5d 2d 3e 90 29 55 3d
       -0.12832828 -0.0946882 0.16930065 0.05204159
0002c0 25 a1 ec bd 64 04 72 be 0d ed 7e 3d 87 0f f6 3c
       -0.115541734 -0.23634487 0.062237788 0.0300367
0002d0 fc 48 6e 3e f2 6e f2 bd 14 31 2b 3e a6 d1 bd bd
       0.23270029 -0.118375674 0.1671794 -0.09268503
0002e0 72 83 41 be aa 86 6b 3e 15 bc 4c 3e 31 30 05 3e
       -0.18897799 0.23000589 0.19993623 0.13006665
0002f0 23 be 8e 3d 00 f5 6a bc 9d 81 f1 3c 52 2a 33 bd
       0.069698595 -0.014340639 0.02948075 -0.04374153
000300 40 0f 43 be f5 57 77 3e 74 8c 5c be 4e 54 00 3e
       -0.19048786 0.24154647 -0.21537954 0.1253216
000310 d3 02 7b be a6 77 82 3e 49 d4 d4 3e de 16 4f be
       -0.24512796 0.2548191 0.4156821 -0.20223567
000320 71 69 c6 3c 4e e0 06 bf fc 44 b8 3d de ca 3f 3e
       0.0242202 -0.5268601 0.08997533 0.18729731
000330 a4 66 7d 3d 7e df 07 be 27 c1 87 bd 58 9c 13 be
       0.061865464 -0.13268849 -0.06628638 -0.14415109
000340 f3 2c e1 bd 6d 86 29 3e 83 5b fd 3e 7e 5b 1e 3e
       -0.109949015 0.16555186 0.4948388 0.15464589
000350 b3 cc 4d 3e 69 50 11 3e 05 58 60 3e 93 74 8d be
       0.20097618 0.1419083 0.21908577 -0.27628002
000360 04 f1 f5 3e 7c 0f d4 3d d1 72 3c 3e 25 08 cf 3e
       0.48035443 0.10354516 0.18403174 0.404359
000370 51 4f a1 be 50 45 bd 3e f6 34 7c 3e 2e e4 bf 3d
       -0.31505826 0.36966944 0.24629578 0.09369694
000380 36 61 66 bd c9 0a bd be 6b 52 49 be b2 85 19 3e
       -0.05624505 -0.3692229 -0.19660346 0.14992407
000390 32 05 34 be 0d 50 94 3d 09 21 7b be 21 35 5c be
       -0.17580107 0.07241831 -0.2452432 -0.21504642
0003a0 a0 4d 85 3e 4f 8a df be 49 b6 06 3f 58 f2 d4 3d
       0.26035786 -0.4366021 0.52621895 0.10397786
0003b0 87 25 90 3c 88 d5 c6 3d 3a 35 4d 3e 0f 00 29 be
       0.01759602 0.097086966 0.20039836 -0.16503929
0003c0 34 a1 28 3e ac e2 1f 3d 57 b9 c2 bd 52 00 0c 3b
       0.16467744 0.03903453 -0.09508007 0.0021362496
0003d0 c1 d9 20 be de 3e 67 be 13 be 87 3e bf 79 63 be
       -0.15708067 -0.22582576 0.26512203 -0.22214411
0003e0 65 c3 fa 3d 30 31 e6 bd 4c 21 f6 3c 17 58 bb 3d
       0.122443 -0.112398505 0.030045174 0.09147661
0003f0 a4 78 5f 3d 4c cc b9 3b 60 25 d3 3d a2 99 66 3d
       0.05455841 0.005670106 0.10309863 0.05629886

rnn.bias_ih_l1 f4 [72]
000000 99 46 be bd f2 51 d0 3d e7 7b 2a be c2 06 30 bd
       -0.09290809 0.1017188 -0.16648827 -0.042975195
000010 b6 93 bd bd 6a d1 d8 bd 99 b5 7c bd 4f 99 3c 3e
       -0.09256689 -0.105868176 -0.061696623 0.18417858
000020 64 f0 84 3e 3f af 74 3e 66 89 10 be 43 a7 07 bd
       0.25964653 0.23894976 -0.14114913 -0.033118498
000030 16 cc d2 3d 1c 67 21 3e 20 e2 46 bd 29 37 32 be
       0.102928326 0.1576199 -0.048555493 -0.17403854
000040 70 2f aa 3e 37 1e e8 3b b1 25 33 be fe c5 2b 3e
       0.33239317 0.00708368 -0.17494847 0.16774747
000050 4e 59 de 3c 9b cd 1d 3e 03 a1 19 be b1 ce 46 be
       0.027142193 0.15410464 -0.15002827 -0.19414784
000060 48 7f df bd a1 a0 fc be 30 b0 08 bf 2b 68 e8 be
       -0.10912949 -0.493413 -0.5339384 -0.45391974
000070 ac 9e 21 3d 5a d4 d4 3d 74 85 38 be 84 ee 34 be
       0.039457962 0.10392065 -0.18019658 -0.17669111
000080 78 c2 50 be 66 d8 10 be 46 96 d0 be e3 37 ee bd
       -0.20386684 -0.1414505 -0.4073965 -0.11631753
000090 fc e7 dd be aa c4 47 bf b4 64 d7 be 61 8a f5 bd
       -0.43341053 -0.7803446 -0.42069018 -0.11989284
0000a0 a1 50 f8 bd a6 fd c3 be 4c 34 2e bf a3 08 a7 3c
       -0.12124754 -0.38279456 -0.6804855 0.02038986
0000b0 69 f2 35 be 66 28 47 bf fc 02 01 be e4 1d 7a 3d
       -0.17768253 -0.7779602 -0.12598795 0.061063662
0000c0 d9 b8 29 3e 49 2d 3b be 8f 9b 38 3e e9 3c 77 3d
       0.1657442 -0.18278994 0.18028091 0.060360823
0000d0 76 2b 64 be e0 23 4c be 4d d7 14 be d6 30 66 3e
       -0.22282204 -0.1993556 -0.14535256 0.22479567
0000e0 9f 3d d1 bd 61 65 04 be be 05 09 3e 9f bb 15 3e
       -0.102168314 -0.12929298 0.13381097 0.14622353
0000f0 b2 51 62 3e f2 0a 9c 3d 83 08 da 3d 6d 0c 6d be
       0.22101477 0.07619275 0.10646155 -0.23149271
000100 db 9a 8f be cf e7 73 be db af 83 be c0 c0 b5 bd
       -0.28047833 -0.23818897 -0.25720105 -0.08874655
000110 2d 27 9a 3d fd cf 29 3d 62 b3 25 3e 65 da 4b be
       0.075270034 0.04145812 0.1618171 -0.1990753

rnn.bias_hh_l1 f4 [72]
000000 41 ff fc 3d 9c 9b fd bb de 07 b4 be fa f1 4b 3d
       0.12353373 -0.0077394973 -0.35162252 0.049791314
000010 e4 7c 3b 3e e2 cd 6e 3d 30 61 86 3e 0a 29 3e 3d
       0.1830936 0.058301814 0.26246023 0.046425857
000020 55 4d 7f 3e be 41 2e bd 5a 43 76 be 3c 80 cc 3d
       0.24931844 -0.042543165 -0.2404913 0.09985396
000030 be 15 46 3e 22 5a 59 3e 5f af 83 3d 72 4c 05 3e
       0.19344231 0.21225789 0.06429934 0.13017443
000040 a9 73 5a 3d fd bf f1 bd 35 db c5 3c ed ff 66 be
       0.05333296 -0.11804197 0.024152378 -0.22558565
000050 c0 55 5e bd 3a 94 21 3e bf ad 13 be 29 53 27 3d
       -0.054280996 0.157792 -0.14421748 0.040850792
000060 cc fc e4 bc 89 71 c9 be de 71 4d bf 97 7b 3b be
       -0.027952574 -0.39344433 -0.8025187 -0.18308865
000070 a7 29 07 bd 04 ce 80 3d 63 2b 85 be e1 be 24 3d
       -0.032998707 0.06289294 -0.26009664 0.0402211
000080 54 7b e4 3c 10 1d c3 be e6 d1 db be be b5 03 3c
       0.027890839 -0.3810811 -0.42933577 0.008038936
000090 d8 11 3c be a9 c2 23 bf c7 2a 8a be 35 d6 0e 3c
       -0.18366182 -0.639689 -0.26985762 0.008718063
0000a0 a1 d6 12 be 6f 17 fd be 03 a2 1e bf 91 57 cb ba
       -0.14339687 -0.4943194 -0.6196596 -0.0015513768
0000b0 dd 13 8c be a4 6f fe be 10 a6 58 be bc d8 c7 3b
       -0.27358904 -0.4969455 -0.21157098 0.006098835
0000c0 25 c7 3c bd a5 a7 f6 bd ae 32 6c bd 51 a3 31 be
       -0.046088357 -0.120436944 -0.05766552 -0.17347457
0000d0 35 48 05 be 5c 10 24 bd bb f2 83 be fa 05 52 3e
       -0.13015826 -0.040054664 -0.25771126 0.20510092
0000e0 b9 c1 e9 bd 64 80 0d 3e e1 93 e1 bd 97 53 cc 3d
       -0.11413903 0.13818508 -0.11014534 0.09976881
0000f0 cc 05 84 bc ec b9 c2 3e 4d b8 e0 3d b5 a0 09 3e
       -0.016116045 0.38032472 0.109726526 0.13440211
000100 3a d9 cf be 24 5f 6b bd 44 03 cd bd 48 dd cd 3d
       -0.40595418 -0.05746378 -0.100103885 0.10051972
000110 50 25 0c 3e 28 64 70 be 13 09 a6 bd d3 4c 83 bd
       0.13686109 -0.23475707 -0.081071995 -0.064111374

rnn.weight_ih_l2 f4 [72, 24]
000000 8c 68 38 be 6a 52 d0 bd 29 18 fa 3c 41 b7 01 3f
       -0.18008631 -0.10171969 0.030529099 0.5067025
000010 63 16 8a bc d7 b1 92 be df 08 ef 3b 88 8d 08 3e
       -0.016856378 -0.28651306 0.0072947587 0.1333524
000020 93 16 ca 3d 55 67 62 be 7c 91 be 3d ca ef ad 3d
       0.09867587 -0.2210973 0.09305093 0.08493002
000030 30 e1 47 bd e4 69 52 3e 7c 18 fb bc e6 bb 77 bc
       -0.04879874 0.20548207 -0.030651323 -0.015120482
000040 d3 49 b7 be 23 ae b6 be 2a b2 8b 3e 66 75 5c 3d
       -0.3579851 -0.3567973 0.27284366 0.053822897
000050 1e 6b 40 3d c7 2a 38 be bb 8c f1 be 25 5d 35 be
       0.046977155 -0.17985068 -0.4717768 -0.17711313
000060 03 b0 35 be b8 31 5b bf 60 3d 5d be f5 cd fa bd
       -0.17742924 -0.8562274 -0.21605444 -0.122463144
000070 a0 a9 12 be 6b 9f 30 bf 72 c5 38 be 33 aa af 3e
       -0.1432252 -0.6899325 -0.1804407 0.3430954
000080 9d 09 c8 be ff 6d 56 be 12 43 d7 3e b9 92 18 3f
       -0.39069834 -0.20940398 0.42043358 0.5959888
000090 23 88 d8 3e 22 6e 16 3d a6 cc 85 3e 13 c4 b8 be
       0.42291364 0.036726125 0.26132697 -0.36087093
0000a0 60 f7 c7 be 36 77 14 3e b8 62 f7 be 0b e0 f2 be
       -0.3905592 0.144986 -0.48317504 -0.47436556
0000b0 d2 83 02 3f 77 9c 27 bf 64 6d a2 3c b7 9b df bc
       0.5098239 -0.6547312 0.019827552 -0.02729593
0000c0 df 45 81 bd f7 b8 0c be 39 d9 35 bd ef 91 22 bf
       -0.06312155 -0.13742433 -0.044396613 -0.63503927
0000d0 14 37 d3 be a5 1c 50 be ed 48 65 3e 42 1c e5 bc
       -0.4125296 -0.20323427 0.223911 -0.027967576
0000e0 c6 69 04 bf 20 1d 0b bf cc b3 d2 3e 0a 02 ef 3d
       -0.517239 -0.54341316 0.411528 0.11670311
0000f0 1a 92 ab be f6 0f 93 be 96 d8 a3 3e ec cd 53 be
       -0.33509904 -0.28723115 0.3200118 -0.20684022
000100 c5 79 96 be 6a 8d b0 3d 3e 05 c7 be 39 9f a9 3e
       -0.29389778 0.086207226 -0.38871187 0.3312929
000110 c2 ab 43 3d b8 e3 a2 be c3 d7 f7 3d e1 bf cf bd
       0.047771223 -0.3181436 0.121017 -0.1014402
000120 0e 31 32 be a3 29 a3 be 61 30 8f bc 94 17 fe 3d
       -0.17401525 -0.31867704 -0.017479124 0.12406841
000130 80 64 e7 bd 0d 85 70 be 53 d1 19 bc 69 f3 36 be
       -0.11298466 -0.23488255 -0.009388286 -0.17866291
000140 25 d3 bb 3d fa 24 38 3d b7 f1 b7 bd 41 52 6e 3c
       0.09171132 0.04495714 -0.0898165 0.014545978
000150 30 ed 76 3e 5a b0 91 be fd ab 28 be f5 f3 52 be
       0.24113917 -0.28454858 -0.16471858 -0.20600875
000160 79 1b f3 bb 48 ba cd bd 57 49 26 3d 90 d4 06 be
       -0.0074190465 -0.10045296 0.040597286 -0.13167024
000170 16 a4 9c bd 90 da a9 3c 64 e0 5d 3e df 25 6a be
       -0.076484844 0.020734102 0.2166763 -0.22866009
000180 00 7e 4e bd 40 db d5 3d 53 3e 88 bd cd 73 79 3e
       -0.05041313 0.10442209 -0.066525124 0.2436058
000190 66 2a 2a bd f5 7a 6e 3e 65 17 68 3d 1d 48 a5 be
       -0.04154434 0.23289092 0.056662936 -0.3228158
0001a0 ee 06 a1 3e 0a dd 64 3e c3 03 19 3d a6 23 7e 3c
       0.314506 0.22349945 0.037357103 0.015511429
0001b0 46 12 c6 3d 3f de 1f bd c8 16 89 be b1 ed c3 3b
       0.09671454 -0.03903031 -0.26775193 0.0059792628
0001c0 75 bb 65 bc 6c eb 6b be 51 ab 81 bd a5 6b a4 3e
       -0.014021744 -0.23039025 -0.06331504 0.32113376
0001d0 80 95 72 3c d1 03 ed bc ca 7d d0 3d 9c 5c f0 3d
       0.014806151 -0.028932484 0.10180242 0.11736414
0001e0 a2 c0 5a bd f2 09 7c 3d 93 13 c8 bd f8 e6 95 bd
       -0.053406365 0.061532922 -0.097693585 -0.073194444
0001f0 2e 44 f3 bc 23 df 27 be 48 e3 65 3e 26 27 30 3e
       -0.029695597 -0.16393714 0.22449982 0.17202434
000200 e7 82 1b be 12 ec 08 bf 15 64 56 bd 61 47 ce 3e
       -0.15186654 -0.53485215 -0.05234154 0.40288833
000210 83 cc 5e be 7c 41 b4 be 2a 5e 1c 3e da 7c ef 3d
       -0.21757703 -0.3520621 0.15270296 0.116937354
000220 36 95 08 be af c5 44 3c 3f 55 ce 3d 0d 85 ac 3e
       -0.1333817 0.012010022 0.10074853 0.3369526
000230 d1 c9 0c 3e da 77 6b be 4b 86 0e 3e d7 35 1b be
       0.13748862 -0.22994938 0.13918416 -0.15157257
000240 9d a6 2b 3e 27 1d ab 3d 9f 13 c3 be 8e f5 87 be
       0.16762777 0.0835517 -0.38100907 -0.2655453
000250 ac 4e 03 3e 8d 73 f7 bd 89 42 e7 3d 6b 9f 61 bd
       0.1282298 -0.120825864 0.112919874 -0.055083673
000260 00 47 0e 3e 74 ff ac 3d 0b 2c 7e 3e 65 69 43 3d
       0.13894272 0.08447161 0.24821489 0.047707934
000270 ce 26 7e 3c 8a 09 c8 be 89 10 05 3e 53 90 30 3d
       0.015512181 -0.39069778 0.12994589 0.04310639
000280 c1 ab 41 3e 67 7b 9d 3e b4 4a c4 3d d1 f4 d4 3e
       0.18913175 0.3075821 0.09584561 0.4159303
000290 51 82 80 3d 91 f4 06 be e9 3e 95 3e ca 85 73 bd
       0.06274856 -0.13179232 0.2914956 -0.059453763
0002a0 5f 1b 49 3e b4 1f 0e bd ed e9 22 bf 87 7b d9 be
       0.19639347 -0.034698203 -0.6363819 -0.42477056
0002b0 08 a1 d7 bd 46 f1 81 bb e9 8e bc 3d 25 aa b3 bd
       -0.10528761 -0.0039655296 0.092069454 -0.08772687
0002c0 3d 85 46 bd c9 70 b2 be d3 27 da bc 7a 34 c2 3e
       -0.04846691 -0.34851673 -0.026630318 0.3793066
0002d0 93 f3 37 3e 61 22 cb be d2 93 30 3e 41 fb c5 3d
       0.1796401 -0.39674667 0.17243889 0.096670635
0002e0 68 60 01 3e 95 51 cf 3e 8b 08 7b 3e 0e 10 28 3d
       0.12634432 0.4049193 0.24514978 0.041030936
0002f0 2a f9 27 3e 0b cf 0a be 73 f3 35 3e 69 06 cf 3c
       0.16403642 -0.13555543 0.1776865 0.025271611
000300 50 c5 13 3e 6c 2e 69 3e a9 1d a5 bd 76 c6 0a bf
       0.14430737 0.22771615 -0.08062298 -0.5420908
000310 71 d6 f0 bc 91 15 be bd 09 b8 24 3e 7d 32 74 3c
       -0.029399129 -0.09281457 0.16085829 0.0149046155
000320 37 fd 9c bd 9d 2d 80 be b6 c3 f7 bc a2 d3 d7 3d
       -0.076654844 -0.250348 -0.03024469 0.10538413
000330 21 79 90 3e 2b 07 d8 be 13 cd ef 3e b7 fd af bc
       0.28217414 -0.4219297 0.46836147 -0.021483285
000340 4d 04 b9 3d 49 ea cf 3d ec 9c bf 3e 59 4f b6 3d
       0.090340234 0.10152108 0.3742441 0.08901853
000350 6c 1a cf 3c c5 4f a3 be c4 da 3d 3e fb fa 79 be
       0.025281154 -0.31896797 0.18540484 -0.24412148
000360 fe 80 de 3d 9d ab 75 3d 72 31 99 be 1b b7 38 bd
       0.10864447 0.059978116 -0.29920536 -0.045096498
000370 2e a9 de bd ed 4e 67 be 9b 87 96 3d 35 47 54 3e
       -0.10872112 -0.22588702 0.073500834 0.20730288
000380 ba bf 89 be 1b a5 b8 be 7c 9a 4a 3e 7b 36 95 3e
       -0.26904088 -0.36063465 0.19785494 0.29143128
000390 7f e5 04 bd 48 52 ab be 24 26 50 3e 01 1f 63 3d
       -0.032445427 -0.33461213 0.2032705 0.05544949
0003a0 53 37 52 bc be 9f 8e 3e 07 cc 3b be 4e 32 51 bd
       -0.012830573 0.2785625 -0.18339549 -0.051073365
0003b0 3f af ca 3c 64 86 5c be 14 28 77 3e 85 10 77 bd
       0.024741767 -0.21535641 0.24136382 -0.06031849
0003c0 29 b9 64 3e 82 d3 84 3d 02 f7 03 bf 25 1b 38 be
       0.22336258 0.064856544 -0.5154878 -0.17979105
0003d0 e9 f6 1f be 48 ce be 3c a3 ea 21 3e 72 f4 71 3e
       -0.15621532 0.023291722 0.15812163 0.23628405
0003e0 6a 02 67 be 8a 38 9d be 65 bc 87 3e f8 38 b0 3d
       -0.22559515 -0.30707198 0.2651092 0.08604616
0003f0 c1 06 15 bc d8 d5 69 be 87 c7 88 3e aa 8e 27 be
       -0.009095849 -0.22835481 0.26714727 -0.16363016

rnn.weight_hh_l2 f4 [72, 24]
000000 ff f7 bf 3e 5b aa e9 3e 4a 34 0a 3f 1b a0 10 3e
       0.37493894 0.45637783 0.53986037 0.14123575
000010 25 73 bc 3e 51 29 6f be 40 79 6b 3e 2e 34 8a be
       0.36806598 -0.23355605 0.22995472 -0.26992935
000020 7c 3d b8 bd 75 a3 39 3d 56 20 9d 3d 3c e9 5e 3e
       -0.08996102 0.0453219 0.07672183 0.2176866
000030 14 ce ef be d6 31 27 3c a0 46 bd 3e 13 1d e7 3e
       -0.46836913 0.010204753 0.36967945 0.4513937
000040 c7 67 83 3e da b3 30 3e 4d 3f bf bd 23 aa ad 3c
       0.25665113 0.17256108 -0.093382455 0.021199292
000050 2d 26 10 3f d6 ea 1f be 85 8f 8c 3e b6 e8 01 bd
       0.5630825 -0.15616927 0.27453247 -0.03171607
000060 67 85 cd 3d a0 d5 31 3e c0 c1 b3 3d 6d 1e 0b 3d
       0.1003521 0.17366648 0.08777189 0.033964563
000070 98 2f 93 3e 40 7b 1c bd 02 98 8d 3e 8a 56 3c be
       0.2874725 -0.038203478 0.27655035 -0.18392387
000080 a6 bf 71 b8 90 ea 65 be 45 72 16 be 35 5f be 37
       -5.7637364e-05 -0.2245276 -0.14692028 2.26941e-05
000090 81 6c 06 be 84 29 5c bf c7 8c 50 3e 5e b0 2d bd
       -0.13127328 -0.8600085 0.20366202 -0.042404525
0000a0 38 5b 89 3d 66 5b 06 bd 90 f7 08 be 00 7d 96 3d
       0.06706852 -0.032802008 -0.13375688 0.073480606
0000b0 e0 69 c8 3d 5c 33 17 bd f5 b6 e4 3d 2e 3d 6a bd
       0.09785819 -0.036914214 0.11167709 -0.05718725
0000c0 d6 f9 9f be 9f b2 7f be 4e 82 5e 3e 61 c7 6d 3d
       -0.31245297 -0.24970482 0.21729395 0.05805147
0000d0 f4 04 fb bd 11 06 b1 bd e9 14 d5 3d 09 80 c9 3c
       -0.12256804 -0.08643735 0.10404379 0.024597185
0000e0 a5 79 4d 3d 1e 59 b9 3e dd 74 b5 3e 69 47 49 be
       0.050164837 0.36200804 0.35440722 -0.19656147
0000f0 4b 8f c8 be bb 54 8c 3b 97 8f 97 bd fb 56 74 be
       -0.39171824 0.0042825616 -0.074004345 -0.23861305
000100 2c 44 7f be 0d 2e 13 3e d2 94 b7 3d c3 8a cc be
       -0.2492835 0.14373036 0.08963932 -0.39949617
000110 c3 03 72 be 38 99 be 3d fa 39 4e 3e 52 1a 76 bd
       -0.23634247 0.09306568 0.20139304 -0.060083695
000120 bc af 34 3e 92 fc d2 3d fc dd 19 3e 6e 72 d8 bd
       0.17645162 0.1030208 0.15026087 -0.10568701
000130 d9 60 17 bc 4d 4d 1a be 9a ef 25 be 9c 38 a7 bc
       -0.009239399 -0.1506855 -0.16204682 -0.020412736
000140 85 2e 9a bd 4a 5e 55 3e 08 b2 3b 3e 77 98 38 be
       -0.07528404 0.2083675 0.18329632 -0.1802691
000150 83 21 2b be 42 e4 d5 bd 61 f6 94 3d 6a e2 b4 be
       -0.16712002 -0.10443927 0.072735555 -0.3532899
000160 fc b6 5b bd a2 a2 dc bd b3 67 a1 3d d8 b0 3a 3e
       -0.053641304 -0.10773207 0.07881107 0.18231523
000170 be 5c 2c be c8 74 4c 3e bc 29 be 3d 1f f4 51 be
       -0.16832253 0.19966424 0.09285304 -0.20503281
000180 ff 3c 13 3e a2 50 f0 be ac 13 8e bc d3 cd 80 be
       0.14378737 -0.46936518 -0.017343365 -0.2515703
000190 a5 09 d4 be ad 77 bb 3d fc 6b 96 bd 8e 9e 4c be
       -0.41413608 0.09153686 -0.07344815 -0.19982359
0001a0 d5 9f 50 3e c2 17 2a 3e 96 a7 12 be 2e db ac be
       0.20373471 0.16610625 -0.14321741 -0.3376097
0001b0 0b b9 8a 3e 49 0c 9e be a4 38 42 3e 02 d3 a6 3b
       0.27094302 -0.30868748 0.18966919 0.005091072
0001c0 f4 ec fc bd 1a 02 cc bd 64 34 82 be 86 a4 f2 3d
       -0.12349883 -0.09961338 -0.25430596 0.118477866
0001d0 75 d0 b1 bb cd 49 05 bd 07 4a 7b be db d7 a5 be
       -0.0054264613 -0.032541085 -0.24539958 -0.32391247
0001e0 7f 1c f2 bd 7d ab 3e 3d cd ac 6e be 81 2e 54 3e
       -0.118218414 0.046550263 -0.23308106 0.20720865
0001f0 87 6f 83 3e c0 f4 17 be 48 6d d9 3d 28 3c e1 3e
       0.25671026 -0.14839458 0.10616547 0.43991208
000200 c3 e5 a1 be 9f fb 63 be 7f c6 19 3d 68 1f 92 3e
       -0.31620607 -0.22263955 0.037542816 0.28539586
000210 cd 46 70 be 35 ec ee 3d c7 88 16 be bf 13 81 be
       -0.23464508 0.11666147 -0.14700614 -0.25210378
000220 2b b4 1d 3e 99 d0 84 3e 8b 80 c4 bd 7f fe a9 be
       0.1540076 0.25940397 -0.0959483 -0.33201978
000230 82 bf 01 be 00 38 63 3e 75 94 a8 3e 92 d7 a9 3e
       -0.1267071 0.22189331 0.32925764 0.3317228
000240 48 dd ac be 5b 43 0a bd 4f 8a c1 be 38 da 17 be
       -0.33762574 -0.03375564 -0.37800834 -0.14829338
000250 b3 11 0b be 93 fa 22 3e d1 36 8f be 68 73 38 3e
       -0.1358097 0.15915899 -0.2797151 0.18012774
000260 1e 1a 2d be ba b3 2e be bb 59 14 be 6e 1b 65 bd
       -0.16904494 -0.17060748 -0.14487354 -0.055934362
000270 9e 6c 91 be 0d 9a 89 bd 86 3e 3b be dd af 50 3e
       -0.2840318 -0.06718836 -0.1828557 0.20379587
000280 f7 93 11 be 1f 8b 86 bd d2 d9 a7 be 4c 04 2e be
       -0.142166 -0.06569504 -0.3278337 -0.16993827
000290 b4 f6 5c be 7c 25 ec 3c dc 8b 89 3e a1 91 e4 3d
       -0.21578485 0.028826468 0.26864517 0.11160589
0002a0 35 60 05 be a3 0a b1 bc 65 7d da bd 0d d6 0c 3e
       -0.13024981 -0.021611517 -0.10668448 0.13753529
0002b0 c6 bd 84 3e 98 81 aa be 73 4f 9f be 89 3e cc 3e
       0.25926036 -0.33301997 -0.31115302 0.3989146
0002c0 85 7c aa bd a5 a2 33 be 6a af 84 3e 3d de ca 3e
       -0.083245315 -0.17542513 0.2591508 0.3962268
0002d0 55 3c 25 be 60 d7 cf 3d 6a 66 14 be 09 7a 83 3e
       -0.16136296 0.101485014 -0.14492193 0.25679043
0002e0 e0 53 aa bd dd a6 1c 3f ea 75 3b 3e c8 54 2b be
       -0.08316779 0.61192113 0.183067 -0.1673156
0002f0 94 da 42 3d 73 19 a0 3e 58 c9 9c 3e 5a 06 26 3e
       0.047571734 0.31269416 0.30622363 0.1621336
000300 3b 3b 86 be 74 8b 46 3c fe 67 9a bd 20 c4 21 3e
       -0.26217064 0.012118209 -0.07539366 0.15797472
000310 40 e2 01 3e 27 02 e7 3d 01 1f ca be ec a7 9e 3e
       0.12683964 0.112797074 -0.3947678 0.3098749
000320 5d 13 bf be ac 70 8e bd 74 79 44 3e 0c 41 4b be
       -0.3731946 -0.06955084 0.19186956 -0.19849032
000330 ff 70 07 be 76 7d 16 3e f9 08 86 be f8 8b f4 3d
       -0.13226698 0.14696297 -0.2617872 0.119407594
000340 82 12 29 bd 69 c4 db 3e 0b 68 99 3e 6f 0c 0c bf
       -0.041277416 0.42923287 0.2996219 -0.5470647
000350 9b 15 02 be e5 0d 8b 3e 7c 22 9f 3d bd c7 09 3e
       -0.12703554 0.27159038 0.07770249 0.134551
000360 7c e3 37 3e fb 89 fc bd b0 50 37 3d 84 5d fc bd
       0.17957872 -0.12331005 0.044754684 -0.12322524
000370 0d 91 86 3e c9 27 bb bd ad 79 bc bd d6 a0 86 3e
       0.2628254 -0.09138448 -0.09202895 0.26294583
000380 65 be c5 be 80 ac 96 be 19 af 14 3e 75 6f 25 3e
       -0.38621822 -0.29428482 0.1451992 0.16155799
000390 ca 39 5b be 0a a3 e7 3d 00 9b 8d 3d 41 28 dc 3d
       -0.21408764 0.11310394 0.069143295 0.10749865
0003a0 3f 2e fb 3d 25 0f 50 bd 6c 56 e0 3d 11 0c c4 be
       0.1226468 -0.050795693 0.10953984 -0.38290456
0003b0 75 71 3a be 9d b3 8b 3e 6b cd a6 3e 28 b4 04 3e
       -0.18207343 0.27285472 0.32578596 0.12959349
0003c0 53 02 4d be ad 98 a4 bd 47 14 53 be e4 fc 81 bc
       -0.20020418 -0.08036933 -0.20613204 -0.015867658
0003d0 4b 87 3a bc 8d b1 ad bd d4 63 4f be 9c e2 03 bd
       -0.011384795 -0.08481131 -0.20252925 -0.032198533
0003e0 20 ba c4 3d 0b 68 1c be 4f 61 38 bc 78 27 ab 3d
       0.09605813 -0.15274064 -0.011253669 0.083571374
0003f0 59 13 01 3e 63 80 0a bd ab 5f 93 3d 4d 15 83 bc
       0.12605037 -0.033813845 0.071959816 -0.016001368
