Checkpoints/TEST_sines_checkpoint.pth (torch, 614866 bytes, 179 tensors)

rnn.weight_ih_l0 f4 [72, 5]
0	0x3ec2fbb4	0.3808266
1	0xbb934ace	-0.0044950014
2	0xbd256d0e	-0.040387206
3	0x3e91e565	0.28495327
4	0x3e84c29d	0.25929728
5	0xbdac33d2	-0.084083214
6	0x3d6d2546	0.057896875
7	0xbdbb91bc	-0.09158656
8	0xbe69552f	-0.22786401
9	0xbdcc7f9c	-0.09985277
10	0xbe446ef4	-0.1918295
11	0x3ded78e2	0.11595322
12	0x3e9426eb	0.28935942
13	0x3d865ba9	0.065604515
14	0xbc18f540	-0.009335816
15	0x3f43eff0	0.7653799
16	0x3eed74e0	0.4637823
17	0x3ca1b267	0.01973839
18	0xbe4d384e	-0.2004101
19	0x3ee4d299	0.44691923
20	0xbe25e691	-0.16201235
21	0x3e8ceec3	0.2752591
22	0xbeaed0a4	-0.34143555
23	0x3f3ffe4b	0.74997395
24	0xbeca26d5	-0.3948275
25	0x3d271e9e	0.040800683
26	0x3e37b148	0.17938721
27	0xbe29d94d	-0.165868
28	0x3e17dc20	0.14830065
29	0x3e2d885b	0.16946547
30	0xbe186df3	-0.14885692
31	0x3dbd6099	0.0924694
32	0xbec0fa42	-0.37690932
33	0xbe3aa844	-0.1822825
34	0x3e90adcc	0.28257596
35	0xbbed54e2	-0.007242785
36	0x3e87ea10	0.26545763
37	0xbc57c904	-0.013170484
38	0x3dfe769d	0.124249674
39	0x3e22ecf6	0.15910706
40	0xbd8ac95d	-0.06776688
41	0x3e8d9abd	0.27657118
42	0x3dff0291	0.124516614
43	0x3e81a749	0.2532294
44	0x3e241793	0.16024618
45	0xbd415d26	-0.047207974
46	0x3db7c02f	0.08972203
47	0xbd386a54	-0.045023277
48	0x3e1613b3	0.14655952
49	0x3a04cb57	0.00050657004
50	0xbe8c025b	-0.27345547
51	0x3e7a1638	0.24422538
52	0x3ef57e77	0.47948048
53	0x3e311524	0.17293221
54	0x3eae8b3e	0.34090608
55	0xbe98859b	-0.29789433
56	0x3e542375	0.20716651
57	0x3dd8d0a1	0.10586668
58	0xbe207b2a	-0.15671983
59	0x3d2f9113	0.042862963
60	0x3d8229a8	0.063556015
61	0x3ed914c5	0.42398658
62	0x3e0f2044	0.13977152
63	0x3db4c415	0.08826462
64	0x3c84f68e	0.016230848
65	0xbe57112b	-0.21002643
66	0xbe71f56b	-0.23628776
67	0x3f04eefe	0.51927173
68	0x3f3c18ba	0.7347523
69	0xbf11056f	-0.56648916
70	0xbe13db0e	-0.14439031
71	0xbc76f428	-0.01507286
72	0x3d96bffb	0.07360836
73	0xbd2f60ea	-0.042817034
74	0xbd96d529	-0.07364876
75	0xbe0ad9d9	-0.13559665
76	0xbf12e923	-0.5738699
77	0x3ecda5b1	0.40165475
78	0xbe0c177e	-0.13680837
79	0x3f3f6afb	0.74772614
80	0xbe33b065	-0.17547758
81	0x3e2a8ee6	0.16656074
82	0x3e2cf5d7	0.16890655
83	0xbdc976b5	-0.09837095
84	0x3e749d9d	0.2388825
85	0x3de12157	0.10992687
86	0x3db0a83b	0.086258374
87	0x3eae7042	0.3407002
88	0xbc069759	-0.008214795
89	0x3ea8654d	0.32889786
90	0x3cb2ee68	0.021842197
91	0xbde0dbdf	-0.10979437
92	0x3d871eb4	0.06597653
93	0x3e87303a	0.2640398
94	0x3dcb9733	0.09940948
95	0x3c8e4b03	0.017369753
96	0x3da0a08c	0.07843122
97	0x3e1e6141	0.15466787
98	0xbe328411	-0.17433192
99	0xbda264ae	-0.079293594
100	0xbef60ef7	-0.48058292
101	0x3e5737ee	0.21017429
102	0x3eac7427	0.33682367
103	0x3ce40096	0.02783231
104	0x3dbff7d0	0.09373438
105	0xb8e576ca	-0.00010941697
106	0x3c999683	0.018748527
107	0xbd64b75d	-0.05583893
108	0x3dcc91e0	0.09988761
109	0x3d73b610	0.0594998
110	0x3dacb09e	0.084321246
111	0x3efe3440	0.4964924
112	0x3e82b765	0.25530544
113	0xbe7ef744	-0.24899012
114	0x3ede6a35	0.43440405
115	0xbd6589ca	-0.05603961
116	0x3f08820c	0.53323436
117	0xbe67bd33	-0.22630768
118	0x3ef484b5	0.47757497
119	0x3eaddf7e	0.33959574
120	0xbe6b7233	-0.22992782
121	0xbf2233dc	-0.6336038
122	0xbeda984e	-0.42694324
123	0xbe4fb42a	-0.20283571
124	0xbf68f798	-0.910028
125	0xbf2459c1	-0.64199454
126	0x3de887d7	0.113540344
127	0x3dc44ea4	0.09585312
128	0xbed6cfea	-0.419555
129	0x3dd83b04	0.10558131
130	0xbf102b8a	-0.56316435
131	0xbcd77405	-0.02630044
132	0xbf08a2e3	-0.53373545
133	0xbf26b8f6	-0.6512598
134	0xbe709aa4	-0.2349649
135	0xbe62b50b	-0.22139375
136	0xbf670087	-0.9023518
137	0xbedf0695	-0.4355971
138	0x3eb82621	0.3596659
139	0xbf2963f5	-0.6616815
140	0xbf2820f2	-0.6567527
141	0xbebecc04	-0.37265027
142	0xbeac028a	-0.33595687
143	0x3e8308b7	0.25592586
144	0xbe863c89	-0.2621806
145	0xbf058b08	-0.5216527
146	0x3e4ebcbe	0.20189187
147	0xbf2efe4f	-0.68356794
148	0xbf092781	-0.53575903
149	0xbd9e92ed	-0.077428676
150	0xbe148d8a	-0.14507118
151	0xbb8e9d66	-0.0043522594
152	0x3cf7ac4e	0.030233528
153	0xbf27f917	-0.65614456
154	0xbcf4c1f8	-0.029877648
155	0xbe133ebd	-0.14379402
156	0xbe24b5f7	-0.16085039
157	0xbe574436	-0.21022114
158	0x3e4246a1	0.18972255
159	0xbd0fa2f1	-0.035067502
160	0xbf3e9037	-0.74438804
161	0xbea2aa83	-0.31770715
162	0xbe3b191e	-0.182713
163	0xbeb83d7e	-0.35984415
164	0xbb863b92	-0.004096457
165	0x3efef906	0.49799365
166	0xbf31ffb1	-0.6953078
167	0xbf3d94e5	-0.7405532
168	0x3d0ef800	0.03490448
169	0xbe630021	-0.22168018
170	0xbf093f94	-0.5361264
171	0xbe5efdcc	-0.21776503
172	0xbe917b3f	-0.28414342
173	0xbe0b0995	-0.13577874
174	0xbe040493	-0.1289237
175	0xbf007db1	-0.5019179
176	0xbdb31226	-0.08743696
177	0x3bbfc435	0.005852247
178	0xbe8b7d37	-0.2724397
179	0x3d4d80fb	0.050171833
180	0xbeb56087	-0.35425207
181	0xbec5b382	-0.38613516
182	0x3dd1627a	0.10223861
183	0xbf3146a9	-0.69248444
184	0xbf2fd519	-0.68684536
185	0xbeb6c7d4	-0.35699332
186	0xbdf4d18d	-0.11954031
187	0xbf0b8591	-0.5450068
188	0xbf8a0598	-1.0782957
189	0xbee92151	-0.4553323
190	0xbe780c31	-0.242234
191	0xbdd565fb	-0.10419842
192	0x3bc2ef7a	0.005948958
193	0x3da65cbb	0.08123156
194	0xbd726236	-0.059175692
195	0xbee1e078	-0.4411657
196	0xbe6453a9	-0.22297539
197	0xbeba5f17	-0.36400673
198	0xbf81e20e	-1.0147111
199	0xbeca191f	-0.3947229
200	0xbf01ecd1	-0.5075198
201	0xbeb1b447	-0.34707853
202	0xbe2bddb9	-0.16783799
203	0x3e10701d	0.14105268
204	0xbe938ce5	-0.28818431
205	0xbf27ba12	-0.65518296
206	0xbd304d64	-0.043042555
207	0xbf485921	-0.78261
208	0xbf32a9f3	-0.6979057
209	0x3b13c93a	0.002255036
210	0x3d00d4ad	0.031452823
211	0xbe81e22c	-0.25367868
212	0xbeffd875	-0.4996983
213	0xbdfa93bd	-0.1223521
214	0xbeee5d1c	-0.46555412
215	0xbf02b2e5	-0.5105422
216	0xbf7f650a	-0.9976355
217	0xbeadd84b	-0.3395408
218	0xbd334473	-0.04376645
219	0xbf344191	-0.70412546
220	0xbee87e88	-0.45409036
221	0xbf567fcd	-0.8378876
222	0x3d95c6c2	0.07313301
223	0x3ed155fe	0.4088592
224	0xbec8025e	-0.39064306
225	0x3e341e9c	0.17589802
226	0x3e04f3f6	0.12983689
227	0x3d61376d	0.0549845
228	0x3d952889	0.07283122
229	0x3d70361f	0.058645364
230	0xbefd8baa	-0.49520618
231	0xbf4a785b	-0.790899
232	0xbe08d664	-0.13363034
233	0xbf194e1b	-0.59884804
234	0xbf1b6a24	-0.6070883
235	0xbf102a4e	-0.5631455
236	0xbf41d47b	-0.75714844
237	0xbf341b40	-0.7035408
238	0xbf54b787	-0.8309254
239	0x3ef09a72	0.46992832
240	0xbeb83bd6	-0.3598315
241	0x3e8c8565	0.27445522
242	0x3e807dd3	0.25095996
243	0xbe6a8bb2	-0.22904852
244	0xbe4d1e8f	-0.20031188
245	0xbcc0fa46	-0.02355684
246	0xbe5e55cf	-0.21712421
247	0x3bff35ce	0.0077883964
248	0xbe3710e7	-0.17877541
249	0xbdf334ae	-0.11875282
250	0xbea6886a	-0.3252595
251	0xbe931b99	-0.28731993
252	0xbde67529	-0.11252815
253	0x3d856fef	0.0651549
254	0xbe69c43d	-0.22828765
255	0x3ddf60df	0.109071486

rnn.weight_hh_l0 f4 [72, 24]
0	0xbc11b4fa	-0.008893246
1	0x3d287b3f	0.04113316
2	0xbdc24586	-0.09485917
3	0x3edfe6c4	0.43730748
4	0x3ddf4f6b	0.1090382
5	0x3e8972a1	0.26845267
6	0x3e45b3f8	0.19306934
7	0xbcd31b9d	-0.025770003
8	0x3c867d62	0.016417209
9	0xbe523a71	-0.20530106
10	0x3d86b6ca	0.06577833
11	0x3db3a3ea	0.087714985
12	0xbd52ba0f	-0.05144697
13	0x3dfefefa	0.12450977
14	0x3dbfc489	0.09363658
15	0x3d94a205	0.07257465
16	0x3de3bd80	0.11120129
17	0xbd554e2a	-0.052076496
18	0x3e25ba83	0.1618443
19	0x3c7f9cdd	0.015601364
20	0x3dd1d4d0	0.10245669
21	0xbe37b3bd	-0.17939658
22	0xbddeee4d	-0.10885296
23	0x3d207ede	0.03918349
24	0x3d3615bd	0.044454325
25	0xbd45fbb8	-0.04833576
26	0x3d9f792b	0.07786783
27	0xbedf5454	-0.43619025
28	0x3c49f62e	0.01232676
29	0xbdf0342c	-0.11728701
30	0xbca94862	-0.020664398
31	0xbd918fe9	-0.07107527
32	0xbdc252ec	-0.09488472
33	0xbda98f94	-0.082793385
34	0xbd92beec	-0.07165322
35	0x3df831ce	0.121188745
36	0x3e01f57c	0.12691301
37	0x3e88fbd8	0.26754642
38	0xbd589962	-0.052880652
39	0xbe833474	-0.25625956
40	0xbe628d16	-0.22124133
41	0x3ccc6baf	0.024953691
42	0x3d895ca3	0.06707122
43	0xbe2c67eb	-0.16836517
44	0xbdfea7cb	-0.12434348
45	0xbdf72e31	-0.12069357
46	0x3e6e3e3e	0.23265931
47	0xbda056b3	-0.078290366
48	0xbd6e2d25	-0.058148522
49	0xbd956e0b	-0.0729638
50	0x3e3cedf6	0.1845015
51	0xbe35844e	-0.17726251
52	0x3da4ab82	0.08040525
53	0xbe144932	-0.14481047
54	0x3da53a28	0.08067733
55	0x3d3d32ae	0.04619091
56	0xbe5952be	-0.2122297
57	0x3dbf9030	0.093536735
58	0xbddc93b9	-0.10770363
59	0x3e3e48d0	0.18582463
60	0xbe2fa475	-0.17152579
61	0x3dea0cdc	0.11428234
62	0x3ddfdd45	0.10930876
63	0xbe4a8e38	-0.19780815
64	0xbbd37362	-0.0064529637
65	0x3dae2803	0.085037254
66	0x3e456232	0.1927574
67	0x3d8513e4	0.064979345
68	0x3e320132	0.17383268
69	0x3e6dc311	0.23218943
70	0xbd6f5f59	-0.05844054
71	0xbeffd061	-0.49963668
72	0xbd43d0b5	-0.04780646
73	0x3b285855	0.0025687416
74	0xbeea58b7	-0.4577081
75	0x3eabd832	0.3356338
76	0x3ee99a8c	0.45625722
77	0x3e242df1	0.1603315
78	0x3dbc8a72	0.09206094
79	0x3e1bfd47	0.15233336
80	0xbcef698f	-0.029225139
81	0xbeb9f958	-0.36323047
82	0xbeaf135c	-0.34194458
83	0x3e8bae8f	0.27281615
84	0x3d613022	0.054977544
85	0x3e229dc8	0.15880501
86	0xbd1e1f19	-0.038603876
87	0xbe3ab53c	-0.18233198
88	0xbf0cadd1	-0.5495272
89	0xbe2af5f1	-0.16695382
90	0x3de5c648	0.1121946
91	0x3de15577	0.11002629
92	0x3e25c036	0.16186604
93	0xbdbebc70	-0.09313285
94	0xbd5cb6b9	-0.053885195
95	0xbe8f90a6	-0.28040045
96	0xbea13802	-0.31488043
97	0xbe46de4e	-0.1942074
98	0xbe25352d	-0.16133566
99	0xbe3dcaf5	-0.18534453
100	0x3efef442	0.4979573
101	0x3da370b1	0.079804786
102	0x3d85d537	0.06534808
103	0x3dd6ea22	0.10493876
104	0xbd8c3a20	-0.06847024
105	0x3df60fa1	0.120147
106	0xbddab341	-0.10678721
107	0x3ea07bcb	0.31344447
108	0xbd8f6122	-0.070009485
109	0xbe18506a	-0.14874426
110	0xbe298bb1	-0.16557194
111	0x3e051493	0.1299613
112	0x3e58eee1	0.21184875
113	0xbec9d455	-0.3941981
114	0x3f0d5208	0.55203295
115	0xbec0d65d	-0.37663546
116	0x3bbfbb9d	0.0058512227
117	0xbdffc511	-0.12488759
118	0xbddd2239	-0.10797543
119	0xbc58c018	-0.0132293925
120	0x3e050ece	0.12993929
121	0x3e16b84c	0.14718741
122	0x3dc7eafb	0.09761616
123	0xbed2d917	-0.4118125
124	0xbddcdc3e	-0.10784195
125	0xbe979677	-0.29606983
126	0x3e79a747	0.24380217
127	0xbe0120c8	-0.12610161
128	0xbe05048d	-0.12990017
129	0x3ec8763b	0.39152703
130	0x3df5d18e	0.1200286
131	0xbda9d1f1	-0.08291996
132	0x3d9dda10	0.07707608
133	0xbdae4f81	-0.08511258
134	0x3e0068b8	0.12539947
135	0xbd7d2859	-0.061806057
136	0x3bf1a3df	0.0073742713
137	0x3cb72619	0.022357034
138	0x3e21e376	0.15809426
139	0xbe3a9351	-0.18220259
140	0x3cddeaf1	0.027089568
141	0xbd3e83f4	-0.04651256
142	0x3de159ed	0.1100348
143	0x3e2c0f97	0.16802822
144	0x3e6f1d44	0.23351008
145	0xbe7970f7	-0.24359499
146	0xbdbbc483	-0.09168341
147	0xbda86e23	-0.08224132
148	0xbe8753d9	-0.26431158
149	0xbdef5600	-0.11686325
150	0xbd04cfbd	-0.032424677
151	0x3c262e4d	0.010142875
152	0xbd6bd7e2	-0.05757893
153	0x3ea1c3bd	0.3159465
154	0xbd926fce	-0.07150231
155	0xbe24a68a	-0.16079155
156	0x3e1fe06f	0.15612958
157	0x3dae4b23	0.08510425
158	0xbc34557c	-0.011006709
159	0x3c0ef9ab	0.008726518
160	0xbd98cdcc	-0.07461128
161	0x3d5711f7	0.052507367
162	0xbce3a628	-0.02778919
163	0xbd882be7	-0.06648999
164	0x3b83213c	0.0040017646
165	0xb6e7db60	-6.909875e-06
166	0xbe354249	-0.17701067
167	0x3e8a9a20	0.27070713
168	0xbe2ef747	-0.17086516
169	0xbd4ea8ab	-0.050453823
170	0x3d23166b	0.0398163
171	0xbf253542	-0.6453439
172	0x3e75f037	0.24017416
173	0xbe7f54d7	-0.24934708
174	0x3e3e5a42	0.18589118
175	0x3cbe21e2	0.023209516
176	0xbd26bc56	-0.040706955
177	0x3dd114aa	0.102090195
178	0x3ce74488	0.02823092
179	0x3c563806	0.0130748805
180	0xbe6b6f56	-0.2299169
181	0x3e8f4c6a	0.27987987
182	0xbe42c641	-0.1902094
183	0xbdc0db6e	-0.09416853
184	0x3de3b3e8	0.11118299
185	0x3d1ad427	0.03779998
186	0x3da9b0da	0.08285685
187	0xbe660879	-0.2246417
188	0xbd5d2a7f	-0.053995606
189	0xbe2bc66b	-0.16774909
190	0x3d7be056	0.06149324
191	0x3c11465a	0.008866871
192	0x3daef081	0.08541966
193	0xbe2455ca	-0.16048351
194	0xbd5ea86c	-0.05435984
195	0xbedcdf9d	-0.43139353
196	0xbdcf293a	-0.10115285
197	0x3e4c7534	0.19966584
198	0x3e6d3bcc	0.23167342
199	0x3e61fe2f	0.2206962
200	0xbe30e209	-0.17273726
201	0x3e943a78	0.28950858
202	0xbe703c77	-0.23460566
203	0x3e6a9436	0.229081
204	0xbe279c1f	-0.16368149
205	0xbde07ad2	-0.10960926
206	0xbc1e7c54	-0.009673197
207	0xbe164295	-0.14673837
208	0x3d8b8703	0.06812861
209	0x3dcee0ef	0.101014964
210	0xbde3bc03	-0.11119845
211	0x3cf7fa7a	0.030270804
212	0x3e0df378	0.13862407
213	0xbe0714fe	-0.13191602
214	0xbdc28470	-0.09497917
215	0xbe10ee1c	-0.14153332
216	0x3d87a105	0.06622509
217	0x3d38cf9f	0.045119878
218	0xbc0f5503	-0.008748296
219	0xbe983389	-0.29726818
220	0xbf1f6b10	-0.6227274
221	0xbe73f0e1	-0.23822357
222	0x3e2a0aba	0.16605654
223	0x3dfa3dd8	0.12218827
224	0xbe04db83	-0.12974362
225	0x3ed79b22	0.42110544
226	0x3dd672e5	0.10471133
227	0xbe2e0a68	-0.16996157
228	0xbe0bd93b	-0.13657086
229	0xbde145fa	-0.10999675
230	0xbe0e421e	-0.13892409
231	0xbd6436fd	-0.055716503
232	0x3ea0bae6	0.31392592
233	0xbe387dbf	-0.18016718
234	0x3e128d58	0.14311731
235	0xbe55cc26	-0.20878658
236	0xbdb41dae	-0.087947235
237	0xbb5b29ba	-0.003344162
238	0x3df9a801	0.12190247
239	0x3ead780d	0.33880654
240	0xbda1fb80	-0.07909298
241	0x3e2c9189	0.16852392
242	0xbc8b391b	-0.016995003
243	0xbedcb48f	-0.43106505
244	0x3e68a6b3	0.2271984
245	0xbca84500	-0.020540714
246	0x3e143936	0.14474949
247	0x3ccf317b	0.025292149
248	0xbe35078c	-0.1767866
249	0x3c751d0a	0.014960537
250	0xbe4fb33d	-0.20283218
251	0x3dfe7e18	0.12426394
252	0xbe596e74	-0.21233541
253	0x3e1e6e13	0.15471677
254	0xbc0d703d	-0.008632717
255	0x3df42819	0.119217105

rnn.bias_ih_l0 f4 [72]
0	0xbdec5952	-0.11540474
1	0x3e5e2645	0.21694286
2	0x3e8dd458	0.27701068
3	0xbdd08d15	-0.10183159
4	0x3dd181e5	0.102298535
5	0x3e25d880	0.1619587
6	0x3dfd8917	0.123796634
7	0xbcfeb763	-0.031093305
8	0xbd6c62f7	-0.057711568
9	0xbd4b1e24	-0.04958929
10	0xbdb70bb8	-0.08937782
11	0xbe13496a	-0.14383474
12	0x3e187b3b	0.14890759
13	0x3e93006e	0.28711265
14	0x3d8c3567	0.06846123
15	0x3e2e4833	0.1701973
16	0x3e4051d1	0.1878121
17	0x3e71112e	0.2354171
18	0xbe24fdfb	-0.16112511
19	0x3e7f22aa	0.24915567
20	0x3e727c5e	0.23680255
21	0x3d62abcf	0.05533963
22	0x3ca86f03	0.020560747
23	0x3d5074d9	0.050892685
24	0x3da9a620	0.08283639
25	0x3d51c511	0.051213328
26	0xbeea14ea	-0.4571908
27	0xbf16bca8	-0.58881617
28	0xbeb71eac	-0.35765588
29	0xbc1cb051	-0.0095635215
30	0xbe83d804	-0.25750744
31	0x3e164f0f	0.14678596
32	0x3e20d95c	0.15707916
33	0x3e76c35d	0.24097963
34	0x3d1e6550	0.038670838
35	0xbdaa87ab	-0.08326658
36	0xbe6b5088	-0.22979939
37	0xbe865a0c	-0.26240575
38	0x3e46872e	0.19387504
39	0xbe21369e	-0.15743491
40	0xbddc66f6	-0.10761826
41	0xbea2c5ea	-0.3179162
42	0x3e0aa36d	0.13538904
43	0xbf193fd6	-0.5986303
44	0xbd910a91	-0.070820935
45	0x3e2e9c36	0.17051777
46	0xbeba3a02	-0.3637238
47	0x3e3e7ddf	0.18602704
48	0x3d1425b1	0.036168758
49	0x3e0f29f1	0.13980843
50	0xbdaa268c	-0.083081335
51	0x3e1c42a9	0.15259804
52	0xbe8f6b6f	-0.28011653
53	0xbd9243de	-0.07141851
54	0x3de157fa	0.11003108
55	0x3db472d0	0.08810961
56	0xbdb6cfde	-0.08926366
57	0xbe07c164	-0.13257366
58	0xbe39cc88	-0.18144429
59	0x3e830ebb	0.25597176
60	0xbde7d786	-0.11320405
61	0x3e34db6d	0.1766183
62	0xbe27c5a2	-0.16383985
63	0xbe10cef6	-0.1414145
64	0x3ad19a20	0.0015991367
65	0x3dfc8598	0.123301685
66	0x3cb52cdc	0.022116117
67	0x3cc1f9dc	0.023678713
68	0xbd85265a	-0.065014556
69	0xbdab4917	-0.0836355
70	0xbae96779	-0.0017807327
71	0x3d951a8c	0.07280454

rnn.bias_hh_l0 f4 [72]
0	0x3d03e35a	0.03219924
1	0x3e6a29e3	0.22867541
2	0x3e646167	0.22302781
3	0xbca4c2f3	-0.02011249
4	0x3db4c583	0.08826735
5	0x3e573821	0.21017505
6	0xbe5c5d55	-0.21519978
7	0x3c3e707b	0.011623497
8	0xbd03db88	-0.032191783
9	0x3c3a5a11	0.011374013
10	0x3c35a7d9	0.011087381
11	0x3de6f1ce	0.11276589
12	0xbcfde49b	-0.030992797
13	0x3dba70d8	0.091035545
14	0xbdbd3878	-0.09239286
15	0x3e378662	0.17922357
16	0x3e2d4119	0.16919364
17	0x3c8d668e	0.017260816
18	0xbde03587	-0.109477095
19	0xbcc0d53a	-0.023539174
20	0x3a87add0	0.0010351483
21	0x3e0733f6	0.13203415
22	0x3d9129c3	0.070880435
23	0xbdcf0fba	-0.101104215
24	0x3e2976a1	0.1654916
25	0xbc6f478f	-0.014604463
26	0xbf013618	-0.50473166
27	0xbf117f4e	-0.56834877
28	0xbf02b381	-0.5105515
29	0x3e35c6f8	0.17751682
30	0xbe7b92b6	-0.24567685
31	0xbdc6f6b8	-0.097150266
32	0xbe3c1db3	-0.18370704
33	0x3df97490	0.12180436
34	0x3c9a88fc	0.018864147
35	0xbe014d38	-0.12627113
36	0xbe657458	-0.22407663
37	0xbeac0b6e	-0.3360247
38	0xbcd1177a	-0.02552389
39	0xbe6a892b	-0.22903888
40	0xbd99cff0	-0.07510364
41	0xbd2746df	-0.040839072
42	0x3e59cce4	0.21269566
43	0xbf34cb89	-0.7062307
44	0xbe221f84	-0.15832335
45	0x3d322856	0.0434955
46	0xbee3cee1	-0.44493774
47	0x3ec9ccbb	0.3941401
48	0xbdee02ef	-0.11621653
49	0x3e815be1	0.2526541
50	0xbd141378	-0.03615138
51	0xbd4c83f7	-0.04993054
52	0x3d982e1a	0.07430668
53	0xbe2dfe29	-0.16991486
54	0x3d81dd47	0.063410334
55	0x3c9079d5	0.017636219
56	0xbe64621f	-0.22303055
57	0xbde1aae6	-0.110189244
58	0xbd942ba7	-0.072348885
59	0xbc8890e7	-0.016670657
60	0xbd034a7e	-0.032053463
61	0xbd8c69a6	-0.06856088
62	0xbe79b975	-0.24387152
63	0xbe36fb9b	-0.17869417
64	0x3e36f655	0.17867406
65	0x3d5404ae	0.051762275
66	0x3e4dc5d0	0.2009499
67	0x3dfc762a	0.123272255
68	0xbe001e54	-0.1251157
69	0x3d14fb42	0.03637243
70	0x3defb260	0.11703944
71	0x3cd8a138	0.026444063

rnn.weight_ih_l1 f4 [72, 24]
0	0x3e675afe	0.22593305
1	0xbd39fe64	-0.04540862
2	0xbe3bd062	-0.1834121
3	0x3e78322e	0.24237892
4	0x3e8b79d3	0.27241382
5	0xbd8881b2	-0.066653624
6	0xbe3c4da8	-0.18388999
7	0x3e08b0c2	0.13348678
8	0xbe2b9d66	-0.16759261
9	0x3e5484d7	0.207538
10	0xbd80e893	-0.0629436
11	0x3e06f376	0.1317881
12	0x3e39fbe4	0.18162495
13	0x3e84fc15	0.25973573
14	0xbdaf917e	-0.08572672
15	0xbe4fdedf	-0.20299862
16	0xbe306e0a	-0.17229477
17	0xbd880f03	-0.06643488
18	0xbe393ef0	-0.18090415
19	0xbc2610c4	-0.010135833
20	0xbe56665c	-0.20937485
21	0xbde3cca9	-0.1112302
22	0xbdd3e374	-0.103461176
23	0xbdcdb694	-0.1004459
24	0xbd7a5160	-0.06111276
25	0x3e219d88	0.1578275
26	0xbd57d9a5	-0.052697796
27	0xbe89b986	-0.26899356
28	0xbf1781d1	-0.5918246
29	0x3efd6014	0.49487364
30	0x3e1006cd	0.14065094
31	0x3e1fb590	0.15596604
32	0x3da9b223	0.0828593
33	0x3dbee241	0.09320498
34	0xbe199b50	-0.15000653
35	0xbc1d985b	-0.009618844
36	0x3dacee75	0.084439196
37	0xbd25ff4c	-0.040526673
38	0x3db1df7f	0.086852066
39	0xbe2b7e45	-0.16747387
40	0xbe1061c0	-0.14099789
41	0xbdd8a253	-0.10577836
42	0x3cecfbbe	0.028928634
43	0xbd669343	-0.056292783
44	0x3e3d1323	0.18464331
45	0xbe20b340	-0.15693378
46	0x3e9fc086	0.3120157
47	0x3f021439	0.5081211
48	0x3cd738eb	0.026272258
49	0xbe30cafc	-0.17264932
50	0x3dcc1208	0.09964377
51	0xbf2c8ca0	-0.67402077
52	0xbeae417b	-0.34034333
53	0xbf2e7a49	-0.6815534
54	0xbdeb8260	-0.114994764
55	0x3e480950	0.19534802
56	0xbeded228	-0.43519711
57	0x3ef7c23c	0.48390377
58	0x3c510384	0.012757186
59	0x3e1e6afb	0.15470497
60	0x3b29ef94	0.0025930153
61	0x3e901c7f	0.2814674
62	0xbdd481e4	-0.10376337
63	0xbe1ab212	-0.15106991
64	0xbb73c180	-0.0037194192
65	0xbde3455e	-0.11097215
66	0xbd311174	-0.043229535
67	0xbefe19dd	-0.49629107
68	0x3e138930	0.14407802
69	0x3dcdc47f	0.10047244
70	0x3d5a0d28	0.053235203
71	0x3f42daaa	0.76114905
72	0xbd85c86d	-0.06532369
73	0x3e94870d	0.29009286
74	0x3de67a21	0.11253763
75	0x3e800af0	0.25008345
76	0xbec8954a	-0.391764
77	0xbd877eeb	-0.066160046
78	0x3b0e0fcd	0.0021676898
79	0x3dde4437	0.10852855
80	0xbdf56fc8	-0.11984211
81	0xbded8053	-0.115967415
82	0xbe28396b	-0.16428153
83	0xbe22a2f4	-0.15882474
84	0x3e86dac8	0.26338792
85	0xbd926688	-0.071484625
86	0x3ce40325	0.02783353
87	0xbcfea262	-0.03108329
88	0xbe58199f	-0.21103524
89	0xbcf6fdcb	-0.030150315
90	0x3c93898c	0.018009923
91	0x3e9f4a5f	0.31111428
92	0xbd8f557f	-0.06998729
93	0xbcec7906	-0.028866302
94	0xbc492604	-0.01227713
95	0x3e37f85e	0.17965838
96	0x3df6d2f7	0.12051957
97	0x3d60c3c9	0.054874215
98	0x3d62175a	0.05519805
99	0x3e61ca02	0.22049716
100	0x3d6bef3d	0.057601202
101	0x3d09cd65	0.033643145
102	0x3e1f2142	0.1554003
103	0x3cf05320	0.029336512
104	0x3daf3dff	0.08556747
105	0xbe8f4098	-0.2797897
106	0xbda1a94e	-0.078936204
107	0x3e0a94e3	0.13533358
108	0xbba21064	-0.0049458016
109	0x3e31dfdc	0.17370552
110	0xbe2e7e8a	-0.17040458
111	0xbde71bdd	-0.112846114
112	0xbd0ceade	-0.034403674
113	0x3dab9e7d	0.083798386
114	0xbe00ea4b	-0.12589376
115	0x3d912c08	0.070884764
116	0xbbc65427	-0.006052512
117	0xbd8d7554	-0.06907144
118	0xbda32017	-0.07965105
119	0xbcc1ccd2	-0.023657236
120	0x3cfb5bdf	0.030683456
121	0x3e0afcad	0.1357295
122	0xbeb7ec1e	-0.3592233
123	0xbe67edc1	-0.2264929
124	0x3eb5f9ad	0.3554205
125	0x3dfc0c2c	0.12307009
126	0x3eceef59	0.40416983
127	0x3ed32d0c	0.41245306
128	0xbe143b7a	-0.14475814
129	0x3d67b130	0.056565464
130	0xbe371a20	-0.1788106
131	0x3e884dd6	0.26621884
132	0x3ba51828	0.00503828
133	0x3e164e92	0.1467841
134	0xbe1c43a5	-0.1526018
135	0xbe509290	-0.20368409
136	0xbede3f4c	-0.43407667
137	0x3d152321	0.036410455
138	0x3e1db1a1	0.15399791
139	0xbe75dd82	-0.2401028
140	0x3d8b6b6f	0.06807601
141	0xbe913975	-0.2836415
142	0xbd97dd4d	-0.07415257
143	0xbd9077cf	-0.07054102
144	0x3caf0a6a	0.02136727
145	0x3e39ab84	0.18131834
146	0xbe0468c9	-0.12930597
147	0x3b7fb3fd	0.0039017193
148	0xbed22285	-0.4104196
149	0xbc99f6dd	-0.018794471
150	0x3ea9b2f1	0.33144334
151	0x3e1a2c37	0.15055929
152	0xbe12436c	-0.14283532
153	0x3b9e20e9	0.0048257005
154	0xbeab06c8	-0.3340361
155	0x3e098be1	0.13432266
156	0x3d1cae88	0.038252383
157	0x3da6130a	0.081091
158	0xbdefd15e	-0.117098555
159	0xbdcb153b	-0.09916159
160	0xbe9f6198	-0.31129146
161	0x3e16352c	0.14668721
162	0x3e058f73	0.13043003
163	0xbe040375	-0.12891944
164	0xbc47c15e	-0.012192098
165	0xbe8cfb21	-0.27535346
166	0x3eaa603b	0.33276543
167	0x3e8bd492	0.27310616
168	0x3e24a427	0.16078244
169	0xbe1aabdd	-0.15104623
170	0xbe9411cf	-0.28919837
171	0xbcf3a7df	-0.029743133
172	0x3db669fc	0.08906934
173	0x3d404889	0.046944175
174	0x3e527744	0.20553309
175	0x3d9fce3c	0.07803008
176	0xbd3cf19b	-0.04612885
177	0x3cbaae5e	0.022788223
178	0xbc6c889d	-0.014436868
179	0xbd3cce8f	-0.046095427
180	0x3dc6bde0	0.097041845
181	0xbcf1c3f2	-0.02951238
182	0xbde54cec	-0.11196312
183	0x3c605708	0.013692625
184	0x3db01561	0.08597828
185	0xbe67b41e	-0.22627303
186	0x3e12f337	0.14350592
187	0xbe038cbd	-0.12846656
188	0xbaea67b0	-0.0017883684
189	0x3c9a4bb3	0.018834924
190	0x3d9a2414	0.075264126
191	0x3c8a7ad4	0.016904272
192	0x3e2a9541	0.16658498
193	0x3e7deb3c	0.24796766
194	0xbc811d71	-0.01576111
195	0xbde0fa32	-0.10985221
196	0xbed904f3	-0.42386588
197	0xbe4c9c5e	-0.19981524
198	0xbdbb2548	-0.0913797
199	0xbd768d1a	-0.06019316
200	0xbe2abea2	-0.16674283
201	0xbe999bff	-0.30001828
202	0xbdd2b502	-0.10288431
203	0xbe020138	-0.12695777
204	0xbe1570b3	-0.14593773
205	0x3df63291	0.120213635
206	0x3db9b4ac	0.090676636
207	0xbe89eed0	-0.26940012
208	0xbd22ac84	-0.039715305
209	0x3da960d0	0.08270419
210	0xbdd84592	-0.105601445
211	0xbd57d640	-0.05269456
212	0xbde154ed	-0.110025264
213	0x3e29de44	0.16588694
214	0x3e9b2f6a	0.30309612
215	0x3d975f2a	0.07391198
216	0xbe3813c8	-0.17976296
217	0x3d12de63	0.035856616
218	0x3dbd856f	0.09253966
219	0x3daff901	0.085924156
220	0xbe7d24f4	-0.24721128
221	0xbdbb6a8f	-0.09151184
222	0xbdd38ca4	-0.103295594
223	0xbd5cc8af	-0.053902324
224	0xbe4fd39c	-0.20295566
225	0xbde0c85d	-0.10975716
226	0xbe49e568	-0.19716418
227	0x3d58b856	0.05291017
228	0x3dd0b2f9	0.10190386
229	0x3e604981	0.2190304
230	0xbd541798	-0.051780313
231	0xbca89bfe	-0.020582195
232	0xbdd5eb39	-0.10445256
233	0x3e3e2c5b	0.18571608
234	0x3d77cb08	0.06049636
235	0xbcb77f53	-0.02239958
236	0xbe4fad27	-0.20280896
237	0x3e194286	0.14966783
238	0x3e8a92af	0.27065036
239	0xbdea4bca	-0.11440237
240	0x3e09e971	0.13467957
241	0x3db9fb4b	0.090811335
242	0xbe598b18	-0.21244466
243	0x3e74ca95	0.23905404
244	0xbd674754	-0.05646451
245	0xbdf323d9	-0.11872072
246	0x3eaadb64	0.33370507
247	0x3e7cafcd	0.24676438
248	0x3d54cea8	0.051954895
249	0xbe83f012	-0.25769097
250	0xbd667555	-0.05626424
251	0x3e287034	0.16449052
252	0xbea6e7fa	-0.3259886
253	0x3b43f3b5	0.00298999
254	0xbe63f007	-0.22259532
255	0xbe926e94	-0.2859999

rnn.weight_hh_l1 f4 [72, 24]
0	0xbd1ca855	-0.03824647
1	0x3e51d086	0.20489702
2	0x3e001ef2	0.12511805
3	0xbda525f3	-0.08063879
4	0x3e8ca1f3	0.27467307
5	0x3d5bd37d	0.053668488
6	0x3decec8d	0.11568556
7	0x3e37c48a	0.17946067
8	0x3d5989c9	0.053109918
9	0x3deb925a	0.11502524
10	0xbdb797a6	-0.089644715
11	0xbcc3a93e	-0.023884412
12	0xbea0518b	-0.31312212
13	0x3e1b7fb9	0.15185441
14	0xbe901b2d	-0.28145733
15	0xbcf1c2c2	-0.029511813
16	0x3e220881	0.15823556
17	0x3dbe8a0e	0.093036756
18	0xbda26b20	-0.07930589
19	0x3e769711	0.24081065
20	0xbcf3f32b	-0.029779037
21	0x3e241dd2	0.16027
22	0xbd88f688	-0.06687647
23	0x3e9afc43	0.30270585
24	0xbe8e2426	-0.27761954
25	0x3da84f7b	0.08218285
26	0xbda19ed3	-0.078916214
27	0xbe5bd13e	-0.21466538
28	0x3d5ca6b8	0.053869933
29	0xbdfdb483	-0.123879455
30	0xbe419212	-0.18903378
31	0xbcdd831c	-0.027040057
32	0xbe0e7b59	-0.13914241
33	0xbd9848d5	-0.074357666
34	0xbdbf731b	-0.093481265
35	0xbec826a9	-0.39091995
36	0x3dfdf99a	0.12401123
37	0x3e990904	0.2988969
38	0x3daecf8d	0.08535681
39	0x3cc6c7b8	0.024265155
40	0x3ba969d2	0.0051700855
41	0x3d7dc634	0.0619566
42	0x3d9eec52	0.07759918
43	0x3d37ebcd	0.04490261
44	0xbbfff146	-0.0078107445
45	0xbe4a1bbc	-0.19737142
46	0xbdad42d7	-0.08460014
47	0x3dfd1991	0.12358392
48	0x3eada351	0.33913663
49	0x3e2b691c	0.16739315
50	0xbe816787	-0.25274298
51	0xbe56be61	-0.20971061
52	0x3dee936a	0.11649211
53	0x3d780773	0.06055398
54	0x3e91e979	0.28498438
55	0x3d764f92	0.060134478
56	0xbd679cae	-0.056545906
57	0xbc12a2b2	-0.008949922
58	0x3e07f6dd	0.13277765
59	0x3ed75be9	0.4206231
60	0xbdab1bac	-0.08354887
61	0xbe8803c8	-0.26565385
62	0x3d1afe69	0.03784028
63	0x3e6d5bc6	0.2317954
64	0x3dd4f265	0.103977956
65	0xbe44b9da	-0.19211522
66	0xbe6059b5	-0.2190922
67	0xbdd0176d	-0.10160718
68	0xbd1fe01a	-0.03903208
69	0xbed463aa	-0.41482288
70	0xbe50f365	-0.20405348
71	0xbe598be9	-0.21244778
72	0xbd2c165b	-0.042013507
73	0x3e021c5c	0.1270613
74	0xbd0421ae	-0.032258682
75	0x3cdc8838	0.026920423
76	0x3d6fdece	0.058562092
77	0xbd9268b8	-0.0714888
78	0xbe177d8c	-0.14793986
79	0xbe40fbca	-0.1884605
80	0xbde479df	-0.111560576
81	0xbca38cf9	-0.019964682
82	0x3b231d3e	0.0024889256
83	0xbe489017	-0.19586216
84	0x3ca8e1e0	0.020615518
85	0x3e4bc7a0	0.1990037
86	0xbde33f26	-0.11096029
87	0x3c5ac508	0.01335264
88	0x3dbf69e1	0.09346367
89	0x3d2f506f	0.042801317
90	0xbe1c8c55	-0.15287907
91	0x3e72d8a5	0.23715456
92	0xbe36dc8f	-0.17857574
93	0xbe3873fa	-0.18012992
94	0x3a3f348f	0.00072939036
95	0x3e2c931a	0.1685299
96	0xbd9ad4f4	-0.07560149
97	0xbe1fc78a	-0.15603462
98	0x3e54d204	0.2078324
99	0xbe8fad93	-0.28062114
100	0x3cbb7fa8	0.02288802
101	0xbd9ab726	-0.07554464
102	0xbd46a744	-0.04849936
103	0x3e8d0e02	0.2754975
104	0xbe839efb	-0.2570723
105	0x3de803bc	0.11328837
106	0x3e20dbce	0.15708849
107	0xbd2a99a0	-0.041650414
108	0x3d9f54f4	0.077798754
109	0xbe04a0ac	-0.12951916
110	0xbd909daf	-0.07061326
111	0x3dc1b090	0.09457505
112	0x3e0ffc90	0.14061189
113	0x3e0a74ca	0.13521114
114	0xbd90b469	-0.070656605
115	0x3e02bad1	0.12766577
116	0xbe40a7dc	-0.18814033
117	0x3e30b6d3	0.17257242
118	0xbc1651d8	-0.0091747865
119	0x3da44747	0.080214076
120	0x3c0e5a02	0.008688452
121	0x3e2c37b3	0.16818123
122	0xbe7f8ae1	-0.24955322
123	0xbe8d9102	-0.27649695
124	0x3e667d68	0.22508776
125	0xbdb0c98a	-0.086321905
126	0xbce97e77	-0.028502686
127	0xbc129673	-0.008947003
128	0xbe19eb5d	-0.1503119
129	0xbd7f486c	-0.062324926
130	0xbc5d78a5	-0.013517533
131	0x3e22a997	0.15885006
132	0xbe5621ad	-0.20911284
133	0x3ddca898	0.10774344
134	0xbe9755e0	-0.29557705
135	0x3d64748f	0.05577522
136	0xbea449f5	-0.32087675
137	0xbe067ff0	-0.13134742
138	0xbe29fbff	-0.16600035
139	0x3e20980b	0.15683
140	0xbd102877	-0.03519484
141	0xbcda82cc	-0.026673697
142	0xbe41f97d	-0.18942828
143	0xbe9663a9	-0.2937291
144	0xbc9dba21	-0.019253792
145	0x3c86f50e	0.016474273
146	0x3ea751df	0.3267965
147	0xbdf4332a	-0.11923821
148	0x3eab3ae1	0.3344336
149	0xbd0987a6	-0.03357663
150	0xbe9117c0	-0.28338432
151	0x3cfaf9d9	0.030636715
152	0x3dbb5322	0.09146716
153	0x3daaa761	0.08332706
154	0xbdada271	-0.08478249
155	0x3c55931d	0.013035563
156	0xbe49c250	-0.1970303
157	0xbe0324da	-0.12807027
158	0xbd18117e	-0.037126057
159	0x3e9d3746	0.30706233
160	0xbe19fd4c	-0.15038031
161	0xbe9748a0	-0.29547596
162	0xbeadcc8b	-0.33945116
163	0x3e86f1c2	0.26356322
164	0xbdf66af1	-0.12032116
165	0xbd5d0b86	-0.053966068
166	0xbc359399	-0.011082553
167	0xbd87529e	-0.06607555
168	0xbda3a119	-0.07989711
169	0xbd839984	-0.06425765
170	0x3db0b10e	0.086275205
171	0x3cd1fc3c	0.02563297
172	0x3e0167c9	0.12637247
173	0xbe55e914	-0.20889693
174	0xbd05e512	-0.03268916
175	0xbdc1e025	-0.0946658
176	0x3e2c01f1	0.16797616
177	0xbda38482	-0.07984258
178	0x3d47cfb6	0.048782073
179	0xbd0ac185	-0.03387596
180	0x3db91737	0.09037631
181	0x3d83a5ae	0.06428085
182	0xbd14a904	-0.036294
183	0x3e559282	0.2085667
184	0x3c8e2dfc	0.017355911
185	0xbe1f6098	-0.15564191
186	0x3dc10e8b	0.09426602
187	0x3daaa708	0.0833264
188	0xbe6dc5ae	-0.2321994
189	0xbe4ca84a	-0.19986072
190	0x3e6ca6d9	0.23110522
191	0x3e367e34	0.1782158
192	0x3dac3b40	0.084097385
193	0xbd1fc324	-0.03900446
194	0x3e506ded	0.20354433
195	0xbd4de1a3	-0.050264012
196	0x3d7f62da	0.06235013
197	0xbdd202a9	-0.10254414
198	0xbd88f8ba	-0.06688066
199	0x3a632768	0.0008665235
200	0xbcb8b239	-0.02254592
201	0xbcfb5c1c	-0.03068357
202	0x3e582190	0.21106553
203	0xbcd3e2d9	-0.025865005
204	0x3dba8858	0.09108037
205	0x3db5a516	0.08869378
206	0x3dc29ee2	0.09502961
207	0x3ba524d9	0.005039793
208	0xbe43a43e	-0.19105622
209	0xbe634721	-0.22195102
210	0xbe6bc61c	-0.23024791
211	0x3e187ba3	0.14890914
212	0x3d7aca2b	0.06122796
213	0xbd8774cd	-0.06614075
214	0x3e70d211	0.23517634
215	0x3c38e602	0.011285307
216	0x3e39a1b0	0.18128085
217	0x3ea6453e	0.32474703
218	0xbdde0b88	-0.10842043
219	0xbe0f226e	-0.13977978
220	0x3e89f2be	0.2694301
221	0xbc2d6629	-0.010583439
222	0x3d50f75f	0.05101716
223	0x3df3c4ca	0.11902769
224	0xbe167e83	-0.14696698
225	0x3d9777cb	0.073958956
226	0xbccafed8	-0.024779722
227	0xbeb5dae5	-0.35518566
228	0xbe6c2ef6	-0.23064789
229	0x3e5b225c	0.21399826
230	0xbe8c2f27	-0.27379724
231	0x3e0652bc	0.13117498
232	0xbcdd7e50	-0.02703777
233	0xbe5db15e	-0.21649691
234	0xbe3419d5	-0.17587979
235	0x3abf751f	0.0014607048
236	0x3d6838ab	0.056694668
237	0x3db9c5b6	0.090709135
238	0xbdc8cc9b	-0.098046504
239	0x3e387031	0.18011548
240	0xbde9e5de	-0.11420797
241	0x3e66fe69	0.22557987
242	0x3e18bcc8	0.14915764
243	0xbe5c111e	-0.21490905
244	0x3e05d132	0.13068083
245	0xbe8c0d5e	-0.27353948
246	0xbde345d0	-0.110973
247	0x3e1b882b	0.15188663
248	0x3e088668	0.13332522
249	0x3e03fb08	0.1288873
250	0x3ba3e993	0.0050022095
251	0xbe2f38b0	-0.17111468
252	0xbe9e8b10	-0.3096547
253	0x3d1941b1	0.037416164
254	0xbd227847	-0.039665487
255	0xbdf583c1	-0.11988021

rnn.bias_ih_l1 f4 [72]
0	0x3e0b67cb	0.13613813
1	0xbe26c59a	-0.16286317
2	0x3e05457a	0.13014784
3	0xbd80a970	-0.06282318
4	0x3d77a862	0.060463317
5	0xbc84a5b6	-0.016192298
6	0x3c0f83ba	0.008759433
7	0x3e1b0c4e	0.15141413
8	0x3db1a4f6	0.08674042
9	0x3c8959fe	0.016766544
10	0x3e8bcbfa	0.2730406
11	0xbd41f48a	-0.04735235
12	0xbdc083e5	-0.09400157
13	0x3eabb726	0.3353817
14	0xbd2fd961	-0.042931918
15	0x3e1a86aa	0.15090433
16	0x3d781bb8	0.06057331
17	0x3e802bc4	0.2503339
18	0x3e3a2f4f	0.1818211
19	0x3d6dce89	0.058058295
20	0xbe783f4d	-0.24242897
21	0xbe204e93	-0.15654974
22	0xbc7fc14b	-0.0156100495
23	0x3ac94fa0	0.0015358813
24	0xbebd0109	-0.36914852
25	0xbde7c679	-0.113171525
26	0xbeaa81d7	-0.33302185
27	0xbe6d98e0	-0.23202848
28	0x3cd8f317	0.026483102
29	0xbe777b12	-0.24168041
30	0xbdbd4975	-0.092425264
31	0xbf16e91d	-0.5894945
32	0xbda41faa	-0.08013852
33	0x3da9a44f	0.082832925
34	0x3e45dfbf	0.19323634
35	0xbe2580df	-0.16162442
36	0xbe6133c9	-0.2199241
37	0xbc24d0b1	-0.0100595215
38	0xbe92f2e1	-0.28700927
39	0x3dc134af	0.09433877
40	0xbe9e701e	-0.30944914
41	0xbe3010a4	-0.17193848
42	0xbe9da2a2	-0.3078814
43	0xbec84ea7	-0.39122507
44	0xbe982ba6	-0.297208
45	0xbef6a566	-0.48173064
46	0xbea3b606	-0.3197481
47	0xbe566e89	-0.20940603
48	0x3d80f501	0.06296731
49	0x3e5788b0	0.21048236
50	0xbd888b88	-0.066672385
51	0xbe2cbc91	-0.16868807
52	0x3e83b2fc	0.25722492
53	0x3d57bb17	0.052668657
54	0xbe567e04	-0.20946509
55	0x3dc6e8b0	0.0971235
56	0xbe595e3c	-0.21227354
57	0x3cb4a28a	0.02205016
58	0xbd99befc	-0.075071305
59	0xbd7b5703	-0.061362278
60	0xbdeed350	-0.116613984
61	0x3c886833	0.016651249
62	0xbe044458	-0.12916696
63	0x3df17bea	0.11791213
64	0x3db87c82	0.09008123
65	0xbdad853b	-0.08472677
66	0xbe4f183c	-0.20224088
67	0x3df4f919	0.11961574
68	0xbc8bfa28	-0.017087057
69	0x3dee7875	0.11644069
70	0xbdb6f5ce	-0.08933602
71	0x3e3ea86f	0.1861894

rnn.bias_hh_l1 f4 [72]
0	0x3e5ce77c	0.2157268
1	0x3e2caf4f	0.1686375
2	0x3e78bcab	0.24290721
3	0xbde7f3d0	-0.113258004
4	0xbd1764c7	-0.036961343
5	0x3daa5712	0.083173886
6	0x3d5faf7d	0.054610718
7	0x3e72e208	0.23719037
8	0xbd6f0aba	-0.05835984
9	0x3e674c12	0.22587612
10	0x3e3ba22e	0.18323585
11	0x3cbccc04	0.023046501
12	0x3d432470	0.04764217
13	0x3d19709c	0.03746091
14	0x3e4eadb5	0.20183451
15	0x3e3890e4	0.18024021
16	0x3e184ba6	0.14872608
17	0x3cc5f4ce	0.024164584
18	0x3e9327bf	0.2874126
19	0x3e501f9b	0.20324557
20	0xbda0464e	-0.078259096
21	0xbe249dd4	-0.16075832
22	0x3bdc545d	0.006723924
23	0x3e8a699b	0.27033696
24	0xbeed2891	-0.46320012
25	0x3dfb65d9	0.12275285
26	0xbe861182	-0.26185232
27	0xbe9fc6c0	-0.31206322
28	0xbd108320	-0.0352813
29	0xbe61836e	-0.22022793
30	0xbe84b695	-0.2592055
31	0xbe432b5f	-0.19059514
32	0xbea295c4	-0.31754887
33	0xbce7e7a9	-0.028308706
34	0x3dc5200b	0.09625252
35	0xbe0f503c	-0.1399545
36	0xbe924533	-0.2856842
37	0xbc42c5d7	-0.011887989
38	0xbeda5b8e	-0.42647976
39	0x3de6c64a	0.112682894
40	0xbd3ffa41	-0.04686952
41	0xbdba4537	-0.09095233
42	0xbe4226bf	-0.18960093
43	0xbf243b80	-0.6415329
44	0xbe7f020e	-0.24903128
45	0xbea51f25	-0.32250324
46	0xbf0b91f9	-0.5451961
47	0xbecb5a59	-0.39717367
48	0x3e0f5d82	0.14000514
49	0x3d86888c	0.06569013
50	0x3e47e09e	0.19519278
51	0xbe000073	-0.12500171
52	0x3e5e902a	0.21734682
53	0x3d87dcc7	0.06633907
54	0xbd27db89	-0.04098085
55	0xbb3d1937	-0.002885414
56	0xbe2096a7	-0.1568247
57	0x3e6a8832	0.22903517
58	0x3e28e26a	0.1649262
59	0xbe2bf6bb	-0.16793339
60	0x3e8a5fe6	0.2702629
61	0xbd1888cc	-0.037239835
62	0xbe1d238a	-0.15345588
63	0x3e81ff7a	0.25390226
64	0xbdf389ac	-0.11891493
65	0xbe54fe3a	-0.20800105
66	0xbe7d2848	-0.24722397
67	0xbd24a000	-0.04019165
68	0x3d76996e	0.060204916
69	0xbde0dc9e	-0.109795794
70	0x3cc3212e	0.023819532
71	0xbdad0b18	-0.084493816

rnn.weight_ih_l2 f4 [72, 24]
0	0x3ea0be3b	0.31395134
1	0x3e4d4efa	0.20049658
2	0x3e85d3bd	0.26138106
3	0xbe080c19	-0.13285865
4	0xbdd6cf9a	-0.104888156
5	0xbe8d8a75	-0.27644697
6	0x3d9b487e	0.07582186
7	0xbeda7756	-0.4266917
8	0xbed348cc	-0.41266477
9	0x3db0a7c0	0.08625746
10	0x3ef9e2b1	0.48805764
11	0xbee1df7f	-0.44115826
12	0xbe66fa22	-0.22556356
13	0x3d7d326a	0.061815657
14	0xbe34d5f0	-0.17659736
15	0x3e9076d2	0.28215653
16	0x3e84978b	0.25896868
17	0x3dc4474d	0.09583912
18	0xbe8b24d8	-0.27176547
19	0x3d116e03	0.035505306
20	0xbe56d11b	-0.20978205
21	0x3d0438b3	0.032280635
22	0xbd8999e1	-0.06718803
23	0x3e30fb8d	0.17283459
24	0xbe8866ae	-0.26640838
25	0x3ddb83b9	0.107184835
26	0x3eca6fab	0.3953832
27	0x3ea61d4a	0.3244422
28	0xbe277e27	-0.16356717
29	0xbe8621c6	-0.26197642
30	0x3e76de6c	0.24108285
31	0x3dbde6d9	0.09272546
32	0xbc965190	-0.018349439
33	0xbe938571	-0.28812745
34	0xbd9f2ad4	-0.07771841
35	0xbe849102	-0.25891882
36	0xbdd990f6	-0.10623352
37	0xbdb556cf	-0.08854448
38	0xbe270d84	-0.1631375
39	0xbd04b30b	-0.03239731
40	0xbd192173	-0.037385415
41	0xbe0b44b7	-0.13600431
42	0x3d81284b	0.063065134
43	0x3e0a1e5f	0.13488148
44	0x3d4ea4af	0.050450023
45	0x3d369b4c	0.044581696
46	0x3e9fb851	0.3119531
47	0x3e997814	0.29974425
48	0x3d81fd8b	0.063471876
49	0x3de4a487	0.111641936
50	0x3f107dc7	0.5644192
51	0x3e2acd0e	0.16679785
52	0x3dea704f	0.114472024
53	0xbce296bf	-0.027659772
54	0x3cb38aa1	0.02191669
55	0x3e010583	0.12599759
56	0xbd1cf302	-0.038317688
57	0xbdf154c9	-0.117837496
58	0x3da5a18c	0.08087453
59	0xbed60b0c	-0.41805303
60	0x3e002ffb	0.12518303
61	0xbe7f0498	-0.24904096
62	0xbdae8b96	-0.08522718
63	0xbe5ba3f0	-0.21449256
64	0xbb56dc8b	-0.0032785262
65	0x3d4f0f11	0.050551478
66	0xbe3b40e8	-0.18286479
67	0x3e663103	0.22479634
68	0xbd4a7b88	-0.049434215
69	0xbcafa0dd	-0.02143901
70	0x3ecb88ca	0.397528
71	0x3e05e181	0.13074304
72	0xbe1d9806	-0.15390024
73	0xbd14d93c	-0.036339983
74	0x3d3f03dc	0.04663454
75	0xbdc1ad3e	-0.094568714
76	0x3d3e68a3	0.046486508
77	0xbd539d17	-0.051663484
78	0xbe4911af	-0.19635652
79	0x3e024cc5	0.12724598
80	0xbd500b8c	-0.050792262
81	0x3d13d5a0	0.0360924
82	0xbe6399bb	-0.22226612
83	0x3e5db8fa	0.21652594
84	0x3e16b690	0.1471808
85	0xbdf47267	-0.11935883
86	0x3dd14cd3	0.10219731
87	0xbe6790d1	-0.22613837
88	0xbe581c69	-0.21104588
89	0x3e1a3c48	0.15062058
90	0x3dce7204	0.100803405
91	0x3dfb8a90	0.12282288
92	0x3da1344d	0.07871304
93	0x3e09f5fb	0.1347274
94	0x3e841a0a	0.25801116
95	0x3c40ec2d	0.011775059
96	0xbd95ae93	-0.07308688
97	0x3d884506	0.0665379
98	0xbd135ed3	-0.035979103
99	0x3e128733	0.14309387
100	0x3e3ca5d3	0.18422632
101	0xbe623232	-0.2208946
102	0xbdbc9a1f	-0.09209084
103	0x3e91f83a	0.28509694
104	0x3e9bdd3e	0.30442232
105	0x3e0732e5	0.13203008
106	0x3d332c84	0.043743625
107	0xbd436e4c	-0.04771261
108	0xbe805cdc	-0.25070846
109	0x3e89443d	0.26809874
110	0x3dccd22e	0.10001026
111	0x3dcd4195	0.100222744
112	0x3e86391e	0.26215452
113	0xbe299d63	-0.16563945
114	0xbd5a85f3	-0.0533504
115	0x3d976fbe	0.0739436
116	0xbdd9e7d7	-0.10639923
117	0xbe726b89	-0.23673834
118	0x3e96105e	0.29309362
119	0xbc4b3c25	-0.012404476
120	0xbd9c109d	-0.07620356
121	0xbd3b81e0	-0.045778155
122	0xbe0a80e2	-0.13525727
123	0x3eda74ed	0.42667332
124	0xbe082ff7	-0.13299547
125	0x3d186a99	0.037211034
126	0x3ddd07fe	0.1079254
127	0x3ebad578	0.3649099
128	0x3e89f32f	0.26943347
129	0xbdaa7ffe	-0.08325194
130	0xbdbec0bb	-0.09314104
131	0x3f0e2eb7	0.5554003
132	0xbd126837	-0.03574392
133	0xbdc34eb7	-0.09536498
134	0xbc29ef9d	-0.01037207
135	0x3c363740	0.011121571
136	0xbe9231e5	-0.28553692
137	0x3e159b12	0.14609936
138	0x3eb45ab7	0.3522546
139	0xbe515855	-0.20443852
140	0x3e7ec5a9	0.24880089
141	0x3e034cc5	0.12822254
142	0xbbc79137	-0.006090309
143	0xbe8d69d8	-0.27619815
144	0xbe95483f	-0.29156682
145	0xbd1003be	-0.03515982
146	0x3e00ec5d	0.12590165
147	0x3e9e2fd0	0.30895853
148	0x3dfe4d3c	0.12417075
149	0xbe59607c	-0.21228212
150	0x3e8e70bf	0.27820393
151	0x3e4dc0ee	0.20093128
152	0x3eb3c0eb	0.35108122
153	0xbc5f1a1b	-0.013617064
154	0xbd93cde3	-0.07217004
155	0xbf00f6b3	-0.50376433
156	0x3d3abc41	0.04558969
157	0x3d9e70ae	0.07736336
158	0xbe16e125	-0.14734323
159	0xbdfe8f54	-0.124296814
160	0x3e187d15	0.14891465
161	0x3e83bc79	0.2572973
162	0x3e178028	0.14794981
163	0x3e88dd38	0.26731277
164	0x3d66b758	0.056327194
165	0x3ca8ec40	0.020620465
166	0x3e5dce0b	0.2166063
167	0x3e384e46	0.17998609
168	0xbecadba8	-0.3962071
169	0x3e017856	0.12643561
170	0x3d7247b0	0.059150398
171	0x3ea9e681	0.33183673
172	0xbdbe98da	-0.09306498
173	0xbe1e39d5	-0.15451749
174	0xbc9b2247	-0.018937243
175	0x3e79fa1f	0.2441182
176	0x3e161692	0.14657047
177	0x3db8a0a8	0.09015018
178	0x3dba5e10	0.09099972
179	0xbe1179ab	-0.14206569
180	0xbe1f9836	-0.15585408
181	0x3c19ae68	0.009379961
182	0xbdd1ea8c	-0.102498144
183	0xbe7814a6	-0.24226627
184	0x3e24ca77	0.16092859
185	0x3e0205be	0.12697503
186	0xbdcecf34	-0.100981146
187	0x3ca444b7	0.020052297
188	0x3e29fa72	0.16599444
189	0xbe4b2fdc	-0.19842476
190	0x3eb32e1b	0.34996113
191	0x3e506c0b	0.20353715
192	0x3cfeef39	0.03111993
193	0x3e1bd52d	0.15218039
194	0xbe6a8259	-0.22901286
195	0xbe508206	-0.203621
196	0x3b0bd273	0.0021335154
197	0x3da92e1e	0.08260749
198	0xbcdfa371	-0.027299615
199	0x3e63f45e	0.22261187
200	0xbda510f7	-0.080598764
201	0x3d854552	0.065073624
202	0xbd5b5839	-0.053550933
203	0xbda1fdfa	-0.0790977
204	0xbdee8b00	-0.11647606
205	0xbd931d96	-0.071833774
206	0x3db4f33e	0.08835457
207	0xbc271e3d	-0.01020008
208	0xbca13d90	-0.019682676
209	0xbe5a4b59	-0.21317805
210	0xbc179f47	-0.009254283
211	0xbd10ee9c	-0.035383806
212	0x3e193af5	0.14963897
213	0xbdc512df	-0.0962274
214	0xbea26e03	-0.31724557
215	0x3e119425	0.14216669
216	0x3dd75535	0.10514299
217	0xbde5007d	-0.11181734
218	0xbe5ecef4	-0.21758634
219	0xbd372633	-0.044714164
220	0xbb683346	-0.0035430952
221	0x3e2e065c	0.16994613
222	0x3de3770a	0.11106689
223	0xbe6d39c6	-0.2316657
224	0xbd679b01	-0.056544308
225	0x3e3e21ad	0.18567534
226	0x3d10e74e	0.03537684
227	0xbdb05457	-0.086098365
228	0x3d9f4f7d	0.07778833
229	0x3b87d412	0.004145154
230	0x3e525f0d	0.20544071
231	0x3c9d2ebe	0.019187327
232	0x3e3cd4cc	0.1844055
233	0xbb1e96c7	-0.0024198757
234	0x3d07563e	0.03304123
235	0xbe9176f8	-0.28411078
236	0xbe59f050	-0.21283078
237	0x3dc5c09d	0.09655879
238	0xbde6885f	-0.112564795
239	0xbe8e6007	-0.27807638
240	0xbe00354c	-0.12520331
241	0xbda4da8b	-0.08049496
242	0xbc215eb8	-0.009849243
243	0x3ed41f5b	0.41430172
244	0x3d02f9de	0.031976573
245	0xbe1eec1e	-0.15519759
246	0xbc1cd3d3	-0.009571987
247	0x3e9a614e	0.30152363
248	0x3e76a084	0.2408467
249	0xbe68c931	-0.22732998
250	0xbe50f57f	-0.2040615
251	0xbe2417ad	-0.16024657
252	0x3db64393	0.088996075
253	0xbdc450c6	-0.09585719
254	0xbdc92df2	-0.098232165
255	0x3d287302	0.041125305

rnn.weight_hh_l2 f4 [72, 24]
0	0xbef7509a	-0.48303682
1	0x3d967de0	0.073482275
2	0x3e7881e1	0.24268295
3	0xbe905db9	-0.28196505
4	0xbb487a08	-0.0030590314
5	0x3cc4038d	0.023927474
6	0x3dc2e0a7	0.09515505
7	0xbdf96d8e	-0.12179099
8	0x3db164f0	0.086618304
9	0xbda8dd65	-0.08245353
10	0xbed75b3d	-0.42061797
11	0x3e1879c4	0.148902
12	0xbe16c4b3	-0.14723472
13	0x3e05ad64	0.13054425
14	0xbe86d88d	-0.2633709
15	0xbe825214	-0.25453246
16	0x3d140d28	0.03614536
17	0x3e221461	0.15828086
18	0x3e829ae9	0.25508812
19	0xbc2f247f	-0.010689854
20	0x3e37dd65	0.17955549
21	0xbd923711	-0.07139409
22	0xbd881e30	-0.06646383
23	0x3e443cba	0.1916379
24	0x3e89d802	0.26922613
25	0xbe3190f9	-0.17340459
26	0x3d62dd60	0.0553869
27	0x3da16e83	0.078824066
28	0x3db19345	0.086706676
29	0xbdaaa936	-0.08333056
30	0x3e4a7946	0.19772825
31	0x3da3d4f7	0.07999604
32	0x3e340949	0.17581667
33	0x3d95978b	0.07304295
34	0xbd771aeb	-0.060328405
35	0xbcd41926	-0.025890898
36	0xbce1112f	-0.027474014
37	0xbe3e4ed7	-0.18584763
38	0x3cfaa314	0.03059534
39	0xbe1325c2	-0.14369872
40	0x3d8860d5	0.06659094
41	0x3e6c4950	0.23074841
42	0x3eab8667	0.33500978
43	0xbe0b6040	-0.13610935
44	0x3da10685	0.078625716
45	0x3ecbf5c5	0.39835945
46	0x3e046186	0.12927827
47	0x3d44e1d6	0.048066936
48	0x3e871c73	0.26388893
49	0xbe320edd	-0.17388482
50	0xbde0625b	-0.1095626
51	0xbe6656ec	-0.22494096
52	0xbc0720c5	-0.008247559
53	0xbdc01992	-0.09379877
54	0xbccab0c3	-0.02474249
55	0xbe1cf20f	-0.15326713
56	0xbdc9dc0a	-0.09856422
57	0x3cd4df45	0.02598537
58	0x3d3f53ea	0.046710886
59	0x3e50b98d	0.20383282
60	0x3e5cc8f3	0.21561031
61	0xbecb4d60	-0.3970747
62	0xbdac15d5	-0.08402602
63	0xbc2f86ef	-0.010713323
64	0x3d278b6d	0.04090445
65	0x3e11a424	0.14222771
66	0x3e59603f	0.21228121
67	0xbdf46801	-0.119339
68	0xbd2e89c0	-0.042611837
69	0x3e9fc062	0.31201464
70	0x3cf78d77	0.030218823
71	0x3d988133	0.07446518
72	0xbc00a4df	-0.007851808
73	0x3e26f7fa	0.16305533
74	0x3e00a527	0.12563
75	0x3ca0b910	0.019619495
76	0xbe14c0b6	-0.14526638
77	0xbe14231d	-0.1446652
78	0x3d2bba51	0.041925732
79	0xbe184c72	-0.14872912
80	0xbe593804	-0.21212775
81	0xbe294c42	-0.16532996
82	0xbd887741	-0.06663371
83	0x3e37951d	0.17927976
84	0x3e83a5f7	0.2571256
85	0xbe3365ae	-0.17519256
86	0x3da8a556	0.0823466
87	0xbe2b3fd6	-0.1672357
88	0x3e017972	0.12643984
89	0x3cbb72d1	0.022881897
90	0xbedcdbaa	-0.4313634
91	0x3dde7b1d	0.10863326
92	0xbe34fd56	-0.17674765
93	0xbdf824ea	-0.12116416
94	0xbdad5cc5	-0.0846496
95	0xbd9dd33a	-0.07706304
96	0x3e515bc9	0.2044517
97	0xbd908bfd	-0.07057951
98	0x3dd5c2a9	0.10437519
99	0xbe310804	-0.17288214
100	0xbdd4a6e6	-0.10383396
101	0xbdd435a3	-0.10361793
102	0x3e8b8b2c	0.27254617
103	0x3e4220ce	0.18957826
104	0x3d57b49b	0.052662473
105	0x3e520bf1	0.20512368
106	0xbdce4174	-0.10071078
107	0xbde7a46c	-0.11310658
108	0x3e30df4f	0.17272685
109	0xbe5087a0	-0.20364237
110	0xbe482b01	-0.19547655
111	0x3d8178a7	0.06321841
112	0x3c7481e3	0.0149235455
113	0x3e7c1bfd	0.24620052
114	0x3e6a6184	0.22888762
115	0xbdb6520f	-0.0890237
116	0x3df76600	0.12080002
117	0xbd49a26e	-0.04922717
118	0xbe848771	-0.25884584
119	0x3d71b5b6	0.059011184
120	0x3e8c4e77	0.27403614
121	0xbd2be0bd	-0.041962374
122	0x3d7b937e	0.061419956
123	0x3e8c170e	0.2736134
124	0xba3fd2ac	-0.00073174643
125	0x3d3311be	0.043718092
126	0xbdd11d1d	-0.10210631
127	0x3dcbdf51	0.099547036
128	0x3df31fb0	0.11871278
129	0x3c22ac62	0.009928795
130	0x3d977e7f	0.07397174
131	0xbdc424e2	-0.09577347
132	0xbded15c1	-0.11576415
133	0x3de9cd05	0.114160575
134	0xbe91a61f	-0.28447053
135	0xbdb2a1c2	-0.08722259
136	0xbb85305f	-0.004064604
137	0xbcd125c0	-0.025530696
138	0xbdee0bc3	-0.11623337
139	0x3dd4d0dc	0.10391399
140	0x3e065289	0.13117422
141	0x3dcfac1f	0.10140251
142	0x3b766dce	0.003760207
143	0xbe485b02	-0.19565967
144	0x3ea435ed	0.32072392
145	0x3df78fb5	0.12087957
146	0x3e0775fe	0.13228604
147	0x3d300add	0.04297911
148	0xbc912286	-0.017716657
149	0xbe140e6a	-0.14458624
150	0x3df974c4	0.121804744
151	0x3e783f6a	0.2424294
152	0x3e4dab69	0.20084919
153	0xbd7f8afa	-0.062388398
154	0xbdc5d0cd	-0.09658966
155	0x3e2b8664	0.16750485
156	0xbc9c09b5	-0.019047597
157	0x3dc68b08	0.09694487
158	0xbe3e0329	-0.18555893
159	0x3d069af1	0.032862607
160	0xbc9af5d2	-0.018916044
161	0x3e48c5af	0.1960666
162	0x3ed9a988	0.42512155
163	0x3d847247	0.06467109
164	0x3d482917	0.04886731
165	0xbde35ded	-0.11101899
166	0xbee0ccf3	-0.43906364
167	0x3dcb8fb6	0.0993952
168	0xbcb6d32e	-0.022317495
169	0xbd85b935	-0.06529466
170	0xbd6fefa2	-0.05857814
171	0x3e149c8a	0.1451284
172	0x3eadf0dc	0.33972824
173	0x3e4185a6	0.18898639
174	0x3e9b388a	0.30316573
175	0x3e174177	0.14771067
176	0x3e2b152f	0.167073
177	0x3dd8ba81	0.10582448
178	0xbeae99d6	-0.34101743
179	0x3e63afb9	0.22235002
180	0x3d80e23a	0.06293149
181	0x3d4c13f5	0.04982372
182	0xbeada898	-0.3391769
183	0xbd864e76	-0.06557934
184	0xbd0ee572	-0.034886785
185	0xbd717d5d	-0.058957446
186	0x3ea4a03b	0.32153496
187	0xbe65fe38	-0.22460258
188	0xbe9fa737	-0.31182262
189	0x3ea14129	0.31495026
190	0xbe839f0f	-0.2570729
191	0xbe5ff505	-0.21870811
192	0x3de0782e	0.109604225
193	0x3e094f34	0.1340912
194	0x3da735f4	0.081645876
195	0x3bb06358	0.0053829364
196	0xbdd58f18	-0.104276836
197	0xbdc28a62	-0.09499051
198	0xbdb602e2	-0.088872686
199	0xbde6dbe7	-0.11272412
200	0xbde449aa	-0.11146863
201	0x3dcaaaf9	0.09895892
202	0x3d266358	0.040622085
203	0x3df44d45	0.119288005
204	0x3e39ea1a	0.18155709
205	0xbd5168f2	-0.051125474
206	0xbc871f4c	-0.016494416
207	0xbe0c967b	-0.13729279
208	0xbdb2a52b	-0.087229095
209	0x3ddf2abb	0.10896822
210	0xbf014fc4	-0.5051234
211	0x3e463f0c	0.19359988
212	0x3caafe01	0.020873072
213	0x3d4e0180	0.0502944
214	0xbd7d7d39	-0.061887
215	0xbe6d6ce9	-0.23186077
216	0xbde5f96a	-0.112292126
217	0x3e53b7bf	0.20675562
218	0xbe0b5632	-0.136071
219	0xbe033d42	-0.12816337
220	0xbdd68641	-0.10474826
221	0x3e4ef61b	0.2021107
222	0xbdc85fcc	-0.09783897
223	0x3dcec3d2	0.100959435
224	0x3e2ec1d9	0.17066135
225	0xbdb732b0	-0.08945215
226	0xbe7e38bf	-0.24826334
227	0x3aa16051	0.001231203
228	0x3de895d6	0.11356704
229	0x3eaf4372	0.34231144
230	0x3d12d386	0.035846256
231	0x3e4a6bb5	0.1976765
232	0xbdc5ccc8	-0.096581995
233	0xbe59501c	-0.21221966
234	0x3d676c6e	0.05649989
235	0x3ea9e65e	0.3318357
236	0xbe214b35	-0.15751345
237	0xbdfca724	-0.12336567
238	0xbd1bcbe6	-0.03803625
239	0xbe67b35a	-0.22627011
240	0x3eaa1aa0	0.33223438
241	0x3cd00d87	0.025397075
242	0xbde7c697	-0.11317175
243	0x3ea768a2	0.32697016
244	0x3ea2de6f	0.31810328
245	0x3d84f781	0.0649252
246	0x3dcfe9c1	0.10152007
247	0x3cc3d5a6	0.023905586
248	0x3e2c517c	0.16827959
249	0xbd984fd1	-0.07437099
250	0xbd5d0710	-0.053961813
251	0x3e0e72e9	0.13911022
252	0xbdf8008c	-0.12109479
253	0xbeabaa30	-0.3352828
254	0xbed23eda	-0.41063577
255	0x3e750495	0.23927529

rnn.bias_ih_l2 f4 [72]
0	0xbc93e67c	-0.01805424
1	0x3d03d8ae	0.032189064
2	0x3dd27058	0.10275334
3	0x3e3b23cc	0.18275374
4	0xbde73466	-0.11289291
5	0x3e251835	0.16122515
6	0x3db8c269	0.09021456
7	0x3be69647	0.0070369574
8	0x3e0050c1	0.12530805
9	0xbe111f3e	-0.14172074
10	0x3e08b1fa	0.13349143
11	0xbdeae9e1	-0.1147039
12	0x3d80cebf	0.06289434
13	0xbc8b2409	-0.016984956
14	0x3e4e01fb	0.20117943
15	0x3d910198	0.07080382
16	0xbe166db6	-0.14690289
17	0xbc5f1d61	-0.013617844
18	0xbdcef998	-0.101062
19	0x3e24088a	0.16018882
20	0xbd72d6e8	-0.05928698
21	0x3e79768e	0.24361631
22	0x3cb59fa7	0.022170855
23	0x3d109e59	0.035307262
24	0xbeec3cf6	-0.4614026
25	0xbf4c1b67	-0.7972931
26	0xbea1e11c	-0.31617057
27	0xbe5e3aad	-0.2170207
28	0xbe9b1fe8	-0.3029778
29	0xbe25fb2f	-0.162091
30	0xbf2cb075	-0.6745675
31	0xbf0a9b65	-0.54143363
32	0xbf143a38	-0.57901335
33	0xbee99ac1	-0.4562588
34	0xbe8f3dde	-0.27976888
35	0x3dd3b01e	0.10336326
36	0xbdaaa57d	-0.08332346
37	0xbe9fdf3d	-0.31225005
38	0xbe8390fb	-0.2569655
39	0xbe283117	-0.16424976
40	0x3d510431	0.051029388
41	0xbeb202c9	-0.3476775
42	0xbf4b3e8a	-0.793923
43	0xbe7007c1	-0.23440458
44	0xbf373cde	-0.7157725
45	0xbecdaa12	-0.40168816
46	0xbf3e57e9	-0.7435289
47	0xbe154f2b	-0.14580981
48	0xbdefdc3c	-0.11711928
49	0x3d88956f	0.06669127
50	0x3e3d78d9	0.18503131
51	0xbe33e3ce	-0.1756737
52	0xbd6afdd4	-0.057370976
53	0xbd2c5e5c	-0.042082176
54	0xbe25454a	-0.16139713
55	0x3cd7ad84	0.026327856
56	0x3beb3bd9	0.0071787653
57	0x3dff3922	0.12462069
58	0xbd23b8a6	-0.039971016
59	0xbdd4e297	-0.10394781
60	0x3a3107e7	0.00067531917
61	0xbe4392d7	-0.19098984
62	0xbdcc4a91	-0.0997516
63	0xbd5fd0d1	-0.054642502
64	0x3d5726c9	0.052527223
65	0x3e431ef2	0.19054773
66	0xbe50e96c	-0.20401543
67	0xbe8a1a13	-0.26973018
68	0xbdce4eca	-0.100736216
69	0x3e3117cd	0.17294236
70	0x3de9a2c8	0.11408001
71	0x3e1adf4e	0.15124246
