Checkpoints/TEST5_sines_checkpoint.pth (torch, 717670 bytes, 207 tensors)

rnn.weight_ih_l0 f4 [72, 5]
0.083328605 0.28888503 0.039669793 0.21608736 0.48836103 -0.105339624 -0.33717 0.31317592
0.28794923 0.007494252 0.034076974 -0.1083547 0.037832886 -0.0076808725 -0.055785563 0.06238915
0.3027255 0.6419918 0.65870744 0.30659232 0.12988928 -0.2800229 0.30484498 0.07707923
0.4374323 -0.16000865 0.27164793 0.32647616 0.261033 0.48460045 -0.007420482 -0.51005244
-0.17422293 -0.33691463 0.61253273 -0.1509708 -0.676518 -0.828923 -0.018216692 0.050293423
0.058709413 -0.6940376 -0.4230002 0.22416104 0.41081607 -0.045715697 -0.14576963 0.26349747
-0.5843904 0.22528164 0.47970253 -0.48760778 0.10034224 0.31504348 -0.15342565 0.0076215654
-0.58065325 0.451254 0.21429023 0.30533478 -0.04839795 0.24961388 0.079536386 0.065602
0.23962882 0.0011995808 -0.33842146 0.020747613 -0.03805067 0.06347241 -0.17806168 0.16289264
-0.122413754 -0.39247012 0.6077184 -0.2928457 -0.24570252 0.42402792 0.30946854 -0.014948522
0.06457061 -0.12475746 -0.38514698 -0.04171505 0.005568328 -0.22594409 -0.14005052 0.36644664
-0.8225284 -0.028980613 0.13414018 -0.12054535 -0.1972961 -0.28434628 0.24114877 -0.048323303
-0.03702607 0.28724653 0.2887435 0.060687687 0.46054882 0.005430792 0.106998794 -0.21552372
0.17148186 0.0016238627 0.26863828 0.14779258 0.37272835 0.44204384 -0.57417154 -0.34340492
0.32888946 0.780115 -0.28854936 -0.18191618 0.20475711 0.637536 0.9462071 -0.38631982
-0.29935476 0.109827526 -0.1195516 0.23684892 -0.22779615 -1.0329905 0.02689613 -1.4275929
-0.49415758 -0.20950338 -0.15162939 0.19899914 -0.35048452 -0.21972707 -0.15215541 -0.10012173
-0.96861196 -0.005151502 -0.22503445 -0.25731125 -0.301589 -0.44993782 0.12757921 -0.19375241
-1.2527542 -0.20634404 0.012359528 -0.7337145 -0.3587458 -0.08631911 -0.5028988 -0.5882277
-0.6182445 -0.2127875 0.029044867 -0.21251902 -1.273041 -0.21286067 0.73594075 -0.40888983
-0.8850884 0.2990938 -1.7404721 -0.5107019 -0.24461593 -0.30409566 -0.04954157 -0.39707223
-0.45092183 0.2670749 -0.22989689 -1.0478339 0.10307545 -0.42780226 -0.7238427 -0.87081075
0.22173451 -1.1405282 -0.47292042 -0.2540588 -0.49946263 -0.078334525 -0.59078574 -0.08330786
-0.12560792 -0.23647833 -0.3923622 -0.18639998 -0.38238066 -0.9111804 -0.22346756 0.54684055
-0.5857364 -0.13445835 -0.101730324 -0.26035094 -0.20477137 -0.69840515 -0.1478227 -0.44989777
-0.047848858 -0.45571238 -0.22494328 -0.2221346 0.0024910388 -0.39510602 -0.9888451 -0.38352424
-0.013982465 -0.54366 -0.10141929 -0.07361521 -0.5282198 -0.62943095 -0.3010352 -0.41325462
-0.48185846 0.103723995 -0.617781 -0.79219514 -0.36432138 -1.1495819 0.029334225 -0.16224767
-0.40448353 -0.14723428 0.24894264 -0.30924472 -0.09348941 -0.5520935 -0.3663309 -0.73004144
-0.26797044 0.105297506 -0.88146394 -1.0231546 -0.10107036 -1.0711722 -0.30406225 -0.33236024
0.03532518 -0.057579055 0.24016385 -0.19140111 0.3616527 0.39568493 0.39746088 0.13597667
0.20153259 0.03163765 0.19627742 0.005441454 0.021092858 -0.24970275 0.104912356 0.1879634
00000000: 30a8 aa3d bde8 933e cb7c 223d 0146 5d3e
00000010: 750a fa3e 4dbc d7bd 8ca1 acbe 9858 a03e
00000020: 156e 933e 5892 f53b 4c94 0b3d 12e9 ddbd
00000030: a8f6 1a3d d4af fbbb 677f 64bd c48b 7f3d
00000040: d6fe 9a3e 9359 243f 0da1 283f abf9 9c3e
00000050: b201 053e 295f 8fbe a414 9c3e b7db 9d3d
00000060: 20f7 df3e 4fd9 23be 7015 8b3e e227 a73e
00000070: 1ea6 853e 8d1d f83e 8427 f3bb cc92 02bf
00000080: 7f67 32be 1380 acbe f2ce 1c3f 1798 1abe
00000090: 4930 2dbf 4c34 54bf 2c3b 95bc 7a00 4e3d
000000a0: 4879 703d 73ac 31bf 7b93 d8be 798a 653e
000000b0: 7c56 d23e 6240 3bbd a244 15be 24e9 863e
000000c0: 9c9a 15bf 3bb0 663e 929b f53e baa7 f9be
000000d0: 3b80 cd3d 614d a13e 9d1b 1dbe 53be f93b
000000e0: b1a5 14bf c40a e73e e66e 5b3e d754 9c3e
000000f0: ee3c 46bd c89a 7f3e f9e3 a23d 575a 863d
00000100: 4261 753e 413b 9d3a 9445 adbe e6f6 a93c
00000110: 05db 1bbd d3fd 813d cd55 36be 54cd 263e
00000120: 10b4 fabd d8f1 c8be 6f93 1b3f dfef 95be
00000130: 7199 7bbe 301a d93e a972 9e3e a5ea 74bc
00000140: 993d 843d d780 ffbd fc31 c5be 66dd 2abd
00000150: 8576 b63b e35d 67be 6769 0fbe e59e bb3e
00000160: 3991 52bf c068 edbc 0b5c 093e 7be0 f6bd
00000170: fd07 4abe d695 91be b4ef 763e a8ee 45bd
00000180: a6a8 17bd fa11 933e 30d6 933e a793 783d
00000190: 0ecd eb3e c9f4 b13b 2f22 db3d 40b2 5cbe
000001a0: f198 2f3e cad7 d43a f58a 893e f056 173e
000001b0: 40d6 be3e 9253 e23e e8fc 12bf c5d2 afbe
000001c0: 3364 a83e 9eb5 473f bebc 93be 3c48 3abe
000001d0: d9ab 513e 8f35 233f a13a 723f b6cb c5be
000001e0: 0745 99be 41ed e03d 78d7 f4bd 8688 723e
000001f0: 6543 69be 0839 84bf 4655 dc3c 5dbb b6bf
00000200: 3902 fdbe 0e88 56be bc44 1bbe 6ec6 4b3e
00000210: b572 b3be 2200 61be a1ce 1bbe 9f0c cdbd
00000220: f4f6 77bf eecd a8bb 6e6f 66be 4dbe 83be
00000230: e069 9abe 405e e6be 20a4 023e 0867 46be
00000240: 405a a0bf da4b 53be 9e7f 4a3c b7d4 3bbf
00000250: 88ad b7be 13c8 b0bd fabd 00bf 1796 16bf
00000260: 4645 1ebf f7e4 59be 80ef ed3c 969e 59be
00000270: 02f3 a2bf 26f8 59be 9d66 3c3f 025a d1be
00000280: 2795 62bf d322 993e cac7 debf 5cbd 02bf
00000290: 997c 7abe 6db2 9bbe 1aec 4abd 0d4d cbbe
000002a0: 3adf e6be 0bbe 883e 176a 6bbe 6c1f 86bf
000002b0: 3919 d33d e608 dbbe c14d 39bf 74ed 5ebf
000002c0: 5f0e 633e d4fc 91bf a022 f2be ff13 82be
000002d0: 91b9 ffbe da6d a0bd bc3d 17bf 509d aabd
000002e0: 5d9f 00be 6027 72be b3e3 c8be a3df 3ebe
000002f0: 66c7 c3be 1e43 69bf aed4 64be befd 0b3f
00000300: d2f2 15bf 73af 09be fd57 d0bd b84c 85be
00000310: 96af 51be aeca 32bf d55e 17be 0059 e6be
00000320: 2afd 43bd 2253 e9be 8857 66be 4177 63be
00000330: b240 233b 564b cabe f424 7dbf 4a5d c4be
00000340: b516 65bc 4d2d 0bbf ebb4 cfbd 92c3 96bd
00000350: 6a39 07bf 6322 21bf 4921 9abe 1c96 d3be
00000360: 27b6 f6be 3f6d d43d e526 1ebf 4dcd 4abf
00000370: 5588 babe 8025 93bf 544e f03c 4124 26be
00000380: 7718 cfbe 95c4 16be d2ea 7e3e 5355 9ebe
00000390: 6077 bfbd 0056 0dbf b98f bbbe ffe3 3abf
000003a0: 6c33 89be 38a6 d73d 9fa7 61bf bbf6 82bf
000003b0: fafd cebd 2c1c 89bf 0cae 9bbe 1f2b aabe
000003c0: 23b1 103d 04d8 6bbd 83ed 753e a7fe 43be
000003d0: 8b2a b93e 3797 ca3e fe7f cb3e 783d 0b3e
000003e0: 8f5e 4e3e 7b96 013d f3fc 483e 394e b23b
000003f0: eeca ac3c 14b2 7fbe 4adc d63d 7a79 403e

rnn.weight_hh_l0 f4 [72, 24]
0.25057656 0.20135675 0.19296351 0.120099306 0.28926286 -0.26447305 0.22110455 0.16572496
0.33648098 0.10992031 -0.062585354 -0.10143227 -0.13303661 -0.18074864 -0.30653274 0.35738188
0.059376135 -0.1769605 -0.008807423 -0.2962147 -0.2023765 0.2312051 -0.023163144 0.43357807
-0.042228967 0.0656061 -0.036530066 0.095374845 -0.08276557 0.09293196 0.16714896 -0.1446255
0.26811552 -0.0017130659 0.20599787 -0.18859656 -0.16880105 0.08817979 -0.062416937 -0.27210036
0.15200567 -0.0076365345 0.10775432 -0.10125421 0.09740166 -0.07519355 0.23834774 -0.26521948
0.26169118 0.09935393 -0.15191121 0.038297404 -0.4413248 0.05903799 0.2696005 0.22747543
-0.049585324 -0.20990828 -0.22347651 0.22258773 -0.10297197 0.17514531 0.25373206 -0.18523616
-0.10019263 -0.046910074 0.29455963 -0.19065505 -0.01380955 -0.07929189 0.088145025 -0.055427622
0.4853459 0.1289756 -0.44662407 0.2179969 -0.31713966 -0.34921682 0.09534133 0.39477238
0.29761413 -0.08808179 -0.17826313 -0.25435355 -0.21172869 -0.18722922 -0.48817536 0.2708138
-0.19107266 -0.061802566 -0.05855538 -0.2414745 -0.12781304 0.06709223 0.049490772 0.035226397
0.10175294 0.27598605 -0.18638968 0.13970912 0.3321429 -0.11338116 0.10832883 0.11111154
-0.05490997 -0.13704938 -0.25014126 0.03755045 -0.13303 -0.13727008 -0.304764 -0.012730613
0.12480474 -0.096795544 -0.015700478 -0.25258443 0.013965091 -0.24646261 0.17269117 0.023467967
0.33389804 -0.06601062 -0.27849585 0.22514267 0.13987087 0.19559585 0.201802 0.1176373
-0.095094256 -0.1879967 -0.40033156 0.02438825 0.0039125155 -0.28484944 -0.06869455 0.0014659961
0.038620163 0.09284915 -0.13566689 -0.07679124 -0.05154807 0.38832593 0.113284566 0.65970856
0.2611526 -0.34977078 0.09319807 -0.14338233 0.01764344 -0.12382904 0.0130251385 0.3091799
0.1052332 0.007887811 0.46669486 0.1272342 -0.16683601 0.17878006 0.47999457 0.55284435
-0.2170604 -0.042429056 0.15639862 -0.11124004 0.072804846 -0.0490033 -0.0028448584 0.2904267
-0.22600466 -0.4957607 0.069831416 -0.49166045 0.23725097 -0.053991467 -0.45529544 0.020596547
0.5228171 0.1524444 0.24119587 0.03994874 0.02168233 -0.019406475 0.2073801 0.30861062
-0.028361063 0.0149866 -0.3320988 0.1333963 0.42207983 0.054118194 -0.039537665 0.0282236
0.043350685 -0.004970842 -0.31546515 0.088095084 0.26258862 -0.26352206 -0.11431272 0.3905024
-0.009066688 -0.39935908 0.16176994 0.3045145 -0.07873025 0.033149377 0.021472454 0.34654948
-0.1684975 0.035234965 0.09960873 -0.12291751 -0.17083256 -0.09716505 0.30392346 -0.10066477
0.03934869 -0.006449412 -0.06932982 -0.20934021 0.14025474 0.037074607 0.07745901 -0.23243812
-0.42524546 -0.28894052 -0.068845205 -0.16307493 -0.103304654 0.3872875 0.32786852 -0.39714766
-0.030028766 -0.30874616 -0.15975325 0.016029181 -0.13652164 -0.33215275 -0.11480325 0.04675884
0.32162702 -0.08745568 0.042613294 -0.17957215 -0.12210855 0.010427294 0.16635107 -0.122812085
-0.266114 -0.21697466 -0.16495468 0.15214737 -0.19326426 -0.09098458 -0.057660732 -0.13935325
00000000: 924b 803e 7730 4e3e 3a98 453e a0f6 f53d
00000010: 431a 943e 0369 87be 3b69 623e ceb3 293e
00000020: 3c47 ac3e e61d e13d c02c 80bd b9bb cfbd
00000030: c03a 08be 2c16 39be dcf1 9cbe c2fa b63e
00000040: 6434 733d 2235 35be 024d 10bc 74a9 97be
00000050: c93b 4fbe 08c1 6c3e a2c0 bdbc f2fd dd3e
00000060: 48f8 2cbd 7e5c 863d 8da0 15bd e353 c33d
00000070: ff80 a9bd 1d53 be3d 1929 2b3e b518 14be
00000080: 7046 893e f488 e0ba 1bf1 523e 751f 41be
00000090: 2fda 2cbe 9b97 b43d e7a8 7fbd bd50 8bbe
000000a0: 60a7 1b3e e53b fabb 4cae dc3d 5e5e cfbd
000000b0: 867a c73d 13ff 99bd 6e11 743e d9ca 87be
000000c0: 63fc 853e 137a cb3d 9d8e 1bbe bddd 1c3d
000000d0: 53f5 e1be d2d1 713d 1409 8a3e 52ef 683e
000000e0: fb19 4bbd 32f2 56be 07d7 64be 0aee 633e
000000f0: f8e2 d2bd 4b59 333e 2be9 813e 8cae 3dbe
00000100: cb31 cdbd c724 40bd 85d0 963e 143b 43be
00000110: 7341 62bc c963 a2bd 6185 b43d 1308 63bd
00000120: 427f f83e 2e12 043e e9ab e4be 943a 5f3e
00000130: 2160 a2be 8ccc b2be 5142 c33d 9b1f ca3e
00000140: e160 983e 3a64 b4bd 9c8a 36be a13a 82be
00000150: 68cf 58be 04b9 3fbe 1ff2 f9be 1ba8 8a3e
00000160: 8da8 43be b024 7dbd c4d7 6fbd 1745 77be
00000170: 6ce1 02be a767 893d d6b6 4a3d 8e49 103d
00000180: d863 d03d 0b4e 8d3e f0dc 3ebe e80f 0f3e
00000190: a20e aa3e 6234 e8bd 81db dd3d 728e e33d
000001a0: 47e9 60bd ac56 0cbe 8412 80be 80ce 193d
000001b0: 0439 08be 8790 0cbe 070a 9cbe 1094 50bc
000001c0: a199 ff3d be3c c6bd 4a9e 80bc bf52 81be
000001d0: d6cd 643c b260 7cbe f4d5 303e e53f c03c
000001e0: aff4 aa3e 9330 87bd 0297 8ebe cd8b 663e
000001f0: 4f3a 0f3e 474a 483e 2fa5 4e3e d3eb f03d
00000200: c7c0 c2bd 3582 40be 42f8 ccbe dec9 c73c
00000210: 8f34 803b c9d7 91be baaf 8cbd ab26 c03a
00000220: 2d30 1e3d b227 be3d 43ec 0abe ba44 9dbd
00000230: 1224 53bd a8d2 c63e bd01 e83d a9e2 283f
00000240: cbb5 853e 2815 b3be a1de be3d d1d2 12be
00000250: fa88 903c 149a fdbd 6467 553c d44c 9e3e
00000260: 8184 d73d e13b 013c a1f2 ee3e af49 023e
00000270: 0fd7 2abe 1f12 373e d9c1 f53e 3587 0d3f
00000280: 1545 5ebe 17ca 2dbd f626 203e d1d1 e3bd
00000290: b51a 953d afb7 48bd ce70 3abb cfb2 943e
000002a0: c46d 67be 59d4 fdbe c603 8f3d ebba fbbe
000002b0: ebf1 723e 2826 5dbd 7c1c e9be 17ba a83c
000002c0: 57d7 053f 631a 1c3e 0dfc 763e 4aa1 233d
000002d0: 249f b13c 54fa 9ebc 735b 543e 3602 9e3e
000002e0: 7655 e8bc 5b8a 753c db08 aabe 0a99 083e
000002f0: d91a d83e 0aab 5d3d 3ff2 21bd 2e35 e73c
00000300: 7d90 313d 72e2 a2bb a684 a1be 326b b43d
00000310: 0472 863e 5dec 86be ca1c eabd eeef c73e
00000320: 728c 14bc cb78 ccbe 05a7 253e 53e9 9b3e
00000330: 533d a1bd a4c7 073d 00e7 af3c ef6e b13e
00000340: 9c8a 2cbe 8a52 103d a9ff cb3d 2dbc fbbd
00000350: bbee 2ebe 78fe c6bd db9b 9b3e 5529 cebd
00000360: 182c 213d 9755 d3bb cbfc 8dbd 485d 56be
00000370: f09e 0f3e 8bdb 173d d4a2 9e3d 4204 6ebe
00000380: c6b9 d9be 03f0 93be b7fe 8cbd 1dfd 26be
00000390: 6491 d3bd 8c4a c63e 62de a73e f056 cbbe
000003a0: e3fe f5bc fa13 9ebe 5b96 23be a14f 833c
000003b0: 54cc 0bbe ed0f aabe f71d ebbd 3386 3f3d
000003c0: 4cac a43e f71b b3bd 478b 2e3d c3e1 37be
000003d0: 0c14 fabd 3ed7 2a3c ef57 2a3e e784 fbbd
000003e0: 1840 88be 9b2e 5ebe e1e9 28be 85cc 1b3e
000003f0: 11e7 45be 2056 babd a92d 6cbd 9eb2 0ebe

rnn.bias_ih_l0 f4 [72]
0.13739805 0.08332518 0.28483713 -0.10590014 0.029973086 0.028929524 0.067217596 0.1100585
0.15426819 -0.054603204 -0.008215001 0.035773493 0.07277547 0.11370685 0.007702853 0.13384712
-0.04169452 0.14318794 0.12479153 -0.06953375 0.23417714 0.18756358 0.05802491 -0.032546945
-0.08830589 -0.5677218 0.13034275 -0.40881592 -0.020609148 -0.23819433 -0.41559333 -0.060133833
-0.5948304 0.13423726 -0.60072196 -0.26441464 -0.21031526 -0.48970315 0.3221187 0.13626319
-0.3149653 -0.25368303 0.04180967 -0.54606116 -0.2301315 0.2713365 -0.16516292 -0.276415
-0.0037708269 0.12839392 -0.17148934 -0.07339781 -0.058746286 -0.12801534 0.15517229 0.20508291
-0.18246405 -0.1935599 0.18416716 0.22689687 -0.26430327 0.06571777 0.040914364 0.07251034
-0.25349218 -0.023808828 0.044855975 0.14656563 -0.07723164 -0.081019215 0.123612806 0.039847735
00000000: 13b2 0c3e 64a6 aa3d 2cd6 913e 2ce2 d8bd
00000010: 1e8a f53c 9cfd ec3c 61a9 893d 5a66 e13d
00000020: 7bf8 1d3e 9ca7 5fbd 3698 06bc 3a87 123d
00000030: 4e0b 953d 23df e83d 3768 fc3b 380f 093e
00000040: dfc7 2abd dc9f 123e b492 ff3d b667 8ebd
00000050: 22cc 6f3e ab10 403e 87ab 6d3d f24f 05bd
00000060: b8d9 b4bd 3756 11bf 9278 053e 5250 d1be
00000070: 84d4 a8bc 37e9 73be a6c8 d4be e54e 76bd
00000080: ce46 18bf 7e75 093e eac8 19bf 5b61 87be
00000090: e25c 57be 5fba fabe beec a43e 9488 0b3e
000000a0: 2243 a1be bee2 81be 9e40 2b3d aaca 0bbf
000000b0: 98a7 6bbe 9eec 8a3e 7820 29be 4486 8dbe
000000c0: fa1f 77bb b279 033e e79a 2fbe 9751 96bd
000000d0: f29f 70bd 7416 03be 7ce5 1e3e 4101 523e
000000e0: dbd7 3abe 9134 46be 5196 3c3e a757 683e
000000f0: c252 87be 0a97 863d d295 273d 4d80 943d
00000100: bac9 81be bb0a c3bc e6ba 373d 4d15 163e
00000110: 9f2b 9ebd 67ed a5bd b628 fd3d 6137 233d

rnn.bias_hh_l0 f4 [72]
0.1609056 -0.15491316 0.16734722 -0.06393792 -0.15664542 -0.14294797 0.15926689 -0.13752294
-0.14427112 0.20668878 -0.22929126 -0.030207517 0.020399744 0.23089653 0.1314298 -0.10426973
-0.007450771 -0.05504626 0.10770349 0.17772622 0.116968416 0.1889201 0.04592726 0.075116985
-0.2808309 -0.25769737 -0.07687482 -0.5023278 -0.1143636 -0.19078541 -0.3978237 -0.19010419
-0.6108242 -0.11822412 -0.57119566 -0.051616855 0.11853373 -0.2092386 0.271651 -0.04133024
-0.0890044 -0.20354189 -0.21033463 -0.5189693 -0.20663106 0.19638635 -0.062343292 -0.07492834
-0.047124885 0.008068937 -0.01824118 0.07936848 -0.081519336 -0.18101826 -0.13063432 0.21377507
0.21202458 0.18644227 -0.16272274 0.073022865 -0.24030964 0.14608279 -0.0036623892 -0.0033983027
-0.16583526 -0.043603014 0.088451706 -0.15298928 0.042247634 -0.1492334 -0.15056254 0.114196904
00000000: 70c4 243e 8ea1 1ebe 125d 2b3e e2f1 82bd
00000010: a867 20be f460 12be dc16 233e d0d2 0cbe
00000020: cfbb 13be 39a6 533e 54cb 6abe c175 f7bc
00000030: 5d1d a73c 2470 6c3e 8995 063e 5e8b d5bd
00000040: 9925 f4bb 3078 61bd a693 dc3d ddfd 353e
00000050: 238d ef3d 4574 413e 391e 3c3d efd6 993d
00000060: 11c9 8fbe e9f0 83be 8c70 9dbd 8e98 00bf
00000070: 7737 eabd 405d 43be 8caf cbbe acaa 42be
00000080: fa5e 1cbf 7d1f f2bd e139 12bf 326c 53bd
00000090: d0c1 f23d a542 56be d715 8b3e e649 29bd
000000a0: f047 b6bd 496d 50be f661 57be 2cdb 04bf
000000b0: 1897 53be 8119 493e ae5b 7fbd 0874 99bd
000000c0: 0606 41bd 9333 043c 876e 95bc f18b a23d
000000d0: 9cf3 a6bd da5c 39be 01c5 05be dae7 5a3e
000000e0: f91c 593e b9ea 3e3e caa0 26be 038d 953d
000000f0: bb13 76be ba96 153e b204 70bb 0fb6 5ebb
00000100: b8d0 29be 1399 32bd 2b26 b53d 39a9 1cbe
00000110: db0b 2d3d a4d0 18be 112d 1abe 11e0 e93d

rnn.weight_ih_l1 f4 [72, 24]
-0.099138625 -0.0068040453 0.010214004 -0.0065201633 0.3904574 -0.0042260163 0.2917154 0.091171
-0.3535955 -0.1158547 0.025519222 0.081886895 0.17411011 -0.23617084 0.27083853 -0.07514922
-0.08690182 0.066635996 -0.04544665 -0.23264739 -0.14589843 -0.10262613 -0.16218902 -0.083204225
0.08400517 0.306145 0.031714473 0.2011712 -0.4280415 0.034845356 0.064185984 -0.036395643
-0.27470627 -0.15977424 0.020828187 -0.058849197 0.090380564 0.04061091 -0.02371304 -0.26695988
0.012756089 -0.27470088 0.086481474 -0.15627588 -0.1946019 -0.0856216 0.15421277 -0.49595666
0.079902336 0.07703262 -0.15529792 -0.08665193 -0.061838727 0.12812936 -0.09175619 0.15177871
0.14961986 -0.20764086 0.21373144 0.316094 0.10574821 -0.21935837 0.4278252 0.18392116
-0.010652056 -0.23987113 0.21087934 0.07822744 0.08617416 -0.0896135 -0.06844959 -0.29238978
-0.0030327602 -0.17933948 -0.19027294 -0.05318953 -0.1902221 -0.039260287 -0.060318146 -0.0151197715
0.02310135 -0.18685144 -0.027929738 0.16293535 -0.014066014 0.32108527 0.30452627 -0.0065634036
-0.19465673 -0.017516261 0.23773138 -0.15474565 -0.10928196 -0.2790549 -0.09437073 -0.21097009
-0.24262442 0.11908695 -0.10603541 0.06802647 -0.07317493 -0.14479008 0.09048724 0.03709331
-0.10200273 -0.20887966 -0.2464661 0.04581168 0.11434158 0.07468831 0.0783275 -0.048255265
-0.026396379 0.05148112 -0.1027996 0.01749682 -0.08238583 0.105435774 0.12596408 0.02364057
0.09811296 0.14064811 0.048637148 -0.15608275 -0.10831487 -0.03312028 -0.21923988 0.23831277
-0.35740414 -0.09929777 -0.43986768 -0.14903042 0.18242623 -0.15955701 0.41436186 0.17575164
-0.008793029 -0.09524818 0.07410767 -0.18519688 -0.15868662 0.11243726 -0.12525557 0.18939634
-0.13563234 0.37693453 -0.20772435 0.4042063 0.27980718 -0.30174902 0.3112561 0.071410626
-0.1486539 -0.09953979 -0.150293 0.41458285 -0.36014 0.124402516 0.13705657 0.28783953
-0.32197043 -0.38757488 0.1353822 -0.37123534 -0.42323092 -0.34363794 0.22258228 0.20989765
-0.045614064 0.109909765 -0.054056622 0.16457073 -0.028190065 -0.2575045 0.044957053 -0.015495636
-0.1532302 -0.14335702 -0.19460732 0.05340422 -0.05309885 0.107452765 0.32813746 -0.51401407
0.038563687 0.057321895 0.13960002 -0.2824704 0.063584074 -0.21924746 0.086806305 -0.119814016
-0.053507477 0.012550036 0.04522101 -0.002899003 0.17721702 -0.11742246 0.048791014 0.27122295
0.15353532 -0.09472162 -0.13247672 -0.026700633 -0.2561548 -0.066034086 0.076029286 0.15386744
-0.15451436 0.18751074 -0.020430092 0.023848262 -0.028786957 -0.01945011 0.011825344 0.20009558
-0.12278134 0.21233267 -0.16000436 0.14176275 0.27818754 0.17830908 -0.14358902 0.06959722
-0.18820375 0.13057487 -0.27878216 0.1614966 -0.1813334 -0.47741738 -0.17916031 0.11312736
0.20943205 0.10702314 -0.17493775 -0.13442996 0.14639837 0.17457077 0.0114782695 0.24122626
0.1717393 0.08440944 -0.016919775 0.08663565 0.11713909 -0.18504195 0.108223565 0.24789493
-0.07884053 -0.18701434 -0.3258348 -0.04485502 -0.08356929 -0.34591874 -0.12990244 0.037454348
00000000: 3109 cbbd 78f4 debb a358 273c 18a7 d5bb
00000010: 08ea c73e 657a 8abb b95b 953e dcb7 ba3d
00000020: 780a b5be 3b45 edbd b00d d13c 51b4 a73d
00000030: ec49 323e c5d6 71be 59ab 8a3e d6e7 99bd
00000040: 95f9 b1bd 7478 883d 4426 3abd 1e3b 6ebe
00000050: 6666 15be a62d d2bd e114 26be fa66 aabd
00000060: e70a ac3d 0abf 9c3e 09e7 013d d3ff 4d3e
00000070: 4128 dbbe 01ba 0e3d f173 833d 9913 15bd
00000080: 4da6 8cbe dc9b 23be e09f aa3c db0b 71bd
00000090: 7219 b93d a057 263d d941 c2bc f7ae 88be
000000a0: eafe 503c 98a5 8cbe 331d b13d c906 20be
000000b0: b845 47be 615a afbd f4e9 1d3e 08ee fdbe
000000c0: d6a3 a33d 47c3 9d3d 6b06 1fbe 9176 b1bd
000000d0: 9b4a 7dbd 5834 033e abea bbbd e16b 1b3e
000000e0: f335 193e ce9f 54be 6adc 5a3e 13d7 a13e
000000f0: 8492 d83d 7b9f 60be e80b db3e d455 3c3e
00000100: f685 2ebc c7a0 75be c1f0 573e b535 a03d
00000110: 147c b03d 4887 b7bd 4c2f 8cbd 1db4 95be
00000120: 46c1 46bb c5a4 37be e9d6 42be 44dd 59bd
00000130: 95c9 42be 65cf 20bd 2910 77bd ebb8 77bc
00000140: 0b3f bd3c fc55 3fbe e8cc e4bc 86d8 263e
00000150: 2475 66bc 4a65 a43e deea 9b3e d211 d7bb
00000160: 1854 47be 437e 8fbc db6f 733e a575 1ebe
00000170: 38cf dfbd 49e0 8ebe 7145 c1bd 8b08 58be
00000180: 8972 78be dce3 f33d 1829 d9bd 7651 8b3d
00000190: bddc 95bd da43 14be 6051 b93d 28ef 173d
000001a0: cfe6 d0bd 8de4 55be 9c61 7cbe 07a5 3b3d
000001b0: eb2b ea3d 2ff6 983d 2b6a a03d 50a7 45bd
000001c0: 383d d8bc dedd 523d 9988 d2bd 7e55 8f3c
000001d0: e7b9 a8bd b6ee d73d bafc 003e dea9 c13c
000001e0: 73ef c83d 0f06 103e bf37 473d 28d4 1fbe
000001f0: 30d4 ddbd 21a9 07bd 6b80 60be 4308 743e
00000200: adfd b6be a15c cbbd 5636 e1be 6e9b 18be
00000210: f1cd 3a3e ea62 23be 3d27 d43e 3df8 333e
00000220: a310 10bc 7a11 c3bd c3c5 973d 40a4 3dbe
00000230: bf7e 22be 8245 e63d ff42 00be 1df1 413e
00000240: 34e3 0abe 90fd c03e b1b5 54be 21f4 ce3e
00000250: e342 8f3e d97e 9abe f65c 9f3e bc3f 923d
00000260: ba38 18be 84db cbbd 68e6 19be 3444 d43e
00000270: 4564 b8be bfc6 fe3d 8f58 0c3e b45f 933e
00000280: 4fd9 a4be 3770 c6be a2a1 0a3e 8f12 bebe
00000290: b9b1 d8be 50f1 afbe 9cec 633e 69ef 563e
000002a0: d0d5 3abd 5f18 e13d 7a6a 5dbd 3b85 283e
000002b0: daee e6bc a1d7 83be e324 383d 68e1 7dbc
000002c0: 61e8 1cbe 2fcc 12be 2447 47be 62be 5a3d
000002d0: 2e7e 59bd 3210 dc3d a201 a83e 6d96 03bf
000002e0: f5f4 1d3d 5dca 6a3d 4ff3 0e3e f69f 90be
000002f0: 5e38 823d 6882 60be 81c7 b13d 0d61 f5bd
00000300: a82a 5bbd ab9e 4d3c aa39 393d 33fd 3dbb
00000310: 6178 353e 307b f0bd 16d9 473d bcdd 8a3e
00000320: 5d38 1d3e 69fd c1bd faa7 07be 49bb dabc
00000330: b926 83be e13c 87bd 3eb5 9b3d 6d8f 1d3e
00000340: 0339 1ebe d102 403e 025d a7bc 6e5d c33c
00000350: a0d2 ebbc d655 9fbc 16bf 413c dbe5 4c3e
00000360: c874 fbbd bc6d 593e 2fd8 23be 412a 113e
00000370: 996e 8e3e a896 363e 0009 13be fd88 8e3d
00000380: 7cb8 40be 6bb5 053e 89bc 8ebe 5d5f 253e
00000390: 76af 39be 0d70 f4be cd75 37be 51af e73d
000003a0: 5b75 563e f32e db3d e222 33be 02a8 09be
000003b0: 74e9 153e aec2 323e 5a0f 3c3c 0404 773e
000003c0: 6ddc 2f3e dbde ac3d 579b 8abc 086e b13d
000003d0: 9fe6 ef3d a37b 3dbe 51a4 dd3d 2bd8 7d3e
000003e0: 2577 a1bd b080 3fbe d2d3 a6be e6b9 37bd
000003f0: 6026 abbd 431c b1be 2505 05be bb69 193d

rnn.weight_hh_l1 f4 [72, 24]
-0.13722426 -0.006349376 -0.14011082 -0.15303442 0.036630377 -0.087754525 -0.012225132 -0.020598695
-0.115476206 -0.23645867 0.1736436 -0.07848236 -0.04989481 -0.17399211 0.09353384 -0.048062988
-0.28384796 -0.06584582 -0.10224302 0.09213072 -0.16579677 0.024391258 0.07784658 0.0332914
0.2906326 -0.08631728 -0.3048771 -0.08893745 0.08817376 0.056211505 -0.25143635 -0.08344069
0.08160849 0.003749566 -0.03568509 -0.1415641 0.23889282 0.14665657 -0.03714906 0.019919896
-0.2577271 0.21555765 -0.0402122 0.0977806 0.26386812 -0.0011766636 -0.18727158 0.1946787
0.09336718 -0.09664437 -0.09422538 -0.05413567 -0.15387332 0.23290527 -0.14387806 0.24228045
-0.08973475 0.08782016 -0.17911243 -0.1084096 -0.073909156 0.076119915 -0.061115343 -0.11337983
0.050279472 0.055792894 -0.0764959 -0.0033874498 -0.03074897 0.30149 -0.15512094 -0.05386363
-0.07823864 0.0060940986 0.1549535 0.32711586 0.3289555 0.10310116 -0.25831294 -0.3927154
-0.12004079 -0.16079631 -0.22475724 -0.041473784 0.23504901 -0.19405565 0.01456823 0.1293794
-0.256701 -0.017213937 0.12260683 -0.15912916 0.11259878 0.30335885 0.10631583 -0.20063955
0.068676345 -0.15363039 0.23174733 0.12234179 -0.26659742 0.009631985 -0.26500636 0.3101189
0.10895744 0.12250594 -0.21306299 -0.17551741 0.08512143 0.25420037 0.10157807 -0.05496159
0.13473065 -0.100976266 0.17554364 0.13345483 -0.34369805 0.09115736 -0.00368374 0.011883823
-0.021323225 -0.24093316 -0.08152482 -0.16762345 0.60127455 0.01399366 -0.13758734 -0.37070075
0.19030945 0.018738724 0.1865254 -0.112370834 -0.11196859 0.23698013 -0.032575034 0.44835392
-0.17811082 0.020208966 -0.054706927 0.016527245 -0.40178642 -0.09016546 0.08498384 0.051896688
0.3190218 -0.12558201 0.16095488 0.4162283 -0.54689085 0.39250776 -0.45462078 -0.07099938
-0.20268843 -0.26577732 -0.07037874 0.35388586 0.27899328 -0.0036657513 -0.28823566 0.087851666
-0.38529918 0.25365454 0.2978986 -0.073127225 -0.4789419 -0.29454723 -0.29532063 -0.15741543
0.17575368 0.06347741 0.05558058 0.10889668 -0.039127134 0.091711424 -0.18013492 0.054836582
0.116451584 -0.16355999 -0.23419169 0.15417515 0.051341813 -0.03951795 0.083097175 0.21867654
-0.174072 0.21452874 -0.06812746 0.12230771 -0.21451284 -0.09951311 0.0037725489 0.021601873
-0.04536656 -0.20994487 0.106579475 -0.10569353 -0.018823119 0.318848 -0.22006455 0.021723602
0.0010686246 0.0824997 0.088666916 0.022580938 0.28721175 0.256455 0.041068718 -0.03434445
0.05225303 0.008408307 0.16150314 -0.22348695 -0.11549465 0.21911733 -0.024399143 0.07660314
-0.026718192 -0.023606272 0.24019451 -0.06292143 -0.07535501 0.15045041 0.03876249 0.12636712
0.014208074 -0.067048356 0.060312964 -0.12073956 0.06274702 0.16003956 -0.20091692 0.20416701
-0.19736493 -0.0702742 -0.11419987 -0.09941962 -0.70903975 0.2523466 0.22209002 0.27149406
-0.075078994 0.038251147 0.09966902 -0.06017526 -0.07459102 0.27224466 -0.09708452 -0.028447386
0.008511096 0.063420095 -0.02074229 0.19571155 0.045044247 0.23488171 0.011293029 0.1149495
00000000: 8484 0cbe 6d0e d0bb 3679 0fbe 0eb5 1cbe
00000010: bc09 163d a5b8 b3bd ec4b 48bc 98be a8bc
00000020: ca7e ecbd 3922 72be a1cf 313e 5cbb a0bd
00000030: 805e 4cbd fd2a 32be ab8e bf3d b2dd 44bd
00000040: 8554 91be 2cda 86bd ca64 d1bd 08af bc3d
00000050: a1c6 29be 2dd0 c73c 076e 9f3d 905c 083d
00000060: cccd 943e 1dc7 b0bd da18 9cbe d624 b6bd
00000070: 7294 b43d 093e 663d 44bc 80be f4e2 aabd
00000080: 5a22 a73d 47bb 753b 872a 12bd 2ef6 10be
00000090: 52a0 743e 242d 163e 9d29 18bd 0d2f a33c
000000a0: cef4 83be 25bb 5c3e 8cb5 24bd 3241 c83d
000000b0: b919 873e 473a 9aba 1fc4 3fbe da59 473e
000000c0: 4b37 bf3d 7ced c5bd 3cf9 c0bd 5dbd 5dbd
000000d0: f890 1dbe b87e 6e3e c554 13be 5e18 783e
000000e0: dac6 b7bd 0edb b33d 4069 37be da05 debd
000000f0: af5d 97bd c2e4 9b3d 1554 7abd af33 e8bd
00000100: d9f1 4d3d 1787 643d e2a9 9cbd faff 5dbb
00000110: 44e5 fbbc e65c 9a3e 06d8 1ebe 1ca0 5cbd
00000120: 953b a0bd 01b1 c73b 21ac 1e3e bb7b a73e
00000130: db6c a83e b326 d33d 9841 84be fe11 c9be
00000140: f2d7 f5bd caa7 24be c326 66be 6ae0 29bd
00000150: b0b0 703e 86b6 46be 96af 6e3c 097c 043e
00000160: 506e 83be 3e04 8dbc 4a19 fb3d c1f2 22be
00000170: 309a e63d da51 9b3e 1dbc d93d 7474 4dbe
00000180: 2fa6 8c3d 4951 1dbe 2c4f 6d3e 558e fa3d
00000190: 757f 88be 79cf 1d3c eaae 87be e8c7 9e3e
000001a0: 1425 df3d 65e4 fa3d 2f2d 5abe d6ba 33be
000001b0: 2554 ae3d 8d26 823e 2a08 d03d 671f 61bd
000001c0: d5f6 093e a5cc cebd b6c1 333e 62a8 083e
000001d0: 31f9 afbe b6b0 ba3d e76a 71bb 5eb4 423c
000001e0: 0bae aebc 2fb7 76be 7cf6 a6bd 7ba5 2bbe
000001f0: 21ed 193f aa45 653c b2e3 0cbe 7dcc bdbe
00000200: 7be0 423e f481 993c 8400 3f3e ae22 e6bd
00000210: ca4f e5bd ebaa 723e 666d 05bd a58e e53e
00000220: af62 36be 468d a53c 5f14 60bd 2564 873c
00000230: f3b6 cdbe aba8 b8bd 020c ae3d 9f91 543d
00000240: d356 a33e 9298 00be 5bd1 243e e01b d53e
00000250: 0a01 0cbf c7f6 c83e 0ec4 e8be 1f68 91bd
00000260: 8e8d 4fbe f713 88be bb22 90bd 8730 b53e
00000270: 35d8 8e3e 1a3d 70bb a093 93be 93eb b33d
00000280: ef45 c5be 02df 813e 2a86 983e bac3 95bd
00000290: df37 f5be e5ce 96be 4434 97be 8331 21be
000002a0: c6f8 333e 7200 823d 76a8 633d 3905 df3d
000002b0: c643 20bd 33d3 bb3d 4a75 38be 539c 603d
000002c0: 2b7e ee3d 457c 27be f2cf 6fbe 17e0 1d3e
000002d0: cb4b 523d 93dd 21bd da2e aa3d beec 5f3e
000002e0: ee3f 32be 6cad 5b3e 6986 8bbd 777c fa3d
000002f0: 41a9 5bbe 88cd cbbd de3c 773b 69f6 b03c
00000300: 49d2 39bd cafb 56be 5746 da3d d975 d8bd
00000310: f132 9abc 0c40 a33e 9a58 61be b2f5 b13c
00000320: 1711 8c3a 9af5 a83d 0097 b53d a9fb b83c
00000330: 6b0d 933e 124e 833e ac37 283d c4ac 0cbd
00000340: 4607 563d ffc2 093c 1461 253e c3d9 64be
00000350: 7688 ecbd 4b60 603e b6e0 c7bc 1be2 9c3d
00000360: 1ce0 dabc f161 c1bc 8df5 753e f3dc 80bd
00000370: ba53 9abd ac0f 1a3e 6bc5 1e3d 6266 013e
00000380: fbc8 683c a650 89bd ba0a 773d 4d46 f7bd
00000390: 8281 803d 69e1 233e 2abd 4dbe 2811 513e
000003a0: 081a 4abe ebeb 8fbd 9fe1 e9bd 849c cbbd
000003b0: a183 35bf 9333 813e 916b 633e 4501 8b3e
000003c0: 04c3 99bd 3cad 1c3d 451f cc3d 557a 76bd
000003d0: 2dc3 98bd a763 8b3e 40d4 c6bd 7e0a e9bc
000003e0: 2072 0b3c 65e2 813d bceb a9bc 9c68 483e
000003f0: 5180 383d d584 703e 6606 393c a56a eb3d

rnn.bias_ih_l1 f4 [72]
-0.15473013 -0.02000778 0.099650174 0.24990758 -0.12918478 0.095893785 0.18106528 -0.14148125
0.19572335 0.009699471 0.23380853 0.21186256 0.1148603 0.14668503 0.043380562 -0.07050573
0.085034445 0.11790564 0.070796326 -0.20807698 0.087326296 0.07416415 0.16287935 0.05836396
-0.31321326 -0.6433397 -0.13797401 0.061806284 0.070224226 -0.022343162 -0.08151435 0.18324363
0.14533885 -0.12327444 0.078445636 -0.21182975 -0.5481658 -0.65321124 -0.328362 -0.35604048
-0.5892452 -0.21275167 0.07222966 -0.22664733 -0.24310403 -0.43506554 -0.2528147 -0.53137743
0.105941534 -0.030959463 0.1416338 0.069248915 0.04215817 0.219295 -0.03539015 -0.12523754
0.11871409 0.0008194877 -0.21720015 0.16631894 0.0072841654 -0.091327816 -0.09063796 -0.09182735
-0.055390686 0.030502165 -0.05410566 -0.004937299 -0.006347677 0.017723823 0.028883034 -0.29256997
00000000: 9371 1ebe 5be7 a3bc 6415 cc3d c6e7 7f3e
00000010: 0449 04be f663 c43d 2d69 393e 76e0 10be
00000020: b46b 483e 88ea 1e3c 816b 6f3e 80f2 583e
00000030: e13b eb3d 9a34 163e d1af 313d 4f65 90bd
00000040: 8a26 ae3d 8378 f13d aafd 903d 2212 55be
00000050: 21d8 b23d 60e3 973d d8c9 263e 0c0f 6f3d
00000060: 7d5d a0be e9b1 24bf 0f49 0dbe 9628 7d3d
00000070: b8d1 8f3d 0209 b7bc fff0 a6bd 38a4 3b3e
00000080: b5d3 143e 4f77 fcbd 1ba8 a03d e6e9 58be
00000090: 9854 0cbf da38 27bf 101f a8be f04a b6be
000000a0: c6d8 16bf 93db 59be 25ed 933d 3d16 68be
000000b0: 43f0 78be e9c0 debe ee70 81be 5a08 08bf
000000c0: e0f7 d83d b39e fdbc 7308 113e 60d2 8d3d
000000d0: 0cae 2c3d de8e 603e 43f5 10bd 453e 00be
000000e0: 5f20 f33d e3d2 563a b769 5ebe 834f 2a3e
000000f0: 02b0 ee3b 140a bbbd 65a0 b9bd fa0f bcbd
00000100: 58e1 62bd addf f93c e69d 5dbd 11c9 a1bb
00000110: 2d00 d0bb 8d31 913c 1d9c ec3c bbcb 95be

rnn.bias_hh_l1 f4 [72]
0.17033571 -0.124258615 0.0712867 0.24036108 0.04366507 0.2071472 0.21556969 0.10118881
0.07180754 0.026567651 0.26305172 0.18225205 0.005487828 0.16609678 -0.08266538 -0.031833645
0.10000127 0.2470804 0.19934241 0.055135887 -0.07897224 0.031711873 -0.011309992 0.13463065
-0.4141608 -0.5891292 -0.021608023 0.08562267 -0.031654056 -0.12448557 -0.10620697 0.15177532
-0.016134923 0.19050036 0.038814634 0.10418345 -0.42093715 -0.6832384 -0.30383238 -0.50309366
-0.6195447 -0.3001794 -0.035276376 -0.364389 -0.3139382 -0.52652144 0.10366393 -0.34895083
0.17398024 0.015118155 -0.0031346895 0.13377367 -0.1729369 -0.16214177 -0.21821915 -0.18070087
-0.15497687 0.1604739 -0.016374584 0.096185125 0.057317927 -0.25215426 -0.11098727 0.14960238
-0.042261276 0.22582862 0.001117709 -0.050682236 -0.02282475 0.14604376 -0.14164509 -0.0890401
00000000: 7c6c 2e3e 4d7b febd c3fe 913d 3721 763e
00000010: 25da 323d 651e 543e 4dbe 5c3e 143c cf3d
00000020: d50f 933d 67a4 d93c b7ae 863e 48a0 3a3e
00000030: 3dd3 b33b 4615 2a3e 774c a9bd ff63 02bd
00000040: 77cd cc3d a502 7d3e 6b20 4c3e 2bd6 613d
00000050: 33bc a1bd 4fe4 013d 8b4d 39bc 9edc 093e
00000060: e20c d4be 2cd1 16bf 4f03 b1bc f05a af3d
00000070: afa7 01bd 4af2 febd 0a83 d9bd fd6a 1b3e
00000080: 632d 84bc 8712 433e 18fc 1e3d 225e d53d
00000090: 1385 d7be b6e8 2ebf eb8f 9bbe bfca 00bf
000000a0: 7b9a 1ebf 1db1 99be f67d 10bd 3291 babe
000000b0: 82bc a0be 1cca 06bf c14d d43d afa9 b2be
000000c0: e027 323e 23b2 773c 5d6f 4dbb f7fb 083e
000000d0: 5f16 31be 7e08 26be d774 5fbe a609 39be
000000e0: 42b2 1ebe 4553 243e fe23 86bc b5fc c43d
000000f0: 34c6 6a3d 5d1a 81be 4b4d e3bd 5e31 193e
00000100: 291a 2dbd 9e3f 673e 1780 923a 2d98 4fbd
00000110: f8fa babc 7f8c 153e 690b 11be a85a b6bd

rnn.weight_ih_l2 f4 [72, 24]
0.27063003 -0.04760168 1.0039265 0.10733131 0.5871986 0.19270505 -0.07963256 -0.5058157
0.29468036 0.096152976 0.123424076 0.017319825 0.24834278 0.2008476 0.024007702 0.20735385
0.71584606 0.22467539 -0.15610674 -0.112841874 -0.70982695 0.22372186 0.16330351 0.18205598
-0.18602265 0.033200994 0.2740754 -0.038692918 0.17951904 0.19727841 0.07696534 -0.024250012
0.15571101 0.24611978 -0.10124542 0.17729427 0.084059656 0.071438886 -0.11959548 0.054673575
0.26928416 -0.0051036794 -0.27074233 0.105846666 -0.5833274 -0.1789528 0.18315996 0.005820214
0.2251704 -0.27043086 0.21628167 0.12309824 0.3577647 0.19608802 -0.29935926 -0.2750057
-0.014279922 -0.41690016 -0.24066979 0.32073513 0.1625256 -0.24513212 -0.34631467 0.092938505
-0.21356009 0.134225 -0.07280918 -0.37897894 -0.24926364 0.06694288 -0.13216665 -0.01792606
0.07660317 0.17962775 0.3157786 0.025521124 0.08468731 0.04145477 -0.15560657 0.23063202
0.23879363 -0.049354278 -0.191587 0.022344852 0.15405141 0.14193785 -0.094620295 0.22771399
0.04648109 0.19840036 0.1492712 0.0031789967 -0.15744813 -0.122604266 0.20182417 0.15801242
0.14631855 -0.025409188 -0.13457833 -0.007934503 0.42882288 -0.11513202 0.2134336 -0.44002423
0.13482794 0.0931273 -0.10845808 -0.253089 -0.20129608 0.08927041 -0.08076284 -0.24346197
-0.10040504 -0.1466606 -0.074383594 0.073371924 0.10283233 -0.31080008 -0.16331758 0.1265824
0.18476744 -0.24709448 -0.50654054 0.18318452 -0.5263633 0.04005543 -0.3255139 -0.0039406912
0.023322767 -0.45435646 -0.076068915 0.27248612 0.18378784 0.064164065 -0.22262663 -0.3726822
-0.4274724 0.1793471 0.1230242 -0.071285166 -0.29595226 -0.18644586 0.22583143 0.10081742
0.29567403 -0.079086095 0.06178003 0.012913962 0.4003818 0.11200627 -0.029171381 0.63161004
-0.0014601836 -0.117783345 -0.05701666 -0.008530168 0.006585352 -0.059864525 0.0037318994 0.053538166
-0.09373107 0.025976187 -0.1845619 -0.15106979 -0.1598107 0.15175901 0.24880283 0.1104459
-0.15401672 0.14726405 0.055631157 -0.0413556 -0.5782285 -0.18627113 -0.12825204 -0.19235039
-0.13450113 -0.29571956 -0.18013775 -0.0030400727 -0.07029989 -0.07789707 0.07029126 -0.24031904
-0.04251585 -0.13263057 0.04779529 -0.05848544 -0.1111752 0.026053969 0.051170982 -0.049364038
0.15440622 -0.19999507 0.4451962 -0.14727089 -0.19685292 0.16997293 -0.21027513 0.0045790705
-0.06613759 0.19745153 0.18492682 -0.04302174 -0.025012223 0.07945645 -0.051277667 0.15618409
0.21143408 0.04909972 -0.15162002 0.14467043 -0.42373386 0.1739121 0.103676304 -0.041780427
0.031081215 0.136434 0.5888147 0.06387811 -0.1048993 0.2657509 0.05387945 0.09823485
-0.16079187 -0.00675103 0.10500019 0.247482 -0.17566079 -0.09134838 -0.20507133 0.060284264
0.42538393 0.13855025 0.1679064 0.20216893 -0.48983136 0.15179494 -0.18556564 -0.19862151
0.1771939 0.30312046 0.46792614 -0.047251523 0.2504854 0.07768588 -0.13449405 -0.69041747
0.01786721 0.1628411 0.20580539 -0.10242148 0.23032361 0.16356738 0.015299496 0.42958397
00000000: 0590 8a3e fbf9 42bd aa80 803f 85d0 db3d
00000010: a652 163f 7954 453e 6516 a3bd 237d 01bf
00000020: 58e0 963e daeb c43d c3c5 fc3d 4ee2 8d3c
00000030: 924d 7e3e feaa 4d3e cdab c43c 9154 543e
00000040: b041 373f 4e11 663e 72da 1fbe a419 e7bd
00000050: 38b7 35bf 5817 653e 0939 273e e26c 3a3e
00000060: b97c 3ebe c4fd 073d 9c53 8c3e 777c 1ebd
00000070: d7d3 373e 5a03 4a3e 01a0 9d3d f6a7 c6bc
00000080: b572 1f3e d306 7c3e c259 cfbd a18c 353e
00000090: 7827 ac3d 8d4e 923d 7aee f4bd 66f1 5f3d
000000a0: 9ddf 893e c43c a7bb bd9e 8abe 23c6 d83d
000000b0: f254 15bf 673f 37be 498e 3b3e 7eb7 be3b
000000c0: 1293 663e ea75 8abe f178 5d3e ee1a fc3d
000000d0: ef2c b73e 4ccb 483e 9e45 99be 8ccd 8cbe
000000e0: 55f6 69bc f073 d5be 2472 76be 6537 a43e
000000f0: 1c6d 263e ea03 7bbe 2850 b1be 8b56 be3d
00000100: 7faf 5abe 4772 093e fb1c 95bd 8709 c2be
00000110: f83e 7fbe 5919 893d b256 07be acd9 92bc
00000120: 1fe2 9c3d 56f0 373e bcad a13e ad11 d13c
00000130: 8a70 ad3d 7acc 293d 5457 1fbe cd2a 6c3e
00000140: 5186 743e b627 4abd 622f 44be 8d0c b73c
00000150: a7bf 1d3e 2858 113e 49c8 c1bd db2d 693e
00000160: f562 3e3d 7729 4b3e 8dda 183e b756 503b
00000170: 153a 21be f217 fbbd ffaa 4e3e 02ce 213e
00000180: 88d4 153e ee26 d0bc e7ce 09be b8ff 01bc
00000190: ac8e db3e 56ca ebbd 568e 5a3e db4a e1be
000001a0: 5610 0a3e 87b9 be3d 451f debd e294 81be
000001b0: 8f20 4ebe 68d3 b63d fd66 a5bd 184e 79be
000001c0: 28a1 cdbd 322e 16be 6d56 98bd 0544 963d
000001d0: c299 d23d 3021 9fbe b93c 27be d19e 013e
000001e0: ad33 3d3e 5606 7dbe a4ac 01bf b994 3b3e
000001f0: bfbf 06bf 2a11 243d c2a9 a6be ea20 81bb
00000200: 630f bf3c 69a1 e8be 05ca 9bbd 4d83 8b3e
00000210: e132 3c3e 7368 833d 3cf8 63be 34d0 bebe
00000220: aadd dabe c4a6 373e 1df4 fb3d f5fd 91bd
00000230: 0e87 97be aaeb 3ebe 5b40 673e 5d79 ce3d
00000240: 9662 973e e4f7 a1bd 0f0d 7d3d 1595 533c
00000250: d8fe cc3e 8b63 e53d d2f8 eebc 32b1 213f
00000260: a263 bfba 6538 f1bd 4d8a 69bd 1ec2 0bbc
00000270: f0c9 d73b 8134 75bd e292 743b d64a 5b3d
00000280: 13f6 bfbd 03cc d43c cbfd 3cbe 0ab2 1abe
00000290: 6ba5 23be b766 1b3e 2bc6 7e3e 7631 e23d
000002a0: 8fb6 1dbe 63cc 163e 7fdd 633d 7d64 29bd
000002b0: c806 14bf dcbd 3ebe 8154 03be 80f7 44be
000002c0: aaba 09be 8e68 97be 0876 38be f53b 47bb
000002d0: 64f9 8fbd 8088 9fbd ddf4 8f3d 3216 76be
000002e0: 1a25 2ebd 4fd0 07be fec4 433d 6e8e 6fbd
000002f0: d3af e3bd 226f d53c aa98 513d f231 4abd
00000300: aa1c 1e3e 82cb 4cbe c2f0 e33e 2ece 16be
00000310: d093 49be 620d 2e3e 5d52 57be 070c 963b
00000320: 2573 87bd bc30 4a3e 755d 3d3e 9037 30bd
00000330: 6fe6 ccbc 10ba a23d 8808 52bd b9ee 1f3e
00000340: 2d82 583e ca1c 493d 4742 1bbe 7c24 143e
00000350: a5f3 d8be 0316 323e 3e54 d43d f421 2bbd
00000360: 089e fe3c 5bb5 0b3e 8fbc 163f 87d2 823d
00000370: 72d5 d6bd 8110 883e b3b0 5c3d 5a2f c93d
00000380: a0a6 24be bf37 ddbb 570a d73d ec6b 7d3e
00000390: 6ce0 33be dc14 bbbd 38fe 51be a2ec 763d
000003a0: eccb d93e 1ee0 0d3e a8ef 2b3e 5f05 4f3e
000003b0: 2dcb fabe 2270 1b3e eb04 3ebe 7063 4bbe
000003c0: 5172 353e 9b32 9b3e 0494 ef3e d08a 41bd
000003d0: 9f3f 803e c619 9f3d cfb8 09be 33bf 30bf
000003e0: 415e 923c d1bf 263e a6be 523e 5ac2 d1bd
000003f0: f4d9 6b3e 357e 273e bdaa 7a3c 6ef2 db3e

rnn.weight_hh_l2 f4 [72, 24]
0.24130619 0.5910195 -0.05991364 0.055601846 -0.32167104 0.08826824 -0.22642657 -0.48933762
0.18318993 -0.2609295 0.369066 -0.6208548 0.2937735 0.18970594 0.16423848 0.7628657
0.12898651 0.20199913 0.34170797 -0.38486737 -0.2233536 -0.08214501 -0.08935031 -0.17066269
0.3218791 0.16017216 -0.103637084 0.167397 -0.38281313 0.13538826 -0.00030645542 -0.3841989
0.24722931 0.088043146 0.20902374 -0.23115888 -0.14489432 0.090134345 0.14875068 0.2869819
-0.0021154645 0.17798972 0.080171995 0.19133276 -0.25478902 -0.04830472 0.12772842 -0.35210305
-0.058446575 -0.32630065 -0.4776442 -0.5385672 0.02629559 0.071059406 -0.2854333 0.3176589
-0.09678583 0.3827091 -0.4056461 0.26546738 -1.2201384 0.4238888 -0.18028411 -0.2728415
-0.4749667 -0.34128347 0.37644035 0.44961682 0.39572367 -0.33415037 0.12753418 -0.15254557
0.4783855 0.27718198 -0.10577716 -0.06648048 -0.077884145 0.11090586 0.063997164 -0.078783646
0.22528788 -0.20712304 0.030833803 -0.15095869 -0.0739963 -0.15370853 0.17125729 0.12399404
0.38395023 0.27368382 0.030947443 -0.14077124 0.05686307 0.3245101 0.013473132 -0.27084574
-0.14756116 -0.23544957 0.016402625 -0.2976558 -0.04311033 -0.15546627 0.07468422 -0.054599106
-0.20096093 0.26461026 -0.30425584 0.24974898 -0.3935184 -0.023678085 -0.020365143 -0.079416
-0.11110895 0.074650794 0.032665193 0.13352448 0.27248335 -0.21988386 0.07090881 0.1450257
-0.13339935 0.10010283 -0.15120141 -0.19073336 0.48083803 0.057359457 -0.10532135 0.40260676
-0.30554986 0.2570923 -0.3546653 0.3913685 -0.6409187 0.2288149 0.22389013 -0.47935498
0.11694111 0.017853936 -0.30812296 0.27923423 -0.008118181 -0.40915206 0.048753005 -0.1402904
0.20612758 0.38923872 -0.23268422 0.018076262 0.3255818 0.04480317 0.0882914 0.15142725
0.014318849 0.09101894 0.2852036 -0.2185767 -0.18075918 -0.18608257 -0.01338163 -0.29238048
-0.12745318 -0.22544347 -0.08839149 0.29658586 -0.33847362 -0.22870676 -0.0016096848 -0.17060445
0.036704697 0.005207778 0.12642445 0.040843852 0.028367884 0.2179691 0.16620713 -0.104260914
-0.28590646 -0.18244405 -0.20300937 -0.27359855 0.23220038 -0.066280894 -0.05087612 -0.0396152
0.15779662 0.08757037 -0.1322449 0.15486538 0.0040499326 -0.040522326 -0.005455583 0.182898
0.23923555 0.19998688 0.009880615 0.20637743 -0.07654667 0.13073018 -0.14679377 -0.08422088
0.08709992 0.09356561 0.14846748 -0.48408473 0.34194475 -0.014199888 0.24683356 0.23730029
0.24826746 0.2701486 0.22779612 0.14429231 -0.21095432 0.0076101846 -0.16045403 -0.27739805
0.101056 0.1897447 0.029146044 0.19251776 -0.014011588 0.10766929 0.059988014 -0.33986494
-0.06718356 -0.23095214 0.31443718 -0.49755636 0.23112363 0.09416377 -0.04036139 0.29894125
0.15928686 -0.06723106 0.16635525 -0.26564455 -0.026976991 0.2182349 0.035281334 0.029663112
0.4108118 0.3350029 -0.3051465 -0.028686162 -0.3835092 0.40056926 -0.06306526 -0.054025453
0.10797499 0.016453555 0.24876425 -0.3469599 -0.081948385 0.22687815 0.252298 0.24555472
00000000: f818 773e 0e4d 173f 0168 75bd c3be 633d
00000010: 11b2 a4be fbc5 b43d 5edc 67be 768a fabe
00000020: 2496 3b3e 8d98 85be 38f6 bc3e 57f0 1ebf
00000030: 7b69 963e 4642 423e 222e 283e 2b4b 433f
00000040: 0a15 043e dcd8 4e3e 59f4 ae3e 560d c5be
00000050: ceb6 64be a53b a8bd 4cfd b6bd 33c2 2ebe
00000060: 56cd a43e 2c04 243e ae3f d4bd 1f6a 2b3e
00000070: 1500 c4be 38a3 0a3e c0ab a0b9 b8b5 c4be
00000080: ae29 7d3e f74f b43d 520a 563e eab4 6cbe
00000090: 2d5f 14be 5b98 b83d 1952 183e 4bef 923e
000000a0: 9ba3 0abb f042 363e 3731 a43d bcec 433e
000000b0: b573 82be 2cdb 45bd 3dcb 023e da46 b4be
000000c0: ad65 6fbd e110 a7be c88d f4be 8adf 09bf
000000d0: d969 d73c 9887 913d 5024 92be 30a4 a23e
000000e0: a637 c6bd 72f2 c33e d8b0 cfbe 57eb 873e
000000f0: 7f2d 9cbf f407 d93e 669c 38be e2b1 8bbe
00000100: d62e f3be b5bc aebe cabc c03e 2d34 e63e
00000110: 4b9c ca3e c215 abbe 5298 023e e834 1cbe
00000120: f2ee f43e ccea 8d3e b2a1 d8bd eb26 88bd
00000130: b981 9fbd 9d22 e33d f210 833d 5259 a1bd
00000140: deb1 663e 1018 54be 2c97 fc3c ea94 1abe
00000150: 5f8b 97bd c565 1dbe 125e 2f3e 96f0 fd3d
00000160: 2095 c43e 4920 8c3e 7e85 fd3c 5626 10be
00000170: 40e9 683d 3026 a63e 69be 5c3c 4bac 8abe
00000180: 461a 17be b119 71be cc5e 863c 5766 98be
00000190: 7594 30bd 8d32 1fbe 0af4 983d 50a3 5fbd
000001a0: b4c8 4dbe ff7a 873e 6cc7 9bbe 32be 7f3e
000001b0: 3e7b c9be 8bf8 c1bc cdd4 a6bc dba4 a2bd
000001c0: 178d e3bd 84e2 983d f0cb 053d a4ba 083e
000001d0: f082 8b3e 3c29 61be a338 913d 9e81 143e
000001e0: d799 08be b602 cd3d 8bd4 1abe 9b4f 43be
000001f0: 6730 f63e c0f1 6a3d b8b2 d7bd 7922 ce3e
00000200: 0871 9cbe 9aa1 833e b196 b5be 7461 c83e
00000210: 3f13 24bf 744e 6a3e 7443 653e 046e f5be
00000220: d27e ef3d 6b42 923c 4bc2 9dbe caf7 8e3e
00000230: 1e02 05bc 617c d1be 3bb1 473d 49a8 0fbe
00000240: 1c13 533e 4c4a c73e c644 6ebe ab14 943c
00000250: a8b2 a63e 8783 373d 1fd2 b43d bf0f 1b3e
00000260: 9b99 6a3c 2368 ba3d 3506 923e 92d2 5fbe
00000270: ef18 39be 6e8c 3ebe a03e 5bbc e5b2 95be
00000280: 1683 02be a7da 66be 9906 b5bd 1ada 973e
00000290: 6a4c adbe 1b32 6abe 0ffc d2ba efb2 2ebe
000002a0: aa57 163d 02a6 aa3b 6975 013e e24b 273d
000002b0: c463 e83c 4b33 5f3e 3432 2a3e bf86 d5bd
000002c0: 5562 92be 9dd2 3abe b0e1 4fbe 1c15 8cbe
000002d0: f0c5 6d3e 47be 87bd 7a63 50bd 8c43 22bd
000002e0: 7095 213e 1858 b33d 356b 07be 0895 1e3e
000002f0: 4cb5 843b bdfa 25bd bfc4 b2bb 9d49 3b3e
00000300: 2afa 743e 5cc9 4c3e 4ee2 213c 9b54 533e
00000310: 80c4 9cbd 22de 053e 1b51 16be ff7b acbd
00000320: 7161 b23d 549f bf3d dc07 183e f4d9 f7be
00000330: 6213 af3e a6a6 68bc f0c1 7c3e d9fe 723e
00000340: d339 7e3e eb50 8a3e 6343 693e 5dc1 133e
00000350: 6904 58be db5e f93b 104e 24be 1e07 8ebe
00000360: 73f6 ce3d 6f4c 423e afc3 ee3c 6023 453e
00000370: dc90 65bc b781 dc3d feb5 753d c702 aebe
00000380: 8997 89bd b87e 6cbe e9fd a03e b5bf febe
00000390: acab 6c3e efd8 c03d fc51 25bd d40e 993e
000003a0: 181c 233e 70b0 89bd 0859 2a3e 9002 88be
000003b0: dafe dcbc f878 5f3e 2983 103d 0e00 f33c
000003c0: ed55 d23e 8085 ab3e 293c 9cbe 3eff eabc
000003d0: 515b c4be 6a17 cd3e 5c28 81bd cb49 5dbd
000003e0: fe21 dd3d 9bc9 863c 0ebc 7e3e baa4 b1be
000003f0: 8ed4 a7bd bf52 683e 342d 813e b272 7b3e

rnn.bias_ih_l2 f4 [72]
0.33537704 0.12674414 0.26605684 -0.15190499 0.07258032 0.1239132 0.38285285 -0.01965594
-0.124439456 -0.048872832 0.20658103 0.28661188 0.4549707 0.16814531 -0.10304857 0.16663261
-0.055536248 0.33462816 0.17205296 0.112949215 0.044673093 -0.13428847 0.14747483 0.30444008
-0.34606835 -0.21441305 -0.79899144 -0.43019843 -0.32644615 -0.35150805 -0.56763697 -0.67607933
-0.30247247 -0.42481408 -0.60049325 -0.58317053 -1.0505092 -0.0058228867 -0.16110213 -0.24242674
-0.4265241 -0.062038824 -0.422795 -0.5759481 0.013056084 -0.64527154 -0.6056632 -0.20631571
0.07090022 -0.09431137 -0.032245975 -0.019859672 0.13120385 0.20048274 -0.10769012 -0.069357306
-0.13341658 -0.02167232 -0.1082256 -0.15733993 -0.022694875 0.18333337 -0.0010976082 0.046432476
-0.11935713 -0.11570916 0.27921757 0.101329654 -0.07844949 -0.13648142 0.02092065 0.019675333
00000000: 8ab6 ab3e 37c9 013e 9a38 883e fb8c 1bbe
00000010: fea4 943d 34c6 fd3d 4a05 c43e 7e05 a1bc
00000020: 1dda febd e12e 48bd fa89 533e cbbe 923e
00000030: ebf1 e83e 492e 2c3e 210b d3bd bda1 2a3e
00000040: fa79 63bd 6254 ab3e a72e 303e eb51 e73d
00000050: 22fb 363d eb82 09be a403 173e 92df 9b3e
00000060: df2f b1be 188f 5bbe b48a 4cbf f842 dcbe
00000070: f323 a7be ddf8 b3be a850 11bf 8913 2dbf
00000080: acdd 9abe 3b81 d9be edb9 19bf aa4a 15bf
00000090: 1677 86bf eacd bebb f5f7 24be b73e 78be
000000a0: 5e61 dabe 6c1c 7ebd 9678 d8be 5671 13bf
000000b0: 2fe9 553c 8430 25bf be0c 1bbf 6d44 53be
000000c0: 2234 913d 5226 c1bd 5b14 04bd c0b0 a2bc
000000d0: 4d5a 063e 594b 4d3e a38c dcbd 340b 8ebd
000000e0: 5b9e 08be 268a b1bc 62a5 ddbd b81d 21be
000000f0: 9aea b9bc bebb 3b3e 9fdd 8fba fb2f 3e3d
00000100: 8371 f4bd edf8 ecbd 9bf5 8e3e ec85 cf3d
00000110: 20aa a0bd c9c1 0bbe c861 ab3c 2a2e a13c

rnn.bias_hh_l2 f4 [72]
-0.017966714 -0.19191009 0.50455767 0.03229796 -0.1455557 0.16171661 0.08849002 0.2052208
-0.15464337 -0.07580911 0.028457234 0.15356283 0.5122185 0.25401026 0.061051752 0.052648526
0.17599514 0.09964994 0.20604916 0.10806824 -0.17630114 -0.14188255 -0.0021052412 0.23381278
-0.43024975 -0.25184935 -0.8714679 -0.24877332 -0.47889426 -0.2766118 -0.58133733 -0.6200675
-0.31123027 -0.62393665 -0.764083 -0.69986796 -1.0985578 0.09515936 -0.3177078 -0.2417613
-0.67900616 -0.4314549 -0.5943248 -0.5452489 -0.21398483 -0.66415477 -0.6268178 -0.14514579
0.19677982 0.035620738 0.25532237 -0.07811463 -0.15183768 -0.10312233 -0.36051565 0.24740568
-0.07950793 0.1699937 0.0991238 0.019083276 -0.015802726 0.20315431 0.09207844 -0.028385615
-0.2545106 0.055908956 0.26793453 -0.14939553 0.18993825 0.10830653 0.14890261 0.037332755
00000000: ee2e 93bc 1484 44be b12a 013f de4a 043d
00000010: 8e0c 15be 0a99 253e 413a b53d 6725 523e
00000020: d55a 1ebe cf41 9bbd 251f e93c 933f 1d3e
00000030: c020 033f a20d 823e 6711 7a3d fba5 573d
00000040: 1238 343e 4515 cc3d 8dfe 523e e252 dd3d
00000050: 4988 34be a949 11be 16f8 09bb 9e6c 6f3e
00000060: b249 dcbe 66f2 80be 8518 5fbf 6fbe 7ebe
00000070: a131 f5be 10a0 8dbe 86d2 14bf bebc 1ebf
00000080: 9359 9fbe 50ba 1fbf f29a 43bf 8c2a 33bf
00000090: 8b9d 8cbf e9e2 c23d 99aa a2be 4690 77be
000000a0: 59d3 2dbf a8e7 dcbe ac25 18bf 6f95 0bbf
000000b0: d71e 5bbe 0c06 2abf 2277 20bf 19a1 14be
000000c0: a680 493e 0de7 113d 9db9 823e 90fa 9fbd
000000d0: 567b 1bbe cd31 d3bd 8295 b8be ea57 7d3e
000000e0: 0ed5 a2bd d412 2e3e 6b01 cb3d 8854 9c3c
000000f0: b874 81bc af07 503e 9f93 bc3d f388 e8bc
00000100: 374f 82be ca00 653d b72e 893e 24fb 18be
00000110: 2c7f 423e d0cf dd3d ed79 183e 3bea 183d
