Checkpoints/TEST2_sines_checkpoint.pth (torch, 717670 bytes, 207 tensors)

rnn.weight_ih_l0 f4 [72, 5]
0	0x3e3122cb	0.17298429
1	0xbe1ce42e	-0.15321419
2	0xbea13dec	-0.31492555
3	0xbdfe361a	-0.12412663
4	0x3e09b6f2	0.13448694
5	0xbe631a30	-0.22177958
6	0xbd43dde2	-0.047819026
7	0x3e19dc4d	0.15025444
8	0x3e8cb039	0.27478197
9	0x3d114b11	0.03547198
10	0x3e7bd414	0.2459262
11	0xbc065a24	-0.008200202
12	0xbe142908	-0.14468777
13	0xbe2dcc15	-0.16972382
14	0x3e63256c	0.22182244
15	0x3eb2df3a	0.34935933
16	0x3ea918ae	0.33026642
17	0xbf043702	-0.51646435
18	0xbeb86a4e	-0.36018604
19	0x3e1c832c	0.15284413
20	0x3dbf456f	0.09339415
21	0xbcf09429	-0.029367523
22	0x3c924f0f	0.017859964
23	0x3e915cee	0.28391212
24	0x3ed07025	0.4071056
25	0xbe288f5d	-0.16460939
26	0x3c2a1d39	0.010382944
27	0x3df4948b	0.11942395
28	0xbd9cd65c	-0.07658073
29	0x3d6ea3ec	0.058261797
30	0xbb9bde9e	-0.0047567626
31	0xbba94de6	-0.005166757
32	0x3bd3983c	0.0064573567
33	0x3d6ef093	0.0583349
34	0x3b9d2030	0.004795097
35	0x3d6200d9	0.05517659
36	0xbe69e294	-0.22840339
37	0xbd2f134e	-0.04274302
38	0x3c6a853c	0.014313992
39	0x3d75f308	0.060046226
40	0xbe4b8df0	-0.19878364
41	0x3d0656a9	0.03279749
42	0xbe376c8c	-0.17912501
43	0x3e03fb37	0.128888
44	0x3e5de652	0.21669891
45	0xbe2878e1	-0.16452362
46	0x3ddd623c	0.10809752
47	0xbdad9959	-0.08476514
48	0x3d29f7cc	0.041496083
49	0xbda283a7	-0.07935267
50	0xbe3f7ff0	-0.18701148
51	0xbe2aedd1	-0.16692282
52	0xbc918ef8	-0.017768368
53	0xbe0ddca8	-0.13853705
54	0xbe606ab9	-0.21915711
55	0x3e3781d1	0.17920615
56	0x3f37e591	0.71834666
57	0xbef0900d	-0.46984902
58	0x3e1b1d07	0.15147792
59	0xbdd7a04e	-0.105286226
60	0xbe206771	-0.1566446
61	0x3ec719b9	0.38886812
62	0xbdbc2403	-0.09186556
63	0xbeadeb57	-0.33968613
64	0x3ea0ec33	0.31430206
65	0x3d65b913	0.056084704
66	0xbcd729da	-0.026265074
67	0x3cb9aea6	0.022666287
68	0x3d986ac9	0.07442243
69	0x3dc2d80a	0.095138624
70	0x3ea0f5bc	0.3143748
71	0xbf1db092	-0.6159755
72	0x3e13e1e2	0.14441636
73	0x3c999073	0.018745637
74	0x3f7bd493	0.9837124
75	0xbcc1e6eb	-0.02366968
76	0xbe6a51d7	-0.22882782
77	0x3e8ee11e	0.27906126
78	0xbe462527	-0.1935011
79	0xbd83e62a	-0.06440385
80	0x3e9016e9	0.2814248
81	0xbee54493	-0.4477888
82	0x3eaa2806	0.3323366
83	0xbe9ed73e	-0.31023592
84	0x3ec0c507	0.3765032
85	0xbe57b0b6	-0.21063504
86	0x3e83db85	0.25753418
87	0xbf04438b	-0.5166556
88	0xbf04b8e6	-0.5184463
89	0x3ea8f4c7	0.3299925
90	0x3d39780e	0.04528051
91	0xbe0c0c0f	-0.13676475
92	0xbf1e4285	-0.6182025
93	0xbf081adb	-0.5316598
94	0x3decfa73	0.11571207
95	0x3f58980b	0.84607
96	0xbe391509	-0.1807443
97	0x3ebec6e7	0.37261125
98	0x3e543278	0.20722377
99	0x3e092722	0.13393834
100	0x3daa8aba	0.08327241
101	0xbead5205	-0.33851638
102	0xbda48e3b	-0.08034941
103	0x3d1910e6	0.03736963
104	0xbd97bcbd	-0.07409046
105	0x3e8d6f06	0.27623767
106	0x3cafddd4	0.02146808
107	0x3ee59c4d	0.4484581
108	0xbca7f3a1	-0.020501914
109	0x3e151926	0.14560375
110	0xbe0b0a7b	-0.13578217
111	0xbd276b98	-0.040874094
112	0x3e1149c5	0.14188297
113	0x3dc9fc3f	0.09862565
114	0x3dd6eed4	0.104947716
115	0xbeb10f74	-0.34582102
116	0x3d8b83dc	0.068122596
117	0xbe41e458	-0.18934762
118	0xbddde3bc	-0.108344525
119	0x3d4ccc0f	0.049999293
120	0xbc9662d7	-0.018357677
121	0xbebbc0ba	-0.36670476
122	0xbdd1c7b0	-0.102431655
123	0x3cba1de5	0.022719333
124	0xbf3ab4e3	-0.7293226
125	0xbe85b0b2	-0.2611137
126	0x3df46b00	0.11934471
127	0x3e53acb8	0.20671356
128	0xbd94dcd7	-0.07268684
129	0xbe540e08	-0.20708477
130	0xbf9e23a3	-1.2354625
131	0x3f1e7ebc	0.6191213
132	0xbed903d1	-0.42385724
133	0xbf4c53ee	-0.79815567
134	0x3ec0a243	0.37623796
135	0xbf060cdc	-0.5236337
136	0xbe05f11a	-0.13080254
137	0xbf607597	-0.8767943
138	0xbef7f048	-0.48425508
139	0xbf0d9969	-0.5531221
140	0xbee32738	-0.4436586
141	0xbe3f10a6	-0.18658695
142	0xbccedda5	-0.025252173
143	0xbce7023c	-0.028199308
144	0xbe92d5d9	-0.28678778
145	0xbf0430fb	-0.5163724
146	0xbd8b4a88	-0.06801325
147	0x3daf5331	0.085607894
148	0x3e395eae	0.18102524
149	0xbf316f96	-0.6931089
150	0xbe967920	-0.29389286
151	0xbeade753	-0.3396555
152	0x3e9cf92b	0.3065885
153	0xbe531c82	-0.20616344
154	0xbf04eece	-0.5192689
155	0xbec689ce	-0.38777012
156	0xbe8f4c46	-0.2798788
157	0x3e6dbfe0	0.23217726
158	0x3de49b33	0.111624144
159	0xbf0c5754	-0.5482075
160	0x3e32d46a	0.17463842
161	0xbcdec094	-0.027191438
162	0xbf306cfc	-0.68916297
163	0xbeee9f69	-0.46605995
164	0xbf36379f	-0.7117862
165	0xbf249541	-0.64290243
166	0xbe9ab0eb	-0.30213103
167	0x3d70c874	0.058784917
168	0xbca8fbe0	-0.020627916
169	0xbe8d9fa6	-0.27660865
170	0xbf58de44	-0.8471415
171	0xbebfb304	-0.37441266
172	0xbeab39df	-0.3344259
173	0xbec21506	-0.37906665
174	0xbe8a57f0	-0.27020216
175	0xbf1c60a7	-0.6108498
176	0xbf0204a3	-0.50788325
177	0xbe028241	-0.12745
178	0xbf3b5e1b	-0.7319047
179	0xbef0b714	-0.47014678
180	0xbeb34761	-0.35015395
181	0xbf047d86	-0.51754034
182	0xbec9bb17	-0.3940055
183	0xbf2a065f	-0.6641597
184	0xbf0e77a2	-0.55651295
185	0xbd1cbbd2	-0.038265057
186	0xbf04f2a7	-0.5193276
187	0xbda8758a	-0.08225544
188	0xbd80845e	-0.06275247
189	0xbf3df5d2	-0.7420322
190	0xbefcf3de	-0.49404806
191	0xbf4c02cf	-0.79691786
192	0xbe83585e	-0.25653356
193	0x3d25e6a7	0.04050317
194	0xbef91a6d	-0.48652974
195	0xbf217098	-0.6306243
196	0x3e01d2f7	0.12678133
197	0xbe0389d0	-0.1284554
198	0x3e984946	0.29743403
199	0xbf0861d0	-0.5327425
200	0xbe286909	-0.16446318
201	0xbe765d3d	-0.24059005
202	0xbed59a70	-0.4171939
203	0xbdcad3ec	-0.09903702
204	0xbd54cb16	-0.05195149
205	0xbfabe08a	-1.3427899
206	0xbf4a3e2d	-0.7900112
207	0xbf26207d	-0.64893323
208	0xbf77c202	-0.9678041
209	0xbe55d096	-0.2088035
210	0xbf6f7063	-0.93530864
211	0xbe9b28ff	-0.30304715
212	0xbe79631d	-0.24354215
213	0xbf1c630d	-0.6108864
214	0xbe8cbec1	-0.27489284
215	0xbf86d0ce	-1.0532472
216	0xbe335b4e	-0.17515299
217	0xbef2fb5f	-0.47457406
218	0xbe8832a8	-0.26601148
219	0xbf60447d	-0.87604505
220	0x3d91b63f	0.07114839
221	0x3f5a564c	0.8528793
222	0xbf60c089	-0.87793785
223	0xbd90f843	-0.07078602
224	0xbe79e8ee	-0.24405262
225	0x3cc57075	0.024101475
226	0x3e3ac669	0.1823975
227	0xbecfa552	-0.40555817
228	0xbeeb9d3b	-0.46018395
229	0xbcf91e55	-0.030409971
230	0xbe4bd43d	-0.19905181
231	0xbe4da7ba	-0.20083514
232	0x3e620f1d	0.22076078
233	0x3df17a66	0.11790924
234	0xbe73c9af	-0.23807405
235	0xbda829f7	-0.08211129
236	0xbedfd06c	-0.437137
237	0xbed8dc83	-0.42355737
238	0xbe361275	-0.17780478
239	0xbeef6611	-0.46757558
240	0xbe1fea68	-0.15616763
241	0xbcf49b0e	-0.029859092
242	0x3ebf18f6	0.3732373
243	0x3e3deb3f	0.1854677
244	0x3e33f26a	0.17572942
245	0xbdead1aa	-0.114657715
246	0x3e4304e4	0.19044834
247	0x3da25e20	0.07928109
248	0x3e6b70ad	0.22992201
249	0xbe0a0b55	-0.13480885
250	0xbe093e98	-0.13402784
251	0xbe5d8573	-0.21632938
252	0x3efdf856	0.49603528
253	0x3ea1419a	0.31495363
254	0x3dbb2ab2	0.09139003
255	0x3e5b310d	0.2140543

rnn.weight_hh_l0 f4 [72, 24]
0	0xbe2d4069	-0.16919102
1	0xbb508f22	-0.0031823595
2	0x3de45158	0.111483276
3	0x3e88ee5e	0.2674436
4	0xbe148e5f	-0.14507435
5	0x3e134f79	0.14385785
6	0xbe4bb829	-0.1989447
7	0x3cd59b3b	0.026074996
8	0x3e8e40c3	0.27783784
9	0xbd447d29	-0.047970925
10	0xbe182d90	-0.1486113
11	0xbe2f5553	-0.17122392
12	0xbe5b11f9	-0.21393575
13	0xbe7500a1	-0.23926021
14	0xbafaf3c8	-0.0019146139
15	0xbe4aea25	-0.19815882
16	0xbde5aa30	-0.11214101
17	0xbbfce5b6	-0.0077178134
18	0x3d8015ec	0.06254181
19	0x3e7ce10d	0.24695225
20	0x3d44a9b2	0.048013397
21	0xbe2f14b5	-0.17097743
22	0x3e1de110	0.15417886
23	0xbbf71283	-0.0075400486
24	0x3e1b31aa	0.15155664
25	0x3e37a6d9	0.17934741
26	0xbd686955	-0.056741077
27	0x3d55e928	0.05222431
28	0xbe54ed9d	-0.20793767
29	0xbcaeb223	-0.021325177
30	0x3e5ba8db	0.21451132
31	0x3dc97d2f	0.0983833
32	0xbe1c361c	-0.15255016
33	0xbe50ca02	-0.2038956
34	0xbe44c900	-0.192173
35	0xbe7954e7	-0.24348794
36	0x3e53e89e	0.20694205
37	0xbc8cbd05	-0.017179975
38	0x3e30e23c	0.17273802
39	0x3e05da8f	0.13071655
40	0xbd3af22b	-0.045641106
41	0x39073ec3	0.00012897984
42	0x3e6b4b9a	0.22978058
43	0x3e911816	0.2833869
44	0x3e129415	0.14314301
45	0x3dd31b89	0.10307986
46	0xbdf78cf1	-0.12087429
47	0xbe6a64b4	-0.22889978
48	0xbcccbac5	-0.024991402
49	0x3d81dfbb	0.06341501
50	0xbd5bf9ab	-0.0537049
51	0x3df413ea	0.11917861
52	0xbe859b85	-0.26095214
53	0x3e728740	0.23684406
54	0x3ecfca88	0.40584207
55	0x3e8dffe2	0.27734286
56	0xbe490547	-0.1963092
57	0xbd38ba2f	-0.045099434
58	0xbdde8faf	-0.10867249
59	0xbe9c5b8e	-0.305386
60	0xbe079434	-0.13240129
61	0x3e0ecb2d	0.13944693
62	0xbd5eff32	-0.054442592
63	0x3e0d0639	0.13771905
64	0xbe2b1c9d	-0.16710134
65	0xbd304206	-0.043031715
66	0xbcc609e4	-0.024174638
67	0xbdab0e6c	-0.0835236
68	0xbc45e03a	-0.012077386
69	0xbe0021ce	-0.12512895
70	0xbdf9df7d	-0.1220083
71	0xbd798236	-0.060915194
72	0xbf13e25b	-0.57767266
73	0x3e49526a	0.19660345
74	0xbc251d7f	-0.010077833
75	0x3e1288e4	0.14310032
76	0xbea86659	-0.32890585
77	0x3f0e3a9e	0.5555819
78	0xbec381f8	-0.38185096
79	0x3ea51e50	0.3224969
80	0xbe1edf60	-0.15514898
81	0xbad0753a	-0.0015904077
82	0xbe770095	-0.24121316
83	0xbe17b9cf	-0.14816974
84	0x3ec3dc25	0.38253894
85	0xbeb9cb47	-0.362879
86	0x3dd314eb	0.10306724
87	0x3e3f992e	0.18710777
88	0xbe5a87f0	-0.21340919
89	0xbd608646	-0.054815553
90	0x3d137da5	0.036008496
91	0xbd03734f	-0.03209239
92	0x3e9cdedc	0.30638778
93	0xbdad9518	-0.08475703
94	0x3cd91b60	0.026502311
95	0x3dc6e00f	0.097107045
96	0xbe0fb3b2	-0.14033392
97	0x3e0fd494	0.14045936
98	0x3e52797c	0.20554155
99	0xbe49a819	-0.1969303
100	0x3d80800f	0.06274425
101	0xbcdf3914	-0.027248897
102	0xbe6e671f	-0.23281525
103	0xbe633feb	-0.22192352
104	0x3e9b1f92	0.30297524
105	0xbdd6ebf7	-0.104942255
106	0x3dfb41d8	0.12268418
107	0x3d11a4d2	0.035557576
108	0xbdfb0f1f	-0.122587435
109	0xbca434b4	-0.020044662
110	0xbb8b45b5	-0.004250253
111	0x3d0c66b4	0.034277633
112	0xbd9bb9a2	-0.07603766
113	0x3dfe3903	0.12413218
114	0x3e801682	0.25017172
115	0xbd415557	-0.047200527
116	0xbdc1a07b	-0.09454437
117	0xbdb01561	-0.08597828
118	0xbdc2bc06	-0.09508519
119	0xbcbe8333	-0.02325592
120	0x3d07a150	0.033112824
121	0x3da8d3f0	0.08243549
122	0x3d24ad40	0.040204287
123	0xbd75d67b	-0.060018998
124	0xbe35be89	-0.17748465
125	0xbe264e03	-0.16240697
126	0xbe221733	-0.15829162
127	0xbeb2ae7a	-0.3489874
128	0xbe144cf7	-0.14482485
129	0xbe8456c9	-0.25847462
130	0xbe673e17	-0.22582279
131	0xba109df0	-0.00055166986
132	0x3d97decd	0.07415543
133	0xbd3d6454	-0.04623826
134	0x3e502c18	0.2032932
135	0xbe4c0a31	-0.19925763
136	0xbd0294a3	-0.031880032
137	0xbe27ebb0	-0.16398501
138	0x3dfd0266	0.12353973
139	0x3c8a4d74	0.016882636
140	0xbdcc2dfd	-0.09969709
141	0x3dae72be	0.08517979
142	0x3d2407a6	0.040046357
143	0x3d9085eb	0.07056793
144	0x3bba1a4c	0.0056794044
145	0x3cc3fe69	0.023925023
146	0x3e87b3cf	0.2650437
147	0x3d2be6d2	0.041968174
148	0x3d4d0231	0.050050918
149	0x3e35937f	0.17732047
150	0x3ca544f6	0.020174485
151	0x3c983ec4	0.018584616
152	0x3d01ed19	0.031720255
153	0xbd86aa37	-0.06575435
154	0xbe4f2d07	-0.2023202
155	0xbe06f678	-0.13179958
156	0x3d9edbf7	0.07756799
157	0xbe74bef5	-0.2390097
158	0x3e9d8bbe	0.30770677
159	0xbbd3be4b	-0.0064618937
160	0x3d5736fb	0.052542668
161	0xbd5782e9	-0.05261508
162	0x3e76e8b4	0.24112207
163	0x3ddea0ed	0.10870538
164	0x3d0fa3bd	0.035068262
165	0x3e134ba9	0.14384331
166	0x3dbf6940	0.09346247
167	0x3dc808ba	0.097672895
168	0xbe1643da	-0.14674321
169	0xbe3393f9	-0.17536916
170	0x3ded62bf	0.115911
171	0x3e77ac71	0.24186875
172	0x3e012c39	0.12614526
173	0x3d42127b	0.047380906
174	0x3d9dd7e8	0.077071965
175	0xbbdd387d	-0.0067511187
176	0x3e96fe49	0.2949088
177	0xbdcc2bb9	-0.09969277
178	0xbd19a789	-0.03751329
179	0xbdc354be	-0.09537648
180	0xbe08cb05	-0.13358696
181	0x3e22da7a	0.15903655
182	0xbe01fd95	-0.1269439
183	0xbe0be30b	-0.13660829
184	0xbe83b622	-0.25724894
185	0x3e027ecd	0.12743683
186	0xbdba9f06	-0.091123626
187	0xbd8ab031	-0.06771887
188	0xbcad8671	-0.02118227
189	0x3cb1eb32	0.021718595
190	0x3e1a06ee	0.15041706
191	0xbd1ccdd2	-0.038282223
192	0x3e0f1a22	0.13974813
193	0xbd8a2a4b	-0.06746348
194	0x3e0a7403	0.13520817
195	0x3e98d446	0.29849452
196	0xbe29614b	-0.1654102
197	0x3e04e31e	0.12977263
198	0xbcb0a7d2	-0.021564398
199	0xb9d75761	-0.00041073098
200	0x3d87a396	0.066229984
201	0x3dfbcf35	0.12295381
202	0xbe08d1bd	-0.13361259
203	0x3dbecfce	0.09316979
204	0x3e9df7eb	0.3085321
205	0x3e8a5a4a	0.2702201
206	0x3dbc3f0d	0.091917135
207	0x3dd3fd51	0.10351051
208	0xbdbc0086	-0.09179787
209	0xbd7fb45e	-0.06242787
210	0x3e7c4ed3	0.24639444
211	0xbdec2919	-0.11531276
212	0x3c95a5f2	0.018267605
213	0xbe776b36	-0.24161991
214	0xbdb24bc2	-0.08705856
215	0xbe9a58d0	-0.30145884
216	0x3e91b89f	0.28461167
217	0x3c2f061e	0.010682611
218	0xbdd9f50b	-0.10642441
219	0xba4b2121	-0.0007748772
220	0xbda30c71	-0.079613574
221	0xbcf2a224	-0.02961833
222	0x3e207ae5	0.1567188
223	0xbe1a5862	-0.15072778
224	0xbd9a71c0	-0.07541227
225	0x3e169d61	0.14708473
226	0xbdb8b371	-0.09018601
227	0xbcddb403	-0.027063375
228	0xbe214143	-0.15747552
229	0x3e11b53f	0.14229296
230	0xbca19dd8	-0.019728586
231	0xbdbe808d	-0.09301863
232	0xbe7e5948	-0.24838746
233	0xbe119227	-0.14215909
234	0x3b825cd3	0.0039783507
235	0xbaae53a4	-0.0013300073
236	0xbe34896a	-0.17630544
237	0xbd9e0f25	-0.07717732
238	0x3ddfbf0f	0.109251134
239	0xbe27db6c	-0.16392297
240	0x3dcadb9b	0.09905168
241	0x3e543a1f	0.20725296
242	0x3e064e49	0.13115801
243	0x3e30ccae	0.17265579
244	0xbe4b7a41	-0.19870855
245	0x3e145af2	0.14487818
246	0xbcaa3860	-0.020778835
247	0xbe1b2aa9	-0.15152992
248	0xbe26686c	-0.16250771
249	0xbe009212	-0.12555721
250	0xbc193f22	-0.009353431
251	0x3dc9b43c	0.0984883
252	0xbeb008e6	-0.3438179
253	0x3dc300f5	0.09521667
254	0x3d119380	0.035541058
255	0xbe6c30dd	-0.23065515

rnn.bias_ih_l0 f4 [72]
0	0x3da687b9	0.08131356
1	0x3d66e2ba	0.056368567
2	0xbd11ede0	-0.035627246
3	0x3eb3e11c	0.35132682
4	0xbd925666	-0.071453854
5	0x3e21babc	0.1579389
6	0xbd17acdc	-0.037030086
7	0xbdd8698a	-0.10567005
8	0xbe40a737	-0.18813787
9	0xbe08257b	-0.13295548
10	0x3d6ecdb1	0.05830163
11	0x3cf96472	0.030443404
12	0xbe0e620d	-0.13904591
13	0x3e658f42	0.2241793
14	0x3d48da3c	0.04903625
15	0x3cc8a118	0.024490878
16	0xbdd8d25b	-0.10586997
17	0xbdee7e86	-0.11645226
18	0xbe118162	-0.14209512
19	0x3ea40746	0.320368
20	0x3e6c0748	0.23049653
21	0xbdbbfe65	-0.09179381
22	0xbdafb544	-0.085794955
23	0xbe09f0e6	-0.13470802
24	0xbe18d9aa	-0.14926782
25	0xbd233b33	-0.03985138
26	0xbe6d4f88	-0.2317487
27	0xbef10cca	-0.4708007
28	0xbe0eb044	-0.13934427
29	0xbe4075aa	-0.18794885
30	0xbdf334e2	-0.11875321
31	0x3d8ae296	0.06781499
32	0xbf123f35	-0.57127696
33	0x3c8e4cc1	0.017370583
34	0xbe0678af	-0.13131975
35	0xbe8787b3	-0.26470718
36	0xbe679191	-0.22614123
37	0xbdb6f6e0	-0.089338064
38	0xbe857903	-0.26068887
39	0x3e0836f3	0.13302211
40	0x3e14e197	0.1453918
41	0xbf439751	-0.76402766
42	0xbda435bd	-0.08018062
43	0xbe8a2eae	-0.2698874
44	0x3d60e166	0.054902457
45	0xbc8c7b99	-0.01714878
46	0x3c3c3923	0.011488232
47	0xbd901d78	-0.07036871
48	0xbe8dbee7	-0.2768471
49	0x3ddaf293	0.106907986
50	0x3d2e80a0	0.042603135
51	0xbc9ddd46	-0.01927055
52	0xbd9558ee	-0.072923526
53	0x3e0fd0b1	0.14044453
54	0x3c835b5a	0.01603477
55	0xbe1592ef	-0.14606832
56	0xbe58ceb3	-0.211726
57	0xbe73b044	-0.23797709
58	0xbcecf98d	-0.028927589
59	0xbe5709f6	-0.20999894
60	0x3de7ff91	0.11328042
61	0xbe2e1fcb	-0.17004316
62	0x3e41c2db	0.18921988
63	0xbe03c379	-0.12867536
64	0x3daafcd0	0.083490014
65	0xbd7eba81	-0.062189583
66	0x3d73c709	0.059515987
67	0xba20f955	-0.0006140669
68	0x3e14f402	0.14546207
69	0x3c55630f	0.013024106
70	0xbe44f762	-0.19234994
71	0x3e162309	0.14661802

rnn.bias_hh_l0 f4 [72]
0	0xbd63d3f9	-0.055622075
1	0xbdabfb53	-0.08397546
2	0x3b807c12	0.0039210403
3	0x3ea5c2d0	0.32375193
4	0x3db26d6c	0.08712277
5	0x3e65a6a5	0.22426851
6	0xbd78da7d	-0.06075524
7	0x3df53641	0.11973239
8	0xbe20b125	-0.15692575
9	0x3e295d30	0.16539454
10	0xbd8b0107	-0.06787305
11	0xbe1feb6d	-0.15617152
12	0x3cf3b3bc	0.02974879
13	0x3e59da94	0.21274787
14	0xbe22e771	-0.159086
15	0x3e477825	0.19479425
16	0x3da5871f	0.08082413
17	0x3c7fb0d9	0.015606129
18	0xbc9d75c9	-0.019221203
19	0x3e4bf2d6	0.19916853
20	0xbe00184b	-0.12509267
21	0x3d9bb202	0.07602312
22	0xbe1b92d2	-0.15192726
23	0xbc7c3cc7	-0.01539535
24	0xbe455ca8	-0.19273627
25	0x3e56d1ef	0.20978521
26	0x3cfb7a75	0.03069804
27	0xbf367ae6	-0.7128128
28	0x3d8820b7	0.06646865
29	0xbc956220	-0.018235266
30	0x3c783b76	0.015150895
31	0xbdbcdc0c	-0.09221658
32	0xbf33401f	-0.70019716
33	0xbe4f8c09	-0.20268263
34	0xbe208195	-0.15674432
35	0xbe0783bc	-0.13233846
36	0xbee42bc2	-0.44564635
37	0xbdd7e38f	-0.1054145
38	0xbdd476c1	-0.10374213
39	0xbcc26a17	-0.023732228
40	0x3e71039c	0.23536533
41	0xbf2dffd7	-0.67968506
42	0xbee1f84c	-0.44134748
43	0xbeb608b8	-0.35553527
44	0xbd1cf22e	-0.038316898
45	0x3d9369f5	0.07197944
46	0x3d9d5e27	0.07683974
47	0xbe8d6a84	-0.27620327
48	0xbe788c9c	-0.24272388
49	0x3de16f09	0.110075064
50	0xba4fca66	-0.0007926583
51	0xbca19782	-0.019725565
52	0xbe2a451d	-0.16627927
53	0x3e3c29d1	0.18375327
54	0xbcd11f15	-0.025527516
55	0x3d86dd7d	0.06585214
56	0x3cb2aebb	0.021811834
57	0x3d4c40a2	0.049866326
58	0x3d2ddc6e	0.042446546
59	0x3c933008	0.017967239
60	0x3e02c294	0.12769538
61	0xbe613232	-0.21991804
62	0xbb3f9562	-0.0029233326
63	0x3b8afb01	0.004241348
64	0x3c8549d1	0.01627055
65	0x3da8bf73	0.08239641
66	0xbdbedc99	-0.093194194
67	0x3e085f0b	0.13317506
68	0xbd993a1e	-0.07481788
69	0xbe24e423	-0.16102652
70	0xbe0bea86	-0.13663682
71	0x3e78407d	0.2424335

rnn.weight_ih_l1 f4 [72, 24]
0	0x3d977bcf	0.073966615
1	0x3e6e4619	0.23268928
2	0x3f1483b8	0.58013487
3	0x3f363f32	0.7119018
4	0xbdc2e3e3	-0.09516122
5	0xbe408024	-0.18798882
6	0xbdfb8aea	-0.12282355
7	0xbeb8b857	-0.3607814
8	0x3f4d2541	0.8013497
9	0xbebef3e0	-0.37295437
10	0xbe543ae0	-0.20725584
11	0xbe040796	-0.12893519
12	0xbf2119f7	-0.62930244
13	0x3e28f89e	0.1650109
14	0xbdb5e70a	-0.08881958
15	0xbda28431	-0.0793537
16	0x3d7f765c	0.062368736
17	0xbf679dbb	-0.9047505
18	0x3e602d78	0.21892345
19	0x3e84862d	0.25883618
20	0xbb8cd822	-0.004298226
21	0xbe9719a6	-0.29511756
22	0xbe832ff5	-0.25622526
23	0xbe9f0c1a	-0.3106392
24	0x3cd6db86	0.026227724
25	0xbd37a8c2	-0.044838674
26	0xbd84b98d	-0.064807035
27	0xbc2380f4	-0.009979475
28	0xbd8cdcb2	-0.06878032
29	0x3e20b927	0.1569563
30	0xbdfedda8	-0.12444621
31	0xbe339b64	-0.17539746
32	0xbd2dc5b0	-0.042424858
33	0xbe0a42f0	-0.13502097
34	0x3da768aa	0.0817426
35	0x3e6413cb	0.22273175
36	0xbc32c86f	-0.010912045
37	0x3d917586	0.07102494
38	0x3e9af2a6	0.3026325
39	0xbd7def87	-0.06199601
40	0xbdf868aa	-0.12129338
41	0x3e39ef2e	0.18157646
42	0xbe44633a	-0.19178477
43	0x3e6b8957	0.2300161
44	0x3e0c1721	0.13680698
45	0x3d54d1ca	0.051957883
46	0x3dbfbccd	0.09362183
47	0x3e8e5b18	0.27803874
48	0x3e05c753	0.13064317
49	0x3daa58d3	0.08317723
50	0x3e017f50	0.12646222
51	0xbd8d6b05	-0.06905178
52	0xbcff2424	-0.031145163
53	0x3e674ecd	0.22588654
54	0xbdf905f2	-0.12159337
55	0xbeb8379c	-0.35979927
56	0xbf14c7bc	-0.5811727
57	0xbe26f1af	-0.16303132
58	0xbf0c4ec1	-0.5480767
59	0x3dd72b40	0.10506296
60	0x3f5d2e66	0.86398923
61	0xbdb70e69	-0.089382954
62	0x3e0b0b47	0.1357852
63	0xbcf8139a	-0.030282784
64	0xbf0c8b13	-0.5489971
65	0xbe8a06ea	-0.269584
66	0x3e28eab2	0.16495779
67	0xbd01f332	-0.03172607
68	0x3f1e8390	0.619195
69	0xbeb87d35	-0.36033025
70	0x3e178dee	0.14800236
71	0x3e08d909	0.13364042
72	0xbe2e90dc	-0.17047447
73	0x3e9784e3	0.29593572
74	0x3dfab936	0.122423574
75	0x3e2c1f86	0.168089
76	0xbe67f228	-0.22650969
77	0xbd0bb652	-0.03410942
78	0xbe51befd	-0.20483012
79	0xbe7224f5	-0.2364691
80	0x3de56c96	0.11202352
81	0x3c5bf0d8	0.013424121
82	0x3d8d2e59	0.06893606
83	0x3d894be5	0.06703929
84	0xbdf433ff	-0.1192398
85	0xbe4f93b9	-0.20271195
86	0x3df59551	0.119913705
87	0xbe9bc986	-0.30427188
88	0x3da47bf1	0.080314524
89	0xbe21b405	-0.15791328
90	0xbda5e788	-0.08100802
91	0x3dec823e	0.11548279
92	0xbdd0b8e7	-0.10191517
93	0xbe58b4b7	-0.21162687
94	0xbe102153	-0.14075212
95	0x3d93daf8	0.07219499
96	0xbdf23676	-0.11826794
97	0x3d8f2ec6	0.06991343
98	0x3d2405f8	0.040044755
99	0x3d4a36f2	0.049368806
100	0xbe6cfb78	-0.23142803
101	0x3cc27e46	0.023741852
102	0xbc8f8b2f	-0.017522423
103	0xbe59f187	-0.21283542
104	0x3e0a2361	0.13490058
105	0xbd3e6e62	-0.046491988
106	0x3e7aa001	0.24475099
107	0xbe09f198	-0.13471067
108	0x3e0e4348	0.13892853
109	0x3b012615	0.0019706537
110	0x3e087daa	0.13329187
111	0xbe0570eb	-0.13031356
112	0x3de7a073	0.113099
113	0x3e0736d2	0.13204506
114	0x3de5bdd2	0.11217846
115	0x3def7eaf	0.11694085
116	0x3d21165a	0.039327957
117	0xbd293bff	-0.041316982
118	0xbe45238a	-0.19251838
119	0x3e747cd1	0.23875739
120	0x3cb0504b	0.021522662
121	0x3d0f16bc	0.03493379
122	0x3d13bb06	0.03606703
123	0xbb5c9ee3	-0.003366404
124	0x3db571c0	0.08859587
125	0x3dba3fd1	0.09094203
126	0xbe21902f	-0.15777658
127	0xbeace071	-0.33764985
128	0x3d78915d	0.060685504
129	0xbe1d542b	-0.15364139
130	0x3d43683f	0.04770684
131	0xbcc4ea0a	-0.02403738
132	0x3ea1041f	0.31448457
133	0xbdf76e03	-0.1208153
134	0x3ea4cdc9	0.32188252
135	0xbe253df2	-0.16136912
136	0x3ce37817	0.027767224
137	0xbd002253	-0.031282734
138	0x3e3b7dd8	0.18309724
139	0x3e365ce9	0.1780888
140	0x3dbca483	0.092110656
141	0xbd9ec904	-0.077531844
142	0xbdc6d8b4	-0.097093016
143	0xbe51241e	-0.20423934
144	0x3e421d03	0.1895638
145	0x3ea73c69	0.32663277
146	0x3e914417	0.2837226
147	0x3eae7740	0.34075356
148	0xbd98edd4	-0.07467237
149	0xbd9133f1	-0.07089985
150	0xbeeef7e5	-0.46673504
151	0xbf34b31d	-0.70585805
152	0x3e45b6ca	0.1930801
153	0xbee2a74a	-0.44268256
154	0xbe9ae846	-0.30255336
155	0xbe8e62ad	-0.2780966
156	0xbdfeab14	-0.12434974
157	0xbdad116e	-0.0845059
158	0x3e8eb0db	0.27869305
159	0xbeb73cb8	-0.35788512
160	0x3d0b0c39	0.033947203
161	0xbf2fb111	-0.68629557
162	0x3f09059b	0.5352418
163	0x3f2350e4	0.63795304
164	0xbde4b55d	-0.11167405
165	0xbe3cebdb	-0.18449347
166	0xbe89858a	-0.26859695
167	0x3da4d1a6	0.080478
168	0x3dbc743e	0.09201859
169	0x3df8711b	0.12130948
170	0xbafec21f	-0.0019436515
171	0x3e002746	0.12514982
172	0xbd92b1a2	-0.07162787
173	0x3dc04f48	0.09390122
174	0xbdfd06f3	-0.12354841
175	0xbea33fb0	-0.31884527
176	0xbe9fc24d	-0.31202927
177	0x3caa14e9	0.020761924
178	0x3da4d50c	0.08048448
179	0x3e473005	0.19451912
180	0xbe0c8bd6	-0.13725218
181	0xbe84bb29	-0.25924042
182	0x3e3689ca	0.17826
183	0xbd922e28	-0.0713771
184	0x3dd8c1d0	0.10583842
185	0xbe75cd18	-0.24004018
186	0xbe47e906	-0.19522485
187	0x3d2added	0.04171555
188	0xbe14ec5d	-0.1454329
189	0xbdd535d6	-0.10410659
190	0xbcdc2503	-0.026873117
191	0x3e06fe66	0.13182983
192	0x3ebe389e	0.3715257
193	0xbda90dbc	-0.08254573
194	0x3e867184	0.2625848
195	0x3ea782ac	0.32716882
196	0xbe2d4045	-0.16919048
197	0xbdb867a6	-0.09004144
198	0x3ec231ec	0.37928712
199	0x3d484ab9	0.048899386
200	0x3da5cbdb	0.08095523
201	0xbd191cf6	-0.037381135
202	0xbe8f4edc	-0.27989852
203	0xbe07e7d4	-0.13272029
204	0x3e343ebf	0.1760206
205	0x3df139c4	0.11778596
206	0x3d6d4469	0.05792657
207	0x3e42d46c	0.19026345
208	0xbea325c2	-0.31864744
209	0x3dbac369	0.09119303
210	0x3e07f499	0.132769
211	0x3deddd85	0.11614517
212	0x3ef22fb4	0.4730202
213	0xbeb67cc8	-0.35642076
214	0x3d8803fd	0.06641386
215	0xbed04a47	-0.4068167
216	0x3de8e909	0.11372573
217	0xbdc11309	-0.09427459
218	0xbe36a6bb	-0.1783704
219	0x3e85224d	0.26002732
220	0x3d1bb70c	0.038016364
221	0xbe55db13	-0.20884351
222	0x3e901105	0.28137985
223	0xbdb6059e	-0.0888779
224	0xbee3d28b	-0.4449657
225	0xbde2b726	-0.11070089
226	0xbd32a40e	-0.043613486
227	0xbdb1c245	-0.08679632
228	0xbf307336	-0.689258
229	0x3e5a4f7f	0.21319388
230	0xbcbe19c7	-0.023205651
231	0xbe59ae7c	-0.21257967
232	0xbdcc555e	-0.0997722
233	0xbe70cc35	-0.23515399
234	0x3da1a02a	0.07891877
235	0xbec568f4	-0.38556635
236	0xbe61e764	-0.22060925
237	0x3e04ddf9	0.12975301
238	0x3e36081c	0.17776531
239	0xbe209788	-0.15682805
240	0xbd4aa832	-0.04947681
241	0x3cea4101	0.02859545
242	0xbd87daa9	-0.06633503
243	0x3c5a3761	0.013318867
244	0x3e089ffb	0.13342278
245	0xbd59dfb2	-0.053191848
246	0xbe1f7691	-0.15572573
247	0xbdd6356e	-0.1045941
248	0x3d40d472	0.047077604
249	0xbb1b7c23	-0.0023725114
250	0x3de4ebdf	0.11177801
251	0x3d8fbf38	0.07018894
252	0xbc58ad24	-0.013224874
253	0xbe734171	-0.23755433
254	0xbe36c3dc	-0.17848152
255	0xbdec8cc8	-0.115502894

rnn.weight_hh_l1 f4 [72, 24]
0	0x3e5e1fd1	0.21691824
1	0x3dd36c21	0.10323358
2	0x3e9a3aa4	0.30122864
3	0x3e906816	0.2820441
4	0x3e567ef7	0.2094687
5	0xbdb8df09	-0.090269156
6	0xbe30b2b7	-0.17255674
7	0x3b8ecaee	0.004357687
8	0x3d72de5e	0.059294097
9	0xbdf313ee	-0.11869036
10	0x3c81eadc	0.01585906
11	0xbf21471f	-0.6299915
12	0xbd8d49a9	-0.06898815
13	0x3e3ad8a1	0.182467
14	0x3eb65100	0.35608673
15	0xbe864f6f	-0.26232478
16	0x3dac6385	0.08417419
17	0xbd07d358	-0.033160537
18	0x3db4bd56	0.088251755
19	0x3846c985	4.739456e-05
20	0xbdffdeda	-0.124936774
21	0xbd8e608c	-0.069520086
22	0xbd04f875	-0.03246351
23	0xbe3a234a	-0.18177524
24	0x3e658b42	0.22416404
25	0xbe187515	-0.14888413
26	0xbdbf3c86	-0.09337716
27	0xbd0e5bc7	-0.034755494
28	0x3c7ec3c1	0.015549601
29	0x3d8f0f7d	0.06985376
30	0xbd47c074	-0.048767522
31	0xbe17613f	-0.1478319
32	0xbddae5a0	-0.10688329
33	0x3da6e3c2	0.0814891
34	0xbe5b9cdd	-0.21446557
35	0x3d112963	0.03543986
36	0xbe108fbb	-0.14117329
37	0x3e51eee4	0.20501286
38	0x3e1e675e	0.15469119
39	0xbe88e3a3	-0.26736173
40	0x3e15ac4b	0.14616506
41	0xbe00f2e4	-0.12592655
42	0x3e3021a8	0.17200339
43	0xbd21d1b9	-0.039506648
44	0xbdc5331f	-0.09628891
45	0x3e2a9ec0	0.16662121
46	0xbdca87cb	-0.09889182
47	0x39dcc675	0.00042109532
48	0x3cb52901	0.022114279
49	0x3d6dfcba	0.058102347
50	0xbe213fc8	-0.15746987
51	0x3db890be	0.090119824
52	0x3d4b5189	0.049638305
53	0xbe6a3b2a	-0.22874132
54	0x3e8b9ad0	0.2726655
55	0x3d30966f	0.043112215
56	0xbe053de1	-0.13011886
57	0xbd96351e	-0.0733435
58	0x3df3e4c3	0.11908867
59	0x3ebfacd6	0.3743655
60	0x3e5d6f91	0.2162459
61	0xbd284766	-0.041083716
62	0x3d0bb056	0.034103714
63	0x3d25cad5	0.04047664
64	0xbd471685	-0.04860546
65	0xbda2c409	-0.07947547
66	0xbe179bba	-0.14805499
67	0x3dd41b78	0.10356802
68	0xbe425463	-0.18977503
69	0x3dbc847d	0.09204958
70	0x3e219ea9	0.1578318
71	0x3dcafebe	0.099118695
72	0xbe007e2c	-0.12548131
73	0xbe26131c	-0.16218227
74	0xbcce6c9a	-0.02519827
75	0x3e4b7095	0.19867165
76	0x3de24ada	0.11049433
77	0xbbca059c	-0.0061652195
78	0xbe0255bb	-0.12728016
79	0xbd168a40	-0.03675294
80	0x3d98a176	0.07452671
81	0xbe87ca65	-0.26521602
82	0xbe309dd2	-0.17247704
83	0xbe31830d	-0.17335148
84	0x3e37eeae	0.17962143
85	0x3e0696bb	0.13143437
86	0xbdfc77ad	-0.12327514
87	0x3cef3ca4	0.02920372
88	0xbe1d6d84	-0.15373808
89	0x3e1f151f	0.15535401
90	0xbdf77dce	-0.12084542
91	0xbd114ec1	-0.035475496
92	0xbeaa7e7f	-0.33299634
93	0xbdfe8c8e	-0.124291524
94	0x3e30b761	0.17257454
95	0xbe0dd62f	-0.13851236
96	0x3d03ccd0	0.032177746
97	0x3e61d76f	0.22054838
98	0x3ea7ad2a	0.327493
99	0x3e3a4ea0	0.18194056
100	0x3c39a362	0.011330457
101	0xbe81b5b3	-0.25333938
102	0x3e45c4f1	0.19313408
103	0xbd97ef47	-0.074186854
104	0x3e66eebd	0.22552009
105	0xbde05f08	-0.10955626
106	0x3d07d2b0	0.03315991
107	0x39e83c15	0.00044295253
108	0x3e24ca83	0.16092877
109	0x3e510a18	0.20414007
110	0x3d78311f	0.06059372
111	0x3da02b0f	0.07820713
112	0x3b08d34d	0.0020877898
113	0xbe08dd18	-0.1336559
114	0x3c922060	0.017837703
115	0xbd92500b	-0.07144173
116	0xbea0b4f5	-0.3138806
117	0x3e424872	0.18972948
118	0xbdabfc92	-0.08397783
119	0x3e77155a	0.24129239
120	0xbdc33f78	-0.0953359
121	0x3b32ce30	0.0027283542
122	0x3da1f5e1	0.07908226
123	0xbdec5d02	-0.11541177
124	0x3e60bc78	0.21946895
125	0xbd420d9a	-0.047376253
126	0xbc4b6dff	-0.012416362
127	0xbe81e614	-0.25370848
128	0x3d83385e	0.064072356
129	0xbe25de12	-0.16197994
130	0x3d885d30	0.06658399
131	0x3da54df6	0.080715105
132	0x3e8d2eb9	0.2757471
133	0x3e2c5592	0.16829517
134	0x3e9723c0	0.29519463
135	0xbc724beb	-0.014788608
136	0xbd33981d	-0.04384624
137	0x3e1854c9	0.14876093
138	0x3e94ad97	0.2903869
139	0x3d890991	0.06691278
140	0xbe7e86a2	-0.24856046
141	0x3e5f5bf8	0.21812427
142	0xbe290696	-0.16506419
143	0x3e48fa6f	0.19626783
144	0x3ebdf75d	0.37102786
145	0xbdd4459d	-0.1036484
146	0x3dd4fea3	0.104001306
147	0x3e2f22ac	0.1710307
148	0x3ea2ac5d	0.31772128
149	0xbdf59d16	-0.119928524
150	0xbe8affdb	-0.27148327
151	0x3de213ed	0.11038957
152	0x3e4d6305	0.20057304
153	0xbf041ab3	-0.5160324
154	0xbe5c905f	-0.21539448
155	0x3e7ec02f	0.24878
156	0x3e6d1d5d	0.23155732
157	0x3e1051f6	0.14093766
158	0x3ee44df4	0.44590724
159	0xbd0de140	-0.034638643
160	0xbbd2a149	-0.006427918
161	0xbcd5b78d	-0.0260885
162	0x3e2e6c46	0.1703349
163	0xbe4fce70	-0.20293593
164	0xbec9ab6a	-0.3938859
165	0x3d09ccb9	0.033642504
166	0xbef94572	-0.48685795
167	0x3e88deb2	0.26732403
168	0xbddb33ca	-0.10703237
169	0x3e17c878	0.14822567
170	0x3e0f7d4d	0.14012642
171	0x3d580db3	0.05274744
172	0xbdb5f78c	-0.088851064
173	0xbd9e0361	-0.07715488
174	0xbe3ac1a9	-0.18237938
175	0xbcd9c15f	-0.026581464
176	0x3d5f2f45	0.05448844
177	0xbd8a01c8	-0.06738621
178	0x3dd21823	0.1025851
179	0x3ded4c28	0.11586791
180	0xbe07103f	-0.13189791
181	0xbdab5e27	-0.083675675
182	0x3e54d8b2	0.20785788
183	0x3ea510de	0.3223943
184	0xbe59f284	-0.21283919
185	0x3e30f898	0.17282331
186	0xbb86b3df	-0.004110798
187	0x3e4029c7	0.18765937
188	0x3da86a1a	0.08223362
189	0xbdcd8971	-0.100359805
190	0x3e360b9d	0.17777868
191	0xbe91be8e	-0.28465694
192	0x3e4f54e2	0.20247224
193	0x3e68f428	0.22749388
194	0x3d54744c	0.05186872
195	0x3c3561d8	0.011070691
196	0x3cea0684	0.02856756
197	0x3ddd43b7	0.10803931
198	0xbe8313ce	-0.25601047
199	0x3dcf8279	0.101323076
200	0xbcd7f7ee	-0.02636334
201	0x3da02fe1	0.07821632
202	0x3e1c8a4d	0.15287133
203	0x3dbf8748	0.09351975
204	0xbe38a180	-0.18030357
205	0x3da956f1	0.08268536
206	0x3e01d07a	0.12677184
207	0xbdabeb21	-0.08394457
208	0xbbc7fccb	-0.0061031333
209	0xbe6e9469	-0.23298801
210	0x3dfb1ca3	0.122613214
211	0xbdbb19cb	-0.09135779
212	0x3b69bc90	0.003566537
213	0xbd4e1195	-0.050309736
214	0x3b1fb95d	0.002437196
215	0xbddf70e0	-0.10910201
216	0xbbc8821c	-0.006119026
217	0x3ceed396	0.029153626
218	0xbf2ac8f7	-0.667129
219	0xbd86a1a6	-0.06573801
220	0xbe7ab256	-0.24482092
221	0xbdf32856	-0.11872928
222	0xbd2dc77b	-0.042426568
223	0xbf3d0393	-0.7383358
224	0xbe2ed2c0	-0.17072582
225	0x3f43175f	0.76207536
226	0xbddf9fbb	-0.10919138
227	0x3e75d90a	0.24008575
228	0xbdf7f73b	-0.12107702
229	0xbe0aac19	-0.13542213
230	0xbe13b023	-0.1442266
231	0xbe9e5abf	-0.3092861
232	0xbe352005	-0.17687996
233	0xbe8961fb	-0.26832566
234	0xbda475a0	-0.08030248
235	0x3d2df365	0.042468447
236	0x3f464dca	0.77462447
237	0x3e097395	0.13422997
238	0x3ca4535e	0.020059284
239	0xbdb2a9a6	-0.08723764
240	0x3d8164ca	0.06318052
241	0x3e073e5e	0.13207385
242	0x3ea8ab74	0.32943308
243	0xbc5d6db4	-0.013514925
244	0x3e4a273f	0.19741534
245	0x3c809ae0	0.01569885
246	0x3c6d85c8	0.014497228
247	0x3e2c779b	0.16842501
248	0x3e120fad	0.14263792
249	0xbe098e65	-0.13433225
250	0x3d8cca63	0.0687454
251	0xbe0a4db8	-0.1350621
252	0x3d1eb5f5	0.038747746
253	0xbde8d85e	-0.11369394
254	0xbd893195	-0.0669891
255	0x3de54e51	0.11196578

rnn.bias_ih_l1 f4 [72]
0	0x3eba5b7c	0.36397922
1	0x3c957541	0.018244388
2	0x3e8e12b3	0.2774864
3	0x3cc0234e	0.023454335
4	0xbc226209	-0.009911069
5	0x3db71ed4	0.08941427
6	0x3d8afa2e	0.06785999
7	0xbd687380	-0.056750774
8	0x3d57fd13	0.052731585
9	0xbdec66cb	-0.11543044
10	0xbda56e58	-0.08077687
11	0xbd9952c7	-0.07486492
12	0x3cf30ba5	0.029668638
13	0xbda6a1c6	-0.081363246
14	0xbccf62a2	-0.025315586
15	0xbcfa0079	-0.030517804
16	0xbdc98f2b	-0.0984176
17	0xbd317c4e	-0.043331437
18	0x3d2de06d	0.042450357
19	0x3e088b1c	0.13334316
20	0x3e3ff272	0.1874483
21	0x3ce91ccc	0.028456114
22	0x3e53d460	0.20686483
23	0xbd980a02	-0.07423784
24	0xbf0594e6	-0.52180326
25	0x3caca717	0.021075768
26	0xbf55fdcf	-0.83590406
27	0xbd9fe8f0	-0.07808101
28	0x3d22cb85	0.039744873
29	0xbe3defcc	-0.18548506
30	0xbf09f2ab	-0.53885907
31	0xbf0ad25d	-0.5422724
32	0xbe0c882d	-0.13723822
33	0xbdbf6d2b	-0.09346994
34	0xbe2a2626	-0.16616115
35	0xbf3e9761	-0.74449736
36	0xbdf9ed4a	-0.122034624
37	0x3e843128	0.25818753
38	0xbee26e5b	-0.4422482
39	0xbeabafca	-0.33532554
40	0x3d0074ac	0.031361267
41	0x3e241c40	0.16026402
42	0xbefb3485	-0.49063507
43	0xbe50a9ff	-0.20377348
44	0xbf108a54	-0.5646107
45	0x3d3be844	0.045875803
46	0x3de4bf3a	0.11169286
47	0xbd0cb56e	-0.034352712
48	0x3d04b5be	0.032399885
49	0xbcb28344	-0.021791108
50	0xbd96b3e3	-0.073585294
51	0x3e23afd2	0.15985039
52	0xbe33502b	-0.1751105
53	0xbe13ca0f	-0.14432548
54	0x3d8de6a7	0.06928759
55	0xbdf838f0	-0.12120235
56	0xbcd3985a	-0.025829483
57	0x3e158c6b	0.14604346
58	0xbdbbe650	-0.09174788
59	0x3c1e8dba	0.009677345
60	0x3e2fb9d9	0.17160739
61	0x3e1b02a5	0.15137728
62	0x3dbf967d	0.09354875
63	0x3dcfd96e	0.10148893
64	0xbd805760	-0.062666655
65	0xbe123a9e	-0.14280173
66	0xbc33c942	-0.010973277
67	0xbdf42efd	-0.11923025
68	0x3d8fd261	0.070225485
69	0x3e05e78b	0.13076608
70	0x3e0581e5	0.13037832
71	0x3db0735f	0.08615755

rnn.bias_hh_l1 f4 [72]
0	0x3e2dfb29	0.16990341
1	0x3df95a47	0.12175422
2	0x3de2a2b3	0.11066189
3	0xbdd3124d	-0.10306225
4	0xbe1518df	-0.14560269
5	0xbe223b30	-0.1584289
6	0xbd1d86b5	-0.038458545
7	0xbd9d7d68	-0.07689935
8	0xbe250660	-0.16115713
9	0x3d26af1d	0.040694345
10	0x3d3ef96f	0.046624597
11	0x3dc3a60d	0.09553156
12	0x3ddbf595	0.107402004
13	0x3e5826e8	0.21108592
14	0x3bc15235	0.0058996924
15	0x3e002833	0.12515335
16	0x3e745c35	0.23863299
17	0x3e99680b	0.2996219
18	0x3c84f849	0.016231673
19	0xbcfad27d	-0.030617947
20	0xbdc5743a	-0.09641309
21	0x3e0e487f	0.13894843
22	0x3db0c77c	0.086317986
23	0xbe14cd9a	-0.14531556
24	0xbe85aa90	-0.2610669
25	0x3d0ba4e3	0.034092795
26	0xbf39adfc	-0.72531104
27	0x3d34a50e	0.04410272
28	0x3e5dbacd	0.2165329
29	0xbd255e54	-0.04037316
30	0xbeae570d	-0.3405079
31	0xbf064ada	-0.52457964
32	0xbec22b4b	-0.37923655
33	0x3e6bd28e	0.23029539
34	0xbde5c66d	-0.11219487
35	0xbf03ed44	-0.51533914
36	0xbe73c2b7	-0.23804747
37	0x3e6560fe	0.22400281
38	0xbecf2d1a	-0.40464097
39	0xbed3e623	-0.41386518
40	0xb885feb4	-6.389376e-05
41	0x3d0d056b	0.034428995
42	0xbe5c335d	-0.21503969
43	0xbe93243f	-0.2873859
44	0xbee856fb	-0.4537886
45	0xbbffb329	-0.00780334
46	0x3dfa2e60	0.122158766
47	0xbd07c2bc	-0.033144698
48	0x3e8b4a20	0.2720499
49	0x3de63e77	0.11242383
50	0x3e28b3c4	0.16474825
51	0x3bc678c1	0.0060568755
52	0x3dec9710	0.115522504
53	0xbc2ad074	-0.010425676
54	0xbe25d9de	-0.16196391
55	0x3c42e69d	0.011895803
56	0x3e503a8c	0.20334834
57	0x3e1051e8	0.14093745
58	0xbe12080e	-0.14260885
59	0xbdd188f6	-0.10231201
60	0xbde1cc10	-0.1102525
61	0x3e3326ad	0.17495222
62	0xbdedf00c	-0.11618051
63	0x3c80a524	0.015703745
64	0xbc9ab640	-0.018885732
65	0xbe6a3b7d	-0.22874255
66	0xbd4b6d5e	-0.049664848
67	0x3e20a497	0.15687786
68	0x3e173fa3	0.14770369
69	0x3d8e40c9	0.069459505
70	0xbe2dc95b	-0.16971342
71	0x3e3f0008	0.18652356

rnn.weight_ih_l2 f4 [72, 24]
0	0x3d6b0a30	0.057382762
1	0x3dcd48b8	0.100236356
2	0xbe1bef08	-0.15227902
3	0xbe244143	-0.1604052
4	0x3e2bfabf	0.16794871
5	0xbe2238ad	-0.15841933
6	0x3eabfdca	0.33592063
7	0xbe3327a9	-0.17495598
8	0xbc676a54	-0.014124472
9	0x3ddbcfd5	0.10733
10	0x3e28f817	0.16500889
11	0x3f142fc7	0.578854
12	0x3d48b5af	0.049001392
13	0xbe2eb049	-0.17059435
14	0x3bf50b34	0.007478142
15	0xbeafd6d3	-0.34343585
16	0xbd8c695e	-0.06856035
17	0xbdceeb0f	-0.101034276
18	0xbe23351c	-0.15938228
19	0xbdda05e8	-0.10645658
20	0xbeac3834	-0.3363663
21	0x3d5efb2a	0.054438747
22	0xbe7938b5	-0.24338038
23	0x3db7ea24	0.08980206
24	0x3d975cd5	0.07390753
25	0xbe04158b	-0.12898843
26	0xbeb7d7da	-0.3590687
27	0xbe1e8bf0	-0.1548307
28	0xbdfb9940	-0.122850895
29	0xbddfecfd	-0.10933874
30	0xbe7d0bdb	-0.24711554
31	0xbf2023ee	-0.62554824
32	0xbcb94181	-0.022614243
33	0x3f176f0f	0.59153837
34	0x3e1a157a	0.15047255
35	0xbe8dfc88	-0.2773173
36	0xbd894d98	-0.06704253
37	0xbe0346e8	-0.12820017
38	0x3e174ec0	0.14776134
39	0xbe7db75c	-0.24776977
40	0x3e398d08	0.18120205
41	0x3e1449c1	0.1448126
42	0x3c882c69	0.016622739
43	0x3d9b43ba	0.07581277
44	0x3f5def0c	0.8669288
45	0xbe291190	-0.16510606
46	0xbea292aa	-0.3175252
47	0xbe5542e7	-0.20826302
48	0x3e81c2b0	0.25343847
49	0x3dceb954	0.10093942
50	0x3e375cac	0.17906445
51	0xbdde251e	-0.10846923
52	0x3cdb5fe4	0.026779123
53	0xbc875f66	-0.016524982
54	0xbe3d98b2	-0.1851528
55	0x3e9be60a	0.30448943
56	0x3e66919e	0.22516486
57	0xbe07f08f	-0.1327536
58	0x3db1b03d	0.08676193
59	0xbe5ca3cc	-0.21546859
60	0xbdf96c70	-0.12178886
61	0xbe3036e7	-0.17208444
62	0x3d972e59	0.07381887
63	0xbe2c4432	-0.1682289
64	0xbd48179d	-0.048850644
65	0xbd31af99	-0.043380354
66	0x3e8a9a7f	0.27070996
67	0x3dab49ee	0.0836371
68	0x3de01b0c	0.10942659
69	0xbe43db66	-0.19126663
70	0xbec05183	-0.37562189
71	0x3e2b910d	0.16754551
72	0x3eecb0e0	0.46228695
73	0x3e66f79f	0.22555397
74	0x3ec11d0d	0.37717476
75	0x3e601b97	0.21885525
76	0xbc81ab58	-0.015828773
77	0xbdbef8a1	-0.09324766
78	0x3a41af78	0.00073885126
79	0xbcae521f	-0.021279393
80	0x3e626b9b	0.2211136
81	0xbe7761ea	-0.24158445
82	0xbeaa0aae	-0.33211273
83	0xbd0e2593	-0.034703802
84	0x3d5a0a6c	0.053232595
85	0x3d9620a3	0.07330444
86	0x3ea19ab0	0.3156333
87	0xbdebaf1d	-0.115080096
88	0xbe5610d6	-0.2090486
89	0xbe2773b7	-0.16352735
90	0x3e16399e	0.14670417
91	0x3d986069	0.07440264
92	0xbcda0a91	-0.026616367
93	0x3e319b81	0.17344476
94	0xbe9f4125	-0.3110439
95	0xbd9db98f	-0.07701408
96	0xbd81adbf	-0.063319676
97	0x3da37584	0.07981399
98	0x3e7bff95	0.24609216
99	0xbd9c124f	-0.076206796
100	0xbe6ee907	-0.2333108
101	0xbd9cc9c4	-0.07655671
102	0x3ddbcb0b	0.10732087
103	0x3d1236ab	0.035696667
104	0x3e9922f5	0.29909483
105	0xbe87bc1f	-0.26510713
106	0xbcadbfa8	-0.021209553
107	0xbeadd170	-0.3394885
108	0xbdaac6e0	-0.08338714
109	0xbe107b16	-0.14109454
110	0x3e87d222	0.26527506
111	0xbe7bdb64	-0.2459541
112	0x3e55bc2d	0.20872565
113	0x3e3c0eba	0.18364993
114	0x3d0139ae	0.03154915
115	0xbdb73d0e	-0.08947192
116	0x3eb2acbc	0.3489741
117	0x3d99ed1d	0.07515929
118	0xbe74ef55	-0.23919423
119	0x3e650860	0.22366476
120	0x3e062777	0.13100992
121	0x3ea129bc	0.31477153
122	0xbe908832	-0.2822891
123	0x3ea824cb	0.3284057
124	0x3d869472	0.065712824
125	0xbe4be464	-0.19911343
126	0xbdf859c6	-0.12126498
127	0xbda307aa	-0.07960446
128	0x3d3df375	0.046374757
129	0xbe8310ad	-0.2559866
130	0xbe56e994	-0.2098754
131	0x3ed57c8e	0.4169659
132	0x3dd5211a	0.10406704
133	0x3e13b467	0.14424287
134	0x3ea132e3	0.31484136
135	0x3f232019	0.6372085
136	0xbe1eb9cf	-0.15500568
137	0xbdb52742	-0.088453785
138	0x3e87dbe4	0.2653495
139	0x3e7bf9bd	0.24606986
140	0xbec2d1c4	-0.38050663
141	0xbe271cb4	-0.16319543
142	0x3c7c0782	0.015382649
143	0xbdf709b5	-0.12062398
144	0x3dec6b5c	0.11543915
145	0x3e463824	0.19357353
146	0x3d15dac5	0.036585588
147	0x3e8bde2e	0.27317947
148	0xbe248645	-0.16066845
149	0x3dcbc29e	0.0994923
150	0xbe27d923	-0.16391425
151	0xbeaf25bd	-0.3420848
152	0x3e41e940	0.18936634
153	0xbc4b51b7	-0.012409619
154	0xbde3de44	-0.11126378
155	0xbec728c7	-0.38898298
156	0xbd860dc1	-0.06545592
157	0x3c7c731a	0.015408302
158	0x3e13c9ea	0.14432493
159	0xbe0a337d	-0.13496204
160	0x3e57ed90	0.21086717
161	0x3e3f4d7e	0.18681905
162	0x3d297327	0.041369583
163	0xbdf60f57	-0.120146446
164	0x3e8a26eb	0.26982817
165	0xbd5d74a7	-0.054066326
166	0xbed8dcd9	-0.42355993
167	0x3e5d9af3	0.2164114
168	0xbd0b8166	-0.03405895
169	0x3e8f36e0	0.27971554
170	0x3e03d460	0.12873983
171	0x3e0ce1fb	0.1375808
172	0xbd268e50	-0.040663064
173	0xbea29064	-0.31750786
174	0xbe89ccfc	-0.26914203
175	0x3ed59c8b	0.41720995
176	0x3eef56cb	0.46745905
177	0x3f0699ba	0.5257832
178	0x3d46e3d4	0.048557118
179	0xbf0d2d6e	-0.55147445
180	0x3e0427b9	0.12905778
181	0x3d1c0aaa	0.038096108
182	0x3e495241	0.19660284
183	0x3ed57cc3	0.41696748
184	0xbe05c5df	-0.13063763
185	0xbf4000e7	-0.75001377
186	0x3da5b37b	0.08090874
187	0x3e44d837	0.19223104
188	0x3f8d7cee	1.105375
189	0xbdf10dd2	-0.11770214
190	0x3f7ebb92	0.9950496
191	0xbe8761e4	-0.26441872
192	0x3e7ce374	0.24696141
193	0xbe42997e	-0.19003865
194	0x3e532a6f	0.20621656
195	0xbd7daab2	-0.061930366
196	0xbe299d1f	-0.16563843
197	0xbdc01ee6	-0.093808934
198	0xbe6243de	-0.22096202
199	0xbe664a2e	-0.22489235
200	0x3e157507	0.14595424
201	0xbe123744	-0.14278895
202	0xbe4676a7	-0.193812
203	0xbdd76b6e	-0.105185375
204	0xbe4c14b3	-0.19929771
205	0xbb380f50	-0.00280853
206	0x3e304780	0.17214775
207	0xbe3d0ecc	-0.18462676
208	0xbdb57bf3	-0.08861532
209	0xbdd9b09e	-0.1062939
210	0x3d4044b1	0.04694051
211	0x3db50504	0.08838847
212	0x3e83688e	0.25665706
213	0x3decc744	0.115614444
214	0xbf1ca590	-0.6119013
215	0xbe0b11fe	-0.13581082
216	0xbe17722a	-0.14789644
217	0xbdffef05	-0.12496761
218	0x3f224ddb	0.6340005
219	0xbe0d09b8	-0.13773239
220	0x3e26baf0	0.16282248
221	0x3e055dfb	0.13024132
222	0xbdd458b9	-0.10368485
223	0x3d99a39b	0.075019084
224	0xbd327829	-0.043571625
225	0x3e0af9b8	0.13571823
226	0xbe57bb3d	-0.2106752
227	0xbf2113d0	-0.62920856
228	0xbe63414e	-0.2219288
229	0x3e0dcd92	0.1384795
230	0xbd388de5	-0.045057196
231	0xbdcd3aa8	-0.100209534
232	0x3c78b48e	0.015179766
233	0x3dfe4722	0.12415911
234	0xbdedf55d	-0.11619065
235	0xbc01d783	-0.007924917
236	0x3da40eff	0.08010673
237	0x3e2ba062	0.167604
238	0xbe8a7a70	-0.27046537
239	0x3da344d3	0.079721116
240	0xbdb0e250	-0.08636916
241	0xbd95cc39	-0.07314343
242	0xbef92e30	-0.4866805
243	0x3dff82d8	0.12476128
244	0x3e2992c6	0.16559896
245	0x3d03ae1d	0.03214847
246	0x3d67e5e5	0.05661573
247	0xbf1c1bf8	-0.60980177
248	0xbea8e8e8	-0.32990193
249	0xbe2fee4d	-0.17180748
250	0xbe089986	-0.13339815
251	0x3e01d0da	0.12677327
252	0xbe23479d	-0.15945287
253	0x3d7eaa41	0.062174086
254	0xbdfe4631	-0.12415732
255	0xbeb543f0	-0.35403395

rnn.weight_hh_l2 f4 [72, 24]
0	0x3ddf25b5	0.10895864
1	0x3d94f2b2	0.07272853
2	0x3dcdb9ce	0.10045205
3	0xbd9c38e1	-0.07628036
4	0x3e8e4ba5	0.27792087
5	0xbd5ceda0	-0.053937554
6	0xbc9c3e7a	-0.01907276
7	0x3dafa540	0.08576441
8	0xbe0d4bfd	-0.13798518
9	0xbe13ed56	-0.14446005
10	0xbd57ecc7	-0.052716043
11	0x3c4277e8	0.011869408
12	0xbe1251f4	-0.14289075
13	0xba6061ff	-0.00085595244
14	0xbe38a752	-0.18032578
15	0x3d83107a	0.06399627
16	0x3d9bb1ac	0.076022476
17	0x3e1f2c8a	0.15544334
18	0xbc6f341c	-0.014599826
19	0x3d1bcbc0	0.038036108
20	0x3d4ba545	0.04971816
21	0xbd9f5854	-0.07780519
22	0xbdb2a7fc	-0.08723447
23	0x3cece0fa	0.028915871
24	0xbd9de2da	-0.07709284
25	0xbe9d0bf3	-0.3067318
26	0x3e5c0907	0.21487819
27	0x3f03364c	0.51254725
28	0xbdc2f2ab	-0.095189415
29	0x3e8f0c98	0.27939296
30	0xbc71ffbb	-0.014770444
31	0xbe159d8d	-0.14610882
32	0x3d8202dc	0.06348202
33	0x3e7d1009	0.24713148
34	0xbd02a8bb	-0.031899195
35	0xbd8b8761	-0.06812931
36	0x3df271c2	0.11838104
37	0xbdc9eeed	-0.098600246
38	0xbdecd9b9	-0.11564965
39	0x3d0816d0	0.03322488
40	0x3e074053	0.13208131
41	0xbeb6671c	-0.3562554
42	0x3e8078c5	0.2509214
43	0xbe265d24	-0.16246468
44	0xbdccf7d2	-0.100082055
45	0x3db17315	0.08664528
46	0x3c73d505	0.014882331
47	0x3e8a868b	0.27055773
48	0x3d5e6f1b	0.054305177
49	0x3e0dde19	0.13854255
50	0xbe5f46da	-0.21804371
51	0x3e0d160a	0.13777938
52	0x3e4dafeb	0.20086639
53	0xbddc0e56	-0.10744922
54	0x3da21079	0.07913298
55	0x3e1b2d5b	0.1515402
56	0x3d76672b	0.060156982
57	0x3dced508	0.10099226
58	0x3cee95ab	0.029124102
59	0x3e9bac02	0.3040467
60	0xbe7ed33e	-0.2488527
61	0xbca48e64	-0.020087428
62	0x3ddafcf2	0.10692777
63	0xbebccd56	-0.3687541
64	0xbdeeef9b	-0.11666795
65	0x3d70c640	0.058782816
66	0xbdc87e5d	-0.09789727
67	0xbb3a55ad	-0.0028432414
68	0xbe7e2b78	-0.2482127
69	0x3da49d36	0.08037798
70	0xbc5cf639	-0.013486438
71	0xbc4c9074	-0.012485612
72	0x3e887d6f	0.26658198
73	0xbe40b5ae	-0.18819305
74	0xbdd413e1	-0.10355354
75	0x3e366921	0.17813541
76	0x3d38531e	0.04500114
77	0x3da3d1f6	0.07999031
78	0x3ca0ed21	0.019644322
79	0x3e4e323c	0.2013635
80	0xbe09ce03	-0.13457493
81	0xbd825b38	-0.06365055
82	0xbe8eea29	-0.27913025
83	0xbe6d7a51	-0.23191191
84	0xbd612e70	-0.054975927
85	0x3ea1d925	0.3161098
86	0xbd94bade	-0.072622046
87	0x3d3bd071	0.045853082
88	0xbe8f95c7	-0.2804396
89	0x3c5d2eb3	0.0134999035
90	0x3d4c5a9b	0.049891096
91	0xbdcaf718	-0.09910411
92	0xbe39556f	-0.18098997
93	0xbe20cd00	-0.15703201
94	0x3e6b698d	0.22989483
95	0xbea89750	-0.32927942
96	0xbd305ac6	-0.04305532
97	0xbdda4cf3	-0.10659208
98	0x3d7abe9d	0.06121694
99	0xbddbc76d	-0.10731397
100	0xbdcb82b8	-0.09937042
101	0x3d75fccf	0.06005555
102	0x3c1116c8	0.008855529
103	0xbe07a72f	-0.13247369
104	0xbc49fa46	-0.012327736
105	0x3e763bb1	0.24046208
106	0xbe9898df	-0.2980413
107	0x3e8f935f	0.28042123
108	0xbe3cb5cf	-0.1842873
109	0x3e74d9fd	0.23911281
110	0x3c388bca	0.011263797
111	0xbe9ec113	-0.3100668
112	0xbe281380	-0.16413689
113	0xbea1d5ce	-0.31608433
114	0x3de53ee7	0.11193638
115	0xbeece565	-0.46268764
116	0xbe063f63	-0.13110118
117	0x3e343aa0	0.17600489
118	0x3e3580b1	0.17724873
119	0xbe13b959	-0.14426173
120	0x3d0ab4dc	0.033863887
121	0x3e92f1d6	0.2870013
122	0xbe2746a2	-0.16335538
123	0xbde26526	-0.11054449
124	0x3e384b21	0.1799741
125	0x3e3edf68	0.1863991
126	0x3da2e71f	0.07954239
127	0x3e189c83	0.14903454
128	0xbdf4d847	-0.11955314
129	0x3d3e924e	0.046526246
130	0x3dca31da	0.0987279
131	0x3ea4f68e	0.32219356
132	0xbcde3c4d	-0.027128363
133	0x3c8a08b3	0.016849851
134	0x3dbbbea4	0.09167221
135	0x3da69563	0.08133962
136	0xbcc4181e	-0.023937281
137	0x3f021b9d	0.50823385
138	0xbd672450	-0.056431115
139	0x3e8a3678	0.2699468
140	0xbe092291	-0.13392092
141	0xbe79214b	-0.24329107
142	0xbdc8ad81	-0.09798718
143	0xbe1a827c	-0.15088838
144	0xbe3129ad	-0.17301054
145	0xbe560ca9	-0.20903267
146	0x3e44a8d5	0.1920503
147	0x3e2bc529	0.1677443
148	0xbe115982	-0.14194301
149	0x3ea16b66	0.3152725
150	0xbe1ac9be	-0.15116021
151	0x3e0ff5ee	0.14058658
152	0x3e996571	0.29960206
153	0x3e5f5155	0.2180837
154	0xbcc67f04	-0.024230488
155	0x3d3ee21e	0.04660236
156	0xbe4492a1	-0.1919656
157	0x3e31f34a	0.17377964
158	0xbe05049f	-0.12990044
159	0x3d4e599d	0.05037843
160	0xbc16867a	-0.009187335
161	0xbe88036b	-0.26565108
162	0x3d5c8861	0.053841
163	0x3cd54bbd	0.026037091
164	0xbde2ff07	-0.11083799
165	0xbdf29f85	-0.11846832
166	0x3e958b3f	0.292078
167	0xbe015c98	-0.12632978
168	0x3e8045f2	0.25053364
169	0xbe62ad9b	-0.22136538
170	0x3ec07727	0.37590906
171	0x3e0ceb93	0.1376174
172	0xbe6a2a85	-0.22867782
173	0x3e9d5aeb	0.30733427
174	0xbe823281	-0.25429156
175	0xbee8cf60	-0.45470715
176	0x3e5dd3db	0.21662848
177	0x3f44d6c6	0.7689022
178	0xbc91b628	-0.017787054
179	0x3dadb81d	0.084823824
180	0xbe12e989	-0.14346899
181	0x3e85fba4	0.2616855
182	0xbe42c133	-0.19019012
183	0x3cd5e005	0.026107797
184	0x3e93c7d7	0.28863403
185	0xbef94db7	-0.48692104
186	0x3dd2dfa9	0.10296566
187	0xbf31d408	-0.6946416
188	0xbe71e4ad	-0.23622389
189	0x3e2e7eda	0.17040578
190	0x3eb7ec46	0.3592245
191	0xbe3a0241	-0.18164922
192	0x3dbac91f	0.09120392
193	0xbe42e006	-0.1903077
194	0xbc1fb35c	-0.009747352
195	0x3d5aecd3	0.05344851
196	0x3d5ec06f	0.054382738
197	0x3dc0b7e8	0.09410077
198	0x3e159a33	0.14609604
199	0x3c47f763	0.012204978
200	0xbe272691	-0.16323306
201	0xbd2eaa10	-0.042642653
202	0xbe02d212	-0.12775448
203	0x3e866309	0.26247433
204	0xbe25853d	-0.16164108
205	0x3d4bd5ae	0.049764328
206	0xbe421b51	-0.18955733
207	0x3cb1fe46	0.021727692
208	0x3e495ad9	0.19663562
209	0xbe3e2617	-0.18569218
210	0xbd16a8d2	-0.036782093
211	0xbd186461	-0.037205104
212	0x3dfa0431	0.12207831
213	0xbd12712b	-0.035752457
214	0xbda376ee	-0.079816684
215	0x3c22cd56	0.009936651
216	0xbe430919	-0.19046439
217	0xbe572c3d	-0.2101297
218	0x3c8e341f	0.017358838
219	0x3d97432c	0.07385859
220	0xbbec8dcc	-0.007219052
221	0x3d90a01a	0.07061787
222	0x3d4a3ac1	0.04937244
223	0x3e237e33	0.1596611
224	0x3e0444f5	0.1291693
225	0x3d07fb83	0.033198845
226	0xbe3ff758	-0.18746698
227	0x3deab610	0.11460507
228	0xbdb83833	-0.08995094
229	0x3bcc8220	0.006241098
230	0x3d667fd1	0.05627424
231	0xbd805253	-0.06265702
232	0xbd3c2062	-0.04592932
233	0x3ceb89d4	0.028752245
234	0xbb975799	-0.0046185968
235	0xbeb4e104	-0.35327923
236	0x3e17cae3	0.14823489
237	0x3d838036	0.06420939
238	0x3db7a8a7	0.08967715
239	0xbe48af88	-0.1959821
240	0xbe715bd4	-0.23570186
241	0x3e22858c	0.15871257
242	0x3d875bda	0.06609316
243	0xbedf5055	-0.43615976
244	0x3dadccdd	0.0848634
245	0x3d229ad9	0.039698455
246	0x3ecbb76c	0.39788377
247	0xbe431793	-0.19051962
248	0xbd40c8a8	-0.04706636
249	0xbca54f8c	-0.020179532
250	0x3f203ab4	0.62589574
251	0xbee58a2e	-0.44831985
252	0x3edc2a85	0.4300119
253	0xbe334e18	-0.17510259
254	0x3edfc822	0.43707377
255	0xbe539a92	-0.20664433

rnn.bias_ih_l2 f4 [72]
0	0x3d80a4ea	0.06281455
1	0xbc75b5da	-0.01499697
2	0x3c8c84bc	0.017153136
3	0x3e1f5133	0.15558319
4	0xbdd188ee	-0.102311954
5	0x3dca64ab	0.09882482
6	0x3d4f07a7	0.050544407
7	0x3e03118a	0.1279966
8	0x3ce0d6fe	0.027446266
9	0x3e236d95	0.15959771
10	0xbcec7317	-0.028863473
11	0x3e834953	0.2564188
12	0x3dbb5186	0.09146409
13	0xbd2bb69f	-0.041922208
14	0x3e7e17b1	0.24813725
15	0x3cbdc57c	0.023165457
16	0xbbbfd364	-0.005854057
17	0x3e175079	0.14776792
18	0xbe12618f	-0.14295028
19	0x3e27d88d	0.16391201
20	0xbd2b9b2b	-0.041896027
21	0x3df73a8c	0.12071714
22	0xbccbe936	-0.024891477
23	0x3e4a9f21	0.19787265
24	0xbee3463d	-0.44389525
25	0x3e037c0f	0.12840293
26	0x3d30e12b	0.043183487
27	0xbe9b3c42	-0.3031941
28	0xbdc56cbe	-0.096398816
29	0xbe4217f7	-0.18954454
30	0x3e0958fd	0.13412853
31	0xbe7bc979	-0.24588574
32	0xbeefea75	-0.46858564
33	0xbdcede82	-0.10101034
34	0xbeac8a57	-0.33699295
35	0xbef43627	-0.47697565
36	0xbebcc57d	-0.36869422
37	0x3b0fd9d9	0.0021949916
38	0xbc64ff9b	-0.013976957
39	0xbe388290	-0.18018556
40	0x3d800ef4	0.06252852
41	0xbdc7bb5e	-0.09752534
42	0x3cf6f703	0.030147081
43	0xbed50b33	-0.41610107
44	0xbea13cc2	-0.31491667
45	0xbdb03f06	-0.08605771
46	0xbed91bb2	-0.42403942
47	0xbeeec878	-0.4663732
48	0xbc678ba0	-0.01413241
49	0x3c88c0e2	0.016693536
50	0x3daabf25	0.08337239
51	0x3b7fb4ce	0.003901768
52	0xbe046483	-0.12928967
53	0x3e865832	0.26239163
54	0xbe490d6d	-0.19634028
55	0xbe6292ba	-0.22126284
56	0x3e094edf	0.13408993
57	0x3dd8c427	0.10584288
58	0x3d9b8850	0.07594359
59	0xbe3e8fbc	-0.18609518
60	0x3e3d3ea7	0.18480931
61	0x3dc9b9df	0.09849905
62	0xbdbaf722	-0.09129168
63	0x3e58f99e	0.21188971
64	0x3c258e55	0.010104735
65	0xbd87447f	-0.066048615
66	0xbe15bd1e	-0.14622924
67	0x3d27ee0b	0.0409985
68	0xbcf8025e	-0.030274566
69	0x3c9255e4	0.017863221
70	0x3ba864d6	0.0051389737
71	0xbe36b82a	-0.1784369
