Checkpoints/TEST4_sines_checkpoint.pth (torch, 615236 bytes, 179 tensors)

rnn.weight_ih_l0 f4 [72, 5]
000000 24 94 b0 3e 7b 6f 89 be 15 b0 17 3e ba 41 c6 bd
       0.34488022 -0.26842865 0.14813264 -0.09680505
000010 be a8 cd be 83 8c 58 be 91 56 9c 3d 5c 93 85 3e
       -0.40167803 -0.21147351 0.07633699 0.2608899
000020 8b 7a 69 3e 28 6a ad 3d a8 18 e0 3d dc 42 03 3b
       0.22800653 0.08467513 0.10942203 0.0020028865
000030 dd 48 93 3e fc f9 58 bd 41 b1 0b 3f 8a e1 01 3f
       0.28766528 -0.05297278 0.54567343 0.5073477
000040 e8 03 34 be a0 61 22 3e 28 68 29 bf 03 1c ff 3d
       -0.17579615 0.15857553 -0.66174555 0.12456515
000050 00 ba 54 be 8c 14 65 be 59 91 d2 3d b8 01 93 bd
       -0.20774078 -0.2237112 0.10281629 -0.07178062
000060 26 84 12 bd 44 06 e5 be a8 8f 88 3e 6d 3c e1 be
       -0.035770558 -0.44731343 0.266721 -0.43991414
000070 38 8f b6 3e 82 12 d9 bc d3 74 bb bd 21 50 fe bd
       0.35656142 -0.026498083 -0.09153142 -0.12417627
000080 99 51 33 3e 44 b6 ea 3e 36 12 cf 3e 19 6f f6 bd
       0.17511596 0.45842183 0.4044358 -0.12032909
000090 60 fc cb 3e f5 28 f4 3d 94 ff 66 bd 3f c4 af be
       0.39840984 0.119218744 -0.056396082 -0.3432941
0000a0 b8 17 25 be 4e 83 91 3e 27 43 9b bd 45 b4 10 3f
       -0.16122329 0.2842049 -0.07581168 0.5652507
0000b0 7b 3b 84 3e 77 96 3b 3f e4 ef d9 3c 15 a1 52 3e
       0.2582663 0.73276466 0.026603647 0.2056926
0000c0 ff 79 c5 be fe 3f af be 72 86 a1 be f9 a1 58 be
       -0.38569638 -0.3422851 -0.31547886 -0.21155538
0000d0 d4 0f 14 bd fb 02 c3 bd 26 79 a2 3d 0f 46 d4 bd
       -0.036147907 -0.09522053 0.079332635 -0.10364925
0000e0 d4 ed 11 3e 78 68 20 be 5f f2 3c 3d e6 55 76 3e
       0.1425088 -0.15664852 0.04612958 0.24056205
0000f0 36 56 30 bd 3f 5c 6f bd 0d 84 dd 3d 9a fb bd 3d
       -0.043050967 -0.058437582 0.10816202 0.09276505
000100 4d bb 3a 3e bc 75 2b be ca 85 65 be b2 3a e8 3e
       0.18235512 -0.16744131 -0.22414318 0.4535728
000110 c3 6f 92 3e 2a 20 72 bd 16 bf aa 3e 68 60 7d 3d
       0.28600892 -0.059112705 0.33348912 0.06185952
000120 2f 82 51 3d bd 74 64 3d 60 70 98 bd 45 7b 62 3e
       0.051149543 0.055775393 -0.07443309 0.22117336
000130 91 a7 af be 82 6a 7a be 16 cd d7 3d 7c 21 97 be
       -0.3430753 -0.24454692 0.10537164 -0.29517734
000140 f3 8d 25 bf 67 4b cc 3d e6 a3 33 be 2d c3 a2 3f
       -0.6466972 0.09975319 -0.17542991 1.2715813
000150 07 35 01 3d 06 ec 54 be 3f de 1c 3c 94 fc be bc
       0.03154471 -0.20793161 0.009574472 -0.023313798
000160 72 04 a4 3c 10 12 19 3e fa 2b 1c 3e 0e ca 31 3d
       0.020021651 0.14948297 0.1525115 0.043405585
000170 37 e2 0f 3d a4 0a 35 3e d6 21 db 3d 54 a5 29 bd
       0.035127845 0.1767984 0.10699813 -0.041417435
000180 99 86 f2 3d 3d 45 b4 bd 31 89 c1 be 4d ef 48 3e
       0.11842079 -0.08802269 -0.3779998 0.19622536
000190 c1 77 42 3f 56 5f ba bc ae 34 f6 be 7f 63 68 be
       0.7596398 -0.022750538 -0.48087066 -0.22694205
0001a0 67 78 d8 3d f1 42 a1 3d bd e0 30 3e d2 c5 e1 bd
       0.1056984 0.07874096 0.17273231 -0.11024059
0001b0 e2 6d f3 3e 94 cd 8d 3e 1e 48 68 bd 58 a2 ca 3c
       0.4754477 0.27695906 -0.0567094 0.024735615
0001c0 86 97 5c 3e bb 76 5d be 7b 18 12 3d ab f7 36 bd
       0.21542177 -0.21627323 0.035667878 -0.04466979
0001d0 42 bb 23 3e 57 0d 73 3c bd ba b8 3d 83 84 9e bc
       0.15989402 0.014834723 0.090199925 -0.019350296
0001e0 b8 c1 64 bf 4e 2e 59 bc d6 dd c3 3d 87 34 d7 be
       -0.8935809 -0.013255669 0.09563796 -0.42032263
0001f0 75 3c 67 be 3b 3a f7 3d 3a e4 1b 3d c1 25 ff bd
       -0.22581656 0.120716535 0.03805945 -0.12458373
000200 b3 12 1d bf 6f 5c 5e 3e 4c 2c 3f bf 1f 5b 83 be
       -0.6135666 0.21714948 -0.74676967 -0.25655457
000210 31 ea f7 bd a2 97 bf bc ec cb 82 bd 73 98 2f 3e
       -0.12105215 -0.023387734 -0.06386551 0.17147999
000220 03 e4 0e bf 9e 85 8c be e1 ed 80 be 29 c6 89 be
       -0.5581667 -0.27445692 -0.25181487 -0.26908997
000230 1f fe 6d 3e 55 45 62 bf 62 5c d6 be 5e cc b6 be
       0.23241471 -0.8838704 -0.41867357 -0.35702795
000240 af 78 53 be 57 9e 43 3d c8 47 2d bf a9 88 29 bf
       -0.20651506 0.047758427 -0.67687654 -0.6622415
000250 a0 2d db be 4d 4b 01 bf 0d 8a 89 bf 1c 91 4b be
       -0.42808247 -0.50505525 -1.0745255 -0.19879574
000260 b2 69 7d be cc 8f 27 bf 60 36 65 be 8d 97 24 bf
       -0.24747351 -0.6545379 -0.22384024 -0.6429375
000270 14 50 45 be 2c 22 5c be ef fe b2 be ef d9 33 be
       -0.19268829 -0.2149741 -0.34960124 -0.17563604
000280 96 ab f6 bd 2a 84 5c bf 7e d7 fe be 3e 57 31 bf
       -0.12044446 -0.86139166 -0.49773782 -0.69273746
000290 4c 99 d3 be f5 9f 13 bf f4 98 0d bf bd 14 8c be
       -0.41327894 -0.5766595 -0.5531151 -0.27359572
0002a0 e8 e9 3d be 29 5d 25 bf 3c 8d 97 bb c2 82 60 bf
       -0.1854626 -0.64595276 -0.0046249907 -0.8769952
0002b0 14 bf 31 bf 0a e4 20 bf 0b 67 5e bf ee d7 b1 3d
       -0.6943219 -0.6284796 -0.8687598 0.086837634
0002c0 1d 0d 85 be 1f 75 9a bf aa 6c c7 be 11 85 87 bc
       -0.25986567 -1.2066993 -0.38950092 -0.016542943
0002d0 74 cf 3f be d2 8e 44 3e 59 ed 66 3e 88 33 1a 3e
       -0.18731481 0.19195107 0.22551478 0.1505872
0002e0 c7 f0 54 3e f5 30 af be af 9d 8f be 9a cf f7 bd
       0.20794974 -0.3421704 -0.2804999 -0.12100144
0002f0 dd 17 b4 be ad 3a 85 be dc eb 8b 3e da 2e 64 bf
       -0.35174456 -0.2602133 0.27328384 -0.8913399
000300 23 42 ed be 94 a7 1e bf 52 08 64 bf 6a 69 e3 be
       -0.4633952 -0.61974454 -0.89075196 -0.44416362
000310 09 ce 09 3f a4 cf 7a be c1 e8 9e 3c e6 dd 35 3d
       0.5383001 -0.24493271 0.019398095 0.044401072
000320 43 7a 06 bf 43 8b fa bd 0d 9e 8e be 02 6b 72 bf
       -0.52530307 -0.12233593 -0.27854958 -0.9469453
000330 bc 51 1a bf d0 5f 97 bd 54 3d 0c bf b3 85 ed be
       -0.60280967 -0.07391322 -0.5478108 -0.46391067
000340 2b 62 12 bf 6f d0 57 be 7e 82 2f be b4 1a f3 be
       -0.5718104 -0.21075605 -0.17139623 -0.4748131
000350 78 90 de be 0a 88 08 be 4b 79 a3 be ab d9 13 be
       -0.43469596 -0.13333145 -0.31928477 -0.14438502
000360 18 38 fe 3e f3 6d 5b be f6 8a 3a 3e 83 82 11 be
       0.4965217 -0.21428661 0.18217072 -0.14209943
000370 7a 1c 1d bf 3c 7b cd bd db 8a 26 be e0 e1 43 bd
       -0.61371577 -0.10033271 -0.16263907 -0.047822833
000380 3b b0 5c bd f6 7c 22 bf 03 16 8f be 92 e8 a6 be
       -0.053879004 -0.63471925 -0.2794648 -0.32599312
000390 44 f2 c6 be 12 ae e5 bd 22 41 19 be 18 d4 ed be
       -0.3885671 -0.11214842 -0.14966252 -0.46450877
0003a0 4b c2 47 bf fd af e1 bd bc 0e 16 bf 98 22 56 bc
       -0.7803084 -0.11019895 -0.5861623 -0.013069771
0003b0 ae d1 0f bf c8 9a a6 be b3 82 ec be c2 dc d2 be
       -0.5617932 -0.32539964 -0.46193466 -0.4118405
0003c0 d1 4e 01 3f 76 e5 51 3d 14 a4 a0 3c 53 b0 4d bd
       0.5051089 0.05124422 0.019609489 -0.050216984
0003d0 f4 94 bc 3e 05 fb e2 3d 5d f4 39 be 19 ab 8e bd
       0.36832392 0.110830344 -0.18159623 -0.06966228
0003e0 92 aa 1a be 46 b9 68 3e 28 85 94 be 7a aa e6 bd
       -0.1510413 0.22726926 -0.2900784 -0.112629846
0003f0 26 ff 64 3e 64 8b 59 3e 75 a5 7a be 41 2a b9 bd
       0.22362956 0.2124458 -0.2447718 -0.090412624

rnn.weight_hh_l0 f4 [72, 24]
000000 08 0d 0f be 74 b1 0e 3b 56 01 8c 3e 32 81 7a 3e
       -0.13969815 0.002177325 0.2734477 0.24463347
000010 c0 bf 4c 3e 7a bd bc 3e 7b 78 41 be b8 3d 3f bd
       0.19995022 0.3686331 -0.18893616 -0.04668972
000020 d4 7e c4 3d a6 44 26 bd e3 8b b0 be d5 d3 79 be
       0.09594503 -0.040592812 -0.34481725 -0.24397214
000030 a9 7e 89 bc b4 cc 22 be a4 55 60 bd a9 6d 16 bd
       -0.01678403 -0.158984 -0.054769173 -0.036725674
000040 50 d1 33 be 41 6c 2a bb 62 69 58 be 82 57 eb 3d
       -0.17560315 -0.0026004466 -0.2113395 0.114913
000050 59 12 15 bd bf f1 e1 3e 3d e7 af be eb e9 8c 3d
       -0.03639445 0.4412975 -0.34356108 0.06880554
000060 9c d3 9a 3d cf 97 84 3d be db 76 3c cf 65 a4 be
       0.075598925 0.06474268 0.015067039 -0.32108924
000070 f5 17 8b bd 34 5f 0e 3e 4d c9 9b bd dc f5 61 bc
       -0.06791679 0.13903505 -0.076067545 -0.013791528
000080 05 84 9c bc 21 85 43 be 5b ff 07 be d2 8f 44 be
       -0.01910592 -0.19093753 -0.13281004 -0.19195488
000090 85 dc ac 3c 9a ca f6 3d f3 17 d7 bc 6c 59 86 3b
       0.021101246 0.12050362 -0.026256537 0.0041000154
0000a0 8f 83 3d bb f3 3b 84 bd b2 d8 b9 bd 00 32 81 be
       -0.0028917526 -0.06456747 -0.090745345 -0.2523346
0000b0 1f d0 52 3d 1b 5f f4 bd d5 7e ac 3d 8a 77 91 be
       0.05146801 -0.119322024 0.08422629 -0.28411514
0000c0 a1 ff 5c 3e 1f c6 b9 3d 44 2a 0f be 45 a3 25 be
       0.2158189 0.09070992 -0.13980967 -0.16175564
0000d0 21 95 a8 3d b3 67 93 bd 55 5a 53 3e bf 73 02 3e
       0.08231569 -0.071975134 0.20639928 0.12739466
0000e0 b3 35 e6 bd 29 47 5b be 15 8e da 3d 65 15 40 be
       -0.11240711 -0.21413864 0.10671631 -0.18758161
0000f0 2d f8 a0 bd aa 8b c2 3c 86 39 ed 3d 5e 20 0f 3d
       -0.07859836 0.023748238 0.11583237 0.034942977
000100 f9 0e 27 be 6a 17 99 3e 5f 18 cc 3d 97 8b 54 bd
       -0.16314305 0.29900676 0.09965586 -0.051890936
000110 4a 06 5b be fd 29 8c 3e 2e 9c 97 be 56 34 2d 3f
       -0.21389118 0.27375785 -0.29611343 0.67657983
000120 39 73 db 3c 79 22 7e 3e 74 4c e6 b8 e7 98 a8 3e
       0.02678834 0.24817838 -0.00010981495 0.32929155
000130 17 2b 03 3f 8d 92 76 3d 72 79 c2 be 9e 65 8a bc
       0.51237625 0.060198355 -0.3798328 -0.016894158
000140 4e 9c f3 bc a0 47 20 bf ed ed 7f 3e c5 d2 0b be
       -0.029737618 -0.6260929 0.24993105 -0.13654621
000150 9e d3 20 3e ac 38 12 3d 78 ae ba 3b 4f 1a 84 be
       0.15705726 0.035698578 0.005697068 -0.25801322
000160 8b 8e 7f be 2c 94 9b 3e eb 7a 8c 3d be 61 cd 3e
       -0.2495672 0.30386484 0.06859382 0.40113634
000170 bb 8d e9 3c df c1 8e 3e 97 3b ee be 17 34 4e 3e
       0.028509965 0.27882287 -0.46529838 0.20137058
000180 f9 45 bc bd 59 cc 11 3e 5e b9 c2 bd 04 3f 3e be
       -0.09193034 0.14238109 -0.09508012 -0.18578726
000190 38 e7 04 be c5 80 5d be d7 18 3b 3d d8 54 ce bd
       -0.12978828 -0.21631153 0.045677986 -0.100747764
0001a0 1b 83 5b be 28 78 1a 3d c6 10 c1 b9 57 49 7e 3e
       -0.21436732 0.037712246 -0.00036824326 0.24832664
0001b0 1e 29 dc bd 19 ee 43 be 0c 28 8c 3e 87 34 3e 3e
       -0.1075003 -0.19133796 0.27374303 0.18574725
0001c0 55 34 1b be bd 40 37 3c d6 c0 d1 3d 74 d7 33 bd
       -0.15156682 0.011184868 0.10241859 -0.043906644
0001d0 d5 e1 22 3d 1b d1 aa bc 8f e7 0c be d6 fa 14 be
       0.03976615 -0.020851662 -0.13760208 -0.14548811
0001e0 9d c0 7a be 56 f8 3a be 76 6e 21 3e bf 54 c2 3d
       -0.24487539 -0.18258795 0.15764794 0.0948882
0001f0 f0 50 c0 be e1 fb 7c bd 2d d6 1b 3e eb 06 10 be
       -0.3756175 -0.061763648 0.1521842 -0.14065139
000200 69 d9 6f bc 1f b5 5a 3e 70 06 08 be f6 b8 24 3e
       -0.014639237 0.21358155 -0.13283706 0.16086182
000210 63 79 a5 3d 76 64 81 bd e5 8d 57 be 09 54 8c 3e
       0.08079793 -0.063179895 -0.21050222 0.27407864
000220 aa 2d 1e bd 01 92 e6 be 8c 80 74 bd a3 35 ab 3d
       -0.038617767 -0.45033267 -0.059692904 0.0835984
000230 9d 40 cb bd 57 94 35 be fa 58 f3 3d 85 a7 39 bf
       -0.099244334 -0.17732368 0.11882205 -0.7252124
000240 ac 8c eb bd 00 36 55 3e 8b 4c 68 bd d4 3a e5 3d
       -0.115014404 0.2082138 -0.056713622 0.11192861
000250 f8 9c 57 3e 94 b1 a3 3e c9 10 60 bd 0a be 15 be
       0.21055973 0.3197142 -0.054703508 -0.14623275
000260 ee 6b 0f be 19 dc f3 3c 3e e7 8d be ee 60 b0 be
       -0.14006016 0.029768037 -0.27715486 -0.3444895
000270 58 93 e7 bc 07 78 5f be 8d c8 65 3d 0c a7 99 3d
       -0.028268501 -0.2182313 0.056099463 0.07502565
000280 43 f3 b6 3d b2 04 0e be 31 55 8c 3d c3 db 28 be
       0.08933117 -0.13868979 0.068521865 -0.16490082
000290 c7 69 66 be fb 99 08 3e 84 f5 aa bd 4e d4 bb 3d
       -0.22501288 0.13339989 -0.0834761 0.09171353
0002a0 30 18 98 bd a4 97 c6 bd 9c a0 d2 3d 18 d4 75 3e
       -0.074264884 -0.09696892 0.1028454 0.24006689
0002b0 2f 10 60 3d 03 22 8b be a3 68 2f 3d 7d 9b 82 3d
       0.054702934 -0.27174386 0.0428244 0.06377313
0002c0 8c 91 59 3e af 22 0c 3e 8f c1 9e 3d f4 2f 6f bd
       0.21246928 0.13685106 0.07751762 -0.05839534
0002d0 77 7c bb 3d 23 dd 87 3e 9b d8 be 3e fb 41 81 3d
       0.09154599 0.265359 0.37274632 0.06311413
0002e0 d3 14 f5 bb b6 90 86 be 3a 8d f6 3d ce 90 35 be
       -0.007479289 -0.2628228 0.120386556 -0.1773102
0002f0 d8 08 e8 bd 07 02 5e bd f9 46 1f 3e de 14 95 3d
       -0.11329812 -0.054201152 0.15554418 0.07279371
000300 cf fa ce bd 35 e9 51 be 16 07 3f 3e d2 7a 80 be
       -0.10106432 -0.20499118 0.18655047 -0.25093704
000310 90 39 e9 be 5f 2c 48 be 68 4a 88 3e 32 a2 c0 bc
       -0.4555173 -0.19548176 0.26619267 -0.02351484
000320 76 26 64 bd 92 6d 16 3f 57 28 38 be 60 5a f5 3d
       -0.05570074 0.5876094 -0.17984138 0.11980128
000330 29 42 42 3d af 15 6b be 62 26 eb bd 4e c7 96 3d
       0.047426376 -0.2295749 -0.1148193 0.07362233
000340 49 41 35 3e 90 30 f6 bd 08 0c 0d be 57 22 64 be
       0.17700686 -0.12020981 -0.13774121 -0.22278725
000350 26 2d d7 bd 76 1f c3 be bb 6a 8b 3e 1b fb bd bd
       -0.10506658 -0.3810994 0.27229866 -0.0927641
000360 6f 92 c0 3e 74 07 69 3e f4 af 58 be e1 65 82 3e
       0.3761172 0.2275675 -0.21160871 0.25468352
000370 6b ee a3 3e 37 29 46 3d 66 c0 13 bf 19 ef 83 3d
       0.32017836 0.04837915 -0.5771545 0.06442089
000380 fd 0a d5 3e db 3a 9f be ed 82 4e 3c 5d f7 1a be
       0.41609946 -0.3109959 0.012604457 -0.15133424
000390 0a ce b8 bd ce 3d a9 3e 24 96 03 be 44 5c 22 bc
       -0.09023674 0.33054966 -0.12850243 -0.009909693
0003a0 e1 1a 21 be c9 b5 cb 3e 9f be 23 be 81 f9 d1 3c
       -0.1573291 0.3978713 -0.15990685 0.025631668
0003b0 96 ea 1b 3e 5f f0 1b 3f fb f6 b4 be 54 0d a6 3e
       0.15226206 0.6091365 -0.3534468 0.32432044
0003c0 2a 3d bf 3c 73 65 ee bd 27 67 01 3e a8 d0 e3 3d
       0.023344595 -0.11640444 0.12637006 0.111237824
0003d0 32 a1 58 3d 5f 1f d0 bd fd 9d 19 be 45 06 fb bd
       0.052888103 -0.101622336 -0.15001674 -0.12257055
0003e0 58 a7 d7 3d ac 9c be bc 21 59 50 be 7d 82 99 3e
       0.10529965 -0.023268066 -0.203465 0.29982367
0003f0 b0 15 c2 3d 11 a1 6f be 18 8a 4a bd 48 7b 61 3d
       0.09476793 -0.23401286 -0.049448103 0.05504921

rnn.bias_ih_l0 f4 [72]
000000 17 bd 8e be 8c e1 c1 bb 3a 96 77 3d e1 70 4e be
       -0.2787864 -0.00591678 0.060446 -0.20160247
000010 49 16 1f 3c 22 a2 8a 3d 3e 39 1e 3d 9b a3 0c be
       0.009709903 0.06769206 0.03862881 -0.13734286
000020 2a 1c 3f be 19 bb 12 3e b5 b8 93 bd 50 39 e1 3d
       -0.18663087 0.14329185 -0.072129644 0.109972596
000030 f6 44 55 3e 2b c0 98 3d 21 65 1b 3e a0 8a 0a bd
       0.20827088 0.07458528 0.15175296 -0.03382361
000040 1f 52 4e bd d9 9b fe 3c 8b d0 00 be 57 e9 39 be
       -0.050371286 0.031080173 -0.12579553 -0.18155418
000050 bf 07 bc 3d 9e d7 f2 3d 7c 8f 12 3e 77 16 88 3d
       0.09181165 0.11857532 0.14312547 0.0664491
000060 78 b3 af be c0 d7 08 be 44 e8 98 be c8 22 c2 be
       -0.3431661 -0.13363552 -0.29864705 -0.3791716
000070 be f9 11 be e6 f7 4f be 0e 46 be be 94 3c 97 bd
       -0.14255425 -0.2030941 -0.37162822 -0.07384601
000080 29 7e b3 be 3d 15 16 be a6 c7 1f be b6 93 10 3d
       -0.3505719 -0.1465654 -0.15603504 0.035297118
000090 ee 10 3a 3e 20 be 1e 3d 8d 59 91 be 4d b0 84 3c
       0.1817052 0.038755536 -0.28388634 0.016197348
0000a0 89 a0 74 be 37 78 fb be 03 92 da 3d 9c 53 90 3e
       -0.23889364 -0.49115154 0.10672381 0.2818879
0000b0 10 f8 8b be ee b3 a1 3c fb ca a2 bd 72 aa db be
       -0.27337694 0.019739117 -0.07948872 -0.42903477
0000c0 b2 ef 7c 3d f3 7e 23 3e 58 a3 1e be e0 9d 3b 3e
       0.06175203 0.15966396 -0.15491998 0.18321943
0000d0 0e 53 81 3e d9 0d 0b 3e 91 c0 82 3d 49 65 20 3e
       0.25258678 0.13579501 0.063843854 0.15663637
0000e0 88 7a 5b 3d b9 30 e8 3d 6f 94 64 bd cc a5 4e bd
       0.05358365 0.11337418 -0.05580562 -0.050451085
0000f0 7d 33 60 bd 3c 2a ac 3d e4 a3 16 bd eb 4d 2b 3e
       -0.054736603 0.08406493 -0.036777392 0.16728942
000100 ab 3f 0e 3e a9 33 09 3c dd 15 8f 3d d5 6f 2b be
       0.13891475 0.008374133 0.06986592 -0.1674188
000110 08 62 e5 bd d0 a1 48 be 5d 71 b3 3c 8b f9 b7 bb
       -0.112003386 -0.19592977 0.021904642 -0.0056144646

rnn.bias_hh_l0 f4 [72]
000000 aa d9 60 bd 30 fb a9 3d ef 81 85 bd ff e8 65 bc
       -0.05489508 0.08299863 -0.065189235 -0.014032601
000010 ae 7f 19 be a6 a4 6a 3e 50 38 04 be 44 33 3a 3e
       -0.14990112 0.22914371 -0.12912107 0.18183619
000020 f9 a2 83 bd 23 02 47 3e 18 c0 1d be 34 b9 7d 3e
       -0.06427569 0.19434409 -0.15405309 0.2477768
000030 2d 99 f3 bd 6b 2b e4 bd f5 66 ac bd 3f 28 30 be
       -0.1189445 -0.11141094 -0.08418075 -0.17202853
000040 c7 1c 31 3d 1c 57 03 be 60 18 96 3d ab 69 25 be
       0.043240335 -0.12826198 0.07328868 -0.1615359
000050 bd e2 03 3e 14 92 fe 3d 98 72 71 3e 96 92 8a 3d
       0.12879463 0.12430206 0.2357887 0.0676624
000060 d8 d8 0f bf 27 c7 03 be 71 da 63 3d fa 73 fc be
       -0.5619025 -0.1286894 0.055628244 -0.49307233
000070 a6 ce be bd 30 32 5f be f5 cf 20 bf eb 83 53 be
       -0.09316759 -0.21796489 -0.6281732 -0.20655791
000080 fb 29 8c be 0d 86 a4 bd c6 8e ab be 55 0d f6 bd
       -0.2737578 -0.08033381 -0.33507365 -0.12014262
000090 54 fd e2 3d 1f 65 34 3c 52 08 a5 3a 7a f5 ea 3d
       0.11083475 0.011010437 0.0012590981 0.11472602
0000a0 e2 45 c1 be 36 d0 ea be a2 e8 77 3d 80 34 1b 3e
       -0.3774863 -0.45861977 0.06052459 0.15156746
0000b0 54 3a 68 be fe 21 8a bd e3 13 03 be ef e1 97 be
       -0.226785 -0.06744765 -0.12800555 -0.2966456
0000c0 c0 9e e6 3d a6 ef 31 3d a2 42 32 be 0c de 2a bd
       0.11260748 0.043441437 -0.17408231 -0.041715667
0000d0 13 3f 8a 3e ac 43 27 3e 0f c8 13 3e 35 68 8c bd
       0.27001247 0.16334409 0.14431785 -0.068558134
0000e0 9f 8a 94 3d 66 f4 ec bd 7d 98 44 be 02 f4 03 be
       0.072530024 -0.11570053 -0.19198795 -0.1288605
0000f0 95 4a 46 be 79 9c 55 be cf 39 33 be 7c 4b 32 3e
       -0.19364388 -0.20860471 -0.17502521 0.17411608
000100 fd 86 c9 3d 68 d9 ac bd f5 c4 b7 3d 43 de 24 be
       0.098402 -0.084399045 0.089731134 -0.16100411
000110 ec 39 02 be f9 d9 65 3d 52 cb 35 be 03 03 57 be
       -0.12717408 0.056116078 -0.17753342 -0.20997243

rnn.weight_ih_l1 f4 [72, 24]
000000 3d e5 88 3e 49 8a c2 bd a9 55 a5 3d 9f eb 48 be
       0.26737395 -0.09499032 0.08072979 -0.19621132
000010 e8 bc b7 bd 87 e9 65 be 13 8b 01 be 4b 74 cb 3d
       -0.08971578 -0.22452365 -0.12650709 0.099342905
000020 08 44 ab 3d ea 54 c9 3d 76 12 f5 bd cd a1 56 be
       0.08362585 0.09830649 -0.11966412 -0.2096016
000030 b9 ab e9 3d 28 2b a8 3d 4c c4 71 3e 69 29 dc bd
       0.114097066 0.082113564 0.23610038 -0.10750086
000040 f5 77 10 bd b9 ec 16 bc 24 e0 82 bc 75 36 13 3e
       -0.03527065 -0.0092117125 -0.01597602 0.14376242
000050 50 e7 a3 bd 24 7e 91 bd 98 ce 9b bd d6 e1 1c 3f
       -0.08003104 -0.071041375 -0.07607764 0.612821
000060 da 1b 9b be a9 f3 f4 3d 10 3b aa bd ed ac 65 3f
       -0.30294687 0.11960537 -0.083120465 0.8971699
000070 47 cb 98 3e 96 ea 13 3f bf 33 4a bf 48 bc f4 bd
       0.29842588 0.57779825 -0.7898521 -0.11949974
000080 36 ac ab bd b4 9e a6 b9 21 a9 d0 3d 90 b3 8a 3e
       -0.08382456 -0.0003178023 0.10188509 0.2709012
000090 7d de 4f be d0 3e 64 be 23 46 00 bf 9d 27 ce 3d
       -0.20299716 -0.22289586 -0.5010702 0.100661494
0000a0 b5 90 d0 be ab ae a6 be c6 85 d6 be 52 3c 70 be
       -0.40735403 -0.32555136 -0.41898936 -0.2346051
0000b0 fa 14 89 3e 3b 71 29 bd 9b 40 6c be 48 6b 10 bf
       0.26773816 -0.04136775 -0.2307152 -0.564137
0000c0 8d 8d 16 3e bb d8 34 3d 72 65 9c 3a a5 98 88 be
       0.14702435 0.044152003 0.0011932089 -0.2667896
0000d0 c0 5c c2 3c c3 13 fe be 9d 9a a9 3c fe c9 d0 3d
       0.023725867 -0.49624452 0.020703608 0.10194777
0000e0 c9 ad 01 3e 6a 15 8d 3e 90 a8 18 3d ce 25 6a 3e
       0.1266395 0.275554 0.03727013 0.22865984
0000f0 73 47 1a be ad 51 89 bd 5e 0e 61 3d 81 b2 41 3d
       -0.15066318 -0.067050315 0.054945342 0.047289375
000100 d5 4a 40 3e 1a 9c 8b bb 15 f6 fe 3d a6 1c e7 bd
       0.18778546 -0.004260552 0.1244928 -0.11284761
000110 86 46 db 3d ea 2e 20 3e b9 8b 6a 3e 1d 4f c3 3e
       0.10706811 0.15642896 0.22904862 0.38146296
000120 b2 68 7a 3e 13 75 7f 3e 24 cc bb bd 2b 1a 9e be
       0.24454 0.24947004 -0.09169796 -0.3087934
000130 9c c9 2f bd 5f 4c 72 bd 66 85 6c 3e 80 78 a5 bd
       -0.04291688 -0.059154864 0.23097762 -0.08079624
000140 18 dc 4e be 5c 87 d2 bd c6 8c 7f be 44 a7 bc 3d
       -0.20201147 -0.10279724 -0.24956045 0.09211591
000150 96 1f 59 3e 26 bb 6a be 0f 64 2e 3d 6d e3 b8 3b
       0.21203455 -0.22922954 0.042575892 0.0056423456
000160 de eb 11 3e 94 76 20 bd 45 47 06 3e cf db 4f be
       0.14250132 -0.039175585 0.13113125 -0.20298694
000170 7e 30 76 be 13 fc ed 3d b9 df 80 be cc 5c 50 3e
       -0.24041936 0.11620345 -0.25170687 0.20347899
000180 d7 c9 10 be 8a ba 22 3e 89 9f 10 be 4d 5d fe 3e
       -0.14139496 0.15891472 -0.14123358 0.49680558
000190 bc c1 5c 3e a5 5e df 3e b5 18 24 3e d3 92 02 3e
       0.21558279 0.43626896 0.1602505 0.12751321
0001a0 bd b5 72 3e 72 c3 97 bd cd 2a 3b bf c0 c3 3f bf
       0.2370214 -0.07410325 -0.73112184 -0.74908066
0001b0 a8 79 08 bd 94 fb 5f 3e 6e a9 61 be 06 15 91 3e
       -0.033319145 0.21873313 -0.22037289 0.28336352
0001c0 35 3c 98 3e 69 59 7d be 26 46 99 3d 3f dc 34 bd
       0.29733434 -0.24741139 0.07484083 -0.044155356
0001d0 78 32 a8 bd cf 56 00 be 40 0b b0 3d ed c5 9e bd
       -0.08212751 -0.12533115 0.08595896 -0.07752595
0001e0 7d c8 ac 3d 04 cc 84 3d c9 37 7c bd 1f 87 d9 be
       0.084366776 0.064842254 -0.06157664 -0.42485902
0001f0 04 ef 53 be 1e ff 83 be d5 fb 55 3e 61 cd c2 bd
       -0.20696646 -0.25780576 0.20896848 -0.09511829
000200 7d 15 1d 3d 02 7b 01 bd 4c 70 8b bd 76 78 a2 3c
       0.03835057 -0.03161145 -0.06808528 0.01983283
000210 77 78 7e bd d2 0d de 3d 08 57 02 bd 62 f9 44 3e
       -0.062126603 0.1084248 -0.03182128 0.19235757
000220 d6 87 f8 bd fc 29 7b bd ce de 1c bc 2b 0b 55 be
       -0.12135284 -0.061319336 -0.009574605 -0.20805041
000230 82 40 e3 3d 8a 2c a8 bb aa da 26 3e 62 5d e2 3e
       0.11096288 -0.0051322626 0.16294351 0.4421187
000240 9c 3f 94 3d b6 b4 2e 3d 59 6c 01 3e 16 d0 bd 3d
       0.07238695 0.042652808 0.12638988 0.09268205
000250 e1 53 05 be a2 8d 00 bd 77 dd 2a be 0c af 43 3c
       -0.13020279 -0.03138507 -0.16686045 0.01194359
000260 fb 65 21 3f 36 2d fd 3d f5 6e 3f be 65 7d c7 be
       0.63046235 0.12362139 -0.1869467 -0.38962856
000270 b9 07 7d bd bc 36 4f 3e 47 c9 8b be 74 e2 12 3d
       -0.061774943 0.20235723 -0.27302 0.035860494
000280 9b 80 4d be 6b 0e e5 bd aa 37 84 be 79 15 5a be
       -0.2006859 -0.11184391 -0.25823718 -0.21297254
000290 da 6b 1e 3d df 2d 22 3e b8 38 9e 3e 9d 2b 64 3e
       0.038677074 0.15837811 0.30902648 0.22282262
0002a0 4a 2e 10 be 1b d9 6f be 83 24 54 3d 33 ad 05 3f
       -0.14080158 -0.23422663 0.051792633 0.52217406
0002b0 dc 2a 80 3e 3d d0 2a 3e 5b 88 f2 bd eb 42 5f bd
       0.250327 0.16680999 -0.11842414 -0.054507177
0002c0 87 1f 0f 3f f3 08 b8 bb 1f ee e2 bd 08 0c 75 be
       0.5590748 -0.005616301 -0.11080574 -0.23930371
0002d0 83 1c 11 3d c2 59 cd bc 70 98 c4 bc ce 9e 89 bd
       0.03542758 -0.025067214 -0.02399847 -0.06719743
0002e0 d9 e7 29 be ef 77 ae bd c4 7f 91 3d ed 51 1c be
       -0.16592349 -0.08518969 0.071044475 -0.15265627
0002f0 2a 4d aa 3d 34 e3 64 bd 3e 7b 23 be 7f 09 22 3e
       0.08315499 -0.05588074 -0.15964982 0.15823935
000300 79 9b 03 be db 0c 5f be 36 8e d3 3d 15 94 e6 3e
       -0.12852277 -0.21782248 0.10329859 0.45034853
000310 e3 92 a1 3e ae 31 ff 3e 78 63 67 be 5b 5a e2 3d
       0.31557378 0.4984259 -0.22596538 0.1105239
000320 57 c4 04 3e 4f c5 b4 3d f7 0b 45 be 37 8c b3 be
       0.12965523 0.08826696 -0.19242845 -0.35067913
000330 48 f0 30 3d ae 85 3b 3e 98 b7 a1 be b3 95 e3 bd
       0.0431979 0.18312714 -0.31585383 -0.11112537
000340 ae 61 ae 3d 71 5b f1 3a f4 a0 e3 bd 4e 6d 90 bd
       0.08514725 0.0018414092 -0.11114684 -0.07052098
000350 1f 09 5e 3e 63 9f 2d 3e 90 f3 67 be 27 20 9b be
       0.21683167 0.16955332 -0.22651505 -0.30297968
000360 e9 f5 f7 3d f9 de 73 be b9 66 22 3e 21 93 e7 bd
       0.121074505 -0.23815526 0.15859498 -0.113073595
000370 e5 19 8f 3d 74 c2 94 be 0d 2e 25 3e 0e 2b 06 3e
       0.06987361 -0.29054606 0.16130848 0.13102362
000380 04 e6 85 3e 7b b8 4f bd ca 27 80 be 55 9f a4 be
       0.2615205 -0.050713044 -0.25030357 -0.3215281
000390 2b 57 74 bd ff 85 f4 3c 79 38 dd 3d 66 fd 59 bd
       -0.059653442 0.02984905 0.10801787 -0.053220175
0003a0 50 7a 2c bd a2 1f 72 3e c9 b7 05 be a0 cd 88 3d
       -0.042108834 0.2364488 -0.1305839 0.06679845
0003b0 1a c1 d0 3d d6 41 67 bd c1 91 90 3e 48 d1 7c 3e
       0.10193081 -0.05645927 0.282362 0.2468921
0003c0 95 a0 3f bc 15 bd a9 bd 50 c6 4c bc ef ef 93 be
       -0.011696001 -0.08288018 -0.012498453 -0.28893992
0003d0 19 a3 c9 3c 90 d8 e9 3d d3 0b 3b 3e 2e 79 5c 3e
       0.024613904 0.11418259 0.1826623 0.21530601
0003e0 b1 0e c6 bd 5c 48 8e 3e 72 0c 1d bf f6 30 dc be
       -0.09670771 0.2778958 -0.61347115 -0.43006104
0003f0 8b bf 97 bd 9b 94 10 be b8 78 6b be 7e 1e 01 3e
       -0.07409581 -0.14119188 -0.2299527 0.12609288

rnn.weight_hh_l1 f4 [72, 24]
000000 9b 8a 06 3e 52 6d cb bd 90 71 8f 3d f5 66 e2 3d
       0.13138811 -0.099329606 0.07004082 0.11054794
000010 1e f7 14 be 70 b3 4d 3e 42 6b 2f be ec e3 21 3e
       -0.14547393 0.20087981 -0.1713076 0.15809602
000020 ea ca 1a bd 6a 5d 77 bd b4 af 3a 3d 1d 03 ed 3d
       -0.03779117 -0.06039182 0.04557772 0.115728594
000030 d5 7f 07 be d7 97 68 3e c4 28 54 bd a0 bc 74 be
       -0.13232358 0.22714172 -0.05179669 -0.2390008
000040 b5 92 80 3d b0 3d b6 bd eb 08 60 bd 8b c7 60 bd
       0.06277982 -0.08898485 -0.054696005 -0.0548778
000050 bf fd 2b be 06 56 b4 bd 9d 91 3c be d2 7d 00 3e
       -0.16796015 -0.0880547 -0.18414922 0.12547997
000060 1e bb e5 bc 49 5f 46 3f 3a 64 87 3e f5 3e 28 3e
       -0.028043326 0.77489144 0.26443654 0.16430266
000070 b4 81 c2 be 59 a1 5d bd b5 31 02 bc 96 30 7e bf
       -0.3798958 -0.05410895 -0.007946421 -0.99292886
000080 1e df e7 3e 50 33 d2 3e ec ee 35 be f3 71 0a bd
       0.45287412 0.41054773 -0.17766923 -0.033800077
000090 df e6 3b be 54 87 10 be d1 db d2 be ec 63 54 bc
       -0.18349789 -0.14114124 -0.41183332 -0.012963276
0000a0 6a 05 1f bd d1 eb a1 bd c8 ee 61 3e 8c b6 d2 3d
       -0.038823523 -0.079063065 0.22063744 0.10288724
0000b0 3b 0a 56 3f ed 29 08 3f de 67 29 be 4b a0 54 3e
       0.8360936 0.53188974 -0.16543528 0.20764272
0000c0 6c ae 27 3e 12 cc b2 3d 3a 79 e2 3d 3d 25 a3 3c
       0.1637513 0.087303296 0.110582784 0.019915218
0000d0 94 c0 39 3e c5 0f 85 3c 00 89 44 be b4 65 72 3e
       0.18139869 0.016242871 -0.19192886 0.23671609
0000e0 30 73 10 be 8d fc b4 bd d6 b5 88 3d 69 90 e9 bd
       -0.1410644 -0.08837233 0.066753075 -0.11404497
0000f0 55 67 d2 bd d5 3e c4 3d d6 1b 69 3e 07 ff 73 be
       -0.10273615 0.09582297 0.22764525 -0.23827754
000100 97 f1 0f be 4d c2 a4 bd c6 34 6f be 42 86 01 3e
       -0.14057003 -0.080448724 -0.23359975 0.12648872
000110 ab f6 b9 be 76 5a 97 3d 70 e3 4e bd f9 86 00 bf
       -0.36321005 0.07390301 -0.05050987 -0.5020595
000120 72 fb cd bd 01 64 05 be 4f 55 c5 3c 6f 41 46 be
       -0.10057725 -0.1302643 0.02408853 -0.19360898
000130 31 f3 23 bb 4d dd 45 bd 99 bb 89 3e 92 9d 07 bc
       -0.002501678 -0.048306752 0.26900938 -0.008277314
000140 ae 28 58 be 63 72 1c 3e 77 5f ec 3d 57 46 26 3e
       -0.21109268 0.1527801 0.11541646 0.1623777
000150 2e 59 b1 3e f9 b1 85 bd 58 8f 9c 3d 87 82 1f 3e
       0.3463835 -0.06528086 0.07644528 0.15577136
000160 b5 0d 37 be b4 7a a9 bd 8f 70 0b 3d 71 4d ce 3c
       -0.17876323 -0.08275357 0.03404289 0.025183411
000170 2d c9 ac be 77 58 7a be b6 47 49 be 07 67 79 bd
       -0.33747235 -0.24447809 -0.19656262 -0.06088927
000180 19 71 93 bd 9f 02 9a 3e 62 c3 d5 bd 2c a9 71 3e
       -0.07199306 0.30080125 -0.10437657 0.2359969
000190 73 64 69 bd 50 58 34 bc 95 f0 d9 bd f3 09 de be
       -0.05698056 -0.0110073835 -0.106415905 -0.43366966
0001a0 9f f3 47 3e 4c 6d 90 3e b7 7f 78 be cf 29 06 be
       0.19526528 0.28208387 -0.2426747 -0.13101886
0001b0 0b 6d f7 be fb 0d 1e be 9d 9e d2 3d d0 0a 26 3e
       -0.4832538 -0.1543502 0.10284159 0.16215062
0001c0 54 f5 bb bd eb 40 19 be 19 45 f5 3d c8 bc be 3d
       -0.09177652 -0.1496617 0.1197607 0.09313351
0001d0 11 18 a4 bd fa f8 2d be 71 b9 bf bc 23 b3 b6 be
       -0.08012403 -0.16989508 -0.023403855 -0.35683545
0001e0 dd 39 97 3d f5 47 58 be f6 52 3f 3d 93 89 05 3e
       0.073840834 -0.211212 0.046709977 0.13040762
0001f0 e8 a9 bd bd 3f c7 af bd 71 fb 18 be 74 23 fb 3d
       -0.09260923 -0.08582925 -0.14939667 0.122626215
000200 29 40 bd 3d f1 d7 c8 3d 44 31 a1 3c 57 4a f2 bd
       0.09240753 0.098068126 0.019676812 -0.118305854
000210 41 c6 24 bd 6f b3 12 be a8 c7 66 3e d0 ea 34 3d
       -0.040228132 -0.14326261 0.225371 0.044169247
000220 3a 02 38 be 3f 98 26 3d 65 83 27 3d 12 dc 14 3d
       -0.179696 0.040672537 0.040896792 0.036342688
000230 11 79 21 be c0 28 19 3d 2d 20 8d 3c bf 97 95 be
       -0.1576884 0.037392378 0.017227257 -0.29217336
000240 13 bd 55 bc 08 01 a2 bd 7e 8f 84 bc 7b bf e5 3e
       -0.013045567 -0.07910353 -0.016181704 0.4487265
000250 8e b8 cf 3d fe e8 1b bd 3a 99 2d 3e 1b b2 0c 3d
       0.10142623 -0.038063996 0.16952983 0.034349542
000260 c6 35 5a be a4 27 03 be 75 df 63 3e 42 32 24 3c
       -0.21309575 -0.1280809 0.22253211 0.010021748
000270 bc 48 21 3e b0 37 b5 3d 96 e9 3b bc 5f df fc bd
       0.15750402 0.08848512 -0.011469265 -0.12347292
000280 0c 56 8e bd df bb 95 be ec b6 58 be a5 f1 a2 3e
       -0.06950006 -0.29244897 -0.21163529 0.31824985
000290 95 57 c9 3c 8e 3c 92 bd 0b 2c 92 bd 61 02 07 bf
       0.024577895 -0.07140456 -0.07137307 -0.52738005
0002a0 3f 75 96 bd 47 3d e8 3d 58 2a fb bd fb b2 d5 3d
       -0.07346582 0.11339813 -0.12263936 0.104345284
0002b0 8d ab a3 3d 93 1f 87 3e 7f e4 25 be f4 c1 27 be
       0.07991705 0.26391277 -0.16200446 -0.16382581
0002c0 17 30 b3 3d 72 4e a4 3d 5a 0e 49 3c 92 4b b9 3d
       0.08749407 0.08022775 0.012271488 0.09047617
0002d0 9a 26 fc be 99 33 97 bd ae 5f 05 be 31 5a ef bd
       -0.492482 -0.07382888 -0.1302478 -0.116871245
0002e0 78 fb b3 3d a8 56 b8 bc d5 a1 04 3e a5 83 85 bd
       0.08788198 -0.022502258 0.12952359 -0.0651925
0002f0 2a a0 1d 3e 0c 66 6c 3d 17 95 50 3e 0b eb c9 bc
       0.15393129 0.057714507 0.20369373 -0.02464821
000300 45 ec e8 bc f6 1e 9e 3c b6 7b 79 bd 7e 32 29 be
       -0.028432975 0.019301873 -0.060908996 -0.16523167
000310 0d 95 89 bd de 08 01 be 0a 5a 46 bd e4 1e fc be
       -0.06717882 -0.12601039 -0.04842571 -0.49242318
000320 b4 fc 21 be 43 f7 19 3e b7 bb 59 3e e1 a0 85 be
       -0.15819055 0.15035729 0.21263014 -0.26099303
000330 7f a2 a1 bc ac bf 33 3e 83 f5 e5 bd d7 ac ca 3d
       -0.019730804 0.17553586 -0.11228468 0.09896248
000340 be a7 ef 3d db b1 1f be 5f ac f5 bd 1c 8d d6 bd
       0.11701916 -0.1559519 -0.11995768 -0.10476133
000350 30 e7 39 bd cf 6a b1 3e 92 5c 38 3e d1 d8 8f be
       -0.045386493 0.346518 0.18004063 -0.28095105
000360 3a 6c 8d be ad 3f 8a 3d 70 ea d2 3c 9a c2 d2 3e
       -0.27621633 0.067504264 0.025746554 0.41164094
000370 47 12 d7 bd 45 45 e0 3d 0b 54 be 3b 3e 95 8b 3e
       -0.10501533 0.10950712 0.0058083585 0.272623
000380 ca 54 8b bd 1c b0 96 bd 33 25 a5 3b 11 78 aa bd
       -0.068032816 -0.07357809 0.005039835 -0.08323682
000390 0f 3b 9f bd b9 0e 13 be 47 40 e2 3d 81 f9 99 bd
       -0.077749364 -0.14361085 0.11047416 -0.07518292
0003a0 ea f4 d5 bd b8 65 80 be ca a4 61 3c 6a e4 b0 bd
       -0.10447104 -0.25077605 0.013772199 -0.086373165
0003b0 41 d2 90 be 4d 84 b0 bd 7c 8b 5f be 0e d4 c6 be
       -0.2828541 -0.08618984 -0.21830553 -0.3883366
0003c0 c2 7a 53 be f2 4b 39 bc 6b 5f 08 bd 9b 56 bd bd
       -0.20652297 -0.011309611 -0.033294123 -0.09245034
0003d0 b5 0b 54 3e 70 a6 5c bd 70 74 34 3e 4e 2f f4 3d
       0.20707591 -0.053869665 0.17622542 0.11923085
0003e0 f1 3e da 3c 51 9e c1 bd 82 3e 46 bd 9f b8 ff 3d
       0.02664134 -0.094540246 -0.048399456 0.124863856
0003f0 7a 46 81 be 83 68 96 3d f8 5a c3 3d 9f ed 99 bd
       -0.25249082 0.07344153 0.09538835 -0.07516026

rnn.bias_ih_l1 f4 [72]
000000 9c 9f ff 3c f5 1f 8f 3e 37 9c 03 3e 5b 7c e4 3d
       0.031204037 0.2795407 0.1285256 0.111565314
000010 17 d7 ce 3c 62 32 43 be 90 4d 03 3e b4 56 e8 3d
       0.025249047 -0.19062188 0.12822556 0.11344662
000020 c2 5a 84 bd 75 ca 1a bb 32 32 ba bd 3e bc 13 bd
       -0.06462623 -0.002361921 -0.09091605 -0.036068194
000030 0e 73 f3 3d 11 ae 9d bd 8e 2a d8 bb 0b 6f 0e 3e
       0.11887179 -0.07699216 -0.00659687 0.13909547
000040 43 2b 08 be 0f 61 fe 3d c2 d7 4c 3e 5b dd 68 bc
       -0.13297753 0.12420856 0.2000418 -0.0142129315
000050 fe 2c 79 3e 70 0c 72 3d d6 d8 6a 3c f1 2a 5d 3e
       0.2433357 0.059093893 0.014333924 0.21598412
000060 e6 ac 20 3e 5e 6c 35 bf d2 15 06 be 36 80 47 bf
       0.15690956 -0.7086848 -0.13094261 -0.7793001
000070 45 1b 15 bc 7c 69 a8 be cf 06 0a be 4f 20 48 bf
       -0.00910074 -0.32892978 -0.1347916 -0.781743
000080 4f 75 a0 be 21 ad 64 3c 6b 72 2e be af 2d 9a be
       -0.313395 0.013957293 -0.17035834 -0.3011298
000090 ea ae 58 bf 65 09 28 3e b3 b6 d3 bd f6 0a 1f 3b
       -0.846419 0.16409834 -0.103375815 0.0024268008
0000a0 9a e0 4c be 47 c5 33 3d 36 f8 b3 bd 11 59 51 3e
       -0.20007554 0.04388931 -0.08787577 0.20444132
0000b0 84 d7 d5 be 50 03 58 be 6d a1 6e be a4 08 37 bf
       -0.41765988 -0.21095014 -0.23303767 -0.7149756
0000c0 8b 7b 4b bd ea 9d f9 bd 7e e6 d5 3d d4 9d 1e 3d
       -0.049678367 -0.12188323 0.104443535 0.038724735
0000d0 37 bd c5 3c 4f ab e9 bd 06 18 4f 3e 6b 63 da bd
       0.024138076 -0.11409628 0.20224008 -0.10663494
0000e0 a0 4e 52 be cd 5c a8 3d 4e c1 0e 3e f6 10 1b 3d
       -0.20537806 0.08220825 0.13940927 0.037857972
0000f0 36 f2 37 3d 0e e2 05 3e ca 63 a3 bb 7b ab 01 be
       0.044908725 0.13074514 -0.004986261 -0.12663071
000100 90 da af bd b5 aa 0f 3e d8 14 5d 3e 1d 15 0a 3e
       -0.08586609 0.14029963 0.21589983 0.13484617
000110 04 b9 2c be 8a 4f 3a be 4c 58 09 be 21 be d4 bd
       -0.16867453 -0.18194404 -0.13412589 -0.10387827

rnn.bias_hh_l1 f4 [72]
000000 6b c5 a1 bd 1d e8 5b 3d 26 48 3e 3e 3f d6 83 3d
       -0.078989826 0.053688157 0.1858221 0.064373486
000010 10 77 f3 3d 54 95 fc 3d f9 8d fe 3d 6c d5 f7 3d
       0.11887944 0.123331696 0.12429423 0.12101254
000020 10 0e 5d bd 88 17 47 3e 32 8b 60 bd 84 b0 ab 3c
       -0.05396849 0.1944257 -0.054820247 0.020958193
000030 9e 34 d2 bd 94 48 af bb f9 c4 8d 3c 26 72 84 3d
       -0.10263942 -0.005349228 0.017305838 0.064670846
000040 2c d6 49 3e aa a3 f0 3c e1 12 17 bd fb 4c 7e 3d
       0.19710606 0.029374916 -0.03688324 0.062085133
000050 23 37 a3 3d 55 e4 0e 3d f6 09 c0 3d fa c3 7d 3e
       0.07969501 0.034885723 0.093769 0.2478179
000060 74 f4 f7 3d 98 f2 24 bf dd 80 bf 3d 78 49 16 bf
       0.121071726 -0.6443267 0.093507506 -0.58705854
000070 e6 59 0a be 67 12 23 be 04 eb 78 3d 52 c9 24 bf
       -0.13510856 -0.15924989 0.060771003 -0.6436969
000080 8b a3 0b be ec c5 cd bd 51 ec 37 be 5f 52 5c be
       -0.13636605 -0.10047516 -0.17961241 -0.21515797
000090 2d a4 3e bf 96 b0 30 be 86 d1 d0 3d b5 4e 6b 3d
       -0.7446926 -0.17254862 0.101962134 0.057448108
0000a0 d5 29 95 bd a4 9f 61 be 72 d9 27 be 98 ae c7 3d
       -0.072833695 -0.22033554 -0.16391543 0.09750098
0000b0 9c 8f f8 be 71 bd bb be 45 87 94 be 74 7a 0c bf
       -0.48547065 -0.3666797 -0.29009452 -0.5487435
0000c0 38 8e fb bd d4 97 20 3d 12 43 db 3d 03 ef 22 bd
       -0.122829854 0.039207295 0.10706152 -0.03977872
0000d0 a1 31 f5 bc 54 df e6 3b b8 e0 01 be c2 e9 8a bd
       -0.029930891 0.0070456658 -0.1268338 -0.06782867
0000e0 ae 45 35 3d a8 43 23 bd 73 48 58 be b8 6e 93 bd
       0.044255905 -0.039859444 -0.21121387 -0.07198852
0000f0 87 8e a5 bd 1b c4 0d 3e 89 b1 d3 bd ee 9a 7b 3e
       -0.080838256 0.1384434 -0.103365965 0.2457082
000100 22 b7 36 be ce 00 52 bd 48 32 50 3e a1 90 64 be
       -0.17843297 -0.0512703 0.20331681 -0.22320797
000110 15 fc 4c bd 07 08 71 3c 3b 06 3c bd 27 25 99 bd
       -0.05004509 0.0147113865 -0.04590438 -0.07477789

rnn.weight_ih_l2 f4 [72, 24]
000000 ff c7 4c be 76 1f ee 3e 6e 86 f2 bd c6 00 81 3e
       -0.19998167 0.46508378 -0.11842047 0.25195903
000010 73 74 20 be 76 c3 69 bc d2 5b f6 3d 31 13 89 be
       -0.15669422 -0.014267793 0.12029232 -0.26772454
000020 6c 2d 22 3e 97 f1 0c 3d 46 39 61 3e d9 09 57 3e
       0.1583764 0.034410086 0.21994504 0.2099985
000030 39 12 12 bc fa 50 90 be bd 2c c2 bc 88 92 48 bd
       -0.008915477 -0.2818678 -0.023702973 -0.048967868
000040 f9 60 c1 3d 74 86 8f bd d0 65 15 be df 71 99 3d
       0.09442324 -0.07008067 -0.1458962 0.07492422
000050 80 8b 1f 3e 3a d3 24 be a0 dd b9 3d d1 de a0 3e
       0.15580559 -0.16096202 0.09075475 0.31419995
000060 a8 64 e6 3d 6c ed 77 3e 91 09 0d bd 2a a6 63 be
       0.112496674 0.24211663 -0.03443295 -0.22231355
000070 8d 5a e4 3d c9 58 17 be 6e f2 3d 3e e4 a1 91 be
       0.11150084 -0.14779963 0.18549511 -0.28443825
000080 e7 71 17 be 45 5e 1d 3e d7 b7 32 be aa b7 5c be
       -0.14789544 0.15367992 -0.17452942 -0.21554437
000090 c1 1e 9b be e8 32 ad 3b c6 cf d6 be bf 56 7d 3c
       -0.302969 0.0052856095 -0.41955394 0.015462576
0000a0 d5 00 81 3e a7 14 b7 3d 9a 88 e3 3d 53 79 04 bd
       0.25195947 0.08939486 0.11110039 -0.032342266
0000b0 fa 30 70 3e 27 81 1a bd 07 2f 28 3e 4d a2 6b 3e
       0.23456183 -0.037720826 0.1642419 0.23011132
0000c0 ca c5 e6 bd ea b0 3d 3f ff 5f 69 3c 6e 1a db be
       -0.11268194 0.74098074 0.014244079 -0.42793602
0000d0 d1 ab 92 be e5 9d c9 3e 5d f9 bb bd ce 2d 00 bf
       -0.2864671 0.39378276 -0.09178422 -0.5006989
0000e0 df 32 4d 3e b7 1d c5 be 31 a4 42 3e 82 c7 e1 3d
       0.20038937 -0.38499233 0.19007947 0.11024381
0000f0 98 3f ba be 3b df f2 bd b6 1c dc bc 18 8b d5 bc
       -0.36376643 -0.11858984 -0.02686916 -0.026067302
000100 8f af 8a 3e b9 d8 6c be 94 77 21 bd 41 f8 6e 3e
       0.27087066 -0.23129548 -0.03942068 0.23336889
000110 11 81 11 3f de e4 c8 be d6 b7 87 3e 68 66 17 3f
       0.56837565 -0.39237112 0.26507443 0.59140635
000120 5e c7 1b be 55 5b 0a bd a0 42 bb 3d 54 f6 31 3f
       -0.15212771 -0.033778507 0.09143567 0.6951649
000130 a4 75 c5 3e a4 b9 70 3e 3d 19 d5 3c f2 41 ef 3d
       0.38566315 0.23508316 0.026013011 0.116825
000140 79 2d 3b be 74 0c 3a 3e d2 83 1d 3e e3 be 0f 3e
       -0.18279065 0.18168813 0.15382317 0.14037661
000150 8e e5 dd 3d 4b 0a a6 bd b8 c6 59 3e 73 2c 78 be
       0.108348 -0.08107432 0.21267211 -0.24235706
000160 63 c8 9a bd 90 4c bb bd 99 77 af bd 2d b7 18 be
       -0.07557752 -0.091454625 -0.08567733 -0.14913626
000170 6d 5c 21 3e 04 1e 93 be 99 39 aa 3d 1b 97 5c 3f
       0.15757914 -0.28733838 0.08311767 0.8616807
000180 9d 6f 3f be 2a a1 a5 3e c7 a7 af 3a 4a 81 26 3f
       -0.18694921 0.3234952 0.0013401442 0.6504103
000190 af 71 c5 bd 13 21 95 3e dd 5a f0 be 42 a5 cf be
       -0.09640824 0.29126796 -0.46944323 -0.4055577
0001a0 9a 00 55 3e 10 23 72 3b 05 0c 09 3e 89 2e 41 3d
       0.2080101 0.0036947168 0.13383491 0.04716352
0001b0 bf 96 b5 be 81 c4 da bd c7 bf 8c bb a5 42 d3 be
       -0.35466573 -0.106820114 -0.0042953226 -0.41261783
0001c0 c1 31 85 3d 68 21 35 be 2b 18 10 be ad 27 d0 bd
       0.065036304 -0.17688525 -0.1407172 -0.101638176
0001d0 eb b8 07 be c8 1b 2e bd 84 ff aa 3e 26 dd 08 bf
       -0.13254134 -0.042506963 0.33398068 -0.53462446
0001e0 34 fe d7 bd 04 13 09 be 5b fa 56 3e 17 d4 29 3f
       -0.10546532 -0.1338616 0.2099394 0.6633925
0001f0 20 f8 38 be 57 8d 73 3e 66 56 90 3d 3d 22 7e be
       -0.18063402 0.23784386 0.07047729 -0.24817748
000200 ca f7 aa 3d 01 77 79 bd 9e 05 51 3e 7b 71 0e bd
       0.08348043 -0.060904507 0.20412299 -0.034776192
000210 55 b0 22 be 1b ea ee 3d 7a 42 25 3e d6 3e 0a be
       -0.15887578 0.11665746 0.1613864 -0.13500533
000220 fd 30 98 3d c7 0a cc bd 1d 36 40 be 5d 61 fa 3d
       0.07431219 -0.09962993 -0.18770643 0.12225602
000230 a3 ff e9 be 41 84 78 bd 3a d3 72 3d b9 ee 28 bf
       -0.45702848 -0.060673002 0.059283473 -0.6598926
000240 29 c3 8d 3d e5 74 10 3c 21 c0 57 bb f7 28 05 3f
       0.069219895 0.008816932 -0.0032920914 0.5201563
000250 8f cc df bd 77 e1 36 3b 35 67 b6 3d 39 7a 4e be
       -0.10927688 0.0027905384 0.08906404 -0.20163812
000260 35 04 29 3e ca 7d e4 bd 5f 5b 9f 3d 81 bc 07 be
       0.16505511 -0.11156805 0.077810995 -0.13255502
000270 e8 d1 bb be 38 81 c5 3d 5b 43 c2 3d d9 cf 5a bd
       -0.36683583 0.09643787 0.09485503 -0.053420875
000280 c0 8c ae 3c 74 3e 25 be 41 65 06 3e a7 88 42 3e
       0.02130735 -0.16137105 0.13124563 0.18997441
000290 01 2b 2d 3c 1e 87 4a 3e a8 cb c6 3c 54 f2 19 bf
       0.010569335 0.19778106 0.024267033 -0.6013539
0002a0 89 42 ba bd 1a 38 1e be 7c 83 e7 bd 27 00 45 3f
       -0.09094722 -0.15451089 -0.113043755 0.7695336
0002b0 6d ed 17 be 5c c0 af 3d 24 23 28 3e 84 2a ad bd
       -0.14836664 0.085816115 0.16419655 -0.08455375
0002c0 57 1a b2 3d d4 5a 32 be c6 c5 f1 3e 26 14 97 3e
       0.0869643 -0.1741746 0.47221202 0.2950756
0002d0 86 04 17 bf 9f c5 b5 bd 6e 3c ee 3d e1 26 34 3d
       -0.5899128 -0.08875584 0.1163262 0.04398239
0002e0 24 60 d6 3d a6 20 d6 3d a8 67 05 bc b4 ed 7d bc
       0.10467556 0.10455446 -0.008142389 -0.015498567
0002f0 b1 94 9b be 72 b0 1c be 78 73 6b bd 5e 4c d9 be
       -0.3038688 -0.15301684 -0.057483166 -0.42441076
000300 3a ff f1 bd 92 a0 14 be 74 72 ab bd d8 fb 32 be
       -0.11816259 -0.14514378 -0.083714396 -0.17478883
000310 43 aa 0f 3e 44 fb f4 bd 4c 71 79 3c c9 f6 1a 3e
       0.14029793 -0.119619876 0.015224766 0.15133204
000320 11 c4 c6 3d 6a 23 3d 3e 56 09 d9 be 6f bb 15 be
       0.097053654 0.1847054 -0.42389935 -0.14622281
000330 da 67 dd 3e 6d 2b 70 be d7 84 6e 3c d4 88 9d 3e
       0.43243295 -0.23454066 0.014558039 0.30768454
000340 da 0a 8e be b3 2c 38 bd 3a e0 e7 bd f3 15 28 be
       -0.27742654 -0.044964503 -0.11322065 -0.16414623
000350 b8 bb 56 3e 5b da a2 3e c9 3e 52 bf 30 e2 6c bf
       0.20970047 0.31807217 -0.8212705 -0.92532635
000360 32 f2 9c bd 5f 71 97 bd 1d f4 aa bd 2a 9d b4 3e
       -0.076633826 -0.07394671 -0.08347342 0.35276157
000370 44 f5 c9 3d 30 cf 39 3e 17 b5 7f bd bb f3 10 bd
       0.09861234 0.18145442 -0.06242856 -0.03538869
000380 9f f9 72 3d 3c 0b 06 be 21 4a 09 bc a5 ce b2 3d
       0.05932009 -0.13090223 -0.00837949 0.087308206
000390 b0 56 7e be 5d 09 e1 ba 08 01 88 3e 18 3f 33 be
       -0.24837756 -0.0017168928 0.26563287 -0.17504537
0003a0 18 46 35 3e 52 a4 1b be 24 d9 f2 bd 44 2e ee 3d
       0.1770252 -0.15199402 -0.118578225 0.11629918
0003b0 6f 5e 05 bf 80 05 3d bc c4 f5 57 3e 46 2b 2a bf
       -0.5209722 -0.011536956 0.21089846 -0.6647228
0003c0 30 26 9a 3d 03 5a a7 be 25 80 dc 3d d3 0b 2c 3f
       0.07526815 -0.3268586 0.10766629 0.6720554
0003d0 35 f0 11 3f f2 1c cb 3d 23 45 06 bd fd 90 af 3e
       0.5700715 0.0991763 -0.032780778 0.34290305
0003e0 38 cf b1 be c3 c7 e7 bd c7 85 48 3e 4b 10 6a 3e
       -0.34728408 -0.113173984 0.19582282 0.22857778
0003f0 35 ef 73 3f 6c a1 93 3d cb b2 82 3e 7c 3c f3 bd
       0.95286876 0.07208523 0.25527033 -0.11876771

rnn.weight_hh_l2 f4 [72, 24]
000000 96 49 86 3e 41 a4 83 3d 03 92 c9 be 46 8c 04 be
       0.26228017 0.06427813 -0.3936921 -0.12944135
000010 0a 4f 9b bd 08 de 8f 3c 08 14 a9 3d c1 24 9f bc
       -0.07583435 0.017561927 0.08255774 -0.019426705
000020 3d 53 66 bd 20 0e 37 3d 6c 57 20 3d 57 5c 79 bd
       -0.056231726 0.044691205 0.039145872 -0.060879078
000030 46 fb b0 bd 39 29 30 3e 81 fd 2f 3c 10 12 44 3e
       -0.086416766 0.17203225 0.010741592 0.19147515
000040 c3 e0 5d be 8e 98 0e 3e 0e f7 63 be 6a ae f7 3c
       -0.21667771 0.13925382 -0.22262213 0.030234534
000050 be 15 4e 3e f0 e7 99 be 87 1a 31 be df 7a ff 3d
       0.20125481 -0.30059767 -0.17295276 0.12474608
000060 95 39 2c 3e 0d 13 af 3e b7 93 b0 be f5 52 36 3e
       0.16818841 0.34194222 -0.34487697 0.17805083
000070 a8 51 22 be dd 32 92 bd eb 01 b1 3c 1d af 4f be
       -0.15851462 -0.07138608 0.02160736 -0.20281644
000080 00 30 00 3e 46 2c fe 3e f0 e7 8d 3e fd 6c b9 3d
       0.1251831 0.49643153 0.27716017 0.09053991
000090 c9 4d b1 be df ad 2e 3d 11 53 2d bf c7 2c ff bd
       -0.34629658 0.042646285 -0.67704874 -0.124597125
0000a0 8b 72 02 bd 0c 2e 14 be c0 34 ad bd 70 6d 56 bd
       -0.031847518 -0.1447069 -0.08457327 -0.05235046
0000b0 17 7f 0b 3e f2 28 40 be 85 23 39 bd 7e 1c a0 be
       0.136227 -0.1876562 -0.04519989 -0.31271738
0000c0 fd 03 93 3e ff 0a 1d 3f 7b 24 79 bf 46 a7 30 be
       0.2871398 0.61344904 -0.9732129 -0.1725131
0000d0 26 1a 2a be c4 df ac 3e ff ac 9f bd 5c 31 66 3b
       -0.16611537 0.3376447 -0.07796668 0.0035124635
0000e0 1b f9 50 3e 9d 36 4b 3e a3 b8 01 3f 70 9e 01 bf
       0.20407526 0.19845052 0.5067236 -0.5063238
0000f0 dd bc c5 be 44 a3 2c 3f 5e 32 23 bf d7 f2 80 bc
       -0.38620654 0.67436624 -0.6374873 -0.015740795
000100 4d 36 b2 be 6b 62 3b 3e f0 45 41 be 8c b9 a5 3d
       -0.34807053 0.18299262 -0.18874335 0.08092031
000110 5a a4 72 be 28 0b 80 bc 48 97 51 be 43 bd 96 be
       -0.23695508 -0.01563032 -0.20467865 -0.2944127
000120 4a 65 8a 3d 76 24 24 3c 5d 97 f6 bd 74 ab 21 3e
       0.067576006 0.010018459 -0.12040589 0.1578806
000130 82 2f 01 3e fb de 3e 3e fa a8 b5 3d e7 13 ce bd
       0.12615779 0.18639748 0.0887012 -0.1006239
000140 5d 9f b9 be b9 21 62 3d b1 1a db 3d f4 30 97 bd
       -0.36254397 0.05520794 0.1069845 -0.07382384
000150 29 af ce 3d e3 25 1d bc 83 37 e8 bd 03 09 13 be
       0.10092003 -0.009591552 -0.11338713 -0.14358906
000160 bd 32 b2 3d 3c b2 1f be a0 02 8d bd 1d c5 1b 3e
       0.08701084 -0.15595335 -0.06885266 0.15211911
000170 e0 d2 8c 3e 54 e3 b2 3a 81 e5 11 be 31 f9 65 be
       0.27504635 0.0013648071 -0.14247705 -0.2245834
000180 8e 60 95 3c 29 72 09 3f a6 d6 0f bf 47 a9 0a bd
       0.018234517 0.5368982 -0.561869 -0.03385284
000190 31 dc 87 3e 98 2b 3c be d3 d2 19 3e a5 2d e5 bc
       0.2653518 -0.18376005 0.1502183 -0.027975867
0001a0 aa 91 f7 bd c9 20 35 3f bd d0 86 be 43 29 d5 bd
       -0.1208833 0.7075315 -0.2633113 -0.10408261
0001b0 87 84 d2 be 4e d0 86 3e e7 1b 08 be f5 37 84 3e
       -0.41116735 0.263308 -0.13291894 0.25823942
0001c0 c2 d9 35 be 99 7e 8e 3e 2f 64 3b 3d b0 92 50 bd
       -0.1775885 0.2783096 0.04574984 -0.050921142
0001d0 c2 7c c4 bb e3 ad 8b bd 74 a5 30 3d 88 da 77 bd
       -0.0059963176 -0.06820276 0.04312654 -0.060511142
0001e0 da f6 47 3e 02 fa 02 be 04 9e 85 bd 9b 67 42 be
       0.1952776 -0.12790683 -0.0652428 -0.18984835
0001f0 2f df 15 3e 19 dc da bd a6 3c 58 be 55 a9 7f 3e
       0.14635919 -0.106865115 -0.21116886 0.24966939
000200 b6 a1 2a bd fb ac de be 81 3c 41 be 85 9d 63 3e
       -0.041658126 -0.4349135 -0.18870737 0.22228058
000210 ff 56 2d bd 22 8d c7 3d 20 b1 82 3e a7 b0 96 bd
       -0.042319294 0.09743716 0.2552576 -0.073579125
000220 8b ce 49 3e 23 b4 11 3e 57 44 24 bd fd eb df bd
       0.19707696 0.14228873 -0.040104236 -0.10933683
000230 98 63 95 be 73 ea 97 3e c7 9e c8 3d 8e 2d 34 3e
       -0.29177547 0.29671058 0.097959094 0.17595503
000240 17 29 41 be 2d fc 09 3d 1c 0e 0a bd 58 fc c3 be
       -0.18863331 0.03368776 -0.033704862 -0.3827846
000250 c7 eb 56 3e bb 99 82 bd 85 c1 56 be 9f ea 08 3e
       0.2098838 -0.06376978 -0.2097226 0.13370751
000260 47 f5 0d 3e 99 29 ca 3c 8e 18 93 3d 34 0b 8c bd
       0.13863097 0.024678038 0.07182418 -0.06838074
000270 03 8a 51 3e 62 2f 9f 3d f2 8e d1 bb 96 a1 cb 3d
       0.20462804 0.077727094 -0.0063952142 0.099429294
000280 be b6 2e 3e 4b b2 94 3e bd d1 68 3d 69 3e 43 be
       0.17061898 0.29042277 0.056840647 -0.19066776
000290 9c 79 c1 bc 89 a2 82 bb 29 e5 10 be 33 b1 0f 3d
       -0.023617558 -0.003986661 -0.14149918 0.0350811
0002a0 56 e8 42 be 5a 5f df 3e 10 ae 39 3e c5 f9 c9 be
       -0.19033942 0.43627435 0.18132806 -0.39448372
0002b0 3a 49 98 3e 1d d1 b8 bd 53 bb cb be 08 bd 25 3e
       0.29743367 -0.0902426 -0.39791355 0.16185391
0002c0 9f bb 44 3e 37 dd ec be d6 78 70 be d1 11 04 3e
       0.19212197 -0.46262524 -0.23483595 0.12897421
0002d0 ad 0e 51 be f2 ac ab bd 82 0b 92 be ed 55 13 3e
       -0.20415755 -0.08382596 -0.28524405 0.14388247
0002e0 43 16 53 bd 60 cd 16 3f 84 b8 b1 3d a1 8b 8e bc
       -0.051534902 0.5890713 0.08677772 -0.017400565
0002f0 5e 72 e9 bd 37 d4 95 3e 79 80 3f be ec 2c 0d bd
       -0.11398767 0.2926347 -0.18701352 -0.03446667
000300 e3 4a a9 3e 52 3c 5e be b0 38 2e 3d af 91 e5 3d
       0.33064947 -0.21702698 0.04253453 0.112094276
000310 23 82 0c be d0 44 37 be 48 31 ee 3d 43 3b 2e 3e
       -0.13721518 -0.17897344 0.116304934 0.17014794
000320 a1 ed 02 3e 49 30 65 be bd fd 89 3d bf da 1f 3d
       0.1278596 -0.223817 0.0673785 0.039026972
000330 32 6e 2e bd 8c fb 21 be f7 b4 16 3e 1d f9 89 bd
       -0.04258556 -0.15818614 0.1471747 -0.06736968
000340 bb 05 1f 3c de b5 9c be ed f1 e5 bc aa 4d 2f be
       0.009705956 -0.30607504 -0.02806946 -0.1711947
000350 ae 48 55 be 6e 44 b0 bd e8 26 97 3c 84 f1 b5 3d
       -0.20828506 -0.08606802 0.01845117 0.08883956
000360 e4 6d 84 be 52 78 d7 bd 81 86 02 3e 6a 17 75 be
       -0.2586509 -0.10520996 0.12746622 -0.23934713
000370 89 08 76 3d f3 c4 ad bd e0 f6 78 bd 10 c9 51 bd
       0.060066734 -0.08484831 -0.060782313 -0.05121714
000380 4f 37 9d bc 0e 11 6b be ee 92 83 be da 4f bc bc
       -0.019191412 -0.22955725 -0.25698036 -0.022987295
000390 93 ef 01 3e 24 1b b8 3c 09 e8 d2 3d 7f 92 37 3e
       0.12689047 0.02247388 0.102981634 0.17926978
0003a0 7d 7e 83 3d 58 cd 75 bd 55 d3 d9 3d 62 7d 14 3e
       0.0642061 -0.060010284 0.106360115 0.14500955
0003b0 a1 57 be bd 1a 03 9a 3e b6 e6 34 be cb 12 c6 3b
       -0.09294058 0.3008049 -0.17666134 0.0060447208
0003c0 76 db ae bd c7 53 93 bd 44 68 8c 3d 03 4b cd 3c
       -0.085379526 -0.07193714 0.068558246 0.025060182
0003d0 55 6c f5 3d 9d a9 01 be 61 a9 07 bb 08 46 05 be
       0.11983553 -0.12662359 -0.0020700323 -0.13014996
0003e0 3d 36 22 3e 34 8a 36 be 62 22 93 be 70 a2 26 3e
       0.15841003 -0.17826158 -0.2873717 0.16272902
0003f0 67 e9 df 3e 42 f7 b4 be 7e cd b3 3e 09 cf 45 be
       0.4373276 -0.35344893 0.35117716 -0.19317259
