Checkpoints/w_e200_no100.pth (torch, 714766 bytes, 207 tensors)

rnn.weight_ih_l0 f4 [72, 5]
00000000: 31b4 683d 7b4f 563e 1796 6e3e 188c 893d
00000010: 93ef 2f3e e0a2 c7bd 1950 273e d770 45be
00000020: eed0 c93d fdfe 1b3e b47e cebd 100e 5dbe
00000030: 0b25 1cbe 5ecb 22be 4d4e 80bb c944 d23e
00000040: 507b fe3e 5088 323d 4fc2 fb3d a11a 3b3e
00000050: 1c9a 9a3e 428d 963c 126d df3d d975 6fbe
00000060: 5206 c63d 8805 5e3d f7c0 983d eec8 403e
00000070: 2ce6 e6bc 0b0e 44be 1aad 71bd d3f9 8f3d
00000080: b5ca 42bd bdcd 60be 78bf 93bd ba6a 6b3e
00000090: 03cf 0dbe fc65 ac3d b0ec 953e b360 a53b
000000a0: a7f4 91be 25cd f93b 6603 003f 833e a93d
000000b0: e185 03be 679b 9d3d 5934 76be 62ea 08be
000000c0: 326f 31be ff00 983c 175e b93e da2e d13e
000000d0: dee5 163e 9e00 52be 693d 04be 93da 613c
000000e0: 1576 2d3e cc41 d3bc e2ad a63c 82d5 a73e
000000f0: e06e 523e 1f4a 8c3b b93a b7bd 786b 71be
00000100: cf10 293d 1729 48be 2fff 063d 0215 3e3d
00000110: d212 413d e262 cebc c131 7f3e 7928 533e
00000120: 2ca3 d6bc 5125 553e 3b4e f8bd d9d7 7d3c
00000130: 2b7b df3d d431 033b 23fc 3e3e 8ed4 5e3e
00000140: 14ce 713e 83dc f7bd 88b5 223e 4435 f03e
00000150: 4ee6 193e a0ae 7a3e 6686 233b 326d da3b
00000160: d9f2 5dbd 4293 763c 757b d03c 3212 2abd
00000170: 869a d33e 4ee8 f03d 3b05 88bd 4566 7e3e
00000180: 7d54 923e d420 8f3d 61f9 013e 236c 00bd
00000190: 37cd 263c 2d9f 22be 2840 0fbe 463c 55be
000001a0: de38 393d 75e0 1bbe 2d48 503e 6c39 02be
000001b0: a5e0 8f3d 0c85 9b3d 3ffd d93e f9d3 5fba
000001c0: 0b11 503e 2b22 89bc b6c4 0b3e b9e4 fb3e
000001d0: 7155 4f3e a2a5 a0be 6278 433e fc43 2e3d
000001e0: d063 40be 63d1 3cbe ab21 06be 971d b2bd
000001f0: 8e23 32be 2d76 2abf d5ca 11bf a94f 99be
00000200: b9ac 81be b20a b1be 82ae 1abd e84b 9fbe
00000210: 1d5e 363e 7d39 063d 8c6d 23be 2da5 05bf
00000220: 83bd f9be b154 1bbf f1b1 e3be 8bd2 0fbf
00000230: ed74 e8be ee88 7bbe 0a41 1fbf d456 54be
00000240: 8104 a8be 62e8 acbe 4df8 33bf bf03 5abe
00000250: 9125 0cbf 7a3a 86be c514 733e 4336 60bf
00000260: fb93 41be 1878 4ebd 80c9 653e 45f3 5cbe
00000270: fa9f c8bd d172 18be 9311 64be 92e2 10be
00000280: fcdb 15bf dd32 67be 6257 29bf af0e 87be
00000290: 39be 02bf c8cd 83bd 2940 3cbf 4a49 443e
000002a0: 9c66 64be 67b4 a0bd b35e e9be 975b d6be
000002b0: 472c 8bbe a8da 01bf f8c6 08bf d598 59be
000002c0: c9ac 00be e2a0 99be 13b4 adbe 63ad d2be
000002d0: 9428 d83d 6133 e4bc 99b7 92be cd2e 27be
000002e0: c7c6 f1bd ab0b fcbe 1e8b e3be ade8 e7be
000002f0: cb8f ebbe 93d3 bdbe e6f6 ddbe 07da acbd
00000300: 337f d9be 524e 3cbd 721c 9cbd ad82 3fbe
00000310: d432 35be 2ef1 f0be 1f27 80be f28e 8dbe
00000320: 391c b8be 4b5c bcbe 8fd6 0fbf c60b 6ebe
00000330: 1df3 403d bb0b ef3d 8474 88be a613 fabe
00000340: 90f1 33be 8b60 693e 2106 c2be 3305 99be
00000350: ff0d c1be 66fe ecbe 6bf1 333d 9cce 12bf
00000360: 875b 44bf 9303 85be 8de1 1cbf 26c0 1bbf
00000370: a46b 03be 65af 46bf 84d8 eebe 548f abbe
00000380: 1cdd efbd 1673 23be 8380 e8be 6677 13bf
00000390: 99e6 90be d06c 73be 566f 88be f4ee 05bf
000003a0: 5dc8 93be 20b2 c0be 3a87 56be 8025 cabe
000003b0: 6ca3 3dbe 495c afbe 5b71 2cbe 3392 1dbd
000003c0: f7a2 a93c af7d f53d 750a a83d 1c14 913d
000003d0: 79e9 503e a28c a03e bf87 96bd e327 9c3c
000003e0: 4353 b13e 24fa 673d f1dc e13d 85ec 2cbe
000003f0: 1c6e e83d d9a7 96bd ee75 043e ee1e f03e
0.05681247 0.20928757 0.23299442 0.06716174 0.17181234 -0.09747863 0.16339149 -0.19281326
0.09854303 0.15233989 -0.100827605 -0.21587396 -0.15248506 -0.15897891 -0.003915584 0.41068104
0.49703455 0.04358703 0.12292921 0.18271877 0.301957 0.018377904 0.109094754 -0.23384799
0.09669174 0.054204494 0.0745868 0.18826649 -0.028185926 -0.19145982 -0.059002973 0.07030072
-0.047556598 -0.21953483 -0.07214254 0.22989932 -0.138485 0.084178895 0.2928214 0.005046928
-0.28506967 0.007623332 0.50005186 0.08263876 -0.1284404 0.07695656 -0.24043407 -0.1337066
-0.17327574 0.018555162 0.36204597 0.40856057 0.14736125 -0.20508048 -0.12914051 0.013785022
0.16939576 -0.02578821 0.020346586 0.3278008 0.20550108 0.004281297 -0.08946747 -0.23576152
0.041275796 -0.19546925 0.032958206 0.046406753 0.04713709 -0.025193635 0.24921323 0.20620908
-0.026200853 0.20815016 -0.12124296 0.015493357 0.10912164 0.0020018714 0.1865087 0.2176077
0.23613769 -0.12102606 0.15889561 0.46915638 0.1502926 0.24480677 0.0024951934 0.006665849
-0.054186676 0.015049757 0.025449494 -0.04152126 0.4132883 0.117630586 -0.06641623 0.248437
0.28580084 0.06988683 0.12692787 -0.031353127 0.010180763 -0.15881033 -0.13989317 -0.20823774
0.04522025 -0.15222342 0.20340033 -0.12717217 0.070252694 0.07593736 0.42576024 -0.0008538361
0.20319001 -0.016739925 0.13649258 0.4919794 0.20247437 -0.31376368 0.19088891 0.042545304
-0.18788075 -0.1843925 -0.13098781 -0.0869705 -0.17396376 -0.6658657 -0.5695012 -0.29943588
-0.2532709 -0.34578472 -0.03776408 -0.311126 0.17809339 0.03276967 -0.15959758 -0.52205163
-0.48777398 -0.60676104 -0.44471696 -0.5618064 -0.45401707 -0.24563953 -0.62208617 -0.20736247
-0.32815936 -0.33771044 -0.7030075 -0.21290492 -0.5474482 -0.2621649 0.23738392 -0.87582797
-0.18904106 -0.0504075 0.22440147 -0.21577175 -0.09796138 -0.14887549 -0.22272329 -0.1414893
-0.58538795 -0.22577997 -0.6614896 -0.2637839 -0.51071507 -0.06435734 -0.735354 0.19168583
-0.22304767 -0.07846909 -0.45580062 -0.41866753 -0.27182218 -0.5072427 -0.534286 -0.21249707
-0.12565912 -0.30005556 -0.33926448 -0.4114791 0.10554615 -0.02785653 -0.286557 -0.16326447
-0.11805492 -0.49227652 -0.44442075 -0.45294705 -0.46008143 -0.3707548 -0.4335243 -0.08440023
-0.42479858 -0.04597313 -0.07622613 -0.18702193 -0.1769517 -0.47059005 -0.25029847 -0.2764812
-0.35959032 -0.36789164 -0.56186765 -0.23246679 0.04710685 0.11672159 -0.26651394 -0.48843116
-0.17572618 0.22790734 -0.378953 -0.2988678 -0.3770599 -0.4628784 0.043931406 -0.5734651
-0.7670216 -0.2597929 -0.61281663 -0.6084007 -0.1283403 -0.7761138 -0.46649563 -0.33507788
-0.11712095 -0.1596187 -0.45410547 -0.5760406 -0.28300932 -0.23771977 -0.26647443 -0.5231774
-0.28863803 -0.376359 -0.20950022 -0.39481735 -0.18519372 -0.34250095 -0.16840117 -0.038469505
0.02070759 0.11986863 0.082051195 0.07083914 0.20401563 0.31357294 -0.0735011 0.019061988
0.34633836 0.056635037 0.11028469 -0.168871 0.11349127 -0.07356233 0.12935612 0.46898597

rnn.weight_hh_l0 f4 [72, 24]
00000000: 98ff 8d3d 305d 78be d0f6 bc3d af0b 8f3d
00000010: 8a77 fcbc ef69 bbbe 4ea7 f3bd 4670 953d
00000020: 1368 d83d 0f45 0f3e 7b21 c63b f58e b0bd
00000030: 72fc 073e 1368 883d 1fd7 8f3d 6756 2f3e
00000040: 61ab 823e 9f2e efbd dd52 35be a608 9fbc
00000050: 31fb cfbd 8b55 843e 518f 483d 9243 29bd
00000060: 94e0 a0bd 3248 48be 0de2 573e 073f e0bd
00000070: 24a4 81bd 6159 dcbe 8935 03be 3ad7 9d3d
00000080: 39c9 e5bd b7e1 473e 7091 34bd 3a66 ea3d
00000090: e3a2 8fbc 8843 07bd 3175 a73d ab8d 213e
000000a0: a609 9b3e 45e0 2fbe 6c02 353e 14c3 a23d
000000b0: 0185 88be edb0 7abd 51bc 64bd ec3d 093e
000000c0: b82c 06be 92f2 313d 2e96 2a3e f71b 35bc
000000d0: a77b 023d fa98 6c3d 51f0 14bd 2abe 243c
000000e0: c735 26be 2444 cbbe 4af0 2bbe c9f6 043e
000000f0: 322a 773d 2a3f 49be 47d5 18be f82e 86bd
00000100: e42e 61bd 4e59 18be 5f65 89be 4a9f 8d3d
00000110: 60f9 e33d 9c36 0f3c 65c6 fbbd 8de8 113b
00000120: ca22 253e 7808 1e3d c713 403e a61d 473e
00000130: ae17 6fbe f17d 2ebe 9ad3 d03d 0633 ad3e
00000140: 845b 49be ee38 fc3b ad4e 0abe eb84 0a3c
00000150: 031f 883c 1a5c 8d3d 1fe7 ccbe 200b f7bd
00000160: 741e 0d3e 1066 58be 2d07 173e 9c52 ae3d
00000170: 8a80 b1bb 6f1c 3ebd f277 2fbe ca9a 393e
00000180: 9cb9 9abc 6e46 ae3d 3272 d4bd 06ac 0fbe
00000190: 336b 753d 090d 92be c108 b73d acfe 80be
000001a0: 2b70 56bd 2143 fd3d 263d aabd 2672 cd3d
000001b0: bf8d 0d3e 4269 2c3d a16e ce3d b17d 753e
000001c0: 1aed 37be a97e 18bd 7508 a13d eb8f 323e
000001d0: f730 d3bb ac63 45bb 4dd0 8b3d 7f1c 19be
000001e0: e45a 1ebe fd64 453d 2418 9ebd 7c94 29bd
000001f0: 54d1 99bd 3e3a 81be a16d 1abd 1177 29be
00000200: 30f2 bb3c 6765 72bc 1410 f23d c184 0a3e
00000210: ca7c 4b3d fa63 04be 447a fe3d 7a22 9ebd
00000220: 8411 2a3d 6d34 0e3d 3a32 aa3e cc82 3a3e
00000230: 6bfd 1e3e 0474 b1bc 225c 013d 543e 1dbe
00000240: 08f8 e2bd 9f0f 163d 8ab4 4b3e 25fb 6d3d
00000250: a3a2 13bd 8440 bb3e fcca 2e3d 237a b23d
00000260: 3495 7c3d 4319 0b3e 80ef 09be de1d 0d3e
00000270: 86d9 ef3d 5168 bebc 31bc 8ebd 1916 e2bc
00000280: 2156 393d 563d 9fbd fb9e 91be 0971 c63d
00000290: f2ca cd3d 30db 8e3e 8b55 70be f5bb c73d
000002a0: 12f9 68bd ec77 923e 4b3c 8b3d 4f26 06be
000002b0: 337f 14bd e684 d03e 59dc 2ebe dcd5 2fbe
000002c0: 236c fb3d 69ff 69be 117b 5f3c 7388 3cbe
000002d0: 06a4 ba3d c7a6 debd f557 473e 37cf 0cbe
000002e0: 8c54 d5bd 2708 86bd afe8 01be 5af8 eabd
000002f0: 3ace b3bd b03f 2cbd 9054 d9ba 245d dabd
00000300: 6fe4 f23d fefc c9bd 88ed cebc 2737 15bb
00000310: 3244 433e 21b8 32be cdec 11bd bdd2 99bb
00000320: d818 9e3c 4367 c0bd eb4c 1a3e 10e5 27bd
00000330: a50a 42bd 4424 933d aa63 e1be 2c48 773d
00000340: 04c0 9e3e 704a 213d 9aa2 a83d dca9 46be
00000350: f245 463d 46a0 f83d fe0a 70be 713c e23e
00000360: 83ad 0c3e f048 493e f7e0 7b3d 29a6 41bd
00000370: e262 4d3e 2f3d 193d 9fa3 3a3d b7a9 8f3c
00000380: 619a eb3d e8c1 cd3d 48fe d4bd 1083 febc
00000390: c8c4 0cbe fbd7 54bc edb4 753c 1ef2 96be
000003a0: 1a8d 7dbd 0fec b53d b3fb 4fbe 70d5 44be
000003b0: d345 e43d 6d4e 81bd 9cf5 25be 7e28 c3bd
000003c0: c3df 123e 800a 81be 7ffd d4bc 0c1f f13c
000003d0: 86b3 403d 4816 3bbe 22c4 afbe 7b1e 35be
000003e0: ad68 adbd 3178 c6be b090 b33d 5e6c 0fbd
000003f0: c5f9 303b 942d 80bc 52dc 85be b066 3e3d
0.06933516 -0.24254298 0.09226763 0.0698465 -0.03081872 -0.36604258 -0.11897145 0.07296805
0.105667256 0.13991188 0.0060464717 -0.08621017 0.13279894 0.066604756 0.07023453 0.17122804
0.25521377 -0.11678814 -0.17707391 -0.019413304 -0.10155333 0.25846514 0.048964802 -0.041324206
-0.07855335 -0.1955879 0.21082325 -0.109495215 -0.063301355 -0.4303694 -0.12813391 0.07707067
-0.11220021 0.19519697 -0.044084013 0.114452794 -0.017533725 -0.033023387 0.08176649 0.15776698
0.302808 -0.17175396 0.17676705 0.079473644 -0.26663974 -0.061203886 -0.055843655 0.13402528
-0.13102996 0.043444224 0.16658852 -0.011054031 0.031856205 0.057763077 -0.036361996 0.010055104
-0.16231452 -0.39700425 -0.16790882 0.12984766 0.060342975 -0.19653001 -0.14925109 -0.06551927
-0.05497636 -0.14877817 -0.26835153 0.069151476 0.11131549 0.008741047 -0.122937 0.0022263855
0.16126552 0.038582295 0.18757544 0.19444904 -0.23348877 -0.1704023 0.1019661 0.3382799
-0.19663817 0.0076972162 -0.13506575 0.008454542 0.01661635 0.069023326 -0.4002008 -0.12062669
0.13781148 -0.21132684 0.14748831 0.0851185 -0.0054169344 -0.046413835 -0.171356 0.18125454
-0.018887334 0.08509527 -0.103733435 -0.14030465 0.059916686 -0.2852557 0.089372166 -0.251943
-0.052353065 0.123663194 -0.083124444 0.10031538 0.13823603 0.04209257 0.100796945 0.23973729
-0.17961541 -0.037230168 0.07862941 0.17437713 -0.006445046 -0.0030119224 0.068268396 -0.14952277
-0.1546436 0.048192013 -0.07719448 -0.04140137 -0.07510629 -0.25239748 -0.037702207 -0.16549326
0.022942632 -0.014794684 0.11819473 0.13527204 0.049679555 -0.12928763 0.12425664 -0.0772142
0.04152061 0.034717966 0.33241445 0.18213958 0.15526359 -0.021661766 0.031582005 -0.15355808
-0.110824645 0.03663599 0.19893089 0.05810084 -0.036043774 0.3657266 0.04267405 0.08714702
0.06166573 0.13583855 -0.13470268 0.13780925 0.11711411 -0.023243101 -0.069694884 -0.027598428
0.045248155 -0.07775371 -0.28441605 0.096895285 0.10048474 0.27901602 -0.23470132 0.09752647
-0.056878157 0.28607118 0.06798609 -0.13100551 -0.03625412 0.40726393 -0.17076243 -0.17171425
0.12276485 -0.22851337 0.013640181 -0.18411426 0.09113316 -0.10871654 0.19467147 -0.13750921
-0.10416517 -0.06544524 -0.12686418 -0.114731506 -0.08779569 -0.042052925 -0.0016580988 -0.106622964
0.118599765 -0.098627076 -0.025259748 -0.002276847 0.19068983 -0.17453052 -0.03562622 -0.0046943114
0.019298956 -0.093946956 0.15068404 -0.040989935 -0.047373433 0.071846515 -0.4402135 0.060371563
0.3100587 0.03937763 0.08234139 -0.19400734 0.04840655 0.12139945 -0.23441693 0.44186738
0.13738064 0.1965673 0.06149384 -0.047277603 0.20057252 0.037411865 0.045566197 0.017536981
0.11504055 0.1004675 -0.10400063 -0.031068355 -0.13746941 -0.012990947 0.014996749 -0.29481596
-0.061902143 0.08882915 -0.2031086 -0.19222045 0.111461304 -0.06313787 -0.16206974 -0.09529208
0.14343171 -0.25203323 -0.025999783 0.02943375 0.047046207 -0.18270218 -0.34329325 -0.17687409
-0.08467231 -0.38763574 0.08767831 -0.035015456 0.0027004343 -0.015646733 -0.26144654 0.04648465

rnn.bias_ih_l0 f4 [72]
00000000: 6ba0 543e 3393 713e 7d2e f13d b0a5 3abd
00000010: 2072 04be 6d3c 28be e460 d53d 565e 553d
00000020: 140b 6b3e 3fe3 963d c282 1cbe fcb6 a53d
00000030: c5d3 46be c37f 7f3d 2756 49be b7ee ff3d
00000040: c53b 0ebd 15a7 04be 9223 b5bd 7ad5 2dbd
00000050: bf72 f93c 02a7 f63d a985 073e 8ffd b73d
00000060: 853a 063d 6c98 07bf e00e 903d 99af 2bbe
00000070: dbbe d8bd 69c0 e6be a57b 4b3e 15d1 313e
00000080: cbec 39be 40fc 833e 491f 06bf 41cc 6cbe
00000090: 825f 9e3d 4839 4dbf 4193 3b3d a196 243d
000000a0: 51ca 603e 0fe5 133e d804 493c 475d 10bf
000000b0: 7369 c4bc 34a7 e7be 26fc 54be a8ac 803d
000000c0: 133b fa3d 6bec aa3d ce5b 7a3d 6a0b 283e
000000d0: 8ece 08bc 1596 de3d 8439 0e3e 3f82 f83d
000000e0: 4fdf 23be 05f6 dfbd 3324 1abe be0b ffbd
000000f0: c8af 55be 70d1 d5bd 4328 cb3d 925a 9bbd
00000100: e55b f83d 608c 45be 84e9 e9bd 8e1f 493d
00000110: 09be 2c3d 60de fd3d 98b4 e3bd 32c9 ca3d
0.2076432 0.23591308 0.11776445 -0.04556817 -0.1293416 -0.164293 0.10418871 0.05209192
0.22953445 0.073675625 -0.15284255 0.08091542 -0.19416721 0.062377702 -0.19661771 0.12496703
-0.03472497 -0.12954362 -0.08844675 -0.042439915 0.030450223 0.12043573 0.13234581 0.08983909
0.032770652 -0.5296695 0.07034087 -0.16766204 -0.10583278 -0.45068672 0.19871385 0.17364915
-0.18156736 0.2577839 -0.5239149 -0.23124792 0.077330604 -0.8016553 0.04579473 0.040182713
0.21952178 0.14442848 0.012269221 -0.5639233 -0.023976063 -0.45244753 -0.20799312 0.062829316
0.12218299 0.083458744 0.061122708 0.16410604 -0.008350028 0.108684696 0.13889128 0.121342175
-0.16003154 -0.109355964 -0.15052871 -0.124534115 -0.20867836 -0.10440338 0.09919789 -0.07585634
0.121269025 -0.1929183 -0.11421493 0.04910236 0.04217342 0.1239593 -0.1111843 0.09901656

rnn.bias_hh_l0 f4 [72]
00000000: a3f0 c53d 0311 f13c 2bc8 663e f465 d83d
00000010: 8a6b 0ebe 5567 ab3d 7c18 83bd 0c44 35bc
00000020: 3e9a 9a3d b0ad 8e3d 02c3 6c3d 76a6 52bd
00000030: 393b 1ebd e1a9 433e d6ec 11be 64dc 153c
00000040: ded0 f33d ae2e ddbc a3aa 0a3d 5d86 8cbd
00000050: 36e4 333e 00d2 b53d 0d59 55be d8fa 0dbe
00000060: 06d4 1cbd e08e 1bbf e730 c73d d2e8 3bbe
00000070: 6e8e 9dbe 3bf5 0cbf f9b8 2c3e 7f0b 0abe
00000080: 4d95 22be 36dd 973d a978 abbe 09c6 733d
00000090: f4e4 2bbd e5b9 09bf 69e5 28be 3f5d 87be
000000a0: 3d18 703e 7ac6 133e d0c1 aebb 3af2 7cbe
000000b0: 2c12 2cbe dfa6 4bbe b708 2bbe 2951 e1bd
000000c0: c585 cfbd c027 31be 6207 683e 200d 2d3e
000000d0: 9cc7 cdbd 8058 ab3d 99ee 663e 3bef 0d3e
000000e0: 054f 23bd 017f dd3d 1f59 8f3d 7d5c 47be
000000f0: 37da 2abe 97bc 4b3e 80d5 10be caec 393e
00000100: 875a eabd 419c 3dbe 65fe 903c a0a2 323d
00000110: b1de e4bd f41e 14be deab 34be ce29 343d
0.096650384 0.029427057 0.22537296 0.10566321 -0.1390821 0.083693184 -0.064011544 -0.011063587
0.075489506 0.06966722 0.05780316 -0.05142828 -0.038630698 0.19107772 -0.14250502 0.0091467835
0.11905073 -0.026999798 0.033854138 -0.06861565 0.17567524 0.08877945 -0.20834751 -0.1386522
-0.03828814 -0.60764885 0.09726124 -0.18350533 -0.30772728 -0.5506169 0.16867436 -0.13480948
-0.15877266 0.074152395 -0.33490494 0.059515033 -0.041966394 -0.5379928 -0.16493763 -0.2643833
0.23446746 0.14431182 -0.005333163 -0.24701777 -0.16803807 -0.19887875 -0.16702543 -0.11001808
-0.101329364 -0.1730032 0.22659066 0.16899538 -0.10047838 0.083664894 0.22551955 0.1386079
-0.03987028 0.1081524 0.069994204 -0.19468875 -0.16684805 0.1989616 -0.14143944 0.18156734
-0.11443048 -0.18516637 0.01769943 0.043612123 -0.111752875 -0.14464933 -0.17643687 0.04398518

rnn.weight_ih_l1 f4 [72, 24]
00000000: 6b27 0cbe f281 5a3e 1ec2 103e 4e17 18bc
00000010: fa76 84be 35a6 e4be 5db3 e0bd f996 e3bd
00000020: 1e87 39be cbfe 1cbe 59f7 923e 4f49 31bc
00000030: 885f 3d3d 7695 bfbb 6b58 223e 76aa 3dbd
00000040: 1a29 ec3c 7a78 903e 0ffc 9b3d b542 1bbe
00000050: 131a be3c 420c 9ebd e3a1 d3bd 731f 763e
00000060: 282d e6bd b1de d9be c9fd 32be d1e2 893d
00000070: 5769 cc3d b084 bdbe 3a1b ed3c 642f b23d
00000080: 09f4 66bd 5c13 f93e f574 5c3e cde8 6d3e
00000090: 0b50 bc3d 94ff a8bd c86a 7a3d e23a d33e
000000a0: 5094 de3e 06a0 0a3e 9025 853e 19e8 d43e
000000b0: d8d3 24be 3f72 8abe 8ce7 843c 91f8 90be
000000c0: 629d 113e c551 a6bd 7745 8abe 702a 453e
000000d0: b106 12be 1469 55bd 39ce 85be 10c8 c33d
000000e0: 38f8 47be 2e16 023e 533e 843e ec55 ed3a
000000f0: cc35 063e 55eb 32be de47 c3bd 87d3 e43d
00000100: d283 b43d e398 593e 6ffc be3d 36a2 a53c
00000110: 138c d7bd 0455 9cbd e18a 553e fbd3 06bd
00000120: fe01 c2bd 0d60 083e 08a1 9f3c 1800 cb3d
00000130: 79f4 473d a4fe 47be eb67 8b3d 79e3 5d3d
00000140: a30f 013e d25f a1be 62bf 633e 14c3 1f3e
00000150: 1511 963b f244 ffbd 2a02 2cbe 9f4d dcbe
00000160: 8e75 09be ea6c 063e 1740 233e 01a4 54be
00000170: f026 9f3d 4e37 e83e 8f0e 6ebd b7e8 603e
00000180: 0ead 0a3c c1f6 803e 220d aabd 445d 863d
00000190: 767e b2be 6e34 5f3e 1dc1 20be 8ffa 103e
000001a0: 74cd 82be fb4c f8be 59e6 5e3d f6c6 81bd
000001b0: ba86 ba3d f38c d8bd 7897 23be b3dd 68be
000001c0: ce6a 3f3e d454 4c3e 50e2 e03d 3d44 6ebd
000001d0: 6919 bc3d 10fe 85be 1443 83be 4766 e13d
000001e0: e9a7 0e3d 21ae 723e 19d1 023e 1161 a63c
000001f0: b3fb 53bd 0ab2 0f3e bb29 0dbd 8029 843e
00000200: 192e d23d 8b42 13be 2d3e 1dbc c58c 0ebd
00000210: ac43 013d 8309 a8bc a341 3abe 2419 1cbd
00000220: 80eb 8fbe 821f adbd 262b 2bbd 02b7 8abe
00000230: 262f 15be 88fe 73bd 3acc adbd dcfb 0cbe
00000240: 65a3 79bc 366b e5be bb9b 3cbe d767 e7be
00000250: b240 063e 5d0c 1f3f bc2f 41be 0d75 85be
00000260: 288e cf3e 0cf7 c7be aac9 fbbe 220a 7f3b
00000270: d41d ae3d ed00 143f 2183 ab3c 25da 76be
00000280: 4669 973e ee68 1dbe a391 bb3e d23e ab3d
00000290: ee64 863e 7f2d dabe 45d7 2b3d 2cba 423e
000002a0: b670 c63d cc0b 143e c991 3cbe 0283 8e3e
000002b0: bd36 f4bc 9fad e1be 9215 a83d 4731 3f3d
000002c0: 4938 89be 66a1 a03c c68e a13d 5f21 31be
000002d0: bc86 0f3e 3070 453c 90e4 853d 320c b53c
000002e0: 073a 1d3e 5a59 233e dda5 13be b51e 48be
000002f0: e2a4 11be c507 763e 29c9 12be 4e21 3d3e
00000300: e18d 3c3d 33ca d5be d7b8 f6bc 04ae f83d
00000310: da68 dfbc c6cc b3be 3fc4 86be c642 57be
00000320: 7529 2dbd 9aad 913d 66a0 e63d 0797 0d3e
00000330: 5a18 db3c 655d 3cbe 6d00 063e 4b9b fa3d
00000340: d7ed 483e f975 01bd 78d2 1bbd 77a9 1a3e
00000350: a6d8 64bd 6a5b f3bd 8474 503e 863c 28be
00000360: 0247 743e 2d0b e33d 3839 b23d 777a 8fbd
00000370: a9d2 733d 2a4a 1fbe e712 2dbd 6acb 22bb
00000380: 5250 79be 7cdf c3bd b243 f3bd ba79 81bd
00000390: 3c2a 96be 3a8d b0be 9637 6bbe 4ef8 babe
000003a0: 3544 95bd 3d52 1c3e 232a 2dbd 72ec 15bf
000003b0: 38d4 39bd 2414 233f 0c37 0fbe 6f97 503e
000003c0: bd09 32bd 83e7 d33e dc28 6ebe 3dbd 5a3e
000003d0: ba6b 9dbe 1131 fe3e e05d 97be 39b9 843d
000003e0: 6f83 3bbe d59d 16bf 7e28 313e 8948 443e
000003f0: 7bd1 aabd 2f1e c63d 58aa 95bd e1e4 31bd
-0.13686912 0.21338633 0.1413655 -0.0092829 -0.25872022 -0.44658056 -0.10971711 -0.1111278
-0.1811795 -0.15331571 0.28704336 -0.010820701 0.046233684 -0.0058466746 0.15854041 -0.046305142
0.028828193 0.28216916 0.07616436 -0.15162165 0.023205793 -0.07717182 -0.10333612 0.24035434
-0.112390816 -0.42552713 -0.17479624 0.06732715 0.099810295 -0.37015295 0.028943647 0.08700445
-0.056385074 0.48647583 0.2152899 0.23233338 0.091949545 -0.08251873 0.06113699 0.41255862
0.43472528 0.13537607 0.2600522 0.41583326 -0.16096437 -0.27040288 0.016223691 -0.2831464
0.14220193 -0.08121065 -0.27006122 0.1925447 -0.14260365 -0.052102163 -0.26133898 0.09559643
-0.19528282 0.12703773 0.258288 0.0018107272 0.1310646 -0.17472585 -0.09535192 0.11173158
0.08814205 0.21249728 0.09325492 0.02021895 -0.10524764 -0.07633403 0.2085376 -0.032917004
-0.09473036 0.1331789 0.019485965 0.09912127 0.04881713 -0.19530731 0.0680693 0.054172013
0.12603621 -0.31518418 0.22240975 0.1560176 0.004579673 -0.12464322 -0.167977 -0.4302797
-0.1342375 0.13127485 0.15942417 -0.20765688 0.077710986 0.45354694 -0.058119353 0.21963774
0.008464111 0.25188258 -0.08303286 0.06560758 -0.34862107 0.21797344 -0.15698667 0.1415808
-0.25547373 -0.4849623 0.054418895 -0.06336777 0.09107728 -0.10573759 -0.1597575 -0.22740822
0.18693087 0.19954234 0.10980666 -0.058170546 0.09184534 -0.26170397 -0.25637114 0.11005836
0.0348281 0.23699237 0.12775077 0.020309957 -0.05175371 0.1403276 -0.034463625 0.25812912
0.10262699 -0.14380853 -0.009597343 -0.034802217 0.031558678 -0.020512348 -0.18189101 -0.038109913
-0.2810936 -0.08453275 -0.041789196 -0.2709275 -0.14568767 -0.05956891 -0.08486219 -0.13767952
-0.01523671 -0.44808358 -0.18418781 -0.4519641 0.13110617 0.6212824 -0.18865865 -0.26065865
0.40538144 -0.3905567 -0.49177295 0.0038915952 0.08501783 0.5781391 0.02093655 -0.24106653
0.29572505 -0.15372059 0.3663455 0.083615914 0.26248878 -0.42612836 0.041953344 0.19016331
0.09689467 0.14457625 -0.18414988 0.27834326 -0.029811257 -0.44077775 0.08207239 0.046677854
-0.26800755 0.01960821 0.0788856 -0.17297886 0.14016241 0.012050673 0.065377355 0.022100542
0.15354167 0.15952054 -0.1441874 -0.19542964 -0.14223054 0.24026401 -0.14334549 0.18469736
0.046033744 -0.41755828 -0.030117435 0.12142566 -0.027271677 -0.35117167 -0.263216 -0.21021566
-0.042275865 0.0711319 0.11261062 0.13827144 0.02674501 -0.18395002 0.130861 0.12236651
0.19621979 -0.031606648 -0.038042516 0.15103708 -0.055870675 -0.1188267 0.20356947 -0.16429338
0.23855212 0.11086116 0.0870232 -0.0700578 0.059527073 -0.15555635 -0.042254355 -0.0024840483
-0.24347046 -0.09564111 -0.11878146 -0.063220456 -0.29329097 -0.34482747 -0.22970423 -0.36517566
-0.072884 0.15265746 -0.042276513 -0.5856391 -0.045368403 0.6370261 -0.13985842 0.20370267
-0.04346632 0.41387567 -0.23257774 0.21361251 -0.3074625 0.4964681 -0.29563808 0.06480641
-0.18311857 -0.5883458 0.17300603 0.19168295 -0.083407365 0.09673726 -0.07307881 -0.043431167

rnn.weight_hh_l1 f4 [72, 24]
00000000: fe64 0c3d 1124 3fbe 89cc 0b3e b53d 2cbe
00000010: 559c dd3c cfd9 3dbe b795 873d d1c3 86be
00000020: bc0f de3c d5b1 dc3d a596 e5bd df9a 8b3e
00000030: aae1 d13d e292 5fbd 9332 a3be 8178 c33d
00000040: 422c d2bd 42c6 053d f816 40bd 4aba 25be
00000050: 6e97 bb3c 541c 64bd 4824 213e 307a e23e
00000060: 0372 433e 2d16 013e d9e7 d73d 7c3b 093e
00000070: e359 d1bc c198 b2bd 820d 0ebd 35c1 2abe
00000080: a6a3 003e c15b c33d b64c 2538 19b7 0dbe
00000090: 5b69 903e 1424 0dbe e071 e93d a89d 11bd
000000a0: 6a4a 00be 8985 a1bd 52dc 913c 715b 2cbb
000000b0: 5510 2a3e 763d b03d 56c8 74be 7774 d6bd
000000c0: 5986 683e aa30 4e3e cce5 d53d 35c4 efbc
000000d0: b44a 193d bfe1 d9bd c3ac f13d 0cc5 f8bd
000000e0: 95c0 47bd d5c0 b53d e46e 6c3e f620 49be
000000f0: 142d 303e 0e8c 40bd 34f5 133e ae3f 53be
00000100: f5d1 bc3c 2ad4 e0bd f115 80be db3d 2c3e
00000110: 2166 ebbd affa c1bc 238b 44be ecf2 77be
00000120: 7d99 033d 47ee 8f3e d75f 743d 8743 28bd
00000130: 3408 16be e9c4 71bd 69b6 d2bd 7d77 e2bc
00000140: 01b2 573d a3ce 963c b5a3 45bd 2dd3 f63e
00000150: c434 8ebe 2c53 06bd ca98 093e 4f02 5e3e
00000160: 56b7 1fbc c45b 593d 9232 f13d 15b9 b93d
00000170: d8e2 783e 44eb cb3d 5dd2 703e 8489 913d
00000180: 00bc 6cbc a321 fb3d 2bec 4e3d a272 29be
00000190: e08a 773d 7569 cdbd 5d6c 503e 3b68 83be
000001a0: 7bb3 b0bd f3aa 843d e923 eabd f49d 873d
000001b0: 01c1 673e e031 353e 58e6 d6bd f858 883d
000001c0: 3405 77be ecf8 603e e6be 673e 6ab3 81bc
000001d0: 572e 833e c986 1abc 12e9 da3d 4fb5 de3e
000001e0: e0ed 983e 00cf 25bf 04e8 54be d9ed 93bd
000001f0: 741a 933c 0b85 4c3d 3d9f cfbc e173 303d
00000200: c748 fabd 2946 1b3c dc0b 85be 826d 1b3e
00000210: 2190 24be 8be4 26be bbbd 7cbe 739a 893d
00000220: 2dc8 0ebc 0db0 7f3e 5db2 543e 383a bb3d
00000230: a3ad 843e b4e9 83bd 0cd4 ccbc f89d a73c
00000240: 6a41 eb3d 0b98 05be 5aa1 e53d fc08 cf3e
00000250: 53c9 24be bbca 543e aea6 e53c 6bd1 393e
00000260: 7993 60be b80a e93d 669b 163e 9e62 77be
00000270: 4ae1 8ebd 42b5 dcbd 2daa 943e 2b72 34bd
00000280: 24b5 2b3d 9d5c 79be 7c49 b8be ba18 023e
00000290: a883 87be b737 70bd 6069 98be 7d94 62be
000002a0: c60c 7b3e fb78 babe 6022 f53d ad87 d33d
000002b0: 191a f13d a5d2 f2bd 8ac0 493e 6672 1fbe
000002c0: a20b 6b3d 0d31 06be a7f3 233e e72c 76bd
000002d0: 103b 64be 3d4e 803d e8c0 983c d224 6b3e
000002e0: 9508 203e 7529 efbd 7f29 4c3e 3e78 d2bd
000002f0: 893e 303e 3cee 76bd c77d 05be b705 80bd
00000300: 0629 a1be beda 2a3d 31ce 51bc ba4b f6bd
00000310: 0c17 f43c c371 c1be 8dc3 21be e668 98bd
00000320: bb8c 55be 996a 533d 9474 8c3e 81bb 283e
00000330: b699 4a3e bef3 093e bef7 623d 5e0e 24be
00000340: ceec 2abe 87bd 51bc 112a 31be c69c ecbd
00000350: f483 92be 8673 413c dd7b 613d 663c c43d
00000360: 6847 5dbe 505f c83d 18a6 85be 7013 bc3c
00000370: c53f 14bb 4bf9 793e 4318 c1bd c152 cc3d
00000380: d136 7a3e 4cab 58bd 9c91 373d 0757 d53d
00000390: 6da5 d9bd fe41 6c3e 94a6 233c fd53 313d
000003a0: f837 473e 9e7b 6d3e 77d3 863d 5ec3 073e
000003b0: 9e7f e43d c849 8f3e dff5 3c3e c7dd 03bf
000003c0: f5b6 babd 1996 11bd 3876 813e c8ea b4bd
000003d0: c45b ccbd f43c b43c 1b19 9b3c ade8 d6bd
000003e0: e23c 8dbc 7f6f 9e3d d0f4 3cbe ba26 ef3d
000003f0: 7ac3 943c 45a8 7dbe 8a3a bf3c 58c8 13be
0.034276 -0.18666102 0.13652243 -0.16820414 0.027052084 -0.18540119 0.06620353 -0.2632127
0.027107112 0.10776106 -0.11210374 0.27266595 0.1024812 -0.054583438 -0.31874523 0.09544469
-0.10262348 0.032659777 -0.046896905 -0.16184345 0.022899356 -0.05569108 0.15736496 0.44233847
0.19086461 0.12606116 0.10542268 0.13401598 -0.025555557 -0.08720542 -0.03468085 -0.16675265
0.12562427 0.09538985 3.9410508e-05 -0.13839377 0.2820538 -0.13783294 0.11398673 -0.035550743
-0.12528387 -0.07886798 0.017805252 -0.002629962 0.16607793 0.08605473 -0.23904547 -0.10471433
0.227075 0.20135751 0.10444221 -0.029268363 0.037424758 -0.10638761 0.1180053 -0.12146959
-0.048767645 0.088746704 0.23089176 -0.1964148 0.17204696 -0.047008567 0.14449006 -0.2062976
0.023049334 -0.10977967 -0.2501674 0.16820471 -0.11494089 -0.023679106 -0.19193701 -0.24213761
0.0321288 0.2811148 0.059661712 -0.041080024 -0.14651567 -0.05902568 -0.10288698 -0.027644867
0.052659992 0.018409079 -0.048251826 0.4820799 -0.27774632 -0.032794163 0.1343719 0.21680568
-0.009748301 0.05306603 0.11777224 0.09068505 0.24305284 0.09956983 0.23517747 0.07106307
-0.01444912 0.12262275 0.050518196 -0.16547635 0.060435176 -0.1002988 0.20353837 -0.2566546
-0.08627983 0.064779185 -0.114326306 0.06621924 0.22632219 0.17694807 -0.10493153 0.066575944
-0.24123079 0.21969956 0.22631416 -0.015832622 0.25621292 -0.009431549 0.10688986 0.43497702
0.29868984 -0.6476898 -0.20791632 -0.072231 0.01795695 0.049931567 -0.025344485 0.04307926
-0.122209124 0.009477177 -0.2598561 0.15178493 -0.16070606 -0.1629812 -0.24681751 0.06718912
-0.008714718 0.24969502 0.20771165 0.09141964 0.25913724 -0.0644106 -0.025003456 0.020461068
0.11487086 -0.13046281 0.11212416 0.40436542 -0.16092424 0.2078046 0.02803358 0.18146293
-0.21931256 0.113789976 0.14707717 -0.24158713 -0.06976564 -0.1077676 0.29036084 -0.04405419
0.041920796 -0.24351735 -0.35993564 0.12704745 -0.26467633 -0.058646884 -0.29767895 -0.22126956
0.24516591 -0.36420426 0.11969447 0.103286125 0.11772556 -0.118565835 0.19702354 -0.15570983
0.05738414 -0.13104649 0.16010915 -0.060101416 -0.22288156 0.06264923 0.018646672 0.22963265
0.15628274 -0.11677829 0.19937705 -0.102768406 0.17211355 -0.06028579 -0.13036261 -0.0625109
-0.3147661 0.041712515 -0.0128055075 -0.120261624 0.029796146 -0.37782106 -0.15797253 -0.07441883
-0.20854466 0.05161533 0.27432692 0.16477777 0.19785199 0.13471887 0.055412047 -0.16021106
-0.16691896 -0.0128015345 -0.17301203 -0.1155334 -0.28616297 0.011807328 0.055049766 0.095818326
-0.2160927 0.097838044 -0.26103282 0.022958487 -0.0022621017 0.24411504 -0.09428456 0.099767216
0.24434973 -0.052897736 0.0448166 0.1041699 -0.106272556 0.23072049 0.009988446 0.043292988
0.19454944 0.23191687 0.065833025 0.1325812 0.111571535 0.27985978 0.18453167 -0.5151028
-0.091169275 -0.035543535 0.25285506 -0.088338435 -0.099784404 0.022001721 0.01893287 -0.10493598
-0.017240945 0.0773611 -0.18452764 0.116773084 0.018159617 -0.24771221 0.023343343 -0.14431894

rnn.bias_ih_l1 f4 [72]
00000000: 50df 573e 7626 0c3e 3ea1 80be ae47 fc3d
00000010: 5188 1d3b c12c ddbc db76 e13d 8746 083e
00000020: c6fa 423e bd55 98bb 9e6d adbd a9c9 0b3d
00000030: 9490 163e eb1e cd3d c13c fb3d 429a 213e
00000040: b25b 223e 84a5 f1bd 49a7 80be ff21 4c3d
00000050: c533 e13d 88cf cdbd e08a 863e c2cc 09be
00000060: 270d 753d 9dfb 2f3e e571 32be 4c21 23bf
00000070: 4329 f53d 5349 fcbe f119 01bf 8858 c3be
00000080: 6795 1dbd 375d 0abf 0967 45be f405 1ebf
00000090: db7a 693c 070d 4ebe 83ce cebd b40d 013e
000000a0: ef0c 6b3d da92 0cbf 2405 12bf 4aba 3fbf
000000b0: 4829 213e 1895 7dbe 953b c9be a9af fbbe
000000c0: c812 af3d 1d8c 9fbc 75b5 653c cf2d a03d
000000d0: 122a 2e3e 3c12 253e ba81 5e3d 5382 893e
000000e0: 9646 4d3e b747 f4bd 85cc cfbd 15c7 34be
000000f0: 7dac 2f3e f10e 9d3c 5080 993d a584 a4bd
00000100: 149f 353d a66b f43d 9117 eebd 77b3 3e3e
00000110: 0f05 16be 4a28 4b3e 5734 003d af71 19bc
0.2108128 0.13686547 -0.25123018 0.12318359 0.002403755 -0.02699888 0.11008998 0.13308154
0.19040975 -0.0046488927 -0.084681734 0.034127865 0.1470359 0.10015663 0.12267447 0.15781501
0.15855291 -0.11799148 -0.25127628 0.04983711 0.109962024 -0.10049349 0.26277828 -0.13457015
0.059826996 0.17185827 -0.1742626 -0.6372268 0.11970761 -0.49274692 -0.5043021 -0.3815348
-0.03847256 -0.54048485 -0.19277586 -0.61727834 0.014250482 -0.20122157 -0.10097983 0.12602884
0.05738538 -0.5491158 -0.57039094 -0.7489363 0.15738404 -0.24763906 -0.3930327 -0.49157456
0.08548504 -0.01947599 0.0140203135 0.07821237 0.17008236 0.16120237 0.054322936 0.26857242
0.20046458 -0.11927741 -0.10146431 -0.17654069 0.17155643 0.019172164 0.07495177 -0.080331124
0.04434116 0.11934595 -0.11625589 0.18623148 -0.14650367 0.19839588 0.031299915 -0.009365483

rnn.bias_hh_l1 f4 [72]
00000000: aa84 2b3e 3154 263e 3daa 813c c8d3 47be
00000010: 9762 233e 9fe0 0f3c 313c c5bd 40ce 3bbe
00000020: 7746 da3d 2b22 1c3e b3d5 ef3d ad65 023d
00000030: 8120 02be 0190 073e 71ef 51ba 01d4 c2bd
00000040: 77fb 20bc 0cbd 163d fbe4 7ebe 1436 e23c
00000050: 3da5 043e a000 10be 5ec6 873e 4ae1 24bd
00000060: 66f3 89be 3710 0b3e 5a31 7fbe 2cb4 17bf
00000070: 4830 88bd bd82 a9be 7913 2fbf 7221 72be
00000080: c5ae cdbd b4ee d8be a08f 8dbe 055b 76be
00000090: dec9 a93e cf3c 06bf 23ab 8cbe 7504 893d
000000a0: 4894 34bc 605f 09bf 2c5a 12bf 6b0d 1fbf
000000b0: 49e4 48bd 1f4c 0fbf 252c 25bf 332d 03bf
000000c0: a166 25be bef3 4dbe 30a0 223e a2dd 0dbe
000000d0: 4931 4dbd 56e0 0a3c 424b 15be e6f5 68bd
000000e0: 5c97 5a3e 2af9 44be 346a a53d 6cd1 24bd
000000f0: 57fb 093e 1649 88bd b2ca 53be 4510 253e
00000100: 7915 10bd 94bc f5bd 86e8 59bd aa50 0ebe
00000110: 683e 123e a8c0 f53d 271a 34bd 16a7 fc3c
0.16749826 0.16243054 0.015828246 -0.19514382 0.15955578 0.008781581 -0.09630621 -0.18340397
0.10657971 0.15247409 0.11710682 0.031835247 -0.12707712 0.13238527 -0.0008008397 -0.09513093
-0.009825579 0.036801383 -0.24892037 0.027613677 0.12953658 -0.14062738 0.2651853 -0.040253915
-0.2694351 0.13580404 -0.2492117 -0.59259295 -0.06649834 -0.33107558 -0.6838909 -0.23645571
-0.100431 -0.42369616 -0.2764864 -0.24058159 0.33161825 -0.52436537 -0.27474317 0.06690303
-0.011021681 -0.53661156 -0.5716884 -0.6212985 -0.049045835 -0.55975527 -0.64520484 -0.51240844
-0.16152431 -0.20112512 0.15881419 -0.13854077 -0.05009583 0.008476337 -0.1457949 -0.056875132
0.21346802 -0.19235674 0.08076897 -0.040238783 0.13474785 -0.06654565 -0.20682791 0.16119488
-0.035176728 -0.11998859 -0.053200267 -0.13897958 0.14281619 0.11999637 -0.043970253 0.030841392

rnn.weight_ih_l2 f4 [72, 24]
00000000: e27a 373e 1117 353e 6dc6 b2be d139 afbd
00000010: 9a7d 6abd 441f 7e3e a329 f53c cfe0 603e
00000020: 7dec 4fbe 9c4d c6bd a3fc 2bbe 1578 d03c
00000030: 7084 cbbe 3da8 e63c 93c3 84be 331e da3e
00000040: 9c5a 983e f81d 24be 08e3 0e3e 9d12 02be
00000050: e41d 733e 2566 8c3e f97e c7bd e2a1 11be
00000060: 44c2 0e3e e582 88be 9cc5 113e 1300 88be
00000070: 3a57 623e f30d 8fbc 26d5 8bbd a85e 083e
00000080: 3df2 e23d 665e 84bd f715 90bd 4cd3 173d
00000090: d2bc c7bd 31a3 fa3d 28cc 94be 1ea0 f8bd
000000a0: 9360 3ebd 5ef0 8b3d 5bf6 563e e7a5 e03d
000000b0: 7122 493e 7372 49be 43e8 203e 1f65 123e
000000c0: 4e01 40bd 4851 a9be 6afc d33d d264 373d
000000d0: c71d a93d 0663 e63d 44f2 19be 1ed4 3fbd
000000e0: a7ad c3ba ca6d 4e3e 5dc3 55be 7b52 5bbd
000000f0: 3be0 53bd 8b24 463d 358e 61be 4cb8 073e
00000100: f7ad b53e c014 b6bd a042 b3bd cc64 a13d
00000110: ad7e 263e b5e8 6c3e 6e96 34be fe3f a2ba
00000120: c859 27be 4df5 123e 4eb5 993e 28e4 0fbe
00000130: 1611 3fbe c86e c4bd 45f6 fcbc e7ed 70bd
00000140: 3be6 f63d d4b7 2c3b 47a3 543e 7e9c 83bd
00000150: a9b2 863e 4124 4ebe d5d0 c43d 8eb1 cebd
00000160: c72a a9bd e7aa 3abe 8913 8a3d 12f1 81be
00000170: 30f5 dcbc 6764 37be fa78 0b3e b8ed ed3e
00000180: e63f 1dbe 1b5d 27be e18b 9f3e 8dab 93be
00000190: 320c 0fbe cc94 51be 630f b53e cc3f a9be
000001a0: ae10 07bd da6a b9be f260 263e 6885 a93d
000001b0: 516c 0b3e c3de a23e 5743 14bf 0992 453d
000001c0: d6f9 3bbe 404a 963e e772 cb3e d10b 09bf
000001d0: 0d49 13bb 144a 3fbe dc34 413e af75 f83e
000001e0: d73e 3d3e d45d 4abe 052b 5fbe 2179 d03d
000001f0: 1a95 53bc d59d 21bc 5c3a b1bd 2ca1 c23d
00000200: e42c 4abe bceb debd 644c e5bd 7d27 e63d
00000210: 6566 9bbd 6d7b e4bc 55f6 8bbd fa85 3c3e
00000220: a0f1 933e bca1 2bbd e979 eebd 0641 c83d
00000230: 591c 9c3e 2c5d f0bd 4ffb 7a3d 7548 8c3d
00000240: b552 ef3d d907 a5bd 69c1 a5bd cc46 a9bd
00000250: 863c 5a3e c34c 96bd 43ed d3bd 9c95 4cbe
00000260: da92 f7bd 226c 86be 1d7d 20bd ce36 553d
00000270: 30f1 debd 5ca0 133e 1aa0 80be 98de a0bd
00000280: 49a6 9f3e e73f 13be 9bc2 a93d 0d2b 19bd
00000290: a251 1e3e 07fe 5ebe 71c9 09be baa0 5c3e
000002a0: b1ae 70be 3561 1dbe f5fd 8d3e 0271 74be
000002b0: a969 643e acb4 8fbe 6308 273e 8a66 9ebd
000002c0: 2502 5f3e d68a afbe 2cd8 44be b468 7a3e
000002d0: e5f6 98bd 0002 763e 91ce 7ebe 5215 5c3c
000002e0: 37a4 583b 1a75 c93e ee63 9f3e 0b21 d3be
000002f0: bc36 f6bc db38 29bd ca5d af3e b5d8 fe3e
00000300: 4cf4 58be f85c ae3d 412e 25bc 2774 98bd
00000310: da41 4d3d d20f 993c 62dc fbbd d54d d1bc
00000320: acc6 683c 1869 50be cbed f1bd 9369 453c
00000330: 45da 94be c01d 6f3e d174 d73d 1c27 7fbc
00000340: a06e 463c ce74 00be c1aa 0d3c 3cf6 ed3d
00000350: ac41 dc3d cd11 ffbd 1766 7f3e 7a5d 80be
00000360: 5c5f 70be 6faf d03e 4739 923a 5e17 653e
00000370: 4f0b aa3d bfa7 873c d691 bc3d 48e1 edbd
00000380: 77b1 f7bd 85ca 12be 2d09 223e 02fe 59bd
00000390: fb56 773d 8a75 6d3e dc4c 7d3e 0ada a13c
000003a0: b899 9dbd a7f9 da3d 3b4e 68bd 0045 b0bd
000003b0: bdbc 3ebe 64e0 143d 2483 33be 43d4 9bbe
000003c0: b9fc f23d 4f82 3e3e 1e4c 11be 4772 993e
000003d0: fbd4 5abe bfb8 d3bc 8f48 fbbc 04a6 663e
000003e0: 2cf4 c8bd 807b 85bd f2cd cebd 2c49 893d
000003f0: d6c2 ebbd 488f 553e e325 f63e 36bc 6cbc
0.1791797 0.1768458 -0.34917012 -0.085559495 -0.05724869 0.24816614 0.02992708 0.21960758
-0.20305057 -0.096827716 -0.16795592 0.025447885 -0.3974948 0.028156394 -0.2593046 0.42601165
0.2975663 -0.16027057 0.13953793 -0.12702413 0.23741871 0.2742168 -0.09741015 -0.1422191
0.13941294 -0.26662365 0.14235538 -0.26562557 0.22103587 -0.017462706 -0.06827764 0.13317358
0.110813595 -0.064633176 -0.070354395 0.037066743 -0.097528115 0.122381575 -0.2906201 -0.12139915
-0.04647882 0.06832956 0.20992415 0.10969143 0.19642045 -0.19672565 0.15713601 0.14296387
-0.046876244 -0.33069825 0.103508785 0.044773884 0.08257633 0.11249356 -0.15033823 -0.04683315
-0.0014929072 0.20159069 -0.20875306 -0.053545456 -0.051727515 0.048374694 -0.22026904 0.13253897
0.35484287 -0.088906765 -0.08752942 0.078805536 0.1625926 0.23135646 -0.1763551 -0.001237869
-0.16342843 0.14351387 0.30021137 -0.14051878 -0.18658862 -0.09591442 -0.03087915 -0.05882063
0.12055632 0.0026354687 0.2076541 -0.06426333 0.26308182 -0.20131017 0.09610144 -0.100924596
-0.08260112 -0.18229257 0.06742007 -0.25379235 -0.026972383 -0.17909394 0.13620368 0.46470428
-0.15356407 -0.1634411 0.31161407 -0.2884182 -0.13969496 -0.20466918 0.35363302 -0.33056486
-0.03297489 -0.36214334 0.16247919 0.08277398 0.13615538 0.3181058 -0.5791525 0.048234973
-0.18357024 0.29353523 0.397361 -0.53533655 -0.0022473962 -0.18680602 0.1886782 0.48527285
0.18481003 -0.19762355 -0.21793754 0.101793535 -0.012913967 -0.00986429 -0.08653709 0.09503397
-0.19743687 -0.108848065 -0.11196211 0.112380005 -0.075878896 -0.027890885 -0.068340935 0.18410483
0.28895283 -0.04190229 -0.11644346 0.09778027 0.30490378 -0.11736521 0.061274823 0.068497576
0.11685697 -0.080581374 -0.08093531 -0.082654566 0.2131215 -0.0733886 -0.103479885 -0.19978946
-0.120885566 -0.26254374 -0.039181817 0.05205422 -0.108858466 0.14416641 -0.25122148 -0.078549564
0.31181553 -0.14379846 0.08289071 -0.037394572 0.15460828 -0.21776591 -0.1345575 0.21545687
-0.2350414 -0.15369113 0.27732816 -0.23871234 0.22305931 -0.2806753 0.16311793 -0.077344015
0.21778162 -0.3428561 -0.19223088 0.24454004 -0.074689664 0.240242 -0.24883486 0.0134328175
0.0033056864 0.39347154 0.31130928 -0.41236147 -0.030055396 -0.041313987 0.34251243 0.4977471
-0.21186942 0.08513826 -0.010081829 -0.07444029 0.05011163 0.018684302 -0.12297894 -0.025549809
0.014207523 -0.2035259 -0.118129335 0.012049097 -0.29072776 0.23351192 0.10520328 -0.015573289
0.012111336 -0.12544557 0.008646668 0.11619231 0.107547134 -0.12454567 0.24941288 -0.25071317
-0.23473877 0.40758845 0.0011155986 0.22372195 0.08302938 0.01655948 0.092075035 -0.116152346
-0.120943956 -0.14335068 0.15823813 -0.053220756 0.060385685 0.23189369 0.24736351 0.01975729
-0.07695335 0.10692149 -0.05671523 -0.08606911 -0.18626685 0.036346808 -0.17530495 -0.3043538
0.11864609 0.18604396 -0.14189193 0.2997 -0.21370308 -0.02584493 -0.030674247 0.22524267
-0.09812197 -0.065176964 -0.10097875 0.067034096 -0.115117714 0.20855439 0.4807578 -0.01444917

rnn.weight_hh_l2 f4 [72, 24]
00000000: 7d10 9d3e 6c88 52be ed82 b6bd 4991 20bc
00000010: bd9f 00be fe48 2e3d 3e06 183e bd98 22be
00000020: c031 84bd 9f53 d93d 816d 11be 67db 893d
00000030: ac52 e3bd 0b1c 673d 0e44 923c 4e46 073e
00000040: 66ed 4f3e ebf7 903d fe07 91be 5075 6f3c
00000050: ac34 b73d f490 69bd 8e7a 07be dad5 59be
00000060: dac0 6b3c fe2e 6d3c 16df c43c 0a6c 1dbe
00000070: 6152 f5bd f240 39bc 1b1c 1bbe 049b ab3d
00000080: 8af2 aabd 085a da3d 6c33 6c3d e19a f73d
00000090: 875f 0abe d34a bd3d b556 b73b ad91 893d
000000a0: b3e7 f83d d3d1 b8bd 0ba7 f83d 60f3 623d
000000b0: fd45 3fbe 4a50 d1bd 1725 2f3d 9c82 f13d
000000c0: bdc8 d73d 8899 5ebe c70f 7bbd 3707 0bbe
000000d0: d7e7 813d 3cae ea3d 05d6 fa3d 343e 6fbe
000000e0: 5439 3c3e af43 2d3e 8436 81be 7de0 2bbe
000000f0: 76f7 133e 7fd2 5e3e f258 8bbc 69f9 bbbc
00000100: 72ab b23e d20d fe3d d412 88bc 5fd0 dbbd
00000110: 0a42 22bd e1e5 833d bf2c 39be 5992 6dbe
00000120: c7b1 63bd 029d 8ebc b080 de3c 7156 dc3d
00000130: ba77 853d 9f50 0a3a 6c1e a93d b57e 663d
00000140: 2280 9a3d 2661 83be cddd 7e3c 97ac 20be
00000150: 7c73 0abe be78 503c 4d7e a2bd 30c4 743e
00000160: 2462 b5be 2ecf 77be 2d56 a53e 7865 f73d
00000170: e4a7 4d3e 10d9 1ebe 9295 3fbd 787a 193e
00000180: 405d 47be 00ee 9b3d f949 9fbe a0cd 923d
00000190: 4515 183e 0986 893d 93bf 633e 0de4 a5be
000001a0: e58e 2cbe 76d7 09bd 5a4e 1f3d 5725 583d
000001b0: 47d5 9ebe 834d 0dbe 5aaa 473e 42f8 c23b
000001c0: 6be3 843c 697f 4fbe 73c8 ef3d ab1f 593c
000001d0: 47c0 2dbe e661 21bc 0ce1 46be 03f2 8cbd
000001e0: b104 9e3d 87b2 e9be 8368 a1be f163 7ebe
000001f0: 96ca dbbd cf9d 1abe d589 5dbd d036 4a3e
00000200: 7f5e b0bd fbd7 573e cf35 40be b7d9 a4bc
00000210: 7449 393e 075d 1a3e f681 6ebd b3a5 6f3d
00000220: bc28 dd3e 50a6 0fbe 1542 1c3e 770b 48be
00000230: 96f6 64be 6cb4 ae3c 5f58 d2bd 480f 0bbf
00000240: 452c d03d 9591 0ebe be64 8ebe 0d4a 60bc
00000250: f9f5 143e 628a 4cbd a3af 27bd cad9 71be
00000260: a048 efbd 9eb8 a8bd f5f0 98bd 5419 afbd
00000270: 2c2b ab3d f4aa 8dbd ce83 11bd 45e9 40be
00000280: 66e6 463e 6128 83be 29f5 2b3d 4163 02be
00000290: 635d 5b3d 4294 a43d 6923 09be 3e99 2fbe
000002a0: 0940 6cbe a730 1bbe 28eb e0bc 9734 cfbd
000002b0: 18dc 973e 9b4c 0a3e 0b12 dc3c dd31 70be
000002c0: 71b8 aabd 53e2 103e b9f8 42bd e228 d1bd
000002d0: bdea 8fbe 1a53 0cbe 80f7 373d 813e 18be
000002e0: 276c 213e 6427 dcbd f89d 2fbd 26fd 26be
000002f0: 48e6 75bd d18b 483e c290 d6bc cc2b ee3d
00000300: 50d8 593e 7c8c cf3d 9813 22be 043e 183d
00000310: 86ab 55bd 739e cf3d 4eff 70be a801 803c
00000320: e1d8 ef3d fd2c 6e3e 57e3 3d3e e8e5 f63d
00000330: 2d73 f53c 8fba 603e 845e e93c 336b 373e
00000340: d7b6 27be 11d0 44bd 96ad c73d 5f4f c9bd
00000350: 8110 6e3d 3077 16be fa63 ebbd eeb7 363d
00000360: 132d 66bd d785 2c3e b767 9a3e dd8b 61bd
00000370: c406 fbbc 482a 2c3e 9ffc 38bd a6bc 1cbd
00000380: 945f 483e 917c 9c3e eb39 91bd cfed 373e
00000390: d80e c6bd e56c b63d 79df d9bd 44f8 12be
000003a0: d1d1 5fbe 3627 99bd 825b 533e 1b88 3ebe
000003b0: 38ee 83bd b973 a2bd 2a03 1ebe 7ed3 6bbd
000003c0: b2d3 bebd 1ade 23be ad53 033e f867 ae3d
000003d0: d6a6 45bb 4d30 0f3c 61cc 033e 3d8e 023e
000003e0: 8633 fdbd c2e5 783e 764b 733d 0c89 513e
000003f0: aee2 85bd fff0 cf3c a560 62bd 9279 52bd
0.30676642 -0.20559853 -0.08911691 -0.009800264 -0.12560935 0.04255008 0.14846131 -0.15878578
-0.064548016 0.106116526 -0.14201929 0.06731301 -0.11099753 0.05642323 0.017854717 0.13210413
0.20305404 0.070785366 -0.2832641 0.014615372 0.08945593 -0.057023004 -0.13230345 -0.21272984
0.014389241 0.014476536 0.024032157 -0.15373245 -0.11978603 -0.011306988 -0.1514744 0.08379176
-0.08347042 0.10661703 0.057666227 0.12090088 -0.13513003 0.09242787 0.005595053 0.067172386
0.12153568 -0.09024396 0.12141236 0.05540788 -0.18679042 -0.10220392 0.04275998 0.1179249
0.10536335 -0.21738255 -0.061294343 -0.13576971 0.06343048 0.11459014 0.12247852 -0.23363572
0.18381244 0.1692035 -0.25236905 -0.16784854 0.14449868 0.21759985 -0.017010186 -0.022946076
0.34896427 0.1240498 -0.01661054 -0.10733103 -0.03961376 0.0644033 -0.18083476 -0.23200358
-0.055589464 -0.017408852 0.027160972 0.10758675 0.06516977 0.00052762957 0.08257756 0.05627318
0.07543971 -0.25660056 0.015555811 -0.15690838 -0.13520616 0.0127241 -0.07934246 0.23902965
-0.35426438 -0.24200127 0.3229231 0.120799005 0.20083576 -0.1551249 -0.0467735 0.14988124
-0.19469166 0.07613754 -0.31111124 0.07168126 0.14851864 0.06715018 0.22241049 -0.3240055
-0.16851385 -0.033652745 0.03889308 0.052769985 -0.31022093 -0.137991 0.19498578 0.005950005
0.016221723 -0.20263447 0.117081545 0.013252179 -0.16967879 -0.009850001 -0.19421786 -0.068820976
0.077157386 -0.45644018 -0.3152505 -0.24842812 -0.107319996 -0.15099262 -0.054086525 0.19747472
-0.08611774 0.21078484 -0.18770526 -0.020123346 0.18094426 0.1507455 -0.05822941 0.058507632
0.4319514 -0.14028287 0.15259583 -0.19535623 -0.2235969 0.021326266 -0.10270762 -0.5432019
0.10164694 -0.13922723 -0.27811235 -0.01368953 0.14546956 -0.04993666 -0.040938985 -0.23618236
-0.11683774 -0.08238338 -0.07467834 -0.08549753 0.08357844 -0.06917372 -0.03552609 -0.18838985
0.19423828 -0.25616744 0.04198185 -0.12733175 0.053555857 0.080360904 -0.13392414 -0.17148301
-0.23071302 -0.15155278 -0.027455881 -0.101174526 0.29660106 0.13505785 0.026864072 -0.23456521
-0.08335961 0.14148836 -0.04760048 -0.10212876 -0.2810878 -0.13703576 0.04491377 -0.14867593
0.15763913 -0.10749701 -0.04287526 -0.16307506 -0.060034066 0.19584586 -0.026192073 0.11629447
0.21273923 0.10134217 -0.15827787 0.037168518 -0.05216553 0.10137644 -0.23534891 0.01562579
0.11711288 0.23259349 0.18543755 0.1205557 0.029962147 0.21946166 0.028487451 0.17911987
-0.16378342 -0.04804999 0.09749906 -0.09829592 0.058121208 -0.14693904 -0.114936784 0.044609003
-0.05619533 0.16847931 0.30157253 -0.055065025 -0.030642875 0.16813004 -0.045162793 -0.038265847
0.1956771 0.30563787 -0.07091125 0.1796181 -0.096708 0.08907489 -0.10638327 -0.14352518
-0.21857382 -0.07478182 0.20640376 -0.18606608 -0.06441921 -0.079322286 -0.15430894 -0.05757474
-0.093177214 -0.16002694 0.12824889 0.08515924 -0.0030159256 0.008739543 0.12870933 0.12749572
-0.12363343 0.24306396 0.059398137 0.20462435 -0.06537376 0.02538347 -0.05526795 -0.05138547

rnn.bias_ih_l2 f4 [72]
00000000: b79c 983d 5a92 d63d a35b 0fbd 7744 e73d
00000010: c807 dc3d a2bd 1f3e a717 413d e046 c8bc
00000020: 0e9f d03d e0fe 023e 0163 bebd 4e37 e73d
00000030: b2e2 ee3d 85c8 57bc 5763 d03c 019e b53d
00000040: f32d c73e bfc9 8bbd 4048 ffbd 4ac5 88bc
00000050: 7eba a83c 0fc1 363e 9bee 703c 72fa afbc
00000060: 5779 85be 9ff7 f9be 78d1 bebe 4c5b 813c
00000070: 2e3b dfbe bb65 fbbd 3d1f a5be 17cc 85be
00000080: 42ae bcbe ca88 303e dc71 06bf 35e2 eabe
00000090: c337 20bd 5d3d 40be 4f5f 5ebe 6e78 64be
000000a0: 2d93 f8be 0806 c1bd 0cf4 47be 25b8 dabe
000000b0: 69ba d4bd ed90 1d3e b943 83bd f629 50be
000000c0: 8146 093d 9203 07bd 0508 31bd 4ba1 5fbd
000000d0: 0517 f6bc d01f 0c3e 0919 21be 09dd 79bd
000000e0: ea23 2b3e fa31 15bd cbc7 ecbd e6e6 d23d
000000f0: 5be5 a1bd d51e 3c3e a1a8 853e ac2b 2a3e
00000100: 8e37 e2bd 101b f43d ff29 263d 46aa 2cbe
00000110: df87 dbbd 9a5a d8bd 22bd 8e3c de9b 0a3e
0.07451766 0.10477133 -0.0349995 0.112923555 0.10743672 0.15599683 0.047141697 -0.024447858
0.10186587 0.1279254 -0.09296227 0.112898454 0.116643324 -0.013170366 0.025437994 0.088680275
0.38902244 -0.068255894 -0.124649525 -0.016695637 0.020596739 0.17847084 0.0147053255 -0.021481726
-0.26069137 -0.48821732 -0.37269187 0.015790604 -0.43599838 -0.12275263 -0.32250395 -0.2613227
-0.36851698 0.17239681 -0.52517486 -0.45875707 -0.03911568 -0.18773408 -0.21716045 -0.22311565
-0.48549786 -0.094249785 -0.1952669 -0.42718616 -0.103871174 0.15387316 -0.064094014 -0.20328507
0.033514503 -0.03296239 -0.04322054 -0.05459718 -0.030040273 0.1368401 -0.15732206 -0.06100181
0.16712919 -0.036424614 -0.11561545 0.10297947 -0.07905074 0.18371136 0.26105216 0.16618222
-0.110457525 0.11919224 0.040567394 -0.16861829 -0.10719275 -0.10564156 0.01742417 0.13536021

rnn.bias_hh_l2 f4 [72]
00000000: f409 623d 29fb ef3d 8aea 1c3e 7921 fcbd
00000010: 2b72 e13d d923 dcbd 3d07 4b3e 2e06 19be
00000020: 91bd 08be 3a5d 0abe 75cb 233e 7b6f 42bd
00000030: 36ec 533e 6158 0d3e a447 f9bd 6b57 13bd
00000040: 6a9f dd3e e0fc a73c 9b36 4d3d b7d2 4c3e
00000050: 6e59 31be cee0 203e 886b 943d 6c67 de3d
00000060: 80bd 7bbe 5ab0 54be de5a 1dbe 6bf8 373d
00000070: f651 f2be a788 90be ea75 9dbe 97e4 24be
00000080: 4d4e b5be c186 433d 5d5d c9be 84fc 91be
00000090: 4d43 01be 455f abbe 5b8f 9ebe 5297 83be
000000a0: e248 16bf 5ffd 6dbe 9733 e7bd 001b c1be
000000b0: da19 fdbd d175 143e 925d a2be b5c5 c6bc
000000c0: 6cbc e13c bb50 7b3e 93b7 a23d 4771 b23c
000000d0: dc87 603e 90dd 8c3e 7f4c d4bd 355a 09be
000000e0: fda6 403e 0ecc eb3d 6693 6f3e 319f 57be
000000f0: 9597 fabd 6663 133d 9d1f 833c eeea 37be
00000100: 5755 97bd c800 20be b2e2 093d 6aad 75bd
00000110: 7d62 a53d 11f0 543e 5062 50bd edc5 353e
0.055185273 0.11717827 0.15323845 -0.12311072 0.11008104 -0.10749025 0.1982698 -0.14943764
-0.13353564 -0.13512126 0.15995581 -0.047469597 0.20695576 0.13803245 -0.121718675 -0.03597204
0.43285686 0.020506322 0.050100904 0.20002256 -0.17319271 0.15710756 0.072470725 0.1085957
-0.24584007 -0.20770398 -0.15366694 0.044914644 -0.47328156 -0.28229257 -0.30754024 -0.16102825
-0.354113 0.047735933 -0.39329043 -0.28512967 -0.1262333 -0.33471122 -0.30968747 -0.25701386
-0.5870496 -0.23241185 -0.11289137 -0.37715912 -0.123584464 0.14498068 -0.31712013 -0.024264196
0.027555667 0.24542515 0.0794517 0.02178253 0.21926826 0.2751279 -0.10366153 -0.13413318
0.18813701 0.1151353 0.23396072 -0.2105682 -0.12235943 0.035983466 0.016006285 -0.17960712
-0.07389324 -0.15625298 0.03366346 -0.059979834 0.08075426 0.20794703 -0.050875008 0.17751284
