Checkpoints/w_e300_no150.pth (torch, 714766 bytes, 207 tensors)

rnn.weight_ih_l0 f4 [72, 5]
00000000: 26ae c63d 0720 72be 1bf0 67be 1cd4 993d
00000010: 230d 943e 4ced 1c3f 1f76 d23d 14a2 d13d
00000020: e61b 84be f111 21be e6cd c73d 4d37 243d
00000030: 1078 373d 0234 e7bc a67d 4fbe e1f8 373e
00000040: 476e 913d 11f1 823e d637 af3e 89bf adbd
00000050: 8326 6cbe c903 08be 510e 4abe c0f1 d53e
00000060: 0929 59be d2be 4b3e 1737 8fbe a579 833d
00000070: ea98 943d 1bab a73e 60e2 153e a24f 8c3e
00000080: 1a5b 063f b479 1fbf 1b83 4cbe f73a ed3e
00000090: 6181 1dbd 8fcf 7cbe 65fe 9f3e 5f9b f03e
000000a0: 5972 b23e 574f 243e b9e7 c63d 117d 6c3d
000000b0: 5c44 1d3e bc70 34be e353 81be a0e2 cb3d
000000c0: 3015 783e 190b 303f 0669 893e 9b87 3a3e
000000d0: f297 ab3d 4028 253f 66e4 bb3e 12b6 6f3e
000000e0: 1822 283e 66c9 e83e 6095 983d b4d3 b13e
000000f0: 2111 313e d3f9 cebe e958 3bbd 7ae7 b53c
00000100: cfc1 a9be 25c9 933e 8d9a 98be 37e0 d93e
00000110: 69ef ccbe 137e 8e3e b634 413f 343d 873e
00000120: 764c ff3e eb85 ebbe 47f4 abbe 53ff 453e
00000130: 3b3e 0b3e 7123 3c3e 12c2 d03e ff5b 6d3e
00000140: 1e95 d53e f628 813e 8e72 1b3e 1135 8c3c
00000150: 2939 7fbe c400 d0bd fb2f 46be ee93 6f3c
00000160: afc7 cd3c fe18 36be b55c 4b3e aa86 593d
00000170: 1626 33bd 2fee 2fbe 283f ac3d 7de4 573e
00000180: 0d9f 6c3d fc80 9b3e dd7c a5bc ad44 843e
00000190: 39e8 1a3c 4d86 83be 3b34 75bc 16d9 ea3c
000001a0: 3bae 41bd c81b 653e bebf 793e 7dc6 e0be
000001b0: 6404 d3be b5f0 443d ebd2 4abd 70d3 87be
000001c0: 3008 973e 0b7b 623d 4aaa b73d 9073 cc3e
000001d0: afc2 8cbd 1acf 73be a531 9f3b 4fc3 34be
000001e0: 3b13 fabe b077 18bf f8cf 45bf 9ef2 abbd
000001f0: 4867 d0be ce06 1abf d72d 05bf ef54 52bf
00000200: 44a1 0c3e f96d a3be 9e20 d5be e144 55bf
00000210: b501 4bbe e489 babd 4130 2fbf e963 89be
00000220: a711 8ebd 93e8 a9be 53e8 aabe 760e d3be
00000230: ec8d 81be 0d8e 02bf 2f28 b13e f14f 6fbf
00000240: ec48 60bf 9fd6 a4be ca42 06bf 8c78 a1bf
00000250: b368 023f 5f18 b1be 39c1 04bf 2fa8 bbbe
00000260: 4ebf 39bf 2641 413e fe03 97be 902b a9be
00000270: e274 51bf 77ad 32bf 6856 70be c4a2 28bf
00000280: b5d6 c5be 5e1d 22bf f1c5 c4be 0cb5 5cbf
00000290: 9328 3ebf 25b4 a4be a9c1 20bf 8f35 fe3d
000002a0: 5485 93bf dac6 87be f954 31be ea30 43be
000002b0: d2c3 953e 9fd7 63bf bc67 eabe e2c6 35be
000002c0: 681b 3bbf a911 b3bf 2b21 39bd 2748 b9bd
000002d0: a624 99be 4f35 37bf 5c80 4b3e 1a97 b33c
000002e0: 3fa2 2cbf 6038 3abf 1e25 22bf 64a7 90bf
000002f0: c57c 47bd e8dc 0cbf bed8 edbe 614f 23bf
00000300: 42f6 2cbf 6a6d f4be c547 eebe 7ccd 5bbe
00000310: 1d1e 4fbe 7e46 b9bd 9e66 1bbd bc52 a5be
00000320: 25ea f0bd 92c3 6fbd 90fa a0be 2bc7 dcbd
00000330: 1ee4 84be 3957 823e 2d2b 6ebc 0d5e 323e
00000340: f45f 5c3e 1f35 a2be 59bf 15bd 83db 73bd
00000350: 1902 b1bd e22f 063e d41f 943d 1ce5 03bf
00000360: d2cf fabe a585 d8bd 0040 f9be 5ce3 14bf
00000370: 5212 71bd a3f5 04be 629b 1fbc 1c87 8b3e
00000380: 9764 83be 772c 0fbd 0fad 95be b4b4 8b3d
00000390: 5546 30bf 0ef0 05bf 9af4 083e b25f bebc
000003a0: 1751 f3be 13a6 913e 1c60 abbe fe69 bbbe
000003b0: d857 8bbe bf07 3abc 1d28 6e3e ec2e 48bf
000003c0: 294d a2bd 6d96 943e 3aab 043f 7a5a 1c3e
000003d0: c2f3 893d 43b6 96be 4674 963e 2dc8 453d
000003e0: e617 c33e bcfd 953e f80d 573e cdd2 e7bc
000003f0: 92e5 933e d8dc ccbd f702 813e 33d5 ba3e
0.09701185 -0.2364503 -0.22650187 0.0751116 0.28916273 0.61299586 0.10276436 0.10235992
-0.25802535 -0.157295 0.09756069 0.0400918 0.044792235 -0.028223041 -0.20262775 0.17966034
0.07101112 0.25574544 0.34222287 -0.08483798 -0.23061566 -0.13282694 -0.19732024 0.41786003
-0.2120706 0.19897011 -0.27971718 0.06419686 0.072557285 0.3274773 0.14637136 0.27404505
0.5248276 -0.6229508 -0.19971888 0.4633405 -0.038453463 -0.24688552 0.31248775 0.4699354
0.34852865 0.16045891 0.09712166 0.05773646 0.15358108 -0.1762113 -0.25259313 0.09955335
0.24226832 0.68766934 0.2683794 0.18215792 0.08378591 0.6451454 0.36697692 0.23409298
0.16419256 0.45466155 0.07450366 0.3473183 0.1729169 -0.40424976 -0.04573909 0.022205103
-0.33155677 0.288644 -0.29805413 0.42553875 -0.40026405 0.27830562 0.75471056 0.26413882
0.49863023 -0.4600061 -0.33584806 0.1933568 0.13597958 0.18372895 0.40773064 0.23179625
0.4171533 0.25226563 0.15180418 0.017115148 -0.24924149 -0.10156396 -0.1935424 0.0146226715
0.02511963 -0.17782971 0.19859584 0.05310694 -0.043737493 -0.17180704 0.084104836 0.21083255
0.05776887 0.30371845 -0.020201141 0.25833645 0.00945478 -0.256884 -0.014966066 0.028667968
-0.0472853 0.22373879 0.2438955 -0.43901435 -0.41214287 0.04808112 -0.049517553 -0.26528502
0.29498434 0.055293124 0.08968027 0.39931917 -0.068730704 -0.23809472 0.004858213 -0.1765263
-0.48842797 -0.5955763 -0.7727046 -0.08395885 -0.40703797 -0.60166633 -0.5202307 -0.8216085
0.13733393 -0.3191984 -0.41626447 -0.83308226 -0.1982487 -0.09108332 -0.68433005 -0.26834038
-0.06936961 -0.33185253 -0.33380374 -0.4122197 -0.2530359 -0.50998 0.3460097 -0.93481356
-0.8761127 -0.32194993 -0.5244566 -1.2614913 0.5094101 -0.34588906 -0.51857334 -0.3665175
-0.7255753 0.18872508 -0.29495233 -0.33041048 -0.81818974 -0.69795936 -0.23470461 -0.6587336
-0.3864037 -0.6332606 -0.38432267 -0.86213756 -0.7428066 -0.3216869 -0.627955 0.12412559
-1.1525064 -0.265189 -0.17317571 -0.19061628 0.29250962 -0.89000887 -0.45782268 -0.17751649
-0.73088694 -1.3989764 -0.045197647 -0.09046965 -0.29910773 -0.7156572 0.19873184 0.021922637
-0.6743507 -0.7274227 -0.63337886 -1.1301084 -0.048702974 -0.55024576 -0.46454424 -0.63793
-0.6756326 -0.47739726 -0.4653913 -0.21465105 -0.20226331 -0.090466484 -0.03793966 -0.32289684
-0.117634095 -0.05853612 -0.31441164 -0.10780176 -0.2595529 0.2545717 -0.014536661 0.1741869
0.21520978 -0.31681153 -0.036559436 -0.059535515 -0.08642978 0.13104203 0.07232633 -0.5152147
-0.4898668 -0.10572366 -0.4868164 -0.5815942 -0.058855362 -0.12984328 -0.009741636 0.27251518
-0.2566268 -0.034954514 -0.29233596 0.06821576 -0.6885732 -0.5231942 0.13374558 -0.02323899
-0.47522804 0.28447017 -0.33471763 -0.36604303 -0.27215457 -0.011354386 0.2325749 -0.781966
-0.079248734 0.29021016 0.5182377 0.15268889 0.06735946 -0.2943593 0.29385585 0.048286606
0.3810417 0.29295146 0.21001422 -0.02829876 0.28886086 -0.1000306 0.25197574 0.36490783

rnn.weight_hh_l0 f4 [72, 24]
00000000: 148b 15be c1a3 013e a4e3 32bd f29f afbd
00000010: f865 cc3d c62e 9abc e477 57be 545d 9c3d
00000020: 43c2 75bd 6ad2 56bb fed6 55be 3a56 bfbd
00000030: fa61 82bd 8a9d 2f3e 57a0 9d3e 8a2b 093d
00000040: 5163 2abd 215a d2bd 67a9 f4bd 34e1 67be
00000050: f93d 68be 0f94 86be a127 a7bd 6344 633e
00000060: 5667 ffbd 027c debe b057 c93d ba6c 0a3e
00000070: 2782 d83c 54d9 253d d14c 223e eecb 173e
00000080: 017f 34be 30d8 f6bd 1adc 0fbe 5708 833e
00000090: d6d3 c33e 0c70 553e 9f31 3b3e 5ead 64bd
000000a0: 2499 30be 4c25 cabd 5ae3 75bd 74c7 26bf
000000b0: faab a23c 68d4 aa3e 9d27 323e bc8d 02bc
000000c0: 15bb 96bc 8ffe c63d ce63 aabe f493 d13d
000000d0: 2028 853e 25c8 e73d 1c41 52be 8fe3 15be
000000e0: 1639 973e b137 f23d a731 90be e595 8bbd
000000f0: ffd6 bdbb 1195 7a3e 6235 683e 765d 88bd
00000100: 21d0 2c3d b8df 7d3d 9ca7 14be 30e9 25bd
00000110: 8b0c 32be b3fa e9bd e801 1fbd 5aa6 8ebe
00000120: 3422 243e 56f8 2c3c bb5e 0a3e bfb3 623d
00000130: b226 a63e 27f2 e9bd 5348 14be 037f 1abe
00000140: 7cd7 73be 66a5 703e 58b3 1c3e 422a f73c
00000150: e7af 1e3e 3e93 8c3e 13fc 5fbd c765 953e
00000160: 5211 eabd 3f8e 613d 7fea 7fbe d115 2b3e
00000170: 0b3f 66be 57df 86be c000 02bd 8a84 b7bd
00000180: e97b 88bc 7e8b 923e 2711 333b e8c7 2bbe
00000190: 51ea 083e 0fcd 16bf 29b4 b63d 13fa 0b3e
000001a0: 1171 4cbe ad38 75bd 9afe 10be 68dc df3c
000001b0: 5ae2 a1be e5e9 c8bd e4f0 06be 9bd2 7dbc
000001c0: a6b6 373e f36f 1a3d 8c65 0e3e 453f 573e
000001d0: 3c73 14bd 1421 a13d 0de4 aa3d 35d8 1f3e
000001e0: e72c bcbc 8196 9e3d 087e 753e 9f1b 603e
000001f0: e4b4 043f 3dc6 8f3e d002 4fbe 01c0 ea3d
00000200: df01 c3bd f792 2cbe 1fcd 65be 68ba 0d3d
00000210: 3672 e0bd f69b 2c3e 2473 d23d 3f95 933e
00000220: f874 913e 87e3 bdbd 12f8 8fbe 7881 59be
00000230: 26b8 35bd 64c6 97be 07d0 6e3e ac72 1c3e
00000240: 685f f03d c2bf afbe dd68 183e 6c8d 0ebd
00000250: 4ac7 2a3d 3afe 09be 20bc a2bd 283a 3ebf
00000260: d981 e43d 1c0f 38be 5f8c f4bc a235 33be
00000270: cd20 763e d554 913e 8a98 55be 779b 2c3d
00000280: 5042 7dbd f1ca 3fbd 4a78 77bd e882 38bf
00000290: 7229 173e c417 bc3e 8dea 99bd 7490 f2bd
000002a0: e4e3 9b3d 159d 753e c5e9 32be 9a32 093e
000002b0: df38 693e 3ed8 dbbc 3d03 c5be 9c3c bc3e
000002c0: e34d 0a3d be93 5cbe c9e7 a3be 2d27 af3e
000002d0: 1919 96bb 3b61 593d 962b 863e b3da 813e
000002e0: 46ea c63c 97a4 0fbd 1b34 e93c 5426 553e
000002f0: 4085 bdbe 8abe a9be d60e 803d 10d6 e53c
00000300: ec8c f93d 0312 363e d293 393e c0bb 723e
00000310: 728b 623e 003e dbbd b092 913c ffff 453e
00000320: 3ed8 4cbe 3fd9 263e abe2 a0bd a601 773e
00000330: 5d3c b8bd fca9 bc3c 2f31 d03d b6b4 3f3e
00000340: f830 453d 9aa1 95bd db6e 13be 4776 093c
00000350: 0f04 f8bd 64c2 b5be a46a 213e 325c d73d
00000360: df68 debd 326a d93e 1fce a33d a93e ab3d
00000370: 7b43 7d3e aa37 3dbd af25 e9bd 3be1 e63e
00000380: b21a ecbd 2d72 8c3d 7a5f e23e 7da2 953e
00000390: 996a 81be 2ba5 59bb f45c c63d 4d8a 313e
000003a0: 6407 1d3e e15c 76bd f761 04be 59b0 bf3e
000003b0: 0aaf 3bbe 325d ebbe bb5d 18bd 44ea a43c
000003c0: 28b7 9f3e b753 9c3e 4be2 74be 5f66 bf3e
000003d0: 1090 0d3f 6653 4bbe 797b eabe 8406 b63e
000003e0: 1861 abbd 4bbd d0be 4fd1 a93c 2917 f33e
000003f0: 11a8 013e 17c5 813e a30e 163e 75c6 533e
-0.14603835 0.12660123 -0.043674126 -0.08575429 0.099803865 -0.018821131 -0.21041828 0.076349884
-0.059999716 -0.0032779225 -0.20882794 -0.09342618 -0.06366344 0.1714994 0.30786392 0.033488788
-0.04159862 -0.10271097 -0.119463734 -0.22644502 -0.2267989 -0.26284835 -0.081618555 0.22194056
-0.12470882 -0.43453985 0.09831178 0.13518038 0.026429249 0.040490463 0.15849616 0.14823887
-0.17626573 -0.12052953 -0.14048806 0.255923 0.38247555 0.20843524 0.18280648 -0.0558294
-0.17245919 -0.09870395 -0.060031272 -0.6514809 0.019857395 0.33365178 0.17397924 -0.007968362
-0.018399755 0.09716522 -0.3327927 0.10233298 0.26007175 0.113174714 -0.2053265 -0.14637588
0.2953574 0.118270285 -0.28162882 -0.068156995 -0.005793452 0.24470927 0.22676614 -0.06658451
0.042190675 0.061980933 -0.14517063 -0.040505588 -0.17387597 -0.1142477 -0.038820177 -0.2786129
0.16028672 0.010557255 0.135127 0.0553472 0.32451397 -0.1142314 -0.14480714 -0.15087514
-0.2381267 0.23500594 0.15302789 0.030171517 0.15496789 0.27456087 -0.054683756 0.29179212
-0.11429085 0.055067297 -0.24991797 0.16707541 -0.22484986 -0.2634227 -0.031738997 -0.08960827
-0.016660647 0.2862205 0.0027323456 -0.16775477 0.13370635 -0.58906645 0.089210816 0.13669614
-0.19965006 -0.059868503 -0.14159623 0.027326778 -0.31618005 -0.09810237 -0.1317783 -0.015492107
0.17940769 0.03770442 0.13905925 0.21020229 -0.03624271 0.07867637 0.083442785 0.1560982
-0.02297063 0.0774355 0.23973858 0.21885537 0.5183852 0.2808093 -0.20215917 0.11462403
-0.09521841 -0.16852938 -0.22441529 0.0346016 -0.10959284 0.1685637 0.102758676 0.28824803
0.28409553 -0.09271913 -0.2811895 -0.21240795 -0.04436507 -0.29643548 0.23321544 0.15278119
0.11736947 -0.34325987 0.14883752 -0.03480284 0.041693963 -0.13475886 -0.07946038 -0.7430749
0.11157579 -0.17974514 -0.02985209 -0.17500928 0.2403595 0.28385034 -0.2085897 0.04214045
-0.06183082 -0.0468244 -0.06041745 -0.7207475 0.14761904 0.36736882 -0.0751544 -0.118439585
0.07611826 0.23985703 -0.17471988 0.13398209 0.22775601 -0.02683651 -0.38479033 0.3676499
0.033765685 -0.21540734 -0.32012776 0.34209576 -0.0045806286 0.05307124 0.26205128 0.25362167
0.024281632 -0.035069074 0.028467229 0.20815402 -0.37015724 -0.33153182 0.0625283 0.028056175
0.12185082 0.17780308 0.18122795 0.23704433 0.22123507 -0.10705185 0.017770141 0.19335936
-0.20004365 0.1629381 -0.078557335 0.24121723 -0.089958884 0.023030274 0.10165631 0.1872128
0.048142403 -0.07306214 -0.14397757 0.008390016 -0.12110149 -0.3549987 0.15763336 0.10515632
-0.10859846 0.42463833 0.07998299 0.08361561 0.24732773 -0.046195664 -0.11384141 0.45093712
-0.11528529 0.06857715 0.44213468 0.2922553 -0.2527664 -0.003321002 0.09685698 0.17337914
0.1533485 -0.06014717 -0.12927996 0.3743923 -0.18328491 -0.4596954 -0.037198763 0.020131238
0.31194425 0.3053262 -0.23914449 0.3738279 0.55297947 -0.19856033 -0.45797327 0.35551846
-0.083681285 -0.4076942 0.020729689 0.47478607 0.12661768 0.2534568 0.14654021 0.20681174

rnn.bias_ih_l0 f4 [72]
00000000: 3d10 383c c315 95bd 634b 1fbe f033 04be
00000010: 8206 803d 0a11 25be 410f 30bb ccb6 893e
00000020: 078c b63d e133 1fbe 28df 2e3e 5be3 403e
00000030: d563 433e 3942 3cbe 0375 41be 22d7 db3d
00000040: 9b87 843d 6748 e9bd 47e5 133b fb70 1dbe
00000050: 6b45 b33d b45a a23d b02d 1f3e 0f63 123e
00000060: d27f a4be 71e2 083e 4893 b0be 8ffe 3ebe
00000070: 6b31 d4be 065f cdbd c76d 26be 03b1 debe
00000080: 0fd0 26be 16df 033e 9ac9 883e f694 24be
00000090: 048d babe 4da2 a8be ebc0 5bbe 4193 5c3c
000000a0: 4d12 70be 4c25 d6bd 4cf2 adbd 276b d8bd
000000b0: 0725 f3bc 8150 7ebe cf7e 173e a693 133e
000000c0: 3818 7e3d 3f4a db3d b55a a03b ae53 9c3b
000000d0: c7a4 69be bcdb a1bd c724 1dbe e9aa 99bd
000000e0: 12b3 383e a3bf e9bd cd9a 0c3e c0f6 033d
000000f0: 6954 513e 95ad 8c3d e793 0abc 4279 333e
00000100: ac3e a63c bb86 b33d 69c3 01be 37b0 d1bd
00000110: 61d2 52bd 4e58 c53d 0282 3c3e 3295 1ebe
0.01123434 -0.07279541 -0.15556102 -0.12910438 0.06251241 -0.16119781 -0.002686456 0.26897275
0.08913427 -0.15547134 0.17077315 0.18836729 0.19081052 -0.18384637 -0.18892293 0.10734393
0.06471177 -0.11390763 0.002256708 -0.1537513 0.08753475 0.079274565 0.15544772 0.142956
-0.3212877 0.1336763 -0.34487367 -0.18651794 -0.41443953 -0.1002789 -0.16252814 -0.43494424
-0.16290306 0.1287807 0.2671631 -0.16072449 -0.3643571 -0.32936326 -0.21460311 0.013462842
-0.23444481 -0.104563326 -0.0849348 -0.10567313 -0.029680742 -0.24835397 0.14794467 0.14411792
0.062034816 0.10707521 0.0048936256 0.0047707176 -0.22816764 -0.07903239 -0.1534606 -0.07503302
0.1803706 -0.11413505 0.13730927 0.03221774 0.20442356 0.06869046 -0.008458114 0.17526725
0.020293556 0.08765932 -0.126722 -0.102386884 -0.051470164 0.096359834 0.18408969 -0.15486601

rnn.bias_hh_l0 f4 [72]
00000000: f9d0 36be c943 833e 9c09 46bc 9d9c cabd
00000010: d83e 19be 0e2a b8bd 396f 913e be86 813e
00000020: 5bcd 63bd d084 413e a51a 333d 198d 333c
00000030: b06c 86bb 3062 65be b4a9 5a3e afad 0bbc
00000040: 8f89 00bd c72a 313e 0fdc 803d 4d6b d33d
00000050: 56a4 cd3d c88e 1ebd acef 39be d398 803d
00000060: 7b12 0ebf dfaa 28be 9384 89be 2d5d 933c
00000070: 613e 5ebe 57a6 79be 89e5 173d 8a82 3fbe
00000080: 50ab c4be 7409 383e c21b e53d d02f 17bd
00000090: c80f 84be 70f8 ecbe 8c8f a6be 63a3 633d
000000a0: 2a7e 87be f2d5 2f3e 7d0b d53d 06e0 a6be
000000b0: af06 893b fa3a a9be 0bfb abbd 33a0 8abc
000000c0: 8717 b6bd 0d9d fdbc 04e6 3fbe fd41 983d
000000d0: 35e9 3dbc 7ccd 0f3c b923 ea3a a506 2a3d
000000e0: 47a8 783c 46fd 10bd ead3 643e f462 243e
000000f0: e0c9 393e 31d9 813d 0124 8abc c499 e93c
00000100: 13cf 9e3d b4c9 0ebe 875c b5bd b246 2b3e
00000110: f71f 44be 06bd 123e f497 063e 7f26 2abe
-0.17853154 0.25637653 -0.012087252 -0.09893153 -0.14965379 -0.08992396 0.2840517 0.25298113
-0.055615764 0.1889832 0.043726582 0.010958933 -0.004102312 -0.22400737 0.21353799 -0.008525296
-0.031381186 0.17301475 0.06291973 0.103232004 0.1004111 -0.038710386 -0.18157834 0.06279149
-0.5549695 -0.16471432 -0.2685896 0.017988766 -0.21703483 -0.2437986 0.037084136 -0.1870214
-0.3841195 0.17972356 0.11186935 -0.036910832 -0.2579329 -0.46283293 -0.32531393 0.05557574
-0.26463443 0.17171457 0.10402582 -0.3259279 0.004181705 -0.33052808 -0.08397492 -0.016922092
-0.08891206 -0.030958677 -0.18740088 0.07434461 -0.011591245 0.008777019 0.0017863429 0.041510243
0.015176839 -0.03539779 0.22346464 0.16053373 0.18143415 0.06340254 -0.016862871 0.028515704
0.0775434 -0.13944131 -0.08855539 0.16726187 -0.19152819 0.14329919 0.13143903 -0.16616248

rnn.weight_ih_l1 f4 [72, 24]
00000000: 73ed a53e 6884 593e cc67 953e a1a3 773e
00000010: ba54 d33e 1385 14bf 088a 5bbd 5710 b6be
00000020: 8a14 9fbd 700b 163d 962e 473c 3e21 253e
00000030: eb9d ec3d 0840 0c3f 77e3 cd3e 035a 28be
00000040: 931a 6d3e 7050 44be 22a1 04be aeec a8be
00000050: dba3 683b 30d8 93be 512b 27be 5da6 28be
00000060: d364 8a3d a042 b03e e724 d03e e8b6 90bd
00000070: 4f5d 03bd 79b5 53be bf2e ca3d 82e4 733e
00000080: 7ac4 a8be df1b 0ebf ddf9 263f 4cb9 693e
00000090: 8c78 eebd e035 53bd 6559 8cbe 0d37 7b3e
000000a0: a12f 4fbd ef70 0fbe 27d8 133e ab70 2d3f
000000b0: e84c a83e 8cfa e43e 5e7e a9bd fbfa 023f
000000c0: 6cd6 82be 7c8d 003e 566a aebe 821e 92bd
000000d0: 3067 83be 7adf 483e 5568 e63d fccd 513e
000000e0: b989 753d fd46 4bbe ab56 92be f3b4 8e3d
000000f0: fe6b 493e 518e 1fbe b01f 963d 5ef2 1b3e
00000100: 8280 4dbe 036e cbbd a28a e33d 98fd 313d
00000110: 9e74 5ebd 185a 6d3d 6faf a83d ce1d 30bb
00000120: 3501 39bd fb7d 113d 7c7e a03e ff75 9cbc
00000130: 6f87 18be 0818 ebbd b028 8f3d 4d84 a3be
00000140: 24eb 9cbe 022b 363d 9ab1 823e d628 8b3d
00000150: 3ea6 74be a7cc 20be 7014 07be 119b e43d
00000160: 5f6d 30bd e630 4fbe 829a 14be 3a40 eb3e
00000170: 87db e33b 4148 1c3e 407c e73d 9ad1 173e
00000180: 6e14 64bd 8a63 8f3e 0f18 10be d9c4 a23c
00000190: 3294 06be f9a5 d83c 55d9 b2bc ce08 a6be
000001a0: d9d0 5abc cc34 cbbd 0a7b c03e a39f 903c
000001b0: e2c4 1fbe c4a3 20be cc2e 583c 2cea fdbd
000001c0: 7450 513e 8e58 803d c816 35be 3ae9 3f3e
000001d0: 60a8 46bd 0356 213e c797 633d 0a9c 3f3e
000001e0: 732e 4bbd 35fb 40be 005c 993d b3bb d5bd
000001f0: c5fe 423e 81b8 7c3c d759 9dbd 8413 c93e
00000200: 16df 073d 32cb 18be 7439 cf3d bf55 83bd
00000210: 7871 6e3d 75ad f4be 158c 10bf 24eb 01bd
00000220: 45d2 c8be 2d03 14be ab54 4e3e 98d2 193f
00000230: 5b61 4a3e 5059 183f cf7e b7be 824b 943e
00000240: ccde b3be bb75 7f3d 44d9 0cbe 0867 a5bd
00000250: 015b e7bd 639b 543e 466c ed3d 4697 743e
00000260: 33de 2c3d abf7 dbbe a8d7 35be 18fc f8bb
00000270: 371d 473e e9cd c9bd 0180 bbbe 4f86 3abe
00000280: 6dea 24be 0691 a6bc a102 9f3d f2a4 e8be
00000290: b251 473d 4655 bd3e de22 09be b662 683d
000002a0: 5818 1d3e 0af1 3b3e bfd6 f7bd 58db b0bd
000002b0: 0cf4 173e 1231 19be 3222 943c dd3e eebd
000002c0: 9804 963d ca82 e1ba 400f 1e3e 044c 653e
000002d0: cbb5 f7bd 9001 ddbd 72f2 d03d ed79 5e3e
000002e0: 358a 8ebd f3e9 2cbd 77cc c8bc 1d15 d1bd
000002f0: c09a 0fbd f6d1 6abe 08ab 603e c568 7cbe
00000300: 8f02 6e3e 7895 a73e ce24 83be a70c 643e
00000310: 396b 053f 7fb0 01bf fc62 05be f0fe e03d
00000320: 0776 e83c fd27 eabc 8af8 adbe 2885 253e
00000330: b9bf 9c3e b9f3 8a3e ad93 5a3e 1975 373d
00000340: d197 3a3e bfe6 bf3d 78aa 20be 6a1a c53d
00000350: d213 69be fc3b cebe cee8 653c 053b 14be
00000360: 9596 aabe e9cc 60bc 6279 30be 2580 0bbe
00000370: 309f 643e 62fd 163f 4c5d 80be a087 3f3f
00000380: 7107 55bd e677 e0bc 2b14 48bd fdfc 10be
00000390: 2515 6cbe 0757 46be aed0 00be ae7d 56bd
000003a0: f67b 18be 95e8 8f3d b30c 2ebc 06f3 abbd
000003b0: 239b 003e c9ee a7be b189 f03d 1ee9 233f
000003c0: 1c30 0ebe b569 10be 87a0 893e da2c 783e
000003d0: 3e79 9d3e 1544 e73e 1a3b 84bc 609e 923e
000003e0: ee1c 97be 5943 0dbf e796 70bd 4004 03be
000003f0: 3762 a53e 2e59 c9bd a2ed 31be 97dc 073e
0.32407722 0.21241915 0.29180753 0.24183513 0.4127558 -0.58015555 -0.053598434 -0.3555934
-0.077675894 0.036632 0.012157103 0.16125962 0.11553558 0.54785204 0.40212604 -0.16440587
0.23154669 -0.1917131 -0.12952092 -0.32993072 0.0035498056 -0.28875875 -0.16325118 -0.16469713
0.06757512 0.3442583 0.40653154 -0.070661366 -0.032071408 -0.20674695 0.09872197 0.23817638
-0.329624 -0.5551128 0.6522501 0.22824591 -0.11644086 -0.05156505 -0.27411953 0.24532719
-0.05058253 -0.14007924 0.14437924 0.6775004 0.32871175 0.44722402 -0.08276056 0.51164216
-0.25554216 0.12553972 -0.34065503 -0.07134725 -0.25664663 0.196165 0.112503685 0.20488733
0.059945796 -0.19851299 -0.28581747 0.06968107 0.19670102 -0.15581633 0.07330263 0.15229174
-0.20068553 -0.099330924 0.111104265 0.043454736 -0.054310434 0.05794725 0.08236586 -0.0026873234
-0.045167167 0.035520535 0.313465 -0.019099234 -0.14895414 -0.11479193 0.069901824 -0.31936875
-0.30648148 0.04447461 0.25526124 0.06794898 -0.23891541 -0.15703069 -0.1319139 0.11162389
-0.043073054 -0.20233497 -0.14512065 0.45947438 0.00695366 0.15261938 0.11302996 0.1482605
-0.055683546 0.2800563 -0.14071678 0.019869255 -0.1314247 0.02644633 -0.021832148 -0.32428592
-0.013355457 -0.099221796 0.3759387 0.017654246 -0.15602449 -0.15687472 0.013194751 -0.1239818
0.20440847 0.062668905 -0.17684472 0.18741313 -0.04850042 0.15755467 0.055564668 0.18711868
-0.049604844 -0.18845828 0.07488251 -0.104361914 0.190425 0.0154248485 -0.07683151 0.39272702
0.033171736 -0.14921263 0.1011838 -0.06412839 0.05821368 -0.47788587 -0.5646375 -0.03171839
-0.39222923 -0.14454336 0.20149486 0.60086966 0.197637 0.5951128 -0.35838935 0.28963858
-0.35130918 0.062368136 -0.13754755 -0.08076292 -0.112966545 0.207624 0.11592917 0.23885831
0.042204093 -0.42962393 -0.17758048 -0.0075984113 0.19444738 -0.09853727 -0.36621097 -0.18215297
-0.16105051 -0.020332824 0.07764173 -0.45438343 0.048661895 0.3697912 -0.13392207 0.056734763
0.15341318 0.18353668 -0.121015064 -0.086355865 0.1483919 -0.14960125 0.018082712 -0.11633084
0.07325095 -0.0017205116 0.15435505 0.22392279 -0.12095221 -0.10791314 0.10202493 0.21726198
-0.06959955 -0.0422153 -0.024511559 -0.10209105 -0.03505969 -0.22931656 0.21940243 -0.24649341
0.23243164 0.32731223 -0.25614017 0.22270451 0.52116734 -0.50659937 -0.13026041 0.109861255
0.028376592 -0.028583521 -0.33978683 0.16164076 0.30615023 0.2713907 0.21345396 0.044789407
0.18221976 0.09370183 -0.15690029 0.09624179 -0.22761467 -0.4028014 0.014032556 -0.14475639
-0.3331801 -0.013720729 -0.17233804 -0.13623102 0.2232635 0.5898038 -0.2507118 0.7481632
-0.05200905 -0.027400922 -0.04884736 -0.14159007 -0.23054941 -0.19369136 -0.12579605 -0.05236595
-0.14891037 0.070267834 -0.010623145 -0.083959624 0.1255918 -0.32799366 0.117450126 0.64027584
-0.1388554 -0.14102824 0.26880285 0.2423586 0.30756563 0.4516913 -0.016141463 0.28636456
-0.2951426 -0.5518089 -0.05873766 -0.1279459 0.32301494 -0.09831463 -0.17375806 0.13267742

rnn.weight_hh_l1 f4 [72, 24]
00000000: dfe9 7b3e 312b c3bd 2d0f 853d 08ff e53c
00000010: 6776 703d 1823 723e b577 10be 68be 873e
00000020: faf0 2fbe 7bb4 56bd 9b67 85be faaf 67bc
00000030: 6950 083e cbf4 c43d e031 273e ad28 ae3d
00000040: 60f5 d8bc dfbc b53d 7830 273e 178f eb3e
00000050: 43aa 8dbd 1180 233e 08a0 2ebf aa4a 60bd
00000060: 3324 b6bd 1712 873e 437c 123e f949 6e3d
00000070: f670 4d3e 18e8 03be 91a3 97bc 623b 3a3e
00000080: 4897 873e ff4e 7d3e ccb6 9f3e 84d2 12be
00000090: ba0b 00bf 8b7c d03d 756f 24be faf9 d63d
000000a0: 681f f6be 81d7 a5bc 82a1 c33e 25af 2a3c
000000b0: e210 d63e afb8 2fbe 46f1 5a3f cfe5 30be
000000c0: 3d73 a6bd 61fd 083e ffba a93a ba2f b73d
000000d0: 63e4 63be 6935 843d dd2b de3d 2569 033e
000000e0: 7da4 b73e 3a20 463d 424f 793e 5592 573e
000000f0: f6fe 3f3d 0441 403d 1778 1b3e 3db7 0bbe
00000100: 359a 6d3e 8719 8e3e 0d1b 763d 77fb 00be
00000110: 115f 113e 3435 843e 7fae 1dbd 7946 7dbd
00000120: 3cf5 213e ff7c b13b 08f7 393e 0add 31bb
00000130: d53e 3cbd bde7 4fbe c5c4 63bd 5e5a f13d
00000140: 6103 aabe 27ea 993e 2c42 873d 39d4 a5bd
00000150: f2e0 893d 82b8 a0bc 9645 80be 7fef 833e
00000160: 7731 023e 57b7 bfbb 19fc 1ebd 0ff3 df3d
00000170: a816 ef3d 4b1e 9e3e 2168 a13d 40ad 8dbc
00000180: 3731 853e 1da5 343e bed5 883e eefd 0ebe
00000190: 712d 10be 9c43 06be ad5a 8ebe 90aa 07be
000001a0: 8bb1 ebbb 42c2 8fbb 94d2 f3bd e196 0c3e
000001b0: 8f24 1bbe a276 bd3b b971 0f3d c818 b53d
000001c0: b6f8 fb3d d393 043e b35c 8c3e 6509 023f
000001d0: 3ecf fbbc a6ca 843e 7947 10bf d771 a8bd
000001e0: 57aa 53bd 1c78 7c3e 1dbf adbe ec11 14be
000001f0: a474 5a3e 6615 b1be 865a d83e 656a b03d
00000200: 3ae7 ed3e 207f 3dbd ad0c 50be 4457 a4bd
00000210: 2bf4 18be 4290 603d ba41 63be 65db 0d3f
00000220: ccd8 b4bd 0277 8fbd 99d1 493e fcd5 b6be
00000230: e53e 023c a39c 4b3e 04b7 253e 33c1 97bd
00000240: eca7 cabc 1516 843e c6e6 8d3c 75a7 cc3b
00000250: 4eb9 c6bd 242a 06bd 907e 863d d7f8 1ebe
00000260: 6b83 bd3e 4c44 4c3d cdb2 cf3c 7f79 bd3d
00000270: 7681 e1bd c085 26bc 8392 84bc c420 53be
00000280: 7c65 1ebe 2cbf 363e 1b15 65bc 7e8d 02bf
00000290: e8d1 7e3d a87a ec3d 3e1c 8abe a79e 1a3e
000002a0: 9a3e 113d 5da5 053c bdb5 4f3d 3130 82bd
000002b0: 57a9 d13d 78e9 483e 5377 afbc e4c6 6a3e
000002c0: 3c6f 933e 2cf5 b7bc 6577 cdbc 953c 803e
000002d0: 118c a3bd b2ad b83c b79e 08be d3d2 50be
000002e0: 3024 fcbc 5f9c cfbc 6b39 873d 1ed1 7b3d
000002f0: e81b 8abe fe0f d23c 4d94 0bbf 5c38 173e
00000300: bec9 2a3e 4905 64bd a226 173f 58ba 173e
00000310: 3839 e4bd cb26 bc3e da09 b9be ad4e 97be
00000320: 56f9 363c 2c9b 8bbe c2cc 26be 421c 463e
00000330: d71d 823d 5b23 adbd b493 953e 28d4 50be
00000340: b024 38bc 5267 b3be abff 03be c570 a33e
00000350: 598b da3d 7c1d 31be 9f8b 113e ab37 cb3e
00000360: 1d5a ffbe b70b f93e 6385 97bd 3bb6 c0bd
00000370: d01c e23e 99b6 c93d 72bc d03e cdef 173e
00000380: 5f2c c13d 5d69 023e deca a73e c72d 3cbd
00000390: 1b87 69be 7846 42bd de3b 1f3d 5bd9 c83d
000003a0: 0ab8 edbd 999c 02bf ecbb 163e 4c9f d2bd
000003b0: bd22 f2bd 4b11 5c3d 5e50 1c3f 486b e5be
000003c0: 3b56 03be 47f1 233f 2c2d 243e 26ed 893c
000003d0: a9f7 253e 38c9 bbbc 9071 aa3e 16ac c53d
000003e0: 8b46 c83e 498a 023e 926d c4be c471 a6be
000003f0: 234a 243d 5261 113e 33bf 65be ba89 a63d
0.24600933 -0.095297225 0.06497035 0.02807571 0.058706667 0.236462 -0.14108165 0.26512456
-0.17181769 -0.052418213 -0.26055607 -0.014141077 0.13311924 0.09617003 0.1632762 0.08503852
-0.026484191 0.08873915 0.16327083 0.46007606 -0.069172405 0.15966822 -0.6821294 -0.054758705
-0.08893623 0.2638099 0.14305215 0.058176015 0.20062622 -0.12881505 -0.018510612 0.18186715
0.26482606 0.24737166 0.3119415 -0.14338118 -0.50017893 0.10180005 -0.16058142 0.10496898
-0.48070836 -0.020244362 0.38209158 0.010417734 0.41809756 -0.17160295 0.85524404 -0.17275165
-0.08127449 0.13377906 0.0012949406 0.0894465 -0.22255091 0.064555 0.1084821 0.12833078
0.35867682 0.048370577 0.2434664 0.21051915 0.04687401 0.046937004 0.1518253 -0.13644119
0.23203357 0.2775385 0.06008439 -0.12595926 0.14196421 0.2582184 -0.03849649 -0.061834786
0.15816206 0.005416512 0.18160641 -0.0027139806 -0.04595836 -0.20303245 -0.055607576 0.11784814
-0.33205703 0.30061457 0.06604418 -0.08097119 0.06732358 -0.01961923 -0.2505309 0.2576866
0.12714182 -0.0058507132 -0.038814638 0.109350316 0.11674243 0.30882487 0.07881189 -0.017294526
0.2601411 0.1764111 0.26725572 -0.13964054 -0.14079835 -0.13111728 -0.27803555 -0.13248658
-0.0071927956 -0.004387171 -0.11905399 0.1372943 -0.15150665 0.0057819644 0.035020564 0.08842617
0.12303297 0.12947015 0.27414474 0.50795585 -0.03073847 0.25935858 -0.5635906 -0.08224838
-0.05167612 0.24655193 -0.3393487 -0.14459962 0.21333557 -0.34586638 0.42256564 0.08614043
0.46465474 -0.046263814 -0.20317335 -0.08024457 -0.14936893 0.054825075 -0.22193041 0.55412894
-0.08830413 -0.07005121 0.19708861 -0.35710132 0.007949566 0.19883971 0.16183096 -0.07409897
-0.024738275 0.25798097 0.017321955 0.0062455484 -0.09703313 -0.032755032 0.06567109 -0.15524612
0.37014326 0.04986982 0.025353814 0.09251689 -0.11011021 -0.010163724 -0.016183143 -0.20617968
-0.154684 0.17846364 -0.013982083 -0.5099715 0.0622119 0.11546832 -0.26974672 0.15099584
0.035460092 0.008157101 0.05071043 -0.06356848 0.10237377 0.19620311 -0.021419203 0.22927433
0.28795803 -0.022455774 -0.025081346 0.2504622 -0.079857 0.022543762 -0.13341795 -0.20392923
-0.030778974 -0.025343118 0.066027485 0.061478727 -0.26974416 0.025642391 -0.54523164 0.14767593
0.16678521 -0.055669103 0.59043324 0.14817178 -0.11143726 0.36748347 -0.3614033 -0.29552212
0.011167845 -0.27266824 -0.16289046 0.19346717 0.06353348 -0.08454009 0.2921425 -0.20393431
-0.011239216 -0.35039765 -0.12890498 0.31921974 0.1067111 -0.17296404 0.14213417 0.3969091
-0.49873438 0.4864175 -0.073984884 -0.09409758 0.44162607 0.09849281 0.40768772 0.1483757
0.09432291 0.12735505 0.32771963 -0.045942094 -0.22805445 -0.047430485 0.038875453 0.09807082
-0.11607368 -0.510202 0.14720124 -0.1028429 -0.11823032 0.05372743 0.6106013 -0.44808412
-0.12825863 0.64040035 0.16032857 0.016836714 0.16207756 -0.022923097 0.33289766 0.096519634
0.3911632 0.12748064 -0.38364846 -0.3250867 0.040109765 0.14197281 -0.22436218 0.08131738

rnn.bias_ih_l1 f4 [72]
00000000: d236 783e f09e 243e e18e 88bd 9dd2 27be
00000010: 8fed 11be 5413 41bd 5fc7 1ebe b6b0 663e
00000020: 9693 8dbd 71fe 72be 0cda 923c 5488 bf3d
00000030: e411 34bd e4df 8f3d cb3c e43d ef2e 683e
00000040: 2c0d cabc e467 64be 118d 053e 86b2 87bd
00000050: c28c f4bd 7370 8439 1c0e 923e 7302 08be
00000060: 83ab 81be e09d 11bc 7f70 3abf f445 87bd
00000070: d2de dc3b 8901 01be c80f 02bf 75ef 2cbe
00000080: 950e a1be 088b e03d dfa3 8cbf 8b51 18be
00000090: e4f3 8c3d 3e9e a7be bfc6 ffbe 43c9 b2be
000000a0: 0608 e6bd c262 acbe b9f3 97be 7f4d d9be
000000b0: bce0 863d 1158 76be 3421 46be 3e33 8fbe
000000c0: f85a 01bb 9165 ae3d 03a9 e43d 7e96 3a3d
000000d0: bd5b 873d f1de f13d b1f0 e0bd e7d2 0dbe
000000e0: 3908 193e c60d 583d 7a06 5abc 1340 833e
000000f0: b4f7 a43d 5a71 743d 13be 393e 891c 4b3d
00000100: 7844 49be e169 563d a1fb 57be d440 f63d
00000110: 8961 3b3e b374 7f3d 447d a83d 6ae3 143e
0.24239662 0.16076255 -0.06667877 -0.16388936 -0.14250778 -0.047137573 -0.15505742 0.22528347
-0.069129154 -0.23729874 0.017926238 0.093521744 -0.043962374 0.070251256 0.11144408 0.22674154
-0.024664484 -0.22305256 0.13042094 -0.066258475 -0.1194091 0.00025260783 0.2852639 -0.13282184
-0.25326166 -0.008887738 -0.72827905 -0.066051394 0.0067404294 -0.12598242 -0.5080533 -0.1688822
-0.31456438 0.10964018 -1.098751 -0.14874856 0.06882456 -0.32737917 -0.4995632 -0.34919176
-0.11231999 -0.33669096 -0.29678133 -0.42441937 0.065858334 -0.24057032 -0.19348603 -0.27968782
-0.001973806 0.08515466 0.11165049 0.045553677 0.066092946 0.11810101 -0.10983408 -0.13849984
0.14944543 0.05274751 -0.013307208 0.25634822 0.08055058 0.059678413 0.18138914 0.04958776
-0.19655025 0.052347068 -0.21092083 0.12024084 0.18298925 0.062367152 0.082270175 0.14539877

rnn.bias_hh_l1 f4 [72]
00000000: f6d2 27bd d687 103e 36dd d53d 62da 7d3d
00000010: ffcf 08be 2cb8 0fbe adea 423c 6ae5 673d
00000020: d6ac 8ebc 97f2 163e 83ef 473e fb45 543e
00000030: 192a cb3d c77c 84be 0af5 19be 152a f03d
00000040: c11d 843e 4be7 3cbe 196a 853e 2191 cbbd
00000050: c757 9b3d 2f1e 9d3e 38e1 003e e728 173e
00000060: 11f2 06bf 2dbc 4cbe 7635 d5be a16f abbd
00000070: acc3 823d 2f24 643d e31f 33be 7940 65bd
00000080: 9154 63be 36bb b33d 0a96 53bf c43e 6bbe
00000090: 33a9 dbbd e901 febe 0006 f4be 86d6 dfbe
000000a0: 0230 1fbe d31b 95be aece 10be 54cc c4be
000000b0: eb27 97be 97e6 94be e38b f9be 015b 783d
000000c0: 1d5b 293e 64ea d13c e16c 79bd 9b4d 16be
000000d0: 6a5a a13d 7d48 1a3e d351 89bd dd04 21be
000000e0: dee9 06bd b75e 1e3e 4316 60bd c20c d73d
000000f0: 77bd 38be 1648 f33d 9997 843d 817d 59be
00000100: 047d 07bc e4f6 ab3d f402 4cbd 2644 e1bc
00000110: 1af2 6abc cd9b f43d 85e3 2b3c da83 eebd
-0.040972672 0.14114317 0.10442583 0.061975844 -0.13360594 -0.140351 0.011896771 0.05661527
-0.017416399 0.14740978 0.1952496 0.2072982 0.09920139 -0.25876448 -0.15034881 0.117267765
0.2580395 -0.18447606 0.2605751 -0.099397905 0.075851016 0.3068709 0.12585914 0.14761697
-0.52713114 -0.19993658 -0.4164235 -0.08370901 0.06384978 0.05569857 -0.17492633 -0.05596969
-0.22200228 0.08775942 -0.82650816 -0.22973162 -0.107256316 -0.49610832 -0.47660828 -0.43718356
-0.15545657 -0.2912279 -0.14141342 -0.3843714 -0.29522642 -0.29082176 -0.48739538 0.060633663
0.16538663 0.025624461 -0.06089485 -0.14678042 0.07878573 0.15066715 -0.0670506 -0.15724511
-0.032937877 0.15465818 -0.05470873 0.1050048 -0.18041025 0.11878984 0.064742275 -0.21239282
-0.008269552 0.083967 -0.049807504 -0.027498316 -0.014339948 0.11943779 0.010491257 -0.116462424

rnn.weight_ih_l2 f4 [72, 24]
00000000: fee2 bfbd 1595 d33d cdba 6abe 2207 cebd
00000010: f6f1 4f3c b86d a03b 0fe1 b9bd eb13 153e
00000020: 8edf f23d b627 79bd a6ca 2c3e 4c96 45be
00000030: 9b2d df3c c20e 79be 7300 a3bd f8ea f93c
00000040: 54ab f53d 8115 e23e 16d6 9b3e f862 77be
00000050: 75fa 96be c355 343d 5516 263e 4d5c e43d
00000060: 53bb f1bd d461 333e 9379 70bd d035 8b3d
00000070: 4c1f 973e 288c 383d f38d 58bd 2fab 5abb
00000080: feab f4bc db45 cb3d e8aa 933e 4467 22be
00000090: 359c ea3c 6b49 ad3c 1d5e c4bd b79d 61bd
000000a0: f103 3c3e 3aa9 343b 315c 70bd c0dd b03c
000000b0: 3abb 283e 899f 7e3e 1f2d 85be f328 00be
000000c0: cdf0 0fbe bfb5 6cbd c2cd 8e3d fcbb dd3b
000000d0: 4f01 a4be d4a8 7fbd 5f87 96be 3af4 32bd
000000e0: 8e89 fabd ec39 19bc e176 3c3e e968 103e
000000f0: 8149 af3c 9d2a 0e3d 5b54 f33c 24fd b0bd
00000100: 7851 34be c865 fc3c b78f 7a3d ba95 d03e
00000110: 709f 013e 0fa6 01be 1ffb 363e 726e 51bd
00000120: 1972 12be 59f6 d9bd e26f 5f3c 4360 4fbd
00000130: 95e0 833e db51 01be 5e7f 20bd 2d97 f33c
00000140: 03f5 183e 506f afbd bd72 b63d 5358 b2bd
00000150: ebaa 3bbe 259b 2ebc 59ad 1fbe 84fb 223c
00000160: c052 65bd 70b6 bf3e 412e cd3d 6fb5 a03d
00000170: fe71 28bd 37dc 143d 977d 5bbe 8338 5fbe
00000180: c6c4 68bc ac86 a7bd 530f 3f3c e0bb 513d
00000190: 9a27 423e 5ccd 773d 4a26 10be faab 433e
000001a0: d34f 5d3e 0734 12bd f553 c43d 3643 813d
000001b0: 967e 88be 63aa adbc a167 0c3e f957 803d
000001c0: 214a d43c 0855 9f3e a88a 613d ed89 b6bd
000001d0: a5c5 8cbd 21fe 133e 079d f1bd 5f21 6e3d
000001e0: f428 4fbc d89e 61bd 387d 10be 98a8 f9bd
000001f0: b5f7 293e c185 8e3d 1ef2 92be 1bb9 403d
00000200: 7c18 a43e 1fd7 94bd bc30 d73e 5d40 4f3c
00000210: da50 bdbd ada5 62be 0ea6 e73d 0e92 2fbe
00000220: 5221 09be 847d d13e c78e eb3c f119 2ebe
00000230: 91f5 27bd d482 be3d b3b2 bf3e 195d 3b3e
00000240: b7a3 67be 2a4d 2f3e 7300 a53d aa40 f33c
00000250: 09d5 5b3e 06a6 f93d 2699 5fbc 4b38 a13e
00000260: 59d4 96bd 66a3 4ebc 3941 a0bd ef5c ed3d
00000270: 0b7d e7bd 88b8 ff3d aa40 babd 2d2d 24bc
00000280: 4090 c8be 4f15 2dbe a486 7e3e 0517 53be
00000290: cc7b 2fbd 297f eabd 2511 8cbe e201 0fbd
000002a0: dd9a b83d 4e44 923e 9c5b 5cbe 86c0 9fbe
000002b0: d15b bf3d ee3d b8be 3d1c b4be f5e9 8e3e
000002c0: 91d7 0c3e 98ff b73d fa93 e73e ea35 04be
000002d0: 92b5 e2be d8c5 c9bd 4f9e 85be 9882 ce3e
000002e0: f48d 02bd 50cf b13e 8714 523e b5a6 8f3e
000002f0: 9872 44bc 9db7 8d3d c4ff df3e d96b 853d
00000300: 0190 333d 222a 03bd 17c1 783e 88f6 e53d
00000310: 6d60 793d b424 533d 112f 3bbd 3459 29be
00000320: 285b be3d 7d05 6dbe 0a97 c03d da1d 843e
00000330: 8a34 c9bc ef92 073e 0d02 e4bd b700 343d
00000340: 6acf fcbd 8e7e c4bd a0d8 e4bd 93b1 1b3d
00000350: dc76 d1bd 17e0 1dbd fb74 cd3d 0a67 7d3e
00000360: 86b2 53be 2e6a f0bd 35de c9bd d9dc a0ba
00000370: 2eca 5fbd 7fdb 02be 6c3f 553d fd0a e13d
00000380: 45cc cd3e 4228 a3bc d16a 04be f45d 86bd
00000390: e4d8 3bbe b391 67be 1708 63be cf70 2dbd
000003a0: 28bb 9fbe c968 d93d c008 4b3e a86d dbbe
000003b0: f0d1 cdbd c69a 6c3d 1b60 063e a7b5 12be
000003c0: fc5e d43d 260a 193e 6c55 913c 1ac7 6dbd
000003d0: ab97 e1bc 9224 f03d d9cf 29be 22ca 023d
000003e0: f4bb a63e c77e 1f3e f217 9f3e ed5e 833c
000003f0: d69e 383c 7ae4 993c f8a9 9d3c 10b3 d4bd
-0.09369467 0.103311695 -0.22922821 -0.10059954 0.012691965 0.004895892 -0.0907613 0.1455838
0.11859046 -0.060828887 0.16874179 -0.19295615 0.027243426 -0.24322036 -0.0795907 0.03050755
0.11995569 0.4415703 0.30436772 -0.24158847 -0.2948796 0.0440271 0.16219456 0.111504175
-0.118033074 0.17517787 -0.058709692 0.06797373 0.29516065 0.04505554 -0.05286975 -0.0033366194
-0.029867169 0.09925433 0.2884133 -0.15859705 0.028638938 0.021153172 -0.09588263 -0.05508205
0.18360879 0.0027566687 -0.05868167 0.021590114 0.16477671 0.24865545 -0.26010987 -0.12515621
-0.14056702 -0.057790514 0.06972839 0.0067667942 -0.32032248 -0.062416866 -0.29400155 -0.043689944
-0.12233268 -0.009352189 0.18404724 0.1410252 0.021397354 0.034708608 0.02970331 -0.08642033
-0.17609203 0.030810252 0.061172213 0.40739232 0.12658477 -0.12661003 0.17869233 -0.05113072
-0.14301337 -0.1064269 0.013637515 -0.05062891 0.2575728 -0.12628882 -0.039183967 0.029735172
0.14937215 -0.08566153 0.08908603 -0.08708253 -0.18326919 -0.0106571065 -0.1559347 0.009947661
-0.05598712 0.37443876 0.10018588 0.07847106 -0.041124336 0.036342826 -0.21434627 -0.21798901
-0.014207071 -0.081799835 0.011661368 0.051204562 0.1896042 0.06049858 -0.14077106 0.19108573
0.21612482 -0.03569415 0.09586326 0.063116476 -0.26659077 -0.02119941 0.13711406 0.062667795
0.025914254 0.3111956 0.055063874 -0.08913026 -0.06873635 0.14452411 -0.11797529 0.058137294
-0.012644041 -0.055083126 -0.14110267 -0.1219036 0.16598399 0.06959105 -0.28700346 0.04705153
0.3204993 -0.072675936 0.4202937 0.012649623 -0.09243937 -0.22133513 0.11310969 -0.17145559
-0.13391617 0.40916073 0.028754605 -0.17002083 -0.041005675 0.09302297 0.37441024 0.18297233
-0.22621046 0.1711928 0.08056726 0.02969392 0.21467985 0.121898696 -0.013647353 0.3148826
-0.07364721 -0.012612199 -0.0782494 0.11589991 -0.11303147 0.124863684 -0.09094365 -0.010020536
-0.39172554 -0.1690266 0.24856049 -0.2061425 -0.04284267 -0.11450035 -0.2735683 -0.034913905
0.09013913 0.28567737 -0.21519321 -0.3120157 0.093436845 -0.3598475 -0.35177794 0.2791287
0.13754107 0.089842975 0.45230085 -0.12911192 -0.44279152 -0.09852189 -0.26097342 0.4033401
-0.03187366 0.3472848 0.20515643 0.28056875 -0.011990212 0.06919787 0.4374982 0.06514711
0.043838505 -0.032022603 0.24292408 0.11228663 0.060882974 0.051548675 -0.045699183 -0.16537935
0.092947304 -0.23146625 0.094038084 0.25804025 -0.024561185 0.13239644 -0.11133204 0.043945994
-0.123442486 -0.09594451 -0.111741304 0.038011145 -0.10227749 -0.038543787 0.10032078 0.24746338
-0.2067357 -0.11739002 -0.09856836 -0.0012272849 -0.054636173 -0.12779044 0.052062437 0.10988424
0.40194908 -0.019916657 -0.12931372 -0.06560889 -0.18344456 -0.22614174 -0.22171055 -0.04234391
-0.31197476 0.10615689 0.19827557 -0.428571 -0.10049808 0.05776479 0.13122599 -0.14327107
0.10369679 0.14945278 0.017740928 -0.058051206 -0.027538141 0.11725725 -0.16583194 0.03193105
0.32565272 0.15575705 0.31072956 0.016036475 0.011268338 0.018785704 0.019246086 -0.10385716

rnn.weight_hh_l2 f4 [72, 24]
00000000: bd52 74be f145 26bb 09c7 95be cee1 99bd
00000010: 4fb6 bfbc 4728 913e 12da 513e f127 b0bd
00000020: 7c4f 823e 83d0 86bc 17e1 6f3d 8b04 15be
00000030: 3ecf a23e b043 713e 8350 853e 1c44 3ebd
00000040: 3b79 673e 8caa 3bbd 43fe 84be b64c eebd
00000050: 5934 74be a2d7 843e 1f63 38be ed90 a53e
00000060: 296a e7bc 34df d53d 8c5a 42be e9e5 b23e
00000070: 9061 1dbd a18d a2bd fa9d 5bbd 1e0f 19be
00000080: 71a2 6cbd 5637 8f3e a79c 423b 0cff c0be
00000090: 74ae 753e 4e29 363e b0bd b13d 5200 cfbd
000000a0: 0324 ccbd bd90 bcbc 1508 843d ee95 7d3e
000000b0: ade9 8abe 9412 423d 2c95 f13b 2df1 a83e
000000c0: 189e f93e 8f5b 76bd a63f 5ebd d1bc f0bd
000000d0: 680e a63e 1f9b b23e d314 a73e e3d5 2d3d
000000e0: 6773 30be e224 fabe a04a 3fbe 2c21 9f3e
000000f0: 646b bcbd 81ed 9bbe 26c9 c1be b9a3 c8be
00000100: aa00 a8bd 1344 c1be 7e24 2dbf 71c7 b5be
00000110: d023 c63e 5073 85be b59a dbbe 7ef9 aebe
00000120: 6a76 bbbe 1483 633e 8396 5abd 43f9 a73e
00000130: 245b 8ebe fa1e 67be 286a 18bd e949 55bc
00000140: 0f31 a73d e0c8 39bc 99f8 cd3d ed6f a2be
00000150: 5568 d93d 4956 2e3e efc8 063e 3ff1 083e
00000160: 4160 1ebd 180a bdbd 1ca2 2dbe 8f15 0e3d
00000170: 95c9 53be 6f0e 9a3d 076a 323d 093b 9d3e
00000180: 2eb9 a2be 41c3 323d e244 953d af44 813e
00000190: c227 93be 2e2d 9dbd 7f29 11bd 1c71 a4be
000001a0: b3ee 183e 290d 903e 9a11 913d 128d 31be
000001b0: e3f0 1b3e 4074 a23e 2370 cd3d abc1 c03c
000001c0: 1b7b 063d c125 2f3e 9722 013e b37c 073e
000001d0: 43f9 433d 9248 233e 82ac 2e3e 982c 393e
000001e0: 07f4 c1bd f598 9c3e 3708 68be 2bc9 0dbd
000001f0: d814 8d3d 93fb a6bd 3d09 ef3c 1f4e c3be
00000200: 344a 033d c5a5 fe3d 6c38 1f3e 3b10 1abe
00000210: 3b97 8a3e 3e6f 2f3e cac6 ce3d 9e77 573d
00000220: 253f 323d 0f3b d23e 1a1c 053f 024d 8cbd
00000230: 5705 94bd e9a5 803e 55bb 583e 9dd5 a73e
00000240: 8653 1bbe 6fb7 d83d 5bf0 14be a50a c1bd
00000250: 503c 55be accd 253e dd4d d8bc 965e 183d
00000260: 0272 643d aea2 22be f9fb afbd 7b1f fcbd
00000270: e67b 583e f8d7 003e df4e 2f3d f501 93be
00000280: 57a1 033e b914 eabc ad1f 81be a5de 9c3e
00000290: 2fa7 d6bd 98fc cf3c 92d7 943c 7967 57be
000002a0: a43f 053f f173 3ebe 57b3 fbbe 418d 19be
000002b0: dc1e 7dbd eea8 0d3f 0fdd de3e 1cd9 d23e
000002c0: b80c 733e 6bd3 153e 4fb0 7f3e ba75 c63d
000002d0: ac8e 133e 13ff bdbe 407f 703d 5c73 76bd
000002e0: d2bc ed3d 993f e9be cf77 813d 73a8 17be
000002f0: 3d38 83bd df25 403d 8483 93be 14a8 72be
00000300: 9484 60bb 5f94 2ebe fde7 2f3d 319e 00be
00000310: 5def 483e 2d4b f6bd 892f 63bd bf65 b6be
00000320: d7ef 84be 110e 2dbe 4855 60be 6132 58bd
00000330: 5082 bfbd 893e a63d f1b4 aa3d b356 63bd
00000340: 2003 323d 9f35 f2bb 8ff2 473e 17d8 973d
00000350: 2927 8b3d 3459 d03d 3a18 b73d 96c5 563c
00000360: 1d7b 823d 5b4d 133e 4c53 c23b fd48 2c3d
00000370: 6848 1abe 257f cbbd de70 ff3d a4c2 35be
00000380: 2fb6 583e fdf6 273e cc35 d5bd 4520 55be
00000390: a917 343d e47b 8d3e 07af 223d 257c 9ebd
000003a0: efd6 d13d 0e12 da3d a89f 32ba 189b 883e
000003b0: 2305 1fbe f7f4 d1bd 3a43 52bd 5dcc b53d
000003c0: 366c 9bbd 345e 8ebd 6507 fc3d 4808 31bd
000003d0: d7fc 0e3c 84f9 47be 499a c5be 51b6 15be
000003e0: a3bb bfbd 75ef 9d3e de3b 5dbb 4616 7abe
000003f0: 028a 10be b3dc 713e 0aa3 f93d acc0 58bd
-0.23859687 -0.0025371278 -0.29253414 -0.07513772 -0.023402361 0.28351042 0.20493343 -0.08601368
0.25451267 -0.016456848 0.05856427 -0.14552514 0.31798738 0.23560977 0.26037988 -0.046451673
0.2260484 -0.045816943 -0.25975236 -0.11635725 -0.23848094 0.25945765 -0.18006562 0.32337132
-0.028248863 0.10442963 -0.18979853 0.34941033 -0.03842312 -0.0793717 -0.053617455 -0.14947173
-0.057772104 0.27971905 0.0029695423 -0.37694585 0.2399233 0.17789194 0.08678758 -0.10107483
-0.09967806 -0.023018235 0.06446854 0.24764225 -0.27131405 0.047381 0.007372519 0.32996503
0.48753428 -0.06014591 -0.05425992 -0.11754764 0.32432866 0.34883973 0.32633075 0.042440306
-0.17231523 -0.48856264 -0.18680811 0.31079996 -0.09200171 -0.3045464 -0.37848777 -0.3918741
-0.08203252 -0.3774725 -0.6763381 -0.35503724 0.38699198 -0.2606454 -0.4289147 -0.34174722
-0.3661378 0.22217971 -0.053366195 0.3280736 -0.2780391 -0.2257041 -0.037210613 -0.01301811
0.08163654 -0.011339396 0.10057182 -0.31726018 0.10615603 0.17025103 0.13162588 0.13373278
-0.038666014 -0.09230441 -0.16956371 0.03468853 -0.20682366 0.07522284 0.043558147 0.30709103
-0.31781906 0.04364324 0.07288529 0.25247714 -0.2874127 -0.07674633 -0.035439964 -0.32117546
0.14934807 0.2813504 0.07083435 -0.1733897 0.1522861 0.31729317 0.10031154 0.023529848
0.032832246 0.17104246 0.12610851 0.13231163 0.047845136 0.15945652 0.17057994 0.18083417
-0.09470373 0.30585447 -0.22659384 -0.034615677 0.06888741 -0.08153453 0.02917921 -0.3814554
0.032053187 0.12433962 0.15548867 -0.15045254 0.27068505 0.1713228 0.1009651 0.05260431
0.04351725 0.41060683 0.51996005 -0.068506256 -0.07227581 0.2512658 0.21165211 0.32780161
-0.1516858 0.10581862 -0.14544813 -0.094258584 -0.20823789 0.16191739 -0.026404316 0.03719958
0.05577279 -0.1588237 -0.08592982 -0.12310692 0.21141014 0.12582386 0.042799827 -0.2871243
0.12854515 -0.028574334 -0.2521948 0.30638614 -0.104811065 0.025389 0.018169198 -0.21035565
0.5205023 -0.18598916 -0.49160263 -0.1499529 -0.061797008 0.5533589 0.4352803 0.41181266
0.2373532 0.14631431 0.249696 0.09690423 0.14409894 -0.3710867 0.058715105 -0.06016861
0.1160828 -0.45556334 0.0632168 -0.14810352 -0.06407211 0.046911117 -0.28811276 -0.23696929
-0.003425871 -0.17048787 0.04294585 -0.12560345 0.1962256 -0.120260574 -0.055465255 -0.356245
-0.25964233 -0.16899897 -0.21907532 -0.05278242 -0.09351027 0.081173964 0.08335293 -0.055502605
0.04346001 -0.007391646 0.19526123 0.07414263 0.067945786 0.10173264 0.08940168 0.013108632
0.06371138 0.14384978 0.00593034 0.042061795 -0.15066683 -0.0993636 0.124726996 -0.17750031
0.21163248 0.16402812 -0.104106516 -0.20813091 0.043967877 0.27633584 0.0397177 -0.077385224
0.102460735 0.10647975 -0.0006813952 0.26680827 -0.15529303 -0.102518015 -0.051333643 0.0887687
-0.07588999 -0.069515616 0.12306098 -0.04322079 0.008727274 -0.19528776 -0.38594273 -0.1462033
-0.09361961 0.30846754 -0.0033757607 -0.24422559 -0.14115146 0.23619346 0.121893 -0.05291812

rnn.bias_ih_l2 f4 [72]
00000000: 946f ebbd 6b48 353d 9336 68bc 0c69 1fbe
00000010: 0ede 66be 21c9 e6bd 999a 0a3b 1196 6bbc
00000020: 1d38 843e 4f7d 6b3e 4c51 e43d 876e 9dbd
00000030: 1a6c 1d3e 8d18 68bd 31ed 2b3d 5e7c efbd
00000040: 92b7 363d 76d0 d43b 5849 723e 14dd 36bd
00000050: a1eb 683e 1f3d bcbd b9ee 053e 5b53 b7bd
00000060: a505 79be 3f0d 993d 7cee 5abe e215 a03d
00000070: e1e1 83be 5db9 fabe 601b 3cbf 2428 2cbf
00000080: e49d 5e3d ab52 3bbf 236b bdbd a017 5cbe
00000090: 5acf 77be 773b c1be a61f 87be 4bbb 61bf
000000a0: 4c2d 41bf 834d d3be 4b92 3dbf 0221 26be
000000b0: 3516 11be 180e 19bd cb30 3abf d1f8 dcbe
000000c0: 5f3f bfbd c600 05be fc6c febc ada7 18be
000000d0: 885a 363e 6edf d5bd 0df4 143e a491 2cbe
000000e0: b613 aebc 5834 f13c e1ac 98bd f8af 59be
000000f0: 4f80 00be 5cc5 913d d85a 06be 4da5 f3bd
00000100: 5259 f43d 7501 7e3d d919 263d ad91 f53d
00000110: f169 62bd 4530 f13c 9cfe b93d aed1 37bd
-0.11495891 0.044258516 -0.014173168 -0.15567416 -0.22545645 -0.11268831 0.0021149276 -0.01437904
0.2582406 0.2299702 0.11148319 -0.07687097 0.15373269 -0.05666404 0.04197425 -0.11693643
0.04460866 0.006494577 0.23660791 -0.04464443 0.22746135 -0.091913454 0.13079347 -0.08951446
-0.2431856 0.074732296 -0.21380037 0.07816674 -0.2575827 -0.48969546 -0.7347927 -0.6724875
0.054349795 -0.73173016 -0.0924895 -0.21493387 -0.24200192 -0.3774068 -0.26391333 -0.8817641
-0.7545974 -0.41270074 -0.7405135 -0.16223529 -0.14168628 -0.037366956 -0.727307 -0.43158582
-0.09338259 -0.12988576 -0.031057827 -0.14907713 0.17807972 -0.104430065 0.14546223 -0.16852432
-0.021249633 0.029443905 -0.07454849 -0.21258533 -0.12548946 0.071177214 -0.13120592 -0.11896763
0.11931099 0.06201311 0.040551994 0.11990676 -0.055276815 0.029441962 0.09081766 -0.0448777

rnn.bias_hh_l2 f4 [72]
00000000: eb9d 4f3d cb9d aebc 4b3b e0bd ef6a fdbd
00000010: dde6 6bbe 9742 813e 758e b4bd 47d5 313e
00000020: 396c 47bd 46c0 463d 4caa 963e 4980 e8bd
00000030: 8762 3fbe 498a 093d d990 4c3e abf3 c6bd
00000040: 7392 e93d 10bc 2b3e 61a6 4bbd cdde 25bd
00000050: be34 16be 7573 293d a1c9 0fbe ac8d c4bd
00000060: 0bcc 63bd 8606 e4bd c0b3 d8be 04e0 33bc
00000070: a56a a9bd 230c 0cbf b79a f1be 5f5c 0fbf
00000080: d49b 98bd 8461 3fbf 722c 89bd 680f 46be
00000090: 7553 32bd ef01 a1be 7447 f5bd 2d78 30bf
000000a0: 676f 04bf d35e 3dbf 5354 71bf 6662 62be
000000b0: 439c a9be 515a 63be b491 09bf 96da a8be
000000c0: 1e0b 59bd b793 c23d 7808 f83d c4b6 1fbb
000000d0: eb2c cabc ca32 81bc 00c4 d0bd 459b 30be
000000e0: 95b8 50be 3a3b c0bd 7d7e 84be d88b 9c3d
000000f0: 3506 c53d 2ce6 53be 3e97 1dbe e488 aebd
00000100: ef06 53be cfc1 283e 949f efbd 9610 783c
00000110: 3be0 153e e234 593d 9222 6d3d 23e7 e03d
0.05068771 -0.021315476 -0.10948809 -0.123739116 -0.23037286 0.25246117 -0.08816234 0.17366515
-0.048687194 0.04852321 0.294268 -0.113525935 -0.18689929 0.033579145 0.1997713 -0.09714445
0.11404886 0.16770959 -0.04971922 -0.040495683 -0.14668557 0.041369874 -0.14041759 -0.09597334
-0.055614512 -0.11134057 -0.42324638 -0.010978702 -0.08272294 -0.5470602 -0.4718835 -0.5600032
-0.07451597 -0.7475817 -0.066979304 -0.19341815 -0.043536622 -0.31446788 -0.11976519 -0.68933374
-0.51732486 -0.73972815 -0.94269294 -0.22107849 -0.3312703 -0.22202422 -0.5373795 -0.32979268
-0.052989118 0.095008306 0.1211099 -0.0024370411 -0.024679622 -0.015771288 -0.10193634 -0.1724673
-0.20382912 -0.093862966 -0.25877753 0.076438606 0.096203245 -0.20693272 -0.15389726 -0.085222036
-0.20608114 0.16480182 -0.11700359 0.015140673 0.14636318 0.05302895 0.057894297 0.10981586
