Checkpoints/w_e300_no100.pth (torch, 714766 bytes, 207 tensors)

rnn.weight_ih_l0 f4 [72, 5]
000000 ef 12 b1 3e 60 29 01 be 84 02 ae bb 43 8b 51 bc
       0.34584758 -0.1261344 -0.0053103585 -0.01278955
000010 c3 84 d4 3d 4f 59 c4 3e 31 8c 02 3f 79 84 ad 3e
       0.10376885 0.38349387 0.50995165 0.3389013
000020 6e 95 22 bd 6f 61 bd 3d b1 50 ed bd 9c 12 a3 bd
       -0.03969329 0.092470996 -0.11587656 -0.07962534
000030 6e af 40 3e db 27 98 3d 58 f2 0a 3e 42 d3 94 3d
       0.18816921 0.07429477 0.1356901 0.07266857
000040 d6 99 b8 3d 4a 93 54 3c b4 00 f1 3d df 92 c3 3d
       0.09013717 0.01297457 0.11767712 0.09549498
000050 5f 4b 86 3e fc 66 3a 3e 31 12 16 3f 9c d0 08 3f
       0.2622938 0.18203348 0.5862151 0.5344331
000060 1a 7d ef bd 42 8f 86 3d f6 ef 77 3e e1 17 88 3d
       -0.11693783 0.06570293 0.24212632 0.066451795
000070 f9 a2 21 be 71 7d 88 3e a6 18 3f be 52 4a 6b 3e
       -0.15784825 0.26658204 -0.18661746 0.2297757
000080 49 9a 21 3e 74 ac 57 3e f9 5e eb 3d 76 2d ad 3c
       0.15781511 0.2106188 0.11492724 0.021139842
000090 ae ee 9e be d1 2a b0 be 6f ba 8a be d7 1a 1c 3e
       -0.31041473 -0.34407666 -0.27095363 0.15244614
0000a0 34 a1 80 be 8e 36 34 3f fb 43 c0 3d 5d e4 0d be
       -0.25122988 0.70395744 0.09387966 -0.13856645
0000b0 58 6f 07 3e 61 1c 10 3e ae 48 af 3e 14 69 18 3e
       0.13226068 0.14073326 0.34235138 0.14883834
0000c0 1a 7f 9f 3e b0 cc 00 3f f0 1a f1 3d da 04 d9 b8
       0.31151658 0.5031233 0.11772716 -0.0001034827
0000d0 4f 0e 46 bd ee 15 0a 3e 9d a6 5f 3e 95 a1 8c 3e
       -0.04835349 0.13484928 0.21840902 0.27467027
0000e0 49 7b b9 3d 91 37 8b bd cd 90 00 be e5 d5 ce 3d
       0.09056718 -0.06797708 -0.12555237 0.10099391
0000f0 f4 98 fa be d7 ec b6 3e 94 83 0b 3f e5 46 80 be
       -0.4894482 0.3572757 0.5449765 -0.25054088
000100 43 10 59 be 65 76 bd 3d 57 f5 96 3e 9b 30 1c be
       -0.2119761 0.092510976 0.29484054 -0.15252917
000110 c6 c3 18 be 3a 21 11 3d fc b5 c1 3d 56 cb 84 be
       -0.14918432 0.035432078 0.09458539 -0.25936383
000120 bf 9e b2 bb 05 fc 41 bd 94 6c 26 3f 9e 13 75 be
       -0.005451053 -0.047359485 0.6500943 -0.23933265
000130 3a ee c3 bd 59 7e 3b 3e 1a 6f 4d 3e a7 2e a2 3d
       -0.095669225 0.18309917 0.20061913 0.079190545
000140 26 a1 5b 3e e5 01 d7 3c cb 32 76 3e 51 83 80 3e
       0.21448192 0.02624602 0.24042813 0.25100186
000150 ae 56 b1 3e 1a af 27 3d bf 59 ca 3d 3c 3c ae 3c
       0.34636444 0.040938474 0.09880399 0.021268956
000160 43 3c 67 bd f0 7b 1b be 94 29 84 3e 6f e6 88 3d
       -0.056453954 -0.15183997 0.25812972 0.06684577
000170 95 6d a5 3b 2a 1a 0b 3e 54 2e 93 3e 36 ac 15 3f
       0.0050484636 0.135842 0.28746283 0.584659
000180 db d9 a7 be de d2 a2 bd b5 98 55 3e f4 44 aa 3d
       -0.32783398 -0.07950376 0.20859034 0.08313933
000190 53 1d a8 3e 58 07 9e 3e 64 d0 29 be 77 1d 84 be
       0.32834873 0.30864978 -0.16583401 -0.2580373
0001a0 56 c7 27 3d e8 aa 57 3f 0c a5 25 3f 61 25 ce be
       0.040961586 0.8424516 0.64704967 -0.40262893
0001b0 16 5b 86 be 41 f7 c3 be 26 0d 55 3d 4b c1 2e bd
       -0.26241368 -0.38274577 0.052014492 -0.042664807
0001c0 f2 5a b7 be 76 7a 0a 3e d3 0b df bd bc 85 94 3e
       -0.35811573 0.13523278 -0.10890927 0.2900828
0001d0 2f b5 15 be c1 08 ed 3c e3 42 77 3e 9b a9 41 3e
       -0.14619897 0.028934838 0.24146609 0.18912356
0001e0 39 bd 00 bf b9 20 91 be 81 3a 5b bd 10 75 dc 3d
       -0.5028873 -0.28345278 -0.05352259 0.107645154
0001f0 ab aa 2b be 95 68 fa bd 1c 40 a4 be 69 41 32 be
       -0.16764323 -0.12226979 -0.32080162 -0.17407764
000200 13 3b c9 be e6 24 85 be f8 57 05 be fc e6 c9 be
       -0.39302883 -0.26004714 -0.13021839 -0.3943404
000210 04 e0 da be 8b 62 8c be 93 53 89 be b5 0f a4 bd
       -0.42749035 -0.27418932 -0.26821575 -0.080108084
000220 20 a6 f1 bd 9a 65 bf be 90 62 84 be 42 55 af be
       -0.11799264 -0.37382203 -0.25856447 -0.34244734
000230 22 68 2c bf 31 e3 39 bf 7b a1 41 bf 27 82 c2 be
       -0.67346394 -0.7261229 -0.75637025 -0.37989923
000240 2a e8 83 3e 58 ae cf 3d 78 7f 09 3c 05 7c bb be
       0.25763065 0.10140675 0.008392207 -0.36618057
000250 3a e2 5e be 0d 6b 9f be 12 46 ed 3d f0 a4 94 be
       -0.21765986 -0.3113636 0.115856305 -0.29032087
000260 f7 11 ca be b9 0d 05 bf 93 5a 92 be e3 6f 3f be
       -0.3946683 -0.51974064 -0.28584728 -0.18695025
000270 2d 0e c8 be a0 e2 ca be ab 2e e8 be 2c ae 96 bc
       -0.39073315 -0.39626026 -0.45348105 -0.018393598
000280 91 5f 09 3e 72 f0 ea bd 25 47 9f be 7a ed 9a be
       0.13415362 -0.114716426 -0.31108966 -0.30259305
000290 95 d5 f9 bd 13 58 ba bd 4f 71 df be ad 71 36 bf
       -0.12198941 -0.0909883 -0.43641135 -0.71267205
0002a0 85 26 16 bf 9a d6 6f bf 63 4c ae bd 6c e8 49 be
       -0.58652526 -0.9368683 -0.08510663 -0.19717568
0002b0 66 7c 87 bd 1b 00 90 be 3f 02 f9 3c 1d ac 0b be
       -0.06615524 -0.2812508 0.030396579 -0.13639875
0002c0 b0 fd b1 bd 00 a3 7d be b4 ce 83 bd 9e 6e fa be
       -0.08690965 -0.24769211 -0.0643591 -0.4891252
0002d0 a1 6d 31 be 14 33 e9 be ed 36 17 3d 51 16 3b be
       -0.17326976 -0.45546782 0.036917616 -0.18270232
0002e0 0e 14 5e 3e 5d 92 b0 be 3a 02 dc be e9 ec 0d bf
       0.21687338 -0.34486666 -0.4297045 -0.5543962
0002f0 11 c5 ae be be 8a 94 be 18 f5 a3 be 30 ed a2 be
       -0.34134725 -0.29012102 -0.3202293 -0.31821585
000300 20 8b ac be 03 47 bd be 94 24 fd bd ee 84 73 be
       -0.33699894 -0.3696824 -0.12360492 -0.23781177
000310 29 04 ea be 18 c1 ec be 68 41 40 be 93 45 4e be
       -0.457063 -0.4624107 -0.1877495 -0.20143728
000320 21 e7 ac 3e 58 84 0a 3f 3f fb e2 bc 76 29 22 3e
       0.33770087 0.5410819 -0.027707694 0.15836129
000330 73 f0 21 be ce ef f0 bc 88 10 c6 be 22 e7 22 bf
       -0.1581438 -0.029411223 -0.38684487 -0.6363393
000340 f7 ef 87 be 94 cb 1e be e8 6e dd 3d 4b 6e f7 bc
       -0.26550266 -0.15507346 0.10812169 -0.030203959
000350 03 53 0b 3e d3 15 4b bd a2 01 80 bb 87 1a 0f bf
       0.13605885 -0.04958136 -0.0039064446 -0.5589985
000360 ff a7 2c bf 52 6e aa be 0a e9 17 3d 1b de aa be
       -0.6744384 -0.33287293 0.037087478 -0.33372578
000370 22 23 14 be 24 c4 77 bd 66 89 30 bf 26 ed b1 be
       -0.14466527 -0.06048979 -0.68959653 -0.34751242
000380 d7 ec 07 bf e2 34 67 be 6a 12 46 bf 5f 65 41 be
       -0.53095764 -0.22578767 -0.7737185 -0.18886326
000390 53 03 bd 3d ab 7f d9 3b 86 94 98 be 7b 8c ab bc
       0.0922915 0.0066375337 -0.29800814 -0.02094101
0003a0 cd 6f ae bd ea 01 a5 bd 87 97 1c be a9 d5 8c be
       -0.08517418 -0.08057006 -0.15292178 -0.2750676
0003b0 a1 e5 05 bf 4d c6 30 be e2 85 8c 3d b3 ff c3 bd
       -0.5230351 -0.17263146 0.068614736 -0.09570255
0003c0 6b e3 32 3e 23 9c 3a 3e 31 e2 05 3e 9f 73 04 3e
       0.17469566 0.18223624 0.13074566 0.12934731
0003d0 06 3f 31 3e 0a ae 4b 3b 86 c7 3d be 3f 2b c7 3e
       0.17309198 0.0031079077 -0.18533143 0.38900182
0003e0 7c a6 84 3e f8 8a 7e 3e 8f 85 22 be f8 d5 5b be
       0.25908267 0.248577 -0.15871261 -0.21468341
0003f0 9b 86 db 3e 8c 9c c2 3d e4 19 18 be 1a e9 9d 3d
       0.42876133 0.09502515 -0.14853626 0.07710476

rnn.weight_hh_l0 f4 [72, 24]
000000 fc a1 a5 3d f1 4e 0b 3e 80 33 dc bc 65 44 c7 3d
       0.08087537 0.13604333 -0.026880026 0.09729842
000010 e3 35 9d bd ad 9f 10 be 4f 7b bd bd 2d 31 bd be
       -0.07676294 -0.14123411 -0.09252035 -0.3695158
000020 ad f7 bd 3d 77 9c 07 be b6 9d a7 3d fc 3d 90 be
       0.09275756 -0.1324328 0.08184378 -0.2817229
000030 dc c0 47 be cf bb 0f bf f5 95 99 bd 58 91 67 bd
       -0.19507164 -0.5614595 -0.07499305 -0.056535095
000040 50 5d 2c be bb bd 2c 3e 34 e2 e5 bd 85 66 7f 3d
       -0.16832471 0.16869251 -0.112247854 0.06235363
000050 de 66 dc 3d 7e cd 08 3e 11 a8 5b be e6 93 e1 bd
       0.10761808 0.13359639 -0.21450831 -0.110145375
000060 11 d7 ee 3d fb 6d 58 3d dc c7 36 be 5e 91 8b bd
       0.116621144 0.05283926 -0.17849678 -0.06814836
000070 db 25 51 be 21 ae ce bd ba 10 71 3e ff ea 82 bd
       -0.20424597 -0.10091806 0.23541537 -0.06392478
000080 08 ee 94 3e 12 7f 37 be bc f1 30 3e b6 5d e5 3d
       0.29087853 -0.17919567 0.17279714 0.111995146
000090 6f 94 b4 3c 7d 8c 11 3e 53 5f ee b8 43 36 d2 bb
       0.022043435 0.14213748 -0.0001136648 -0.00641516
0000a0 63 b1 89 bd d0 1a 1e 3e f8 97 82 3c 20 76 6c 3e
       -0.06723287 0.15439916 0.015941605 0.23091936
0000b0 c4 1a 19 be 55 9c 45 3e 01 ec 15 be 02 6c d8 3d
       -0.14951617 0.19297917 -0.1464081 0.10567476
0000c0 67 8e 3d 3e 33 78 77 3e 8b 91 1f 3d fd 13 1e be
       0.18511353 0.24166946 0.03895716 -0.15437312
0000d0 81 a9 90 3e 1f cf 26 3c 5f 07 4e 3e 28 78 65 3e
       0.2825432 0.010181217 0.2012 0.22409117
0000e0 0e 0f 57 3d 28 8f 0e 3e f9 e3 12 be 09 54 6c 3c
       0.05250459 0.13921797 -0.14344777 0.014424332
0000f0 07 39 b4 3d 63 47 46 bd 0f 04 2c 3e dd e5 fc 3c
       0.087999396 -0.048407923 0.16798423 0.030871326
000100 01 04 13 be a8 ca 82 bc ac ce 2e bc 13 ca 13 be
       -0.14356996 -0.015965775 -0.010669392 -0.14432554
000110 91 19 8e 3d 24 47 df bd 0a 8e 88 3c ba 76 dc bc
       0.0693847 -0.10902241 0.016669292 -0.026912082
000120 8c f7 96 3c 2a 3e 57 3e 01 33 71 bd 29 2e 9b 3d
       0.018428586 0.21019807 -0.05888653 0.07577164
000130 05 6f 38 3d 02 77 d2 bc 29 c1 c4 3b a7 b0 b2 3c
       0.04502775 -0.025691513 0.006004472 0.02181275
000140 92 55 37 3d 5d 4e a7 bd 96 c2 19 bc da ba d6 bd
       0.04475934 -0.081692435 -0.009384772 -0.10484858
000150 09 74 82 be 84 85 a9 be d3 5b 5b be e8 57 24 be
       -0.25479153 -0.33109677 -0.21421747 -0.16049159
000160 30 f1 32 be b4 94 6f 3e 66 db e1 3d 91 a1 76 3d
       -0.17474818 0.2339657 0.11028175 0.060212675
000170 d3 04 75 3d 1d 71 32 3e 31 61 e7 bd 4f 68 16 be
       0.059819054 0.17425962 -0.11297835 -0.14688228
000180 84 0d 1a be 49 49 00 3e 58 aa 25 3e 81 04 54 be
       -0.15044218 0.12527956 0.16178262 -0.20704843
000190 dd a1 65 be 32 2d 60 3e 34 cb e4 3e 64 18 ff bd
       -0.22425027 0.2189224 0.44686282 -0.12455824
0001a0 bc ae 6e 3c 9a 0a 67 be f9 35 2a 3d 49 32 85 be
       0.014568027 -0.22562638 0.04155538 -0.26014927
0001b0 6f 54 f2 bd b9 1e c1 3d 4b 8e b7 be d3 a9 b7 be
       -0.11832511 0.09429688 -0.35850748 -0.35871753
0001c0 8e b5 09 be 09 1c 4e be 2c 42 94 be 7a 89 0f be
       -0.13448164 -0.20127882 -0.28956735 -0.14017287
0001d0 e4 df 88 3d e7 22 44 3e 3d 46 0f be 51 ad c2 3d
       0.06683329 0.19153939 -0.13991638 0.09505714
0001e0 f5 9d 82 3e 52 01 12 3e 1d 14 2e be 1f d6 30 bd
       0.25511137 0.14258316 -0.1699986 -0.04317295
0001f0 15 40 63 3e 9b 52 36 3d 85 2e a4 3d f5 71 df bd
       0.22192414 0.044512372 0.080166854 -0.109104075
000200 75 da 06 3e cc 98 d2 bc 3e 1a 59 be 8a ba 99 be
       0.13169272 -0.025707625 -0.21201417 -0.3002513
000210 36 3b 93 3b 4b f5 fa be 28 4b 5b be 26 02 a8 bd
       0.0044931425 -0.4901527 -0.21415389 -0.08203535
000220 8d b5 69 3e 58 eb f3 3e 8b 23 5a 3e 23 e7 35 3f
       0.22823162 0.4764049 0.21302621 0.7105581
000230 27 e5 9f 3e 84 e3 b5 be 38 3a 74 be 34 8c 29 be
       0.31229517 -0.35525143 -0.23850334 -0.1655739
000240 a8 c4 d9 3e 7e e3 28 3e ed e4 3d 3c de 8c 64 be
       0.4253285 0.16493031 0.011590225 -0.22319362
000250 e7 08 8a 3d 1d 63 b4 bc d1 45 6c bb 38 a6 93 3e
       0.06739979 -0.022019917 -0.0036052356 0.28837752
000260 8c 13 b0 3e 43 a4 c2 bc 46 15 c6 bb 77 e6 11 bc
       0.34389913 -0.023759967 -0.0060450165 -0.008905045
000270 3b 4e e5 3e 68 f9 9f be 78 34 81 3d 66 bd 92 be
       0.44786248 -0.3124497 0.06308836 -0.28660125
000280 78 c3 3e 3e 54 b2 19 3f 9b 9d a9 3d 49 d2 d2 3e
       0.18629253 0.6003773 0.08282014 0.4117606
000290 e9 9f b5 3e c9 c7 72 3d e1 9e 4c 3d 4e 0e 6e be
       0.35473564 0.05927256 0.049956206 -0.23247644
0002a0 9f 05 e7 3c a7 05 39 be dd 4d 06 be 15 34 54 3e
       0.028200923 -0.18068562 -0.1311564 0.20722993
0002b0 d3 19 5f 3e c9 43 a9 bd 29 8c 54 bd 09 b3 8f 3d
       0.21787195 -0.08264882 -0.05189148 0.0701657
0002c0 be 8a c1 3d 26 b5 32 3b 5b 6d 7e 3d 8f 78 74 3e
       0.09450291 0.0027268617 0.06211601 0.23874114
0002d0 f7 92 b5 3d 7a 3b 7e 3d 8b 26 ef 3c e8 a4 19 3c
       0.08865922 0.06206844 0.029193183 0.009377696
0002e0 2e c2 ac bd b6 a0 6e 3d f8 38 75 3d b1 b1 dd 3a
       -0.08435474 0.058258735 0.059868783 0.0016913918
0002f0 68 89 4d be 80 66 79 bd 7c 3a a1 3e 0a 80 ad bc
       -0.20071948 -0.060888767 0.31489933 -0.021179218
000300 8e 4e 3f 3e f4 29 b7 3c 01 7a 16 be fe 77 73 be
       0.1868231 0.022358872 -0.14694978 -0.23776242
000310 56 5e 59 be 36 3d d1 3c a9 13 9d bd 40 ed 6c 3e
       -0.21227393 0.025541883 -0.076697655 0.23137379
000320 34 4e 6b 3e 21 bb a8 be 55 29 b0 3e b4 99 94 be
       0.22979051 -0.32955268 0.34406534 -0.29023516
000330 0e df b3 3e 98 15 52 3e 41 ef 6c 3e 54 ca 5d be
       0.35131115 0.2051605 0.23138143 -0.21659213
000340 4e 2d 85 3e a2 7e b6 3e f3 0c 41 be c3 14 6e 3f
       0.26011127 0.35643488 -0.18852596 0.9300043
000350 7e ff a5 3e 5d 5e a5 be cf 9d a5 be d6 b7 af be
       0.32421488 -0.32298556 -0.3234696 -0.34319943
000360 60 ab 84 3e b6 cb 6f 3c 00 ba d3 b8 86 b3 18 bd
       0.25912 0.014635971 -0.00010095909 -0.037280582
000370 68 20 75 be 6f 4e a5 3e a2 a4 a3 bc ca d5 2c bc
       -0.23938143 0.32286403 -0.019975964 -0.010549018
000380 37 e7 19 bd a2 38 08 bd a7 1e 83 3d a8 cd 43 bd
       -0.03757402 -0.033257134 0.06402331 -0.04780355
000390 c0 12 13 be 93 21 46 3e 9c 8d 02 be 93 53 80 be
       -0.14362621 0.19348745 -0.12749332 -0.25063762
0003a0 c2 94 99 3e 90 bf 2c bc d3 89 bf bd dd b1 03 3f
       0.29996306 -0.010543719 -0.0935246 0.5144327
0003b0 b9 e8 bf bd 2a 72 ee bd 46 c2 8a be 69 50 0a 3e
       -0.0937056 -0.11642869 -0.27101344 0.13507237
0003c0 0c 4b f1 3d e2 5b a3 3e 22 0e 4c 3e 20 73 02 3d
       0.11781892 0.3190604 0.19927266 0.031848073
0003d0 07 d8 53 be 77 fe 53 3e 3b 33 6f 3e 46 82 53 be
       -0.20687877 0.2070254 0.23359387 -0.20655164
0003e0 18 63 1d 3e 72 7b 56 bd 42 8a a5 bc ca 76 26 be
       0.15369833 -0.05236382 -0.020207528 -0.16256252
0003f0 78 f7 55 3e 56 9a 96 3d 45 23 03 bf 97 c3 ab bd
       0.20895183 0.07353656 -0.5122569 -0.08386915

rnn.bias_ih_l0 f4 [72]
000000 ed 0d a5 3c 8d 74 3f 3d 43 7e e3 3d 4c 96 77 3e
       0.020148242 0.04674201 0.11108067 0.24178427
000010 29 d6 c8 bb 0a d7 ae bd 71 45 ec bd 35 08 04 3e
       -0.0061290455 -0.08537109 -0.115366824 0.12893756
000020 19 e9 47 3e 2e e2 b9 3c 9e 87 bc bd e0 36 ca 3c
       0.19522513 0.022690859 -0.092055544 0.02468437
000030 35 16 55 3d b8 c1 85 3e 9a ab f2 3d 8a 70 3b 3e
       0.05202313 0.26124358 0.11849137 0.18304649
000040 3f ed 97 3d 83 10 49 3e 93 66 a1 bd 35 e5 81 3e
       0.07418298 0.19635205 -0.078808926 0.25370184
000050 cb 93 82 bd d2 2e 68 3d 45 82 ca bd bd 0b 11 3e
       -0.063758455 0.056685276 -0.09888128 0.14164634
000060 2d a8 90 bc 55 ff 56 bc fd ee 38 3d 7e a6 46 be
       -0.017658317 -0.013122399 0.045149792 -0.19399449
000070 8a 03 67 be e6 76 70 3d de 8e 17 ba 47 69 86 be
       -0.22559944 0.05870714 -0.0005781482 -0.26252195
000080 dc 0b 1f 3d 16 7b 0b bf ca ba 1e be 17 54 8d be
       0.03882967 -0.5448469 -0.15500942 -0.27603218
000090 fc d4 3f be b4 e7 56 bd 0f 60 3f be 31 69 3c be
       -0.18733591 -0.052467063 -0.18688987 -0.18399502
0000a0 05 28 07 be f5 5a de bd b0 63 7c bd eb 71 25 be
       -0.1319886 -0.108571924 -0.061618507 -0.16156738
0000b0 5c 4d 28 be 79 96 b9 3c f2 b1 b3 be 30 4b 9d be
       -0.1643576 0.022654759 -0.350967 -0.30721426
0000c0 e6 c6 34 be db f1 1b 3e 5d 2e 3f 3d 94 a1 47 3e
       -0.17653999 0.1522898 0.046675075 0.19495231
0000d0 ec 70 13 be e1 5d e6 3d 35 d3 96 3d d1 e2 df bc
       -0.14398545 0.11248375 0.07364503 -0.027329834
0000e0 e0 d3 b2 3d 8f 23 e3 bc 98 67 81 3e cf a8 fd 3d
       0.08731818 -0.027726917 0.25274348 0.12385713
0000f0 46 a9 2a 3c 59 a0 ae 3c f5 ad 3d 3d 19 bb d2 bd
       0.0104163345 0.021316694 0.046308476 -0.10289592
000100 32 08 7f bd 65 3b 9d bd a4 1b 05 be c3 21 79 bd
       -0.062263675 -0.07677344 -0.12998825 -0.060823213
000110 de 14 6c be f6 4d 14 3e 1b 33 e9 3c da 10 c5 3d
       -0.23054835 0.14482865 0.028466752 0.09622355

rnn.bias_hh_l0 f4 [72]
000000 3d 43 75 3d 18 66 c4 bd 9b 3d 01 be 34 ff 53 3c
       0.059878577 -0.09589785 -0.12621157 0.012939263
000010 34 23 e9 bd 58 e4 4b be 9d 22 56 3d 14 2b d8 bd
       -0.113836676 -0.19911325 0.052279104 -0.105550915
000020 d1 cb 9d bc c3 25 4d 3d 1e e0 5f 3e 37 ad e9 bc
       -0.019262226 0.05008484 0.21862838 -0.028524978
000030 75 89 b1 3e af 53 c6 bd 4d 3c ab 3d aa 3a a4 bd
       0.34675184 -0.0968393 0.08361111 -0.08019002
000040 1f b5 08 be ef 89 28 3d ba fa 18 bd a3 13 56 bd
       -0.13350342 0.04114717 -0.037348486 -0.05226482
000050 eb 1c 31 3e 32 c5 ac bd 9e a6 aa bd 44 3f 38 3d
       0.17296188 -0.084360495 -0.08332561 0.04498221
000060 51 c0 96 be 11 ba 94 bd 51 56 45 be a2 cc 8a bd
       -0.294436 -0.07262052 -0.19271208 -0.06777312
000070 b1 35 82 be 19 6d 0e be 34 f7 84 3d 91 12 22 bf
       -0.25431588 -0.13908805 0.06492463 -0.6330958
000080 5f ab 15 3e 8e 8f 04 bf 16 49 ea 3b 43 c9 ae bd
       0.14616154 -0.5178155 0.007149826 -0.085344814
000090 9b c5 c7 be 5c 1a ae 3d 4a 9f 9e be 0d 1c b6 3d
       -0.39017949 0.085011214 -0.30980903 0.08892069
0000a0 8a 62 33 bd dc ed 5d be ee 14 c7 3d 7d 2d 9a 3d
       -0.043795146 -0.21672767 0.09720789 0.075282075
0000b0 90 ab a8 be 16 93 01 be 0c 59 65 be 5f 3d 8b be
       -0.32943392 -0.12653765 -0.2239725 -0.2719526
0000c0 2e e9 5e 3d 16 8e 8f 3d ff af 33 3e 14 fc fc 3d
       0.054421596 0.070095226 0.17547606 0.123527676
0000d0 a4 dc 08 be 70 4b 01 3e 47 a9 c9 3d 46 b8 76 3e
       -0.13365418 0.12626433 0.0984674 0.24093732
0000e0 fb e1 08 3e a7 35 1b be 28 4f 06 be 12 8e 7d 3e
       0.13367455 -0.15157185 -0.13116133 0.24761227
0000f0 0f fb c5 3d 4a 51 99 3d f8 da 15 3e c9 7e e1 bd
       0.09667026 0.07486208 0.14634311 -0.110105105
000100 45 78 b8 3d 19 c9 24 be 42 99 c3 bd 42 19 40 bd
       0.090073146 -0.16092338 -0.09550716 -0.046899088
000110 74 cc 15 bd 93 61 fd ba f1 6f 63 3e 8a 8c 91 bd
       -0.036571935 -0.0019331448 0.22210671 -0.07106884

rnn.weight_ih_l1 f4 [72, 24]
000000 6c 40 8d 3e 81 59 b8 bc 28 11 92 bc f3 11 bc bc
       0.27588212 -0.022503616 -0.017830446 -0.022957778
000010 04 67 dc be 73 40 4a 3e c3 9e f1 bd 7b 91 dc bc
       -0.43047345 0.19751148 -0.117978595 -0.02692484
000020 03 02 c2 3e 65 e1 12 be e8 22 8f 3e 8f 6d 8d bd
       0.3789216 -0.14343794 0.2795632 -0.06905662
000030 84 39 92 be d5 cd b2 3e f4 fb 9d be 34 cb 9a bd
       -0.28559506 0.34922662 -0.30856287 -0.07558289
000040 68 fa 69 3e e9 8a b4 3d d5 fb c4 bc 57 63 59 be
       0.22849429 0.088155575 -0.024045864 -0.21229301
000050 75 77 f1 3d 88 01 0d 3e 20 79 b0 be 69 d2 4c 3e
       0.11790363 0.13770115 -0.3446741 0.2000214
000060 00 11 cf be 3a 6a 45 be 59 f6 c2 3d c7 dc 9c 3e
       -0.40442657 -0.19278803 0.09519643 0.3063719
000070 7e 12 84 bd 89 9d 2d be 35 a8 4a be 82 f8 cc 3e
       -0.064488396 -0.16954626 -0.19790728 0.40033346
000080 81 0c a1 bc 1d 54 2e bd 45 a8 cf 3d 7d 24 d2 3e
       -0.019659283 -0.042560685 0.10139517 0.41043463
000090 b7 60 94 be 07 05 5f 3e 87 1e cf 3e 92 99 78 bd
       -0.28980038 0.21779262 0.40452978 -0.06069333
0000a0 6f e1 ff 3d e9 10 78 be 45 4c ae 3b 9b 0f 32 be
       0.1249417 -0.242252 0.0053191506 -0.17388766
0000b0 9d 63 fe bd dd 64 8b bc 02 d9 51 3e e4 56 c3 3d
       -0.124213435 -0.017015869 0.20492938 0.095380574
0000c0 d7 a4 e5 bd fe ea 63 3e 02 2b 6f 3e dd 55 a8 bd
       -0.11213081 0.22257611 0.2335625 -0.08219502
0000d0 3b c5 35 bd c8 39 31 be eb fe ff 3d 10 b4 43 bd
       -0.044377547 -0.17307198 0.124997936 -0.047779143
0000e0 b0 8b a8 3b 7f 56 68 be a2 7b f3 3d 97 e2 28 3e
       0.005143605 -0.22689246 0.118888155 0.16492687
0000f0 e6 b9 5a 3e 76 47 88 3e 46 d7 2a 3e 02 6e 50 bd
       0.21359977 0.2661702 0.16683683 -0.05088616
000100 f2 1c 4b be e5 f2 61 be 1e 67 4e be b9 37 57 be
       -0.1983526 -0.22065313 -0.20156524 -0.2101735
000110 43 92 f6 3d eb 6c 63 be f1 37 15 be c1 ec 11 3e
       0.12039616 -0.22209518 -0.14572121 0.1425047
000120 ca 29 1a 3e 8e 5f a4 3d cc cf b3 bd 8e dc c3 bc
       0.15055004 0.08026038 -0.087798685 -0.02390888
000130 24 16 c4 3d ba 45 d4 bd 1d ea 9e bc 60 b0 3e bc
       0.095745355 -0.10364862 -0.019398743 -0.011638731
000140 b6 9c 1e 3e 79 74 42 3d ba 54 9d 3e d2 bc 18 be
       0.15489468 0.04747436 0.30728704 -0.14915779
000150 15 6c ed 3d d3 b0 18 3e b6 a0 a3 3d ce a1 f2 bd
       0.11592881 0.14911203 0.079896376 -0.11847268
000160 1f fb 69 3d 16 57 01 bc f8 c9 43 be b1 9b 13 3e
       0.057124253 -0.007894298 -0.19120014 0.1441486
000170 f2 77 60 3c 30 fe f2 3d b1 90 4a be eb 1a 3b be
       0.013700472 0.11864889 -0.19781758 -0.18271987
000180 a1 ff 41 3e af 5a 03 bd 94 af 64 3e 45 2f a5 be
       0.18945171 -0.032068904 0.22332603 -0.32262626
000190 6e 43 a1 3c 43 50 3d 3d a1 7e 34 3e a6 19 c3 3d
       0.019685473 0.04621912 0.1762643 0.095263764
0001a0 3a 08 87 3e 9a c7 ad bd ef 87 de bd e3 ed 65 be
       0.26373464 -0.084853366 -0.10865771 -0.22454028
0001b0 68 c4 5c 3d 67 a7 85 3e 47 8e 18 be 13 96 92 3d
       0.053898245 0.2610428 -0.14898024 0.07157531
0001c0 fe b2 1d 3e 07 27 2f 3e d3 2c 58 3d 6c 5e a5 3d
       0.15400311 0.17104732 0.052777123 0.0807465
0001d0 ad 3c ac 3d d2 8a 3c bd 73 53 52 be a1 01 6d be
       0.084100105 -0.046030827 -0.20539646 -0.23145153
0001e0 eb 94 22 3e da 96 3b 3e 8c 99 80 3e 8f 4f 37 3c
       0.1587712 0.18319264 0.25117147 0.011188402
0001f0 d2 4e 3a be 0d 4d a8 3d 43 27 bd 3d 5c 2d 4b be
       -0.1819413 0.08217821 0.09236004 -0.19841522
000200 bb 4d 8a bd ce 40 09 be ab 44 ef 3d 6e 2c b4 bd
       -0.06753107 -0.13403627 0.11683019 -0.08797537
000210 21 20 09 3e 26 1e a1 be 60 a6 7a be 7a 08 97 3d
       0.13391162 -0.31468314 -0.2447753 0.07374664
000220 02 7a 0c bd 8e 30 86 3e ff 90 17 3e f2 7f af 3e
       -0.034296043 0.2620892 0.14801405 0.34277302
000230 0e 2c 27 3d 8c dd a0 bd b5 4a 9e be 91 dc 6b bd
       0.0408135 -0.07854757 -0.30916372 -0.057583395
000240 a5 9e 86 bd 8a d0 f0 3e a8 d2 0c 3e 1e 2c d1 3d
       -0.06573228 0.47034103 0.13752234 0.10213493
000250 0b f4 57 be 94 4c 14 3d 4e d1 07 3f 7f 37 19 bd
       -0.21089189 0.036205843 0.5305375 -0.03740644
000260 a5 4d e1 3e 92 1b b3 bd 00 e2 d4 3e fb 26 5b 3e
       0.4400455 -0.08745493 0.41578674 0.21401589
000270 77 c0 bb 3e 31 ac 61 3d b2 2f 59 3e 39 e5 ca bd
       0.36670277 0.055095855 0.212096 -0.09907002
000280 78 66 b2 bd 4a bb 6d be 8a 14 cb be e5 8a 94 3c
       -0.087109506 -0.23215976 -0.39664108 0.018132636
000290 07 c2 1d be af 6f b3 3e 19 2d 77 3d d9 94 76 3e
       -0.15406047 0.35046145 0.060345743 0.24080218
0002a0 c8 0b a1 3d 34 69 17 3e ba 2c 8d 3e 77 aa 04 be
       0.07863575 0.14786226 0.27573186 -0.12955652
0002b0 c1 ee 01 be 56 d6 3d 3e 35 3c 29 bb 3c 96 d2 bb
       -0.12688734 0.18538794 -0.002582324 -0.0064266007
0002c0 d8 29 1f be 84 ad 11 bb e8 c2 4b be b5 9b e5 bb
       -0.15543306 -0.0022228668 -0.1989857 -0.007007087
0002d0 e7 5f 26 be 93 cd a6 3e 5f e2 b2 bd f9 00 34 be
       -0.16247521 0.32578716 -0.08734583 -0.17578496
0002e0 27 9a dd 3d 88 65 24 3e 34 03 7a 3c 9f 9e bd be
       0.10820418 0.16054356 0.015259553 -0.3703508
0002f0 d5 ef b1 bc 01 d0 cf bd 44 b4 9a bd 81 0e 05 3e
       -0.021720806 -0.101470955 -0.07553914 0.12993814
000300 67 97 86 3e 84 75 e3 bc a1 64 02 bd 23 e7 30 be
       0.26287386 -0.027765997 -0.03183425 -0.17275672
000310 8b 68 b1 3d 2e 38 6c bc 40 99 39 bd 95 96 97 3c
       0.08662518 -0.014417691 -0.045312166 0.01850442
000320 45 1d 83 3e be 30 a3 3d 05 b2 42 3e 92 fa 5c 3d
       0.25608268 0.07968281 0.19013222 0.0539499
000330 30 e0 87 3e 59 32 e2 bd 6f 2f 15 3d e8 92 03 3e
       0.2653823 -0.11044759 0.03642219 0.12849009
000340 57 25 f2 3c 45 16 c2 bd 3b bd 59 3c dc ae cb 3d
       0.02955882 -0.09476904 0.013289745 0.09945461
000350 14 89 03 be bf 21 25 3e fe d6 70 3c 46 46 4d 3b
       -0.1284526 0.16126154 0.014699696 0.0031322404
000360 b0 9c df 3b 61 63 14 3e 6e 24 ea 3d 77 13 f4 bd
       0.0068240985 0.14491035 0.1143273 -0.11917775
000370 5c f1 1a 3e 2b 5b 40 3e 2a 13 b7 bd 34 2a ca 3d
       0.15131134 0.18784778 -0.08939202 0.09871331
000380 82 d5 37 be b4 0d c7 bc 44 b8 34 3d 0c 01 da bd
       -0.1795254 -0.024298526 0.044121042 -0.10644731
000390 70 96 2c 3e dd 9a 84 3d 84 10 39 be 87 a9 10 3e
       0.16854262 0.0647485 -0.18072706 0.1412717
0003a0 95 66 06 be 9e c1 e3 3c 81 62 c5 3d 79 72 dd bd
       -0.1312507 0.027802285 0.09637929 -0.108128496
0003b0 7a 07 93 3c e3 c2 44 bd 97 67 da bd 7a 02 30 bd
       0.017947901 -0.04803742 -0.106642894 -0.04297111
0003c0 17 48 32 3d 6a f3 ad bd b0 33 0f be ca 74 2c be
       0.04352578 -0.08493693 -0.13984561 -0.16841426
0003d0 05 63 55 bd ee 9c db 3d 3e 2a 59 3e 11 07 1b 3d
       -0.052096386 0.10723291 0.2120752 0.037848536
0003e0 45 44 53 3e be 1b 28 bd 08 99 3f 3e cb b1 7c bd
       0.20631512 -0.041042082 0.1871072 -0.061692994
0003f0 c3 7d 4f 3e 55 68 fa bc 0d 4d 71 bc a9 de 62 be
       0.20262818 -0.030567328 -0.014727843 -0.2215525

rnn.weight_hh_l1 f4 [72, 24]
000000 54 98 b3 bc dc 7b 0e 3a f4 f3 98 3d 72 65 84 3c
       -0.021923222 0.00054353266 0.07468405 0.016161654
000010 69 c4 54 3e f0 0d 49 3e f7 b0 09 bd 45 88 3c 3e
       0.2077805 0.19634223 -0.033616032 0.18411358
000020 ef 43 32 3e 86 cf 29 bd a7 5f c2 3c 8f f9 7d 3e
       0.17408727 -0.041457675 0.023727251 0.2480223
000030 d6 db d1 bd f7 ac 2d be cc e3 47 3e 95 a0 a6 bc
       -0.102470085 -0.16960512 0.19520491 -0.020340243
000040 17 d9 09 3e dd 40 10 be b1 d3 c0 bc 7f d5 f5 3d
       0.1346172 -0.14087243 -0.023538442 0.12003612
000050 34 4a 17 3e 74 3b 88 3e 94 ae 3d 3e 13 4b 18 3e
       0.147744 0.2660786 0.18523628 0.14872389
000060 47 cb 93 be 2b cb 37 be 4b 34 21 3e 49 ce a0 3d
       -0.28866026 -0.17948596 0.15742604 0.07851846
000070 50 a6 9b be bd c9 42 3e 8b 28 1c 3f 69 a7 c0 be
       -0.30400324 0.1902227 0.60999364 -0.37627724
000080 b2 52 73 3e e0 24 97 3e 68 f0 be 3d 0b 8c 71 bd
       0.23762015 0.2952032 0.093231976 -0.058971446
000090 34 35 55 be af 04 f9 bc ce ca 46 3d 03 48 82 be
       -0.20821077 -0.030397741 0.048533253 -0.25445566
0000a0 b1 1a 7f be 65 7a 7a bc 4c 5b a5 3d f7 25 7b 3d
       -0.24912526 -0.01528797 0.08074054 0.061315503
0000b0 1a 50 ae bd ee 62 1d bf 62 d7 84 3c f7 fc 5f 3e
       -0.08511372 -0.6147908 0.016215984 0.21873842
0000c0 19 ee 4d bc 61 17 e2 3d cc 0c 25 be d2 6f 43 be
       -0.012568974 0.110396154 -0.16118163 -0.19085625
0000d0 7d 98 77 bd c1 f8 a1 bc a7 84 c2 3c da ca b4 3d
       -0.06044816 -0.019771935 0.023744894 0.08827753
0000e0 66 ee 5a be 47 a2 4e 3e b3 c3 3e bd dc c9 79 3e
       -0.21380004 0.20179091 -0.046573352 0.2439341
0000f0 e7 f6 1b 3e f2 d0 16 3e 81 d2 17 be fe 17 38 3e
       0.15230905 0.14728144 -0.14826395 0.17977902
000100 df be af bd bc 1a 0a 3c 38 b2 ab 3d 2c 4d 80 bd
       -0.08581328 0.0084292255 0.08383602 -0.06264719
000110 ed bb 1c bd 20 35 58 3e 49 7d f6 bd 95 e3 51 bd
       -0.038265157 0.21114016 -0.12035615 -0.05124243
000120 49 ad 3a 3e 91 4a 62 3b d7 4a 13 be de c7 cd 3d
       0.18230166 0.0034529308 -0.14384018 0.10047887
000130 5f e8 e4 3c 1f 9d d7 3d 7d 25 b2 be 13 c4 80 3e
       0.027942834 0.10528015 -0.34794226 0.25149593
000140 ef f7 08 3e 4d d7 2c be 96 b8 00 be 59 04 4d 3e
       0.13375829 -0.16879006 -0.12570414 0.2002119
000150 f0 00 1b 3e 71 d9 69 bd 00 5e dc bd 7b 55 7e 3e
       0.15137076 -0.057092134 -0.107601166 0.24837296
000160 17 c7 44 3d 30 56 4a 3e 83 6c 3c 3e 48 ba 8f bd
       0.04804143 0.1975944 0.18400769 -0.07017952
000170 d2 2d 2b bd 8e 07 58 3e 7b 93 7a 3e 59 54 1a be
       -0.041791745 0.21096632 0.24470322 -0.15071239
000180 85 31 11 bd 6a b2 89 3e 9d e1 e7 3d ba 99 9f bd
       -0.035447616 0.26893932 0.11322329 -0.07792993
000190 b7 eb 89 3e 71 51 42 bd 1c b9 bc 3d ae 35 92 3e
       0.2693765 -0.04744095 0.09214994 0.2855658
0001a0 7d 18 9a bd 49 67 40 bd 00 65 0a bc 82 41 f3 bd
       -0.07524202 -0.0469735 -0.008446932 -0.11877729
0001b0 d9 01 d1 3d 54 29 6e 3d 8f 7e be 3c a3 d8 54 3e
       0.102054305 0.058144882 0.023253707 0.20785765
0001c0 cc 43 e0 bb 73 fd 3c 3c 66 ed 88 3e db 36 76 3d
       -0.0068440195 0.011535036 0.2674362 0.060110908
0001d0 99 a4 2d 3e f8 74 d9 3e a3 9d d4 3c ea 6e c3 be
       0.1695732 0.42472053 0.025954073 -0.38170558
0001e0 6d a6 aa 3d ce a8 82 3d be 56 f9 3d ca 77 11 3e
       0.083325244 0.06379853 0.12174748 0.14205852
0001f0 89 36 d6 3e a4 1e 85 3b 2d d1 e1 bd 60 f4 40 3e
       0.41838482 0.0040624905 -0.11026225 0.18843222
000200 56 b6 bf bd 29 4b cd 3d e3 19 19 be cd 9c 0e be
       -0.0936095 0.10024101 -0.14951281 -0.13927002
000210 dd ef e7 3d ec 9a e7 bc 16 93 64 3e b9 f8 46 3e
       0.11325047 -0.028272115 0.22321734 0.19430818
000220 0f c3 85 3e aa ab 18 ba 39 9b 3c 3d 43 95 cd bd
       0.2612538 -0.000582392 0.04604647 -0.10038235
000230 cf c3 14 bc dd a2 2b 3f fc 76 f2 bc f1 1b b3 bb
       -0.0090798875 0.67045385 -0.029597752 -0.0054659774
000240 94 54 62 3e 28 45 c3 bd 1a ca 45 be 24 15 7e be
       0.22102576 -0.09534675 -0.19315377 -0.24812752
000250 2b 11 88 be 46 8c 5e 3e ae b9 91 be ab 24 9d 3e
       -0.26575598 0.21733198 -0.28461975 0.30692038
000260 91 bd dc 3d 89 b5 34 3e 34 a9 08 bd d2 62 01 be
       0.107783444 0.17647375 -0.03336449 -0.12635353
000270 cf 09 10 3e d7 fb 7a be d4 01 ce 3e 5f e9 d1 3c
       0.14066242 -0.24510132 0.4023577 0.025623975
000280 e1 7f a7 be d4 09 d1 bd 7d 03 1f be 1d 72 95 3e
       -0.3271475 -0.10206953 -0.15528674 0.29188624
000290 1f 73 90 be 9f 56 de 3d 27 b4 ca 3e 85 04 66 be
       -0.2821283 0.108563654 0.3959057 -0.22462662
0002a0 cb 42 9b 3d 76 d1 b7 bd b4 5d c2 3d f7 c5 01 3e
       0.07581099 -0.089754984 0.09490529 0.12673174
0002b0 92 f0 99 bd 53 af 60 be 67 bf bd 3e ee e2 c5 bc
       -0.07516588 -0.21941881 0.3706009 -0.02415606
0002c0 9c af 46 be 60 a9 85 be 65 a7 69 bd 68 4b 62 3e
       -0.19402927 -0.26105785 -0.057044405 0.22099078
0002d0 b3 c2 d4 3d f1 a2 0f 3e 12 7c 2c bd 55 95 16 be
       0.103886984 0.14027001 -0.04211051 -0.14705403
0002e0 ce 14 5b 3e cb 6c 7d 3e 67 88 81 3d 2c d4 43 be
       0.21394655 0.24748532 0.06324845 -0.19123906
0002f0 98 ef 0b bd d1 31 a0 be da 30 18 bc 98 ef ce bd
       -0.03416404 -0.31288007 -0.009288991 -0.10104293
000300 f0 ef 3e 3e 93 50 33 3d af ca 6e 3d 62 fd 35 bb
       0.18646216 0.043778013 0.058298763 -0.0027769436
000310 1b da 19 3e 91 ea b2 bd 67 4f 39 be 01 51 11 3e
       0.15024607 -0.08736146 -0.18096696 0.14191057
000320 c3 d6 65 be c4 ba f7 bb 52 db 2d be 3a e1 0d be
       -0.22445206 -0.007560106 -0.16978195 -0.13855448
000330 98 23 17 bd fc a6 80 3e c4 19 54 3e 18 36 02 bd
       -0.03689918 0.251274 0.20712954 -0.03178987
000340 ab d7 76 3c e8 8b 36 3e b8 fc 34 3e cb 23 a4 ba
       0.015066068 0.17826807 0.1767453 -0.0012522874
000350 4a 4c 86 3d 9b ec 0f 3f f2 30 14 3e 52 90 62 be
       0.0655752 0.56220406 0.14471796 -0.22125366
000360 16 8b 11 be bc aa 5b 3e 2e 84 e5 3c ba 73 77 be
       -0.14213213 0.21451849 0.02801713 -0.2416524
000370 66 e1 2e 3e 73 d0 23 3e 55 3c 98 bd b6 0b a3 3e
       0.1707817 0.15997486 -0.074333824 0.31844872
000380 5c 01 20 3e 87 2e 4f 3c 5b 75 8b bd 3c ca 1b 3c
       0.15625519 0.01264537 -0.06809493 0.009508666
000390 0a 3f b6 bd f8 09 82 bd c1 4d ce 3d 47 d0 a1 bd
       -0.088987425 -0.06349558 0.10073424 -0.07901054
0003a0 78 d1 0f 3d 59 df 35 be d8 8c 39 be 37 61 47 3e
       0.035111874 -0.17760982 -0.18120134 0.19470678
0003b0 b1 a5 4c be 08 e5 e9 3e 22 d0 36 be 76 fc 5a 3c
       -0.19985081 0.4568255 -0.17852834 0.013365855
0003c0 10 ab 59 3e f9 01 08 3e de 9e 13 bc e8 9d e1 bc
       0.21256661 0.13282003 -0.009010045 -0.027541116
0003d0 4c 1a 74 3e 4b 9c e4 bd de 22 a3 be e7 e2 fd 3b
       0.23838156 -0.11162623 -0.3186254 0.007747996
0003e0 e3 24 01 3c ff f1 16 be 8d 0b 3f be f8 cf e2 bc
       0.00788233 -0.14740752 -0.1865675 -0.027687058
0003f0 19 7b 22 3c 37 b4 20 bd b9 c4 33 bd ca eb 41 3e
       0.009917044 -0.039234366 -0.04388878 0.18937603

rnn.bias_ih_l1 f4 [72]
000000 57 b8 6d 3e b3 fa 0f be df 14 04 bd 81 b7 6a 3d
       0.23214851 -0.14060478 -0.032246467 0.05730391
000010 2d 52 b8 bd 3b 2f d3 3d 36 e2 e5 3e 9f eb 91 bc
       -0.09000049 0.10311743 0.44899148 -0.017812548
000020 56 07 4c 3e 26 4c 22 be f1 be 49 3d 60 e1 26 3e
       0.19924673 -0.15849361 0.04925436 0.16296911
000030 64 69 f2 bc 6b 28 18 3e 10 2a ab bd 29 94 11 bd
       -0.02959127 0.14859168 -0.08357632 -0.035541687
000040 c8 ab 7e 3d 91 b4 64 bd a2 bb 2c 3c e2 91 57 3e
       0.062175542 -0.055836264 0.010542782 0.21051744
000050 7a 62 57 3e c3 0d 5c 3e c9 9f 15 3e be 99 bb 3d
       0.2103366 0.21489625 0.14611734 0.09160183
000060 bb 22 70 be 32 6e a3 be 12 22 81 3d 60 42 9b 3d
       -0.23450749 -0.3192001 0.063053265 0.075810194
000070 63 2f b0 be a8 87 4a 3d 6d b0 f9 be 67 fc 91 be
       -0.34411153 0.049445778 -0.48767415 -0.2851288
000080 48 f7 bf bd 9b 1a b6 bd b6 7b ee 3d 88 e8 92 be
       -0.09373337 -0.08891793 0.1164469 -0.28693032
000090 33 c1 4a be 2b c1 2f be 4e 35 ff bc 87 f4 85 be
       -0.19800262 -0.17163531 -0.031153347 -0.26163122
0000a0 30 b0 bb bd 7c 83 bb 3d f1 48 20 be 2c 3c 5d 3d
       -0.091644645 0.09155938 -0.15652825 0.054012462
0000b0 b1 e2 09 3e 0f 4f 8b be e7 d0 0e 3d 75 31 23 3c
       0.13465382 -0.27208754 0.034867194 0.009960522
0000c0 df a3 37 3e 3a 6a 34 ba c2 b8 0b be ef d0 3a 3e
       0.17933606 -0.0006882284 -0.13644698 0.18243764
0000d0 f3 f3 dc bd 78 3d 26 3e 4d ea 93 bd 26 72 17 3e
       -0.10788717 0.16234386 -0.07222424 0.14789638
0000e0 0f 16 2d 3e e0 2d 1e 3e f0 1e 34 3c f6 90 66 bc
       0.16902946 0.15447187 0.010993704 -0.014072647
0000f0 c6 58 21 3e c4 a0 8b 3c 09 a0 43 3e 5f de 29 be
       0.1575652 0.017044432 0.19104017 -0.16588734
000100 e9 62 2a be 51 ea 09 3e c8 da 29 3e 26 0b 3d be
       -0.16639294 0.13468291 0.16587365 -0.18461284
000110 b2 b1 d1 bd a6 76 1b 3e b9 dc 43 3e 4d 3a 2e be
       -0.10238971 0.1518198 0.19127168 -0.17014427

rnn.bias_hh_l1 f4 [72]
000000 74 b0 5c bd c4 3a 51 bc 24 e4 2e be 5c 20 61 3e
       -0.053879216 -0.0127703585 -0.17079216 0.21985
000010 c8 2e 28 bd 3d da 19 be 7f 75 d5 3e b2 03 d7 bd
       -0.04106024 -0.15024658 0.41691205 -0.10498752
000020 45 b9 16 3e c0 0f 05 bc 5f 23 97 bd 6b 74 2d be
       0.14719112 -0.008121431 -0.073797934 -0.16938941
000030 b2 b9 21 3e cf 9a 4d bc 52 b3 c1 bd 50 02 ac bd
       0.15793493 -0.012549116 -0.09458031 -0.083988786
000040 38 51 38 3d 66 1b 0b 3e f2 cb 5c 3d 84 9b d5 bd
       0.04499933 0.1358467 0.053905435 -0.10430053
000050 a0 8f f8 bd 0c bc cc 3c 32 8a 81 bd 9d 8c c5 bd
       -0.12136769 0.024992011 -0.06325187 -0.096459605
000060 6d 8c e3 bd 8f d0 0a bf fa 56 29 3e 89 50 ec bd
       -0.111107685 -0.54224485 0.16537085 -0.11538798
000070 90 20 48 be 64 b1 c6 3d 0b 71 e8 be 55 80 b6 be
       -0.19543672 0.09701803 -0.45398745 -0.35644785
000080 6b 56 82 be 0d 1d a2 bd 8e eb 69 3d 64 c3 e8 be
       -0.25456557 -0.07915697 0.057109408 -0.4546157
000090 0f fa d2 3c 64 67 08 be cc bc 44 3e ca c7 bc bd
       0.025754003 -0.1332069 0.19212645 -0.09217794
0000a0 6e 84 94 be 64 63 42 bc 6b 8a 4f 3e 06 7d 24 3e
       -0.29007286 -0.011864517 0.20267646 0.16063318
0000b0 fb c6 0d be 42 5e c3 be f3 05 b0 bd 5d 7a bf bd
       -0.13845436 -0.3815785 -0.08594885 -0.09349511
0000c0 d9 c2 b1 3d 37 6c ad 3d 7b 5d a6 3c 98 52 a5 bd
       0.08679742 0.08467906 0.020308247 -0.08072394
0000d0 21 3e 1b 3e 33 66 77 3d 5c a8 2c 3e bf 89 47 3e
       0.15160419 0.0604002 0.16861099 0.1948614
0000e0 d0 b2 72 3d bb 38 01 3e 61 4e 45 bd fc b2 be bd
       0.05925256 0.12619297 -0.04817045 -0.09311482
0000f0 7e bf 48 bd c1 4d 2a bd 81 ca 5a 3e 96 d2 94 3d
       -0.049010746 -0.04157806 0.21366312 0.072667286
000100 a1 f6 a4 3c b6 03 1e bd f0 6a 1c be c5 0c ed 3d
       0.020137133 -0.038577758 -0.15275168 0.11574701
000110 b0 8a c6 bd 8d 25 db 3b f7 ca 06 3e b9 82 dc bd
       -0.09694421 0.006687826 0.13163362 -0.10767121

rnn.weight_ih_l2 f4 [72, 24]
000000 2f 1b 33 3d 25 26 d3 bd 12 e9 00 bd 99 a8 7c 3e
       0.043727096 -0.1031001 -0.031472273 0.2467369
000010 ec f2 f8 3d 59 54 19 3d fb 9a 41 be c7 3a 33 bd
       0.12155709 0.037433956 -0.18906777 -0.043757226
000020 b5 56 b6 3c d6 cc 16 3e 9a 09 97 3d 62 8d 91 3d
       0.022258142 0.14726576 0.07374878 0.07107045
000030 12 19 24 3e b3 de 19 3e 1e 26 63 3d 56 56 4b 3e
       0.16025189 0.1502636 0.055456273 0.19857153
000040 f3 67 a2 3d d0 e5 5e 3e 88 b3 f2 3d ea 30 37 be
       0.07929983 0.21767354 0.11850649 -0.17889753
000050 12 6a e9 bc 4a 85 b8 3e f9 f4 98 3d 5c 82 83 bc
       -0.028492961 0.3603919 0.074686 -0.016053371
000060 75 05 5b 3d 10 fe 3b 3d b3 0c 8f 3d 44 f2 81 bd
       0.053472 0.04589659 0.06984844 -0.063450366
000070 75 c8 60 3e ac b8 99 be c0 61 b2 ba e8 c5 88 be
       0.21951468 -0.30023706 -0.0013609454 -0.2671349
000080 e3 b8 5b be 01 7e 45 bd 7b c2 e6 bd 06 45 74 be
       -0.21457247 -0.04821587 -0.11267563 -0.23854455
000090 9c 66 61 be 54 a2 86 3e dc ae e0 bc a0 9f af 3d
       -0.22011799 0.26295722 -0.02742713 0.08575368
0000a0 38 d9 9a bd 5f 08 96 3e 5b 86 63 bd 4f 57 b3 3d
       -0.075609624 0.29303262 -0.055548053 0.08756887
0000b0 aa dd 7f 3e 81 ea bf bc 2d da 06 bd c7 1d 75 3d
       0.24986902 -0.02342725 -0.032922912 0.05984285
0000c0 30 db 2c be 82 c1 a4 bc ab 67 86 bd de 41 25 bd
       -0.16880488 -0.020111803 -0.06562742 -0.04034602
0000d0 64 51 09 3e 06 93 ce bd e0 68 d4 3d 3f 48 97 be
       0.13409954 -0.10086636 0.10371566 -0.29547307
0000e0 fc 08 46 3d 30 4b ae bd 64 a4 b1 bc 55 9b b5 be
       0.048348412 -0.08510435 -0.021684833 -0.3547007
0000f0 e9 6d 06 bd 27 0c 0c 3e b9 24 b1 bc 99 7e 31 3e
       -0.032819662 0.13676511 -0.021623956 0.1733345
000100 f5 9c 8e bd 7e 18 e2 bc 80 79 0b 3e 5b af 58 be
       -0.06963531 -0.02759957 0.13620567 -0.21160643
000110 95 07 6f 3e 56 fe 44 3e bd 3b 5d be 93 e1 fe 3c
       0.23342736 0.19237646 -0.2160482 0.031113422
000120 c3 7b cb bd 81 a7 69 be ef e5 ca 3d 5b 81 ca 3d
       -0.09935715 -0.22817804 0.099071376 0.09887954
000130 8f 74 71 3e 1c 30 e9 bc b6 44 9b bd 86 52 f8 3d
       0.2357962 -0.028465323 -0.07581465 0.12125115
000140 9b 34 50 bd 06 76 4b 3e fc fa dd 3d e1 ee 40 be
       -0.05083142 0.19869241 0.10838887 -0.18841125
000150 be b7 1b be 93 9e b7 bd a2 01 62 3e 8a f7 f1 3d
       -0.15206811 -0.089657925 0.22070935 0.118147925
000160 85 ea 0a be 5c c6 0c 3e 9c f8 4c 3e 24 49 8d bc
       -0.13566025 0.13747543 0.20016712 -0.01724679
000170 93 1a 56 be d1 1d 29 be 20 0a 05 3d 1c c1 e8 bc
       -0.20908575 -0.1651528 0.03248036 -0.028412394
000180 a8 e7 61 3c 72 e5 d0 3a 45 e6 39 3e b1 06 6f 3d
       0.013788141 0.0015937521 0.18154247 0.05835599
000190 41 47 73 be 10 e6 5b be cc 47 81 be ad 3c 8c 3e
       -0.2375765 -0.2147448 -0.2525009 0.27390042
0001a0 8a 51 14 be 08 f3 43 be af 55 5e 3d 52 3b 12 3e
       -0.1448423 -0.19135678 0.054280933 0.14280441
0001b0 42 06 00 3e 46 47 f7 3b fe fe 82 bc 90 35 2e 3e
       0.12502387 0.0075463383 -0.01599073 0.1701262
0001c0 9d 31 a9 3d 0b 3c 98 3d 10 ef 69 3e 41 dd 26 bd
       0.08261416 0.07433327 0.22845101 -0.040738348
0001d0 3e 31 47 3e 04 ea 04 3d 9d 78 1b 3d 0c 52 53 3d
       0.19452378 0.032449737 0.037956823 0.051591918
0001e0 5f 14 a4 3d 92 c3 01 be 23 85 43 be 20 39 bb bd
       0.08011698 -0.1267226 -0.19093756 -0.09141755
0001f0 9e c3 18 3e 48 68 11 bd ae 26 38 be 7b 0d 06 be
       0.14918372 -0.03549984 -0.17983505 -0.1309108
000200 cd 31 7d bd eb 7c 19 3e 59 eb 79 bd 64 f4 34 be
       -0.06181507 0.14989059 -0.06101546 -0.17671353
000210 10 b1 a1 3c 7f b0 72 bd 16 cd fb bd 87 e7 04 3e
       0.01973775 -0.05925035 -0.122949764 0.12978946
000220 28 e6 ce bc 07 3a 28 bd d0 60 37 3e fb c1 9b bc
       -0.025256231 -0.041070964 0.17908025 -0.019013396
000230 c6 07 1f be 2a 7a b9 3d a8 f7 46 bd ff 81 de bd
       -0.15530309 0.09056504 -0.048576027 -0.108646385
000240 1c c4 7e 3e 8d 8c 83 3e 93 a8 0e be e3 e6 d4 bd
       0.24879497 0.2569317 -0.13931493 -0.10395601
000250 69 60 fd 3c 72 d9 c5 bd 59 32 0a be f3 cd 29 be
       0.030929761 -0.09660615 -0.13495769 -0.1658247
000260 a1 58 e0 bc c9 05 d8 bd de b6 c4 3d 59 dd 64 be
       -0.027386012 -0.105479784 0.09605192 -0.22350062
000270 d6 60 cf 3d d0 39 6b 3e 5f 02 1b 3d 47 c3 2e 3e
       0.10125892 0.22971272 0.037844058 0.1706668
000280 dd b5 eb bd 66 50 bf ba ab cc 80 3e 62 97 fc bd
       -0.11509297 -0.0014596104 0.2515615 -0.123335615
000290 ac 7d 41 be 45 c8 a0 3e 6b bc 5d 3e 42 1a 85 be
       -0.18895596 0.31402794 0.21653907 -0.25996596
0002a0 38 c6 4c be 59 f1 b2 be b1 f6 53 3e b1 bd 92 3c
       -0.1999749 -0.3494976 0.20699574 0.017912718
0002b0 af ca 98 bd fe ab 04 3d 2f df fe bd c4 42 42 be
       -0.07460534 0.032390587 -0.12444913 -0.18970782
0002c0 0a 3a da 3d 4e 30 6f bd 57 e3 5f be ae 36 f9 be
       0.10655601 -0.058395676 -0.21864067 -0.4867453
0002d0 97 d9 78 be a6 4b a7 bc 93 0a a3 3d de dc 3a 3d
       -0.24301754 -0.020421814 0.07961001 0.04562079
0002e0 21 22 c5 3d 77 26 b8 bc 6c cc 88 bc cd 82 86 be
       0.0962565 -0.022479279 -0.016699038 -0.26271668
0002f0 13 31 87 3d 0b 62 69 3d b2 92 06 bd f9 77 43 be
       0.06601157 0.056978267 -0.032854743 -0.19088735
000300 d5 19 3d be 42 de 82 3e 92 7f cf bd 70 95 b4 3b
       -0.18466885 0.25560194 -0.10131754 0.0055109784
000310 b0 a1 e7 3c f1 26 7a 3e 0e ff 2f be 1d 9d ba 3b
       0.02827534 0.24428917 -0.1718714 0.005694999
000320 2c 08 69 3e 64 92 71 3d 70 c9 09 3e 22 48 53 3c
       0.22757024 0.0589775 0.13455749 0.012895616
000330 6c e3 f7 3b 04 7f 91 be 74 71 62 bd 0b e2 86 bd
       0.0075649526 -0.28417218 -0.05528398 -0.06586083
000340 09 b8 44 3e 46 81 89 bd 50 e5 6d be bc 1c 77 bd
       0.19210829 -0.0671411 -0.23232007 -0.060330138
000350 d9 b5 f1 bd 05 7b 82 3e 4d 7a cc 3d 81 1d 02 be
       -0.11802263 0.2548448 0.099842645 -0.12706567
000360 cc c5 c8 bd e6 b3 77 3e 69 3c 4d be 6c 03 3c be
       -0.09803352 0.2418972 -0.20042576 -0.1836068
000370 c5 48 7b 3e b4 0c 0d 3d 3c 14 e4 bd 09 89 ff 3e
       0.24539478 0.034435943 -0.11136672 0.49909237
000380 fd 3a 3a be 7c a7 e6 3d b4 12 49 bc 66 8e cb 3e
       -0.18186565 0.11262414 -0.012272526 0.3975708
000390 87 9f 85 bd 21 d9 1d be 20 18 ba bc 3c 32 7c bd
       -0.06524568 -0.1541486 -0.022716582 -0.061571345
0003a0 11 20 42 3e 88 e4 e7 3c e6 5e 3a 3e 6a 9a 23 3c
       0.18957545 0.028307214 0.18200263 0.009985546
0003b0 83 3f 26 be 37 fc bc 3e 6c 7d 36 3d 85 8f 21 3e
       -0.16235165 0.36911175 0.044553205 0.15777405
0003c0 0b 81 8a bb 4a f3 8c 3d 00 df f2 bd f2 86 b0 3a
       -0.004226809 0.06882341 -0.1185894 0.0013467951
0003d0 d9 ca 31 3e 4a 01 12 be cf 80 57 be d3 75 69 be
       0.17362536 -0.14258304 -0.2104523 -0.22798853
0003e0 21 08 87 3e 32 ea bf bd b5 8e 69 3e 1d 2e 90 be
       0.2637339 -0.09370841 0.22808345 -0.28160182
0003f0 71 8a 00 3e 85 34 10 3e ee eb d4 3d 45 0a 01 3e
       0.12552811 0.14082535 0.103965625 0.12601574

rnn.weight_hh_l2 f4 [72, 24]
000000 c5 6f 5d bc 26 3c f9 3c 08 fb 34 be 50 ae 2d be
       -0.013515417 0.030424189 -0.17673886 -0.16961026
000010 64 6e 15 be 2d db 49 bd 3b aa 77 bd 90 41 0a be
       -0.14592892 -0.049281288 -0.06046508 -0.13501573
000020 17 7b 71 be fb 46 2f be f0 a0 6d 3e 17 47 51 be
       -0.23582111 -0.1711692 0.23205924 -0.20437275
000030 37 b3 ff 3c 3a cf a4 bd 24 6b 26 3e 80 7b 79 3e
       0.031213386 -0.08047338 0.16251808 0.24363518
000040 9c 1f 01 be 53 a8 35 3e b4 58 8b 3e 89 bf 96 bd
       -0.12609714 0.17739992 0.27216113 -0.07360751
000050 43 88 d0 3d 95 c8 47 3e d8 90 fe bd 47 55 b7 3d
       0.1018224 0.1951011 -0.124299705 0.08951812
000060 4d 13 d9 bc cf 3e 0d be d7 a2 65 bd 58 3b 3d be
       -0.026498461 -0.13793491 -0.0560635 -0.18479669
000070 f5 b6 ea bd ba 98 8b 3d 29 63 f4 bc 0e b2 3f be
       -0.114606775 0.0681624 -0.02983244 -0.18720266
000080 5c 15 37 3e 3b 13 97 bd 83 3c be bd bd 7f 2c 3e
       0.17879242 -0.07376715 -0.092888854 0.16845603
000090 52 d7 69 be f0 ec 38 3d 71 0b 09 3e 39 09 cf bd
       -0.22836044 0.045147836 0.13383271 -0.10109181
0000a0 fa 0d 50 3e 17 70 93 bd 54 61 e2 3c 8c b1 3c be
       0.20317832 -0.07199114 0.0276343 -0.18427104
0000b0 e7 4d 29 3d 63 64 ba 3c 80 a2 13 3e 36 dd e2 bd
       0.04133406 0.022752946 0.14417458 -0.11077349
0000c0 56 75 f5 bd 92 e4 04 3e 05 f1 90 bd 10 b0 b9 3b
       -0.11985271 0.12977818 -0.07077221 0.0056667402
0000d0 c9 4a 82 bd 6c 27 97 bd 57 53 05 3e e7 45 7a bd
       -0.063619204 -0.07380566 0.13020073 -0.06110182
0000e0 13 70 02 be a5 8e 08 bd 6e fb 73 3d 7e 6e 89 bd
       -0.12738065 -0.03333916 0.059565954 -0.06710528
0000f0 13 36 45 be 7d 46 43 be dc ae 5d 3e b4 b1 15 3e
       -0.19258909 -0.19069858 0.21648735 0.1461857
000100 99 37 0b bc 57 a2 73 3e c1 c3 21 3e a9 b5 a3 3d
       -0.008497142 0.23792396 0.1579733 0.07993633
000110 a7 7e 9d 3d bf 1c 63 3e 34 cb 08 3e a8 ee c0 3d
       0.07690173 0.22178935 0.13358766 0.0942052
000120 b9 4b 21 be cd 14 1e 3e e4 40 cc bd 30 1b 28 3e
       -0.15751542 0.15437622 -0.099733144 0.16416621
000130 c1 cc 14 3e fb d3 72 3e bc 0b 2c be b8 d8 b1 bd
       0.14531232 0.23713677 -0.16801351 -0.08683914
000140 2d c9 09 3d d7 fa 4f be 67 e7 12 3e 3d d1 c4 3d
       0.03363912 -0.20310532 0.14346085 0.096102215
000150 1a a1 da bd 61 18 1f 3e 8f f0 d9 bd 37 52 2c bd
       -0.10675259 0.15536644 -0.10641586 -0.042070594
000160 9a 98 f9 bd 12 ea fc bd 74 0f 69 3c c9 ad 11 3e
       -0.121873096 -0.12349333 0.014224876 0.1422645
000170 4e f8 00 3d d9 71 63 3d bd 73 b7 bd a0 1d f0 3d
       0.0314868 0.055528495 -0.08957622 0.117244005
000180 45 d9 16 3d cf 1f 1b 3e e8 dd 63 be ca 87 18 be
       0.036828298 0.15148853 -0.2225262 -0.1489555
000190 56 b4 fd 3d 1f ba 6a 3e a4 7d fa 3d b8 c9 80 be
       0.12387912 0.22922562 0.12230995 -0.251539
0001a0 de 1d d3 bd fe 5a 99 bd 0d a4 8b bd b1 20 6a be
       -0.10308431 -0.074880585 -0.068183996 -0.22864033
0001b0 0f b1 ca 3d ff 5d bb 3b 6c 6d fb bd ac 01 e1 bd
       0.098970525 0.0057179923 -0.1227673 -0.10986647
0001c0 ae 4d 14 be 1a ac ec 3d b5 48 af 3c f3 82 14 3e
       -0.14482757 0.11556263 0.021396974 0.14503078
0001d0 b3 9f 8a 3e e9 2a c0 bc be 14 85 3e da ab 91 bd
       0.27074966 -0.023457961 0.25992388 -0.07112856
0001e0 0f 76 11 3e fb 05 1f be ff f6 84 bd 47 a0 a8 bd
       0.14205192 -0.15529625 -0.06492423 -0.082336955
0001f0 d7 9f b8 3d 35 9d 06 3e ad 17 4f bd c9 e4 0a 3e
       0.09014862 0.13145907 -0.05055969 0.13563837
000200 22 65 51 ba 49 7d 50 3d b4 72 7e 3e 0d 78 ed 3c
       -0.0007987787 0.05090073 0.24848443 0.028987909
000210 fe 2b e9 3b 53 fb dc 3d 70 ec a0 bd 28 81 ca bd
       0.00711584 0.10790124 -0.07857597 -0.09887916
000220 87 ce 29 be 70 e9 10 3e db 44 a2 bd c7 e3 44 be
       -0.1658269 0.1415155 -0.079232894 -0.19227515
000230 dc ed 70 3e 0b 93 ce bb 6f da 04 bd 6a 2d e9 3d
       0.23528236 -0.00630415 -0.032434877 0.11385615
000240 e8 6c b8 3d e6 79 c7 bb 72 a7 35 3c 44 63 7d 3d
       0.09005147 -0.0060875295 0.011087285 0.061862245
000250 90 a2 2b bc 98 32 4d 3e b4 a8 44 be 56 f0 a1 be
       -0.01047577 0.20038831 -0.1920498 -0.31628674
000260 d5 9d cf 3d 60 97 46 3e f8 7b a9 bd b1 93 03 3e
       0.10137526 0.19393682 -0.08275598 0.12849309
000270 8a f5 49 bd a6 d8 0a 3e 11 06 0e bd 95 d0 69 3e
       -0.04930643 0.13559207 -0.034673754 0.22833474
000280 1a 81 c8 3c 57 24 02 bd 89 79 9a 3e 64 00 21 3e
       0.024475623 -0.031772938 0.3017085 0.15722805
000290 f8 d0 a7 bd a0 bd 01 3e d6 7f 1b 3e 2c d7 b6 bd
       -0.081941545 0.12669992 0.15185484 -0.089277595
0002a0 b4 e1 c0 bc e5 f9 aa bd bf a4 2c 3e 1a e4 52 be
       -0.023545124 -0.08348445 0.1685972 -0.20594826
0002b0 94 ea 13 3e 8d 00 f4 3d be 45 bd bd 3a 98 31 be
       0.14444953 0.119141676 -0.09241818 -0.17343226
0002c0 f6 84 5a be 28 22 59 bd 8d 80 17 3d 5c d2 ca bd
       -0.21339783 -0.05301109 0.03698783 -0.09903404
0002d0 1a 07 f5 bd 5c 3a 15 be 40 c6 22 3e 46 55 c6 3c
       -0.11964245 -0.14573044 0.15895939 0.024210583
0002e0 9c 99 57 be eb e2 da bd 44 be fd bd 50 d2 d6 bd
       -0.21054691 -0.106878124 -0.12389806 -0.10489333
0002f0 cd 90 4f be 67 56 40 3e ca c7 5a 3e c5 9a 34 3e
       -0.20270081 0.1878296 0.21365276 0.17637165
000300 51 51 ca 3d 2c 66 91 3d ce 3a 1f be af 3d 7e bd
       0.09878791 0.07099566 -0.15549776 -0.062070545
000310 2b 01 88 3e bb 91 b0 bd dd 16 19 3e 14 d7 30 3e
       0.2656339 -0.08621546 0.14950128 0.17269546
000320 ca d0 17 3e 6e 81 9e 3d d2 23 0f bc c4 3d 56 be
       0.1482574 0.077395305 -0.008736568 -0.20921999
000330 d2 55 3b be 8a 86 4b 3d 0b 6c 19 3e 01 08 06 be
       -0.18294457 0.049688853 0.14982621 -0.13088991
000340 7d 4c 25 be 27 27 9d bd d6 ac 7d bc bc 3c 24 be
       -0.16142459 -0.07673483 -0.015483102 -0.16038793
000350 dd 81 1f 3e 08 ab 6d ba 47 2c 10 3e d6 c8 03 3e
       0.15576883 -0.0009066318 0.1407939 0.12869582
000360 4c e6 f1 3d fb 58 a4 3d 02 ec 1e be e4 ea 2f 3e
       0.11811504 0.08024784 -0.15519717 0.17179447
000370 5d e7 30 3e f5 48 b8 3c b8 1e 09 3e 02 df aa 3d
       0.17275758 0.022495726 0.13390625 0.083433166
000380 eb 0a 99 3d 94 4b 3d 3e 9a 8a 4b bd 81 c4 14 bd
       0.074727856 0.18485862 -0.049692728 -0.036320213
000390 06 fb 1d bd 9a ec d9 3d db fc 80 bd 12 d8 2a 3e
       -0.038569473 0.10640831 -0.06298228 0.16683987
0003a0 96 16 4e be a9 cc d9 3d f5 09 25 3e 41 3e f8 bd
       -0.20125803 0.10634739 0.1611708 -0.12121249
0003b0 13 e5 80 3e b6 ba e2 3d 5c d1 b9 3d bc 9b 4a bd
       0.2517477 0.110707685 0.09073135 -0.049464926
0003c0 9c e4 be 3d 2f b9 03 3e 0c b6 33 be 69 c9 ca bd
       0.093209475 0.1286361 -0.17549914 -0.09901697
0003d0 ee 0c 40 3e 5e 13 3a bd 2d 4e 73 3d 6c ee 47 be
       0.18754932 -0.045428626 0.059400726 -0.19524544
0003e0 dd 9b a8 bd 58 7e 3d 3e 3c ee ba bd 7b f3 a6 bc
       -0.082328536 0.18505228 -0.09127471 -0.020379772
0003f0 d6 39 9e 3c 3e 8e e3 bd 12 99 0a bd 13 60 d8 3c
       0.019314688 -0.11111115 -0.033837385 0.026413
