Checkpoints/w_e400_no200.pth (torch, 325678 bytes, 97 tensors)

rnn.weight_ih_l0 f4 [72, 5]
00000000: 17d3 13be 3e95 07be c284 d73d 6d00 0a3e
00000010: 86dc 1e3b dde0 1a3e 91ff db3d 8ae2 463e
00000020: 6123 213e adf7 1b3e c471 15be 7236 cb3d
00000030: 263a c53d 9b42 44bd e30e 23be c8e1 27be
00000040: cda6 103e f6f9 ee3d 2dad 333e 6d2c ed3d
00000050: b1c0 fc3d 5c93 16be 6e2c 083d 8891 0f3e
00000060: 0aad 3e3e f0e6 46bd 9330 adbd 59d5 21be
00000070: 7bb5 06be 3535 2c3e 82fc 293d 0a88 02be
00000080: 1ab7 523d 1e49 0bbe 3d8d 9bbc 5032 b43d
00000090: 80a9 e13d f4b5 513e b837 8cbd 4bee 24bd
000000a0: d391 07be 3238 63bd 3243 3abe e26e 1bbe
000000b0: 0f4c 23be c459 f3bd 8a29 b8bd 7704 6f3d
000000c0: 407c 2ebe 4dcd f43d 02db c5bd 1e0b fcbd
000000d0: f18f edbd 19d9 56bc 5697 c03d ce76 4c3c
000000e0: a946 2dbd 8a65 15be b659 23be 78ac 413e
000000f0: af41 55be 9593 cc3d 86bd f33c db68 1fbd
00000100: 9504 50be b4b1 233e a1b6 f13c b458 273e
00000110: 04a9 d2bc 8b81 0fbe fb5f 7d3d 6404 1f3d
00000120: bda6 593e d43b cdbd b77a 9e3d e0f2 2a3d
00000130: 3ef9 813d 9cd6 02bd c47e 30be 8fd6 263e
00000140: 8670 223d 9cd1 043d a4db c93d aa16 193e
00000150: f2ff d23d dea3 59be 6009 89bc 063f 963d
00000160: 70ea 753d f28c 53be 9576 b7bd 844b 433d
00000170: 6107 21be 0bf9 04be 0419 85bd 04a8 a73c
00000180: 4745 2cbe 982f c1bd 83ad 1bbe cde0 793c
00000190: 34fa 01be ba36 4cbe 87fc cb3d 665b 7c3c
000001a0: 594c df3d 2ac1 193e 4548 c7bd 36e1 13bd
000001b0: 86a7 133e dfce 823d 240f 0cbd 7867 423e
000001c0: 2431 24be 06b9 74b8 8fa9 e4bd 6226 66bb
000001d0: e400 023e f2cd 333e 3a39 99bd cb79 42be
000001e0: a356 453e 042f 58be 88fd 53bd 05da a4bd
000001f0: a2ae 41bd 47e2 8f3d 4c88 3cbd b5c3 d73d
00000200: 9097 28bc ca08 85bc bae2 353e cc75 ba3c
00000210: 42ec 18bd 4250 d6bc 7069 773d 6f51 113e
00000220: 5af0 c4bd 0183 b83d 230e 1ebe 852b 1bbc
00000230: 8f4f d4bd dd54 003e d88d 29be 6359 2abd
00000240: 9456 2e3d 0c66 263e d8ef cabd 9300 403e
00000250: 2081 c43c d283 17be 18cd 193c 777c 1ebe
00000260: 5e3e d7bd 95de 483e c0ac 68bd a71d 423e
00000270: 8e5f 403e 41f1 f9bd ec28 273e 04e1 043e
00000280: 6cb1 1bbb 82b9 173e a61b d23d 1cb5 683d
00000290: 61a2 673d 46b2 073e dfd0 263e f6fa 263e
000002a0: 444c f03d 3efa edbd 8b96 85bd 843e 85bd
000002b0: 444e 2c3e c993 09bd 7f43 6c3d e12c 34be
000002c0: 1806 163e 6985 283e b6f3 1d3e d1eb 01be
000002d0: e430 643b 2b4d afbd 9ebe bbbd c01b 3fbd
000002e0: ba25 b93d 258f 2dbe 2488 eb3d 00e0 e03d
000002f0: 5b12 41be 4d98 70bd f140 5c3c da51 d53d
00000300: b1f4 0cbe 52f0 833d bf82 143e 2309 503d
00000310: 601d ffbd 7fe5 9d3d 9716 b23d c866 bcbc
00000320: abf1 e83d 859e 3cbc a857 0cbe 017b 203d
00000330: c90c 1f3e 87e2 47be d392 153e ab8e 003e
00000340: 08b2 9c3d d9b7 cd3d 98f7 3fbe 478d b1bd
00000350: ad3e 4c3b 2847 4c3d dba6 a9bd d3f1 17be
00000360: 606c 11be be21 10be aa65 e2bd 8140 db3d
00000370: 24ab 243e 7a8d 10be 2305 cebc 70b0 06bc
00000380: 94b1 37be 664f 3b3e 64a7 41bd 92d7 b2bb
00000390: 9357 9e3d 0f00 9abd e753 9f3c b17c f8bd
000003a0: 4753 f33c 4793 48be 30cd e1bd 736e d13d
000003b0: 8292 eb3d 020b 7dbd a7dc 11be 6dfb 053e
000003c0: 7bbf 783d a1c2 ddbd 7bcc 053e ce5c a3bd
000003d0: 6776 873d 1a6a 7dbd 3ae1 eabd 9ebb 973d
000003e0: dfcd 20be 20b1 8abc 62af 6dbd 0dd2 febd
000003f0: 0148 3f3e f937 f1bd c5a7 073d 49ef 55be
-0.14435993 -0.13240525 0.105233684 0.13476725 0.002424033 0.15124841 0.10742105 0.19422355
0.15736152 0.152312 -0.1459418 0.09922494 0.096302316 -0.047915082 -0.15923648 -0.16394722
0.1412613 0.1166877 0.1754653 0.11580739 0.123414405 -0.1470465 0.033245496 0.1402036
0.18620697 -0.048560083 -0.084565304 -0.15804042 -0.13155167 0.16817172 0.041500576 -0.12747207
0.05144415 -0.1360211 -0.018988246 0.08798659 0.11018658 0.20479566 -0.06846565 -0.040266316
-0.13239221 -0.055473514 -0.18189695 -0.15179017 -0.15946983 -0.11882356 -0.08992298 0.058353867
-0.17039585 0.119532205 -0.09660913 -0.12306808 -0.1159972 -0.013113284 0.09403865 0.012479497
-0.042303715 -0.14589515 -0.15952191 0.18913448 -0.20825838 0.099890865 0.029753458 -0.038918357
-0.20314248 0.15985757 0.02950603 0.16342431 -0.025715359 -0.1401426 0.061859112 0.038822547
0.21255012 -0.10021177 0.0773825 0.04173553 0.06346367 -0.03194295 -0.17235857 0.16292785
0.039658092 0.03242646 0.09856346 0.14950052 0.10302724 -0.21253917 -0.016728103 0.073362395
0.06003803 -0.20659235 -0.089581646 0.04767944 -0.15725471 -0.12985627 -0.06498912 0.020465858
-0.16823302 -0.09432906 -0.15202908 0.015251351 -0.12693101 -0.19942752 0.09960275 0.01540265
0.10903234 0.15015092 -0.09730581 -0.03610345 0.14419374 0.06387114 -0.034194127 0.18984783
-0.1603437 -5.834645e-05 -0.11165153 -0.0035118093 0.12695652 0.1755903 -0.07481618 -0.18991773
0.1927133 -0.21111685 -0.051755458 -0.080493964 -0.047285683 0.07025581 -0.04602842 0.10535375
-0.010290042 -0.016239543 0.1776227 0.022761248 -0.037334688 -0.026161317 0.060403287 0.1419122
-0.09616156 0.09009362 -0.1543508 -0.009470825 -0.10366737 0.12532373 -0.16558015 -0.041589152
0.042563036 0.16249865 -0.09909028 0.18750219 0.023987353 -0.14796379 0.009387277 -0.15477167
-0.105099425 0.19616158 -0.056805372 0.18956624 0.18786451 -0.12204219 0.16324204 0.12976462
-0.0023756875 0.1481686 0.1025918 0.056813344 0.05655134 0.132516 0.16290615 0.16306672
0.117332965 -0.116199955 -0.065228544 -0.065060645 0.16826731 -0.033588205 0.057681557 -0.17595245
0.14650762 0.16457142 0.15425 -0.12687613 0.003481918 -0.085596405 -0.09167217 -0.046657324
0.09040399 -0.16949137 0.11500576 0.109802246 -0.18854658 -0.058738995 0.013443218 0.104160026
-0.13765217 0.06442322 0.14503 0.050789963 -0.12456775 0.077097885 0.08695715 -0.022998229
0.113742195 -0.011512403 -0.13705313 0.039179806 0.15532221 -0.19520007 0.1460679 0.12554424
0.07651144 0.10044832 -0.18746793 -0.08669525 0.0031165287 0.049872547 -0.08283778 -0.14838342
-0.14201498 -0.14075372 -0.11054547 0.107056625 0.1608091 -0.14116469 -0.025148934 -0.008220777
-0.17938834 0.18292007 -0.047278777 -0.005457827 0.07731547 -0.075195424 0.019449187 -0.12133158
0.029702796 -0.19587432 -0.110254645 0.10226145 0.115025535 -0.061778076 -0.14244328 0.13084193
0.060729485 -0.10828138 0.13066284 -0.079766855 0.0661438 -0.061868764 -0.1146874 0.07408832
-0.15703534 -0.016930163 -0.058028586 -0.12442408 0.18679811 -0.11778254 0.033118982 -0.20892061

rnn.weight_hh_l0 f4 [72, 24]
00000000: a18a 0d3e 9f34 b3bc 0c67 5cbd 2b44 373b
00000010: 103c 1f3d 1384 4c3d f78d 163e 6642 113e
00000020: 2ae5 213d 0e4a bf3d eeb4 4fbe 5612 e93d
00000030: c98a fe3d e29a 0dbd 45a1 31be db0d 35be
00000040: 85aa 88bd d28c 2fbe d75b 3cbe 31af 033d
00000050: 4af4 82bd 3c38 18be 385e b33d 3cc8 fdbd
00000060: 80b9 c63c 0e3b 9f3d deb0 903d ceea bfbd
00000070: 2d5b a5bd 706e 18be 60ee 223e 2714 2a3e
00000080: e656 8c3a 5ee7 183d af54 93bd d869 443e
00000090: 833c 54be 6dba 103e 689f 943d 3a58 2e3e
000000a0: 3d8a 2abe 66f2 9fbd 8688 343e 718d c13c
000000b0: ac1c 853d 03a4 5c3d 0577 4dbe 96f2 58bd
000000c0: 79b5 1e3e 9068 d5bd 6767 9c3d caa6 4d3e
000000d0: 5e63 8ebd d425 9b3d 437f b33d 3aa4 75bc
000000e0: 9dea 17be 7579 073d d422 b8bd f0be 163e
000000f0: bf62 c13d 8cb4 06be 0ced 53be f071 01bd
00000100: 5563 3fbe 75f3 d03d a4e5 fd3d 4869 9cbd
00000110: 3bee 75bd bf6d 0cbe 1a9d ec3d b89b d63d
00000120: c278 08be 7c08 69bd a14f 34be df62 453e
00000130: 3530 e8bd 2068 a7bd 038a ca3d 16ee 96bd
00000140: 732c 07be 063a 39bd c2a2 303e b903 853d
00000150: 4779 043e 9be4 a6bd 54c6 ef3d 9f37 793d
00000160: ec7f bbbd ffe5 58bd 3101 17be 40ca 833d
00000170: 913f 9cbd 0add e93d b46a d6bd 78b6 4abe
00000180: 0512 c03d 2901 dd3c 6489 a0bc 039f 1e3e
00000190: 1a89 09bc 6fe7 223c 70c2 0a3d 0cc3 4abd
000001a0: 3773 6ebd aae2 9e3d 358a 2cbe ffb1 0f3e
000001b0: 4c54 0ebc 0f56 ac3d d3df a63c 3e35 2c3d
000001c0: 1127 373e 80b6 36be b87c 4d3e 3e48 97bd
000001d0: b1e7 553e 6b82 7f3d f6a2 9a3c 9333 a73d
000001e0: 131d d4bd 05fa e63b 61e0 26be 8db3 39be
000001f0: 2a48 1bbe 2efd 5a39 929d 453e 896c 393d
00000200: d496 433e 711c 44bd a813 773d 2e6f fcbd
00000210: e047 b13d 14e2 25be 8606 ffbb 2e6e ca3d
00000220: 7d83 ec3d 6d32 2a3e 1288 8bbd 2032 38be
00000230: 111c 43be e8d6 ce3d 8b17 0ebe 6777 e8bd
00000240: ad0c 2f3e 5f61 083e cad3 2fbe 0fff cc3d
00000250: 83c5 b13d 355c aabd 75a5 303e e4f5 37be
00000260: c4b8 2c3e 8226 84bc dab8 42be fa63 c83d
00000270: c61d 7d3d 9c28 273e 058d 06be 3793 3c3e
00000280: 2af4 ca3d 3512 183e 7f61 0cbd 19db 35be
00000290: a7b0 093e 13ea 323e 8684 c33d af8c 163e
000002a0: a938 bd3d 4ad2 f7bc c597 fe3d bb20 3bbe
000002b0: 25a2 cdbd bd3c f13d f435 74bd 72e0 3fbd
000002c0: 1f38 19be 0fb2 bc3d 5964 22be 1e2a b43d
000002d0: 91c6 ee3d dee8 433e 571e 1fbe e64b 323e
000002e0: 47f4 eebd 425d eebd 71cd 1c3c 2ec1 0e3e
000002f0: 0d25 103d e87c e93d a2ce 213e 1745 1ebe
00000300: 2ab4 fd3d b494 0c3e 75e9 aa3d bd15 db3d
00000310: b032 8abd f15b c03c ad6f 8e3c 21e1 303e
00000320: 057e 53bc 764a 413d a2e3 4abd 44a2 3f3e
00000330: 0e22 4b3e 224b 34be 152f 963d ec03 00be
00000340: bfae b93d b53c 32be 26b1 34be 5941 063e
00000350: a020 ef3d 9f6a 3ebe f244 e43b e4a6 e93d
00000360: 3626 393d 40c3 143e 82e8 21bd d700 593d
00000370: 08ba 513c 0c04 2b3b 859a 1ebe ec9c 4a3e
00000380: 2e3f 34be dd56 45be d009 c039 19fe 66bd
00000390: da17 c1bd 940b 59bd b134 90bc 77e5 09bd
000003a0: 7d98 14be 1137 07bd ea10 8bbd b2c6 e2bd
000003b0: 3fec 1d3e 9c92 e7bd 6c58 50be e6f6 a83d
000003c0: 8ee7 49be 4dd7 513d 9db1 d5bd e40e 57bb
000003d0: 72bd d5bd f19e 733d b339 d3bc 07e2 033e
000003e0: a416 29be 27c4 d03d 3921 3f3e 1c21 383e
000003f0: 5cb3 0e3b 77ca 433e 9475 58be e32c 1cbd
0.13822414 -0.021875678 -0.05380921 0.0027964215 0.03887564 0.049930643 0.14702593 0.14185485
0.03952519 0.09340297 -0.20283863 0.113804504 0.12428815 -0.034571536 -0.17346676 -0.17681067
-0.06673149 -0.17143562 -0.18394409 0.032149497 -0.06394251 -0.14865202 0.08758205 -0.12391707
0.024258375 0.07774936 0.07064985 -0.09370957 -0.08074031 -0.14885879 0.15911245 0.1660925
0.001070705 0.037330024 -0.071938865 0.19181001 -0.20726208 0.14133616 0.07256967 0.17025843
-0.16654296 -0.07809906 0.17630205 0.023627015 0.06499609 0.05386735 -0.20064934 -0.052965723
0.15498914 -0.10420334 0.0763691 0.20083156 -0.069525465 0.075755745 0.087645076 -0.014992768
-0.14835592 0.033074815 -0.08991018 0.14721274 0.094426624 -0.1315481 -0.20695895 -0.0316028
-0.18690236 0.10202686 0.12397316 -0.07637268 -0.060041647 -0.1371374 0.11553402 0.1047892
-0.13327315 -0.056892857 -0.17608501 0.19275998 -0.1133732 -0.08174157 0.09889605 -0.0736963
-0.1320055 -0.04522135 0.17249587 0.06494851 0.12936889 -0.08149072 0.1170775 0.06084406
-0.091552585 -0.052953716 -0.14746548 0.064350605 -0.07629312 0.11419113 -0.10469571 -0.19796169
0.09378437 0.026978092 -0.019596763 0.15490346 -0.008394504 0.009942873 0.033876836 -0.049502417
-0.058215346 0.077580765 -0.16849597 0.14032744 -0.00868709 0.08414852 0.0203704 0.042042963
0.17885996 -0.17843056 0.20067108 -0.07386826 0.20889165 0.062380236 0.018876534 0.08164134
-0.10357108 0.0070488476 -0.16296531 -0.181349 -0.15164247 0.00020884417 0.1929839 0.045269523
0.19100505 -0.047878686 0.06032148 -0.12325893 0.08656287 -0.16199523 -0.00778276 0.09884296
0.11548517 0.16620798 -0.06813063 -0.17987871 -0.19053675 0.10099584 -0.13876168 -0.11350899
0.17094679 0.13318394 -0.17170635 0.10009586 0.086802505 -0.08318368 0.17250617 -0.17964894
0.16867357 -0.016131643 -0.19015828 0.09784694 0.061795972 0.16324085 -0.13139732 0.18415533
0.09909852 0.14850695 -0.034272667 -0.1775936 0.13446294 0.17472105 0.09546761 0.14702104
0.09239323 -0.03025164 0.124312915 -0.18274204 -0.10040692 0.11779163 -0.059621766 -0.046844907
-0.14962815 0.092136495 -0.15858592 0.08797096 0.11658967 0.191318 -0.15538917 0.17411765
-0.11667686 -0.11638881 0.009570465 0.1394088 0.035191584 0.11400777 0.1580148 -0.15456043
0.12387879 0.137286 0.0834531 0.106975056 -0.06747949 0.023481341 0.017387236 0.1727338
-0.012908463 0.047190152 -0.049533494 0.18714243 0.1983721 -0.17606786 0.07333199 -0.12501496
0.09066533 -0.1740597 -0.17645702 0.13110866 0.116761446 -0.1859536 0.0069662267 0.11408785
0.045202456 0.14527607 -0.039528377 0.052979317 0.012800701 0.0026094941 -0.15488632 0.19786423
-0.17602226 -0.19271417 0.00036628405 -0.05639467 -0.094283774 -0.052989557 -0.01760325 -0.0336661
-0.14511295 -0.0330115 -0.067903355 -0.110730544 0.15422152 -0.113072604 -0.2034623 0.08250217
-0.19717237 0.051230717 -0.10434268 -0.0032815272 -0.104365245 0.05947775 -0.02578435 0.12879191
-0.16512543 0.10193663 0.18665017 0.1798138 0.0021774387 0.19120203 -0.21138602 -0.038128745

rnn.bias_ih_l0 f4 [72]
00000000: 42d1 c83d 0b9e b53c 52fe ad3b 32eb 1b3e
00000010: 583d 833d 56db 05be 8cb9 3cbd 7ca4 2c3e
00000020: 7014 8abd b2c4 d73c 9472 dabc a8b1 a7bc
00000030: 259a 8cbd fbf4 10bb 340a 323e 6833 3abd
00000040: 4e2c 01be e1fb c8bb dff5 dd3d 30ea b93d
00000050: 7085 d63d 8b44 1f3e 0af0 123e 2f62 4d3e
00000060: a7be 223e 320a 84bd f960 9d3d 7759 4fbe
00000070: f8db 333e 913c 3cbe 178b 1dbe 346d 3bbe
00000080: 53a9 d7bd f7dc 323e 2b58 293e e763 893d
00000090: 8f0b 31bd be2d ba3d e5c6 45bd 4654 3bbe
000000a0: 8cdc 1f3e 7e6a ddbd ca67 f53d 7d71 06be
000000b0: 0856 ffbd 06a3 6d3d 51e4 3b3d e4c4 23be
000000c0: 7511 db3d a0c7 1dbe 9295 f73d 60bd 203d
000000d0: fff2 f8bc 5e55 debd f8ed 733d 5a64 c23d
000000e0: b330 303d 4410 003d 3fdf 11be b6b7 a13d
000000f0: 00f5 86bd 1523 8f3d d616 d63d 2571 c4bd
00000100: 4c0d 2abc ea48 e33d 4121 f23d e194 313e
00000110: 630e da3d eddd 173e f697 f9bc cde2 a33d
0.09805538 0.022170087 0.0053098584 0.15226439 0.06408185 -0.13071951 -0.04607539 0.16859621
-0.067421794 0.026338909 -0.026665963 -0.020470455 -0.06865338 -0.0022118676 0.17386705 -0.04545918
-0.12614557 -0.006133542 0.10837912 0.09077871 0.1047467 0.15553491 0.1434938 0.20056985
0.1589304 -0.06447257 0.07684512 -0.20248972 0.1756438 -0.18382479 -0.1538509 -0.18303376
-0.10530343 0.17467104 0.1653754 0.06708508 -0.043223914 0.09090756 -0.048285384 -0.18293867
0.15611476 -0.108113274 0.11982687 -0.1312923 -0.12467581 0.0580168 0.045872036 -0.15993077
0.10696689 -0.15408182 0.12089075 0.039243102 -0.030389307 -0.10856126 0.059553117 0.09491797
0.043015193 0.031265512 -0.14245318 0.07896368 -0.06589699 0.06989113 0.10453574 -0.09591893
-0.010379147 0.11097892 0.11822749 0.17341949 0.10647275 0.14830752 -0.030467968 0.08002243

rnn.bias_hh_l0 f4 [72]
00000000: e0f9 e3bc 0ca6 0b3e 3782 b73c da2f 963d
00000010: ae2c 01be f995 983d 0fc6 fdbd 4499 383e
00000020: 08fd e73d 1db5 1c3e d7e4 273e 2209 3abe
00000030: 7977 65bc 1f41 bdbc ec92 533e cf06 833d
00000040: c109 febd 1fd6 0dbe 7b0b a2bc 1897 42be
00000050: c403 6cbd 8d25 3e3e e8e5 adbd 994f 0e3e
00000060: 9a64 a7bd 0f08 583d 1a61 12be 32a2 133c
00000070: 93c0 8a3d 9dc9 ca3d 2390 6bbd c467 1d3e
00000080: d120 203c 6b42 bebd 41d7 373e 9834 4f3d
00000090: bf31 6c3a 37bc 41be 9acc 813b 8a0b b93d
000000a0: 466a d4bc 1d88 aabc edbd 84bc 3705 523a
000000b0: c34e 6d3d 4c97 393d 0657 aabc 861e 99bc
000000c0: d206 88bd ed93 b0bd 4ee3 71bd 97f0 133e
000000d0: 0248 23be e72f c2bd dba9 19be 5b22 2abc
000000e0: e658 403e 4ad6 c6bc 3397 ef3d 722b 453e
000000f0: 8dd8 3ebd 7067 2d3e 7dec 3ebd da28 013c
00000100: 1174 c23d 31d5 20be f6c4 e13d 356f 18be
00000110: 212d e03c 4a84 4cbe 95d7 d4bd 5fb6 973c
-0.02782911 0.1363756 0.022400958 0.07333346 -0.126147 0.0745048 -0.12391292 0.18027216
0.11327559 0.15303464 0.16395889 -0.18167546 -0.014005535 -0.023102341 0.20661515 0.06397783
-0.12404204 -0.13851212 -0.019780865 -0.1900295 -0.05762078 0.18569012 -0.08491117 0.13897552
-0.08173485 0.05274206 -0.14294854 0.009010838 0.06775012 0.09901736 -0.057510506 0.15371615
0.009773449 -0.09290012 0.17953207 0.050587267 0.00090100983 -0.18919455 0.003961158 0.09035404
-0.025929581 -0.020816857 -0.016203845 0.00080116413 0.05793644 0.045310304 -0.02079345 -0.018691313
-0.06641926 -0.086219646 -0.059054665 0.14447246 -0.15945438 -0.09481793 -0.15006201 -0.010384168
0.18783912 -0.024272103 0.11698761 0.19254854 -0.046593238 0.1693399 -0.04661225 0.007883275
0.09494794 -0.15706326 0.110238954 -0.14886172 0.02736527 -0.1997234 -0.103926815 0.018519579

rnn.weight_ih_l1 f4 [72, 24]
00000000: 13da 4c3e 1054 0f3d cd0c aebd d514 55be
00000010: 1182 06be 16f4 c03d 7cbd 3ebd adcd d73d
00000020: 7d2e f63c 83af 5e3d 413a 3dbe 7d0d 9abd
00000030: db91 23be 6d08 c53d c52e 383d ca3e e63d
00000040: e29d 053e e60c 513e 02e9 32be 9659 14be
00000050: facf 46bb 1396 4c3e 0b14 613d bfb7 3cbe
00000060: fecf 733d 0ead 57be 9200 b2bc 1acf 9abd
00000070: e133 a73d 0fa7 1ebd 7a61 5dbc e76e a1bd
00000080: a614 aabd 713e 86bb c38d 093e bf07 60bd
00000090: f546 aa3d 913d 2c3d 8135 853d 9528 1cbb
000000a0: 5d16 0bbd de0e 25be 8913 163e 7de6 90bd
000000b0: 4c5d bf3b 3eb6 02bd 7712 f93d a675 043e
000000c0: c219 533e ff01 d93d f009 02bd 5131 273e
000000d0: ee4a 20be cdc8 dabd 0618 2abe 928b f4bd
000000e0: 596e 4dbc ba0e efbd 054e e8bd f20b 573e
000000f0: 823d 28be 7a3a 25be 4978 2dbe 4bce 19be
00000100: 1a24 f63c 55e3 413d 6c7b cfbd 9102 8e3c
00000110: c97d 3c3d cd94 11be 422c f83d 6433 31be
00000120: e246 24be 7021 c1bd 0826 173e ff53 2b3e
00000130: 992e 343e 6135 1ebe 4d6c e8bc 3490 67bd
00000140: b785 2fbe 8356 14be 3356 b9bd a352 04be
00000150: b77b 433e 316e 2dbe 5575 fa3d f6f3 19bd
00000160: ad6e eb3d 4855 eb3c b1ae ee3d 2b50 0a3c
00000170: 2f53 e23d af4f d63d d141 8cbc 2d83 963c
00000180: c8de 2e3d 2665 773d 8bd6 7e3d 155c 373e
00000190: b5fa 633d 280a 07be 5d50 503d 6873 ef3c
000001a0: 9c7a 93bd d26f efbd b75a b9bc f929 89bc
000001b0: c8c9 cb3d 9079 153e 3549 0cbd 3c91 383e
000001c0: 8206 38be a24b e1bd 3c7e 7d3c 85da dd3c
000001d0: 17a9 91bd b8dc 0bbe d327 0cbe 51ba 11be
000001e0: 44a3 46be 0682 153d 5da0 ec3d 72f8 633d
000001f0: 27ee 133d 076a 8a3b 3f6c afbd fce3 febc
00000200: 0f97 f53c ed2b 283e 2d6b 9a3d 07dd 363c
00000210: d9c9 253e c1b7 3f3d 2428 8d3c 63a4 e7bd
00000220: 2262 d5bb 1a4f 0ebb 5cdc 0abe 98e2 383e
00000230: 4ead db3d 241f f4bd 95d7 283e 7108 f53b
00000240: f390 63bd de5a babd a3f1 313e 17a6 29be
00000250: 9217 2f3e eba4 ce3d d273 613b 20db a0bb
00000260: 2bcc 2fbd 3e26 3d3d 1ae4 16be a763 22be
00000270: 0845 373d 9835 b23c 11ae 063e ab48 883d
00000280: 44f0 88bd 5d3f be3d 999b 02be eb3e 243e
00000290: 6d67 edbd cc3b 7b3d 460a e63d 3b63 c83d
000002a0: f270 99bc d44d 83bd 88ee af3d 6b58 ea3c
000002b0: 9568 00be 981b 12bc b4e2 bfbc fbed 323e
000002c0: 3844 3cbd ba98 07be 2817 e63d 77ea 35bc
000002d0: 64ba 62bd 920e 81bd 3e55 08be 7e22 55be
000002e0: 1ab9 553e e538 5fbd ab89 483e cf23 383d
000002f0: 27fd 30be f4b8 433e 59dd 153e 3bf3 2a3e
00000300: e7c5 d73d 15cc fdbd 5fb5 413d 50a9 13be
00000310: 23e1 18be 2fb9 4fbe a05c 043d e10d 07be
00000320: 8148 1ebe a57c 033e 8e0f 08be b5b8 b43d
00000330: 785b 183e 56a3 99bd 67b9 c1bd d918 213e
00000340: b1c0 a8bd 7a46 ca3d b083 39bc 0cd2 a6bd
00000350: 2cf2 17be 0a45 023e cd08 51be 8778 353e
00000360: 5a0d 24bc d284 223e edaf 723b 2d1c bdbd
00000370: fd34 b33d 33e6 95bd d0d4 233b 4931 383e
00000380: db71 9a3c 87e0 513c b7b7 0f3e 48a0 bfbd
00000390: 6b18 e4b9 65e4 09bd 110c 253e 2eea 203e
000003a0: 900c 39be 32d8 aebc e925 fdbd 0296 53bd
000003b0: 5b72 07be c78b 2dbe de86 093e 48bd fbbd
000003c0: b670 babd 3314 3fbe e352 13be 7653 2cbe
000003d0: ebbb 49be 1e24 c23d c5cb 27be 5464 083e
000003e0: ded2 c2bd feee e23d a910 fd3d a5d2 71bd
000003f0: 3d9b 80bd a49f 2abe 6586 3b3e a7c5 75bd
0.20005064 0.034992278 -0.08498535 -0.20808728 -0.13135554 0.09421556 -0.046567425 0.105372764
0.030051464 0.0543666 -0.18479253 -0.07522104 -0.15973608 0.09620748 0.044966478 0.11242445
0.13048509 0.20415077 -0.17471698 -0.144873 -0.0030336366 0.19979124 0.054950755 -0.18429469
0.05952453 -0.21062109 -0.021728788 -0.07559033 0.08164192 -0.03873354 -0.01351201 -0.07882481
-0.083047196 -0.004096799 0.13432984 -0.054694887 0.08314315 0.0420509 0.06504346 -0.00238279
-0.033956874 -0.16118953 0.1465589 -0.07075212 0.0058399793 -0.03191208 0.12161725 0.12935504
0.20615295 0.10596084 -0.03174776 0.16327406 -0.15653583 -0.10682831 -0.16610727 -0.119406834
-0.012538516 -0.11672731 -0.11343006 0.2100065 -0.16429713 -0.16135588 -0.16940416 -0.15020101
0.030046511 0.04733594 -0.10130963 0.017335208 0.046018396 -0.14216919 0.121178165 -0.1730476
-0.16042665 -0.09430206 0.14760602 0.1673126 0.175959 -0.1545005 -0.028371954 -0.056534007
-0.17140852 -0.14486127 -0.09049644 -0.12922148 0.19090162 -0.16936566 0.122294106 -0.037586175
0.11495719 0.028727189 0.116544135 0.008441965 0.11051022 0.10464417 -0.017121227 0.018373096
0.04269293 0.060399197 0.062216323 0.1790622 0.055659015 -0.13187468 0.05085789 0.029229835
-0.0720112 -0.1169125 -0.022626264 -0.016743647 0.09950596 0.14597154 -0.034249503 0.18024153
-0.17971233 -0.11000754 0.015471991 0.027081737 -0.071123295 -0.13658416 -0.13687067 -0.1423123
-0.19398218 0.036500953 0.11554024 0.055656858 0.03611579 0.004224065 -0.08565568 -0.03111457
0.029979257 0.16423006 0.075399734 0.011161095 0.1619028 0.0468061 0.017231055 -0.11310651
-0.0065119425 -0.0021714629 -0.13560623 0.18055189 0.107264146 -0.11920002 0.16488488 0.007477813
-0.055558156 -0.09099363 0.17377333 -0.16567264 0.17098835 0.10090049 0.003440131 -0.0049089342
-0.04291932 0.04617905 -0.14735451 -0.15858327 0.044743568 0.021754071 0.13152339 0.06654485
-0.06686452 0.09289429 -0.12754668 0.16039626 -0.115919925 0.061336324 0.11232428 0.09784552
-0.018730614 -0.06411329 0.08590418 0.028606614 -0.12539895 -0.008917712 -0.02342353 0.17473595
-0.045963496 -0.13241854 0.112348855 -0.011103264 -0.055353537 -0.06301607 -0.13313767 -0.20813939
0.20871392 -0.05449762 0.19583766 0.044956025 -0.1728407 0.19113523 0.14635219 0.16694348
0.10535794 -0.12392441 0.04729211 -0.14420056 -0.14929633 -0.20285486 0.032314897 -0.13188888
-0.15457346 0.12840517 -0.13287184 0.088242926 0.14878643 -0.07501857 -0.09459191 0.15732135
-0.08239878 0.098767236 -0.011322901 -0.08145532 -0.14838475 0.12721649 -0.20413513 0.17721759
-0.010012949 0.1587098 0.003703113 -0.0923389 0.08750341 -0.07319298 0.0024998672 0.17987551
0.018853119 0.012809879 0.14034925 -0.09356743 -0.00043505742 -0.03366508 0.16117884 0.15714332
-0.18071198 -0.021343324 -0.123607464 -0.05165673 -0.13227217 -0.16947852 0.13430354 -0.12291962
-0.09103529 -0.18660049 -0.14387088 -0.16828713 -0.19700591 0.09479545 -0.16386326 0.13319522
-0.09512876 0.110807404 0.12356693 -0.059038777 -0.06279609 -0.1666246 0.18312986 -0.06000295

rnn.weight_hh_l1 f4 [72, 24]
00000000: 78c4 9ebd e4d5 523d d801 eb3d 0dbe 6e3d
00000010: d5be aa3d 31fb 37be 7fa8 ba3d 61f0 aa3d
00000020: 5b98 523e 75cf 203e 05e8 1fbe 2f13 263e
00000030: 2870 ad3d f995 b03d a2f5 39be 6868 b93d
00000040: 3db0 1cbc 75cc 713c 77e1 193e dc0a a33d
00000050: 2f9c b1bd 54f2 12bc 5c07 38be 889c 303e
00000060: 68ca 3d3c 9ec1 313d 763c 793d d94f 133e
00000070: 79bd bdbd 190a c93d 8bb3 8ebd 5ccc 03be
00000080: dd71 d9bd 59bf f9bc 3a65 d7bd 71b3 2c3e
00000090: e76e d2bd bf3a 1d3e aa1e 143d 1119 50bd
000000a0: 3fd7 183e d804 93bc 373c debd 13da 2dbe
000000b0: 139b 453e f1a4 0ebe c0bd 0c3e 5515 e33d
000000c0: de60 3abe 1217 3bbe 81ac 2dbe f19a b3bb
000000d0: 7424 2cbd 9ef7 ef3d 556a 1f3c ac72 c13d
000000e0: b995 a6bd 27ec 423e 8149 31be 8233 17bd
000000f0: 49a1 023d 39f0 28bd 53a7 a63d 211f 49bc
00000100: a53a 193e 8de0 89bd 7879 553c c788 3d3d
00000110: 62ce 893c 2cc8 8b3d 6b30 8b3c a0c3 3bbd
00000120: c94c 9c3d 77f0 9e3d 0cfd efbd 57af e93d
00000130: 2060 2c3e 83ff d8bd ad77 fe3d 1c2c 363e
00000140: 68ff 3ebd 9b63 32bc b120 1a3d a81d 4d3e
00000150: b0ae 093e aa68 61bc 460d a03d 89d5 553d
00000160: 7535 233e d51e bd3c 2abe bb3b 6154 cfbd
00000170: 3a9f 58bd 64a1 c7bd f76c 1b3e 0077 90bd
00000180: b91a eb3c 803c d6bd cc6e 433d 72a7 f43d
00000190: 8aba 2ebd 125a 1e3d ded6 1d3d 59c7 17bd
000001a0: 927a a5bc bab0 4fbc cc65 0fbe b2e2 9b3d
000001b0: f682 4b3e 0755 0bbe 05ea 2f3c 31a7 b9bd
000001c0: 0089 3abe 6886 ba3d d495 1fbe ded0 07be
000001d0: e8b5 94bd c338 473e af39 83bd 72d5 0b3e
000001e0: 6e97 f53d 991f 073e 2cad a8bb 56c7 d3bc
000001f0: b6f5 26bd f6c0 f5bb f607 593d 75b0 30be
00000200: 948d 24be 3a11 2d3e ebd0 943d ef51 17be
00000210: 0fa9 29be b7ff a9bd 3798 8d3d 98cd 54be
00000220: dd28 3dbe f117 1fbe c4ac 953c 08fe a9bc
00000230: 0143 393e 52e6 ddbd 33a1 4cbe 008a 3b3e
00000240: 05e3 8dbc 8876 143e cee3 963d 54be 31be
00000250: 583d 50be 22ab e9bd 3a0d 103e 0b2b fabd
00000260: 1212 dc3b 7ab8 413e d71b 813d 5c05 2a3d
00000270: ff3a 51bd c417 253e f538 943d b1ef c83d
00000280: ed34 403d 07bc 32be c658 b03d ef49 b83c
00000290: 3e42 3cbd 3c04 1f3e df03 083d 8d08 cf3d
000002a0: f90f b3bd aa78 0c3e 8dda 32be a692 e9bd
000002b0: bb4e 913d 9705 04be b4f0 fbbc 15a7 2dbe
000002c0: 7c3c 05be 40c9 3c3e e3d1 4b3e 931d 36be
000002d0: d09c 4bbc 2234 4e3e 9353 37be 34a2 8cbb
000002e0: 078d 25be b770 253c a11c 2abe c1b2 6bba
000002f0: c645 cc3d 7bdf fd3d 1c97 c3bd 3010 43be
00000300: afb3 8abd ddc0 23bc e012 15be 77a8 303d
00000310: d4b7 2e3e d58a 3ebd 4ba9 1f3e 67c1 0fbe
00000320: a731 bf3d 7cfe 163e 7140 24be 25c2 323e
00000330: f402 42be 907d 6ebc d252 253e 0527 b9bd
00000340: ace6 2abd b584 1d3e 7f08 7c3d 0b18 1cbd
00000350: 2216 313e 0d84 92bc a03e c33d d965 293d
00000360: 2371 143e e905 873d 229a c13d bdca 383d
00000370: 3843 c03d 8f86 4d3e 44b6 6f3d 7425 2f3e
00000380: f0eb 3dbe 9663 3dbe 99ee e23d af8c 21be
00000390: a8de 133d 4df3 23be 0578 103e d0f1 463e
000003a0: af4c 523e b92a b03d 225d 043d 3d1e aebd
000003b0: 06bb cd3d fc45 e1bd d26b 183e c482 34bd
000003c0: 8886 cfbd 9021 84bd 9c17 19be 3600 18bd
000003d0: 2e54 05bd 1da7 bfbd ac82 4e3e bddf 133e
000003e0: f4f0 c43d 6a04 df3d 20f5 f3bd 39d8 103e
000003f0: 20e9 93bb 4211 cebd 2ef2 bb3d 99ff c6bd
-0.07752317 0.051473513 0.11474961 0.058286715 0.083371796 -0.17966916 0.09114169 0.0834663
0.20565931 0.15704139 -0.15615852 0.16218255 0.08468658 0.08622355 -0.18160108 0.09053117
-0.009563503 0.014758219 0.15027414 0.07961056 -0.08672368 -0.008968908 -0.17971557 0.17247212
0.011583902 0.04339754 0.060848676 0.14385928 -0.09264655 0.09816379 -0.06967839 -0.12870926
-0.10617421 -0.03048675 -0.10517354 0.16865326 -0.10275059 0.15354441 0.036162056 -0.050805155
0.1492586 -0.017946646 -0.10851329 -0.1697772 0.19297437 -0.13930108 0.13744259 0.11088053
-0.18201014 -0.1827052 -0.16960336 -0.005481117 -0.042026952 0.11717151 0.009729941 0.094457
-0.08134026 0.19035397 -0.17313196 -0.036914356 0.031892095 -0.04124472 0.08137383 -0.012275488
0.14963777 -0.06732283 0.013029449 0.04627302 0.016822044 0.06825289 0.01699086 -0.04584086
0.07631833 0.07760709 -0.11718187 0.114103965 0.16833544 -0.1059561 0.1242517 0.17790264
-0.046630293 -0.010888006 0.037628833 0.20030844 0.13445544 -0.013757864 0.07815032 0.052205596
0.15938361 0.02308599 0.0057294564 -0.10123516 -0.052886225 -0.0974758 0.15178286 -0.070539474
0.028699266 -0.10460758 0.047713086 0.11946 -0.042658366 0.038660116 0.03853499 -0.037055347
-0.020200048 -0.012676412 -0.14003676 0.07611598 0.19874176 -0.13606654 0.010736947 -0.09065092
-0.18216324 0.09107667 -0.15584499 -0.1326327 -0.07261258 0.19455247 -0.06407487 0.13655642
0.119917735 0.13195647 -0.005147597 -0.025851887 -0.040761672 -0.0074998094 0.052986108 -0.17254813
-0.16069633 0.16901103 0.072664104 -0.14777349 -0.16568397 -0.08300727 0.06913798 -0.20781553
-0.1847262 -0.15536477 0.018270858 -0.020751014 0.18091966 -0.10834946 -0.19983368 0.18314362
-0.017320165 0.14498341 0.07367669 -0.1735776 -0.20335901 -0.11409594 0.14067546 -0.12215241
0.0067160213 0.18918028 0.06304138 0.041509017 -0.051081654 0.16122347 0.07237426 0.098113425
0.046925474 -0.17454539 0.08610682 0.022496192 -0.04596161 0.15528959 0.033206817 0.10109053
-0.08743281 0.13717905 -0.17466183 -0.11404924 0.07095095 -0.12892757 -0.030754425 -0.16958268
-0.13011354 0.18436146 0.19904284 -0.17784719 -0.012427524 0.20137075 -0.17902975 -0.004291797
-0.16167079 0.010097674 -0.16612484 -0.0008991175 0.09974246 0.12396141 -0.09550306 -0.19049144
-0.06772553 -0.009994713 -0.14557981 0.04312941 0.17062312 -0.04651912 0.15591924 -0.14038621
0.09335642 0.14745516 -0.16040207 0.17456873 -0.18946439 -0.014556304 0.16144875 -0.090406455
-0.041723892 0.15382655 0.06153154 -0.038108867 0.17293599 -0.017885232 0.09533429 0.041356895
0.14496283 0.06592924 0.094532266 0.04511522 0.09387821 0.20070861 0.05852343 0.17104131
-0.18547034 -0.1849502 0.11080665 -0.15776323 0.036101013 -0.1601078 0.14108284 0.19428182
0.20537065 0.08601899 0.03231538 -0.08501861 0.100454375 -0.109996766 0.1488488 -0.04407002
-0.10133082 -0.06451714 -0.14950413 -0.037109576 -0.032550983 -0.09358046 0.20167035 0.14440818
0.09616271 0.10889514 -0.11911988 0.14144982 -0.0045138747 -0.100618854 0.091770515 -0.0971672

rnn.bias_ih_l1 f4 [72]
00000000: 6b3a 8bbd c0ae 2e3e 0e8a 923c b7ff e4bd
00000010: 2fce 933d b87e 423e 88f6 40be 64c9 033e
00000020: c8f1 743d ae3a 2f3e bcbb 0c3d 4673 263e
00000030: 7f48 383e 0ce5 1b3e 9b39 f53d f5d6 0abe
00000040: 0f7d 933d 6747 31be a5b3 abbd dc96 31be
00000050: b985 3dbd 713f 1cbd d660 0f3e 4d70 32be
00000060: 8a13 27be bf9a 0fbe c015 fcbc 1139 3f3d
00000070: 8220 a4bd 3367 12be 8c2c 103c 8065 0bbe
00000080: d1b9 e73c efd6 443e 5ae2 42be 83fd 29be
00000090: 8510 50be 8ab4 d53d f2de 0dbe ffea de3d
000000a0: e46f 36bd 32f5 223e 7569 21be dbbd 05bc
000000b0: 9b8c 7dbd ee01 4abd 6c43 c93d 7986 eebd
000000c0: 560e 22be 1902 1d3c 5ef9 813d 395a 17be
000000d0: f389 6e3d 46fb 243e 051f f8ba 8ed1 423e
000000e0: 4d67 773d 6378 27be 2a0d 99bd a147 24be
000000f0: 0701 33be 71f9 263e c7aa 643d 8682 573e
00000100: d6c0 3c3c 104d ffbd 3b9d dfbd d390 1bbe
00000110: f610 39bb 1272 37be a785 2c3e 52a7 73bd
-0.06798252 0.1705885 0.017888095 -0.11181586 0.07217061 0.18993652 -0.18844044 0.12869793
0.059800893 0.17112228 0.034358725 0.16254911 0.17996405 0.15224093 0.11973878 -0.13558562
0.072015874 -0.17312394 -0.08383874 -0.17342705 -0.046270106 -0.03814644 0.14001784 -0.17425652
-0.16316047 -0.14023875 -0.03077209 0.046685282 -0.08014013 -0.1429718 0.008799683 -0.13612938
0.028286846 0.19222616 -0.19031659 -0.16600613 -0.20318802 0.10434826 -0.13854578 0.10884666
-0.0445403 0.15913847 -0.15762885 -0.008162941 -0.06190167 -0.049318247 0.09827313 -0.116467424
-0.15825781 0.00958302 0.06346391 -0.14780511 0.058237027 0.16111478 -0.0018930143 0.19025251
0.06040125 -0.16354518 -0.07473214 -0.1604295 -0.1748086 0.16306092 0.05582693 0.21045884
0.011520585 -0.124658704 -0.10918661 -0.15191965 -0.002823887 -0.17914608 0.1684786 -0.05948574

rnn.bias_hh_l1 f4 [72]
00000000: ba67 cdbd 8a8f b23d c672 a5bd 7138 963d
00000010: f5cc 99bd d67c d53d 9ba1 0abe 6f39 7a3b
00000020: 8112 893d e80a b9bd 0298 453e 7786 813c
00000030: 4bb4 843d e4c1 353e 1ff2 a33d df8e f43d
00000040: f203 c9bd 6331 093e 4eb3 f7bd 94ec f5bd
00000050: c7c7 f93d 3cf7 283e 514b 42bd 000d 1e3e
00000060: 2bfd 443e ae18 4cbe 64a9 523d 06b8 ac3d
00000070: 56c3 cf3c f18c 323e a8bf 963d 6dfd 15bd
00000080: 4305 20be da29 7f3d 470c 0e3e ae6b 6cbd
00000090: 6333 9c3d 7a48 28be 269b a73c c194 103e
000000a0: 9e07 1abe 50c7 0dbe 44a9 163d 2e92 333e
000000b0: 057d 22be 068a 073e 31bd 3bbd affc 193e
000000c0: 6d79 123d 0c19 93bb 22ee 8a3d d959 12be
000000d0: 77e4 f43b 9139 053d 8e35 d1bd 38b7 08bc
000000e0: bbbf 083e 3d42 3fbd 3bf5 2a3e f585 583d
000000f0: 7fff d43c cea2 dcbc 3a92 ff3d e86b 823d
00000100: 3d5f 59be fcd5 4c3d 021d 013d 195e 12be
00000110: 42b4 393e 56ef d2b9 6375 b0bd 39d3 d93c
-0.1002955 0.08718784 -0.08078532 0.07334984 -0.075097956 0.10424201 -0.1353821 0.0038181206
0.066929825 -0.09035283 0.19296268 0.015811188 0.06479701 0.17749745 0.08005165 0.11941313
-0.09815206 0.13397746 -0.120947465 -0.12008014 0.12196308 0.16500562 -0.04743511 0.15434647
0.19237201 -0.1993129 0.051431075 0.08433537 0.025361698 0.17436577 0.07360774 -0.03661864
-0.15627007 0.062295772 0.13871871 -0.05771988 0.07626989 -0.16433898 0.020459723 0.14119245
-0.15041968 -0.13845563 0.036782518 0.17536232 -0.15868004 0.13236246 -0.045834724 0.15037797
0.035760332 -0.00448907 0.067837015 -0.14292087 0.007473524 0.032525603 -0.10215293 -0.008344464
0.1335439 -0.04669403 0.1669511 0.052862126 0.026000736 -0.0269331 0.124790624 0.06368238
-0.21227737 0.05000876 0.031521805 -0.14293708 0.18135169 -0.0004023264 -0.0861614 0.026589977

rnn.weight_ih_l2 f4 [72, 24]
00000000: 4320 173e 4549 3ebe 2e31 f1bc a1cd b93d
00000010: 7565 aa3c 3c61 f3bc 92ea 0d3e 2d2d 77bd
00000020: e139 36be 8f25 cd3d 7c38 3bbd c2e8 e8bc
00000030: 0b76 81bc 5f6c 34be 5a2e f7bd 9795 233e
00000040: 7362 253e 3da2 03bd 4a06 06be 205a 0b3e
00000050: 025c 0a3e a5f4 6ebd bd8a c53c 5af6 d63d
00000060: 02a2 02be 5671 35be caea e43d fcc7 023d
00000070: 8da1 2fbd 8d9d 163e 01b1 ea3d 6659 863d
00000080: 3a05 1dbe 2075 303d c6d8 dbbd 23f2 14be
00000090: 9113 973d a079 493d 1164 14bd 0ba2 3bbe
000000a0: aac7 313e c09b 2a3e c74a 123e c816 cf3d
000000b0: f667 c83d 3bec d03d aeb2 7abd 16bc fa3d
000000c0: d516 0e3e eaa4 86bb 2c86 e33d 21bc 25be
000000d0: c6e0 1e3e 77db 603d 59ea 2dbe 2764 c93d
000000e0: d9b3 45bd 36c6 c6bb 1075 c1bd 097e 17bc
000000f0: 04df b63d e031 a33d acbd bcbb 0eb6 05be
00000100: dfd4 2cbe 9b1d 23bd daa2 a43d 6a0b 3e3e
00000110: 8a69 533e 334a 3abe 0fc9 c7bd 6998 8b3b
00000120: 7827 0a3e 249d 0b3e 7fef fe3d a50b 2f3e
00000130: 5431 52be 6716 023e 087c 933d 0534 493e
00000140: 843d 3cbe 1c08 5a3d 5e0e b93d 98a6 533d
00000150: 9e66 94bd 1eb5 533d cf1b 173e 20ce cc3d
00000160: f705 0e3e 9eba 373e a742 aa3d c582 1a3d
00000170: 7483 363d fe77 563d b381 1f3e a6d4 3d3e
00000180: f381 89bd 31d0 febd e7eb cb3d 74b1 3cbe
00000190: 37e9 3b3d 3df5 0dbe a3d8 aebd a363 d73d
000001a0: 476f 533e 33fb c7bd df2d 6b3d 251c 05be
000001b0: 06a5 77bd 1ef8 0c3e de6a 13be 6c72 21be
000001c0: 44f1 b03d 8f94 a5bd 920b 3abe b382 213e
000001d0: 5d0d 3a3e a4cc b33d 068e b1bd e2aa f63c
000001e0: a8b9 883d 5617 d93d 667f f9bd c671 0ebe
000001f0: 376a 623d 8011 d3bd 8250 3e3d 7034 45be
00000200: a161 4f3d 6fe9 49be 45ed a93c 8a40 153c
00000210: 478e c9bd 54b0 483e b417 b1bd 7813 b7bc
00000220: 477a ce3d e625 ee3d 8b06 073e f66e 803d
00000230: d71b fa3b 6d14 b1bd 96db 393d 490e abbd
00000240: dbfe cd3d 6fdd febd 88cd 3e3d bf63 283e
00000250: f9c6 443e 00f1 ad3d 2bb4 96bd 4735 2ebe
00000260: b3b6 e23d 4ef0 0ebe 8562 25be 65b2 453c
00000270: 970c 30be a6c6 313e e75a 29be ea6b 3abe
00000280: e403 e8bd 0ab8 08be 670c e4bd 78fd d6bd
00000290: a873 d0bd 61c3 e3bd 4763 5ebc 77b7 ffbd
000002a0: c739 ac3d 7e8f 213e 282b be3d bab5 48be
000002b0: 8e9e dcbd 162a a7bb 29aa e6bd 05b3 f2bd
000002c0: 8376 acbd 0f99 47be f9d8 673c 7bd1 3f3e
000002d0: 61d3 a43d 774a 9bbd 9d2c bbbd 18bc 223d
000002e0: 4156 463e 0920 9dbd 2c2f 30bd d6e5 3a3d
000002f0: 85e0 ca3a 30ab 2abd 9e9d 723d 2275 f13d
00000300: c51b 443e 8d86 483e 133a 2fbe ed70 113e
00000310: f6e2 c8bd 840e 4ebd 345b 083e d135 343e
00000320: 5355 14be ff5d dcbd fcde 433e 1333 ccbd
00000330: 090c 0d3e 7f60 0fbe aafc 1c3e 958e 093e
00000340: d406 66bd 2006 fe3d 78f1 2d3d e047 d73b
00000350: a1db 093e ab22 043e b644 41be 1d66 d3bd
00000360: 603f 2dbd 557a 25be 5ec8 f7bc c668 b8bc
00000370: 6a52 12be eccf 083c f869 13bd 42dc 4d3e
00000380: f316 943d 7450 1b3e da38 1e3d 41a8 2f3c
00000390: e873 3c3e d508 453e d273 b43d d79f 53bd
000003a0: e5ba 3b3d 9b74 e2bd b7da a2bd bc23 b13c
000003b0: 31e0 45be 7831 aabc ad74 be3c e303 edbd
000003c0: 2722 3cbd 49e6 733c c848 babd d6fe 0e3e
000003d0: 1b5f 11bc 347b 93bd 5f94 98bd 790e 023e
000003e0: e378 913d 7cf5 4fbe dd14 19be 13d0 3abe
000003f0: a06e c13c bae4 aabd 1bfb 5c3d 8a93 1fbe
0.147584 -0.18582638 -0.029442396 0.09072424 0.020800332 -0.02970945 0.13859013 -0.060345817
-0.17795517 0.10016929 -0.045708165 -0.0284313 -0.015803358 -0.17619465 -0.12069388 0.15975033
0.16150837 -0.032137144 -0.13088337 0.13608599 0.1351166 -0.05833878 0.024114007 0.104962066
-0.12757114 -0.17719015 0.11177595 0.031929 -0.042878676 0.14708538 0.11459542 0.0656002
-0.15334025 0.04308045 -0.107347056 -0.14545493 0.07376779 0.049188256 -0.036228243 -0.18323533
0.17361322 0.16660976 0.14286338 0.10111767 0.09785454 0.102013074 -0.06120556 0.12242906
0.13875897 -0.0041090148 0.11109576 -0.16185047 0.15515432 0.054896798 -0.16983928 0.09833556
-0.04826722 -0.006066109 -0.09446156 -0.009246358 0.089292556 0.07968497 -0.0057599153 -0.1305773
-0.16878079 -0.039823156 0.08038874 0.18559042 0.20645729 -0.18192367 -0.09755146 0.004260112
0.13491619 0.13634163 0.12448024 0.17094286 -0.2052663 0.12703858 0.072013915 0.1964875
-0.18382841 0.05323039 0.090359434 0.051672548 -0.07246135 0.0516864 0.14756702 0.10000253
0.13869463 0.17942283 0.08313494 0.037722368 0.044558957 0.052360527 0.1557682 0.1853815
-0.06714239 -0.12442053 0.09957104 -0.18427068 0.045876708 -0.13863082 -0.08537414 0.10517051
0.20647918 -0.09764709 0.057416793 -0.12999018 -0.060460113 0.13766524 -0.14396235 -0.15766305
0.08639768 -0.08084976 -0.18168476 0.15772514 0.1816916 0.087792665 -0.08669667 0.03011078
0.06676036 0.10600154 -0.121825024 -0.13910589 0.055277076 -0.10306072 0.046463497 -0.19258285
0.050630216 -0.19717954 0.020743022 0.009109626 -0.098415904 0.19598514 -0.08647099 -0.02234815
0.10081916 0.11628322 0.1318609 0.06271164 0.0076327133 -0.08646474 0.04537543 -0.08352334
0.100583754 -0.12444579 0.04658273 0.164443 0.19216527 0.08493233 -0.07358583 -0.17012511
0.11070003 -0.13958856 -0.16150863 0.012066458 -0.17192303 0.17360935 -0.16538583 -0.18205228
-0.11328867 -0.13351455 -0.11135178 -0.10497564 -0.1017831 -0.1112125 -0.013573474 -0.12486165
0.08409458 0.15777394 0.09285575 -0.19600573 -0.107724294 -0.0051014526 -0.11262924 -0.118505515
-0.08421042 -0.19491981 0.014150851 0.18732254 0.0804813 -0.075825624 -0.09139369 0.03973016
0.19368841 -0.07672126 -0.043013737 0.045629345 0.0015478289 -0.041667163 0.059232347 0.117899194
0.19151218 0.19582577 -0.17111997 0.14203234 -0.09808914 -0.050306812 0.13316041 0.17598654
-0.14485674 -0.10760116 0.1912803 -0.09970679 0.13774122 -0.14001654 0.15330759 0.13433297
-0.056158856 0.12403512 0.04246661 0.0065698475 0.13462688 0.1290385 -0.18873867 -0.10322211
-0.042296767 -0.16159947 -0.03024691 -0.022510897 -0.14289251 0.008350354 -0.03598973 0.20103553
0.0723094 0.15167409 0.038628437 0.010721267 0.1840359 0.1924165 0.088111535 -0.051666107
0.045832533 -0.11057397 -0.07951873 0.021623485 -0.19323803 -0.020775542 0.023248995 -0.11573007
-0.045931008 0.014886447 -0.09095913 0.139644 -0.008872773 -0.072012335 -0.074501745 0.12700833
0.071031354 -0.20308489 -0.14949365 -0.18243437 0.02361232 -0.083444074 0.05395041 -0.15583625

rnn.weight_hh_l2 f4 [72, 24]
00000000: b344 02be 6683 c7bd 38be cabd 1a48 0cbe
00000010: 6fcc 03be 3db2 eabd 604a af3d c2ff 3ebd
00000020: 7f42 c13d 2163 6a3b 841f 44bd 8787 273e
00000030: 5603 f63d 1b6a c9bc a5c6 d9bd c9a7 c83c
00000040: 8347 093e e9c2 2dbe 6173 dfbd 27bd d8bd
00000050: 3622 423e 8aab 37be 4765 543e 50ac 513c
00000060: ebaf 27be c007 adbc 4812 283d 1bf4 bc3c
00000070: d51a 1cbe 590a 19be 53f7 3c3e 6631 d9bd
00000080: 7198 2cbe 1756 e7bd 1347 08be 9759 28be
00000090: b07e b03d c00c 403d ff8c 1d3e e010 09be
000000a0: 1627 0fbe 9cd5 213e 0a3f e7bd 255d 9bbd
000000b0: dea2 073e 5c9e b83d 33bc cc3c c414 b13c
000000c0: 0244 ddbd 00b3 16be 3507 c1bd c6b3 ffbb
000000d0: 4aa9 e93d c363 06be 82a6 a83d 8e14 b63d
000000e0: 1843 203e 6dd2 33be 3976 093e 46ef 203d
000000f0: fab7 39be 7b68 e4bd 8679 6a3d 81e9 adbd
00000100: 5dd4 66bd 506d 0cbd ba59 4d3d ce82 2b3d
00000110: f75f 56bd 139c 173e c44c 1d3e f13a 24be
00000120: d4a9 5b3c 60c9 cf3d 3948 2dbe 4fc1 3bbe
00000130: aaf5 1a3d 6409 793d 84ee 0abe 974e 3dbe
00000140: e9c3 23be 5aa1 eebd 028d 00be 91dd 963c
00000150: cdc6 ecbd 7d1d 443e ce34 81bc 25f6 b0ba
00000160: e6fc d2bd 76cc 033e 4ba5 b1bd 5aa8 393d
00000170: 6b68 013e 7906 ecbc 7bf0 be3d 7942 963d
00000180: 9243 46be 3dff 1e3e 12f3 51bd 9066 023e
00000190: 3824 3ebe a2ba fe3b 9781 a43c 3838 29be
000001a0: 67e4 3cbe 8c9f d43d 2e3e c53d 0be3 acbd
000001b0: ed0c c5ba 2490 7fbc d060 5fbd c24a f1bd
000001c0: 09fc d0bd b9cb 183c b579 0b3e 6a1d bc3d
000001d0: bf38 903d 8337 93bd 2e89 93bd 449b 21be
000001e0: a73c debd 527d 3cbe 5b24 46bd e08b d73d
000001f0: 4409 4abe cc81 83bd dcf4 0b3e 7f47 2bbe
00000200: a09a 463e e735 0b3d 2d8d 55be 74e9 a0bd
00000210: c925 0b3d ee63 883d 94ca 84bd cff2 58be
00000220: 822b b2bd db1a 4d3e 9470 0bbe 85f1 403e
00000230: ce94 7abd e19d 413e 09d8 4cbe 29cc 02be
00000240: 6a82 fe3b 12da d63d 17d4 07be 98ce b73d
00000250: 7ec2 ad3d ce76 073e bed1 143e bcaa 46be
00000260: f56e d43d d7d1 f4bd 94d1 eb3d 4680 4ebe
00000270: b9ec a8bd e3af d5ba f351 0abe cffe b93d
00000280: c007 27bd 8761 06be 6893 443e ec01 333e
00000290: 0c78 923d 3b6d e8bd 05d2 ef3d 59e7 0ebd
000002a0: 330d 933d 4636 0e3e 90b8 8d3a 0b09 a6bc
000002b0: 354c 023d 6715 b63d d2d1 383d d0a8 433e
000002c0: ef30 b4bc 38c0 483d 5dee 58bd e568 26be
000002d0: 7ed9 22be 857c 333d 8833 3ebe 87b5 d23d
000002e0: f7d1 45be 253a ed3d 05e9 0dbd 4b0d 323d
000002f0: e4fb a1bd 7e54 febd 67b0 3b3d 7cb9 c83d
00000300: bd8e a63d d01d b4bd 1a77 2abd a5f8 debc
00000310: b2ac 463d 8b44 34bd b626 ce3d 792d 273e
00000320: b855 233e a400 dcbd 0860 173e 68c1 3bbe
00000330: ef99 29be f412 40be 285b e93d 18c9 9d3d
00000340: 7f0d e23c 8d85 833d d5f3 d6bd ee54 723d
00000350: 69ce 153e f2d5 9fbd 5d11 0c3d 800f 1f3d
00000360: 8ef2 0cbd b792 dbbb 61a5 e9bd 16b5 52be
00000370: fa4e 253e cd15 ebbd 9a38 40be ae57 773d
00000380: 1e31 afbd c00f 00bd cf01 bebd ee39 f8bd
00000390: 20f2 803d 1ac9 1b3d dbd9 2bbe 026c bb3d
000003a0: e314 4abc 0228 35be bbaf 273e 7e1a 4ebd
000003b0: 279a 37be dedb 063e 6578 b4bd e179 f0ba
000003c0: 9a41 5bbd a4fc 9dbd c737 b43d 65bb 063e
000003d0: 3e4f 1c3d 1d39 4bbe d742 f73d 9a9d 3c3e
000003e0: eef9 ffbd e3c0 2f3e d3f0 95bd 2fb5 083e
000003f0: aa1c 09be bfc9 ad3c f00e 2fbd b6de 4bbe
-0.12721519 -0.09741859 -0.098995626 -0.1369938 -0.12870954 -0.114597775 0.08559108 -0.04663063
0.09436511 0.0035764652 -0.04788162 0.16360293 0.12012355 -0.024586728 -0.106335916 0.024494069
0.13406186 -0.16968884 -0.10910679 -0.10582953 0.18958363 -0.1793653 0.20741759 0.01279743
-0.16375701 -0.02112186 0.04103306 0.023065617 -0.1524461 -0.14945354 0.18453722 -0.10605125
-0.16855027 -0.11295717 -0.13308363 -0.16440426 0.08617914 0.04688716 0.15385817 -0.13385344
-0.13979754 0.15804142 -0.112913206 -0.07586125 0.13245723 0.0901458 0.024992084 0.021616347
-0.10803987 -0.1471672 -0.09425203 -0.007803413 0.114092425 -0.13123994 0.08234884 0.08890639
0.15650594 -0.1756074 0.13424005 0.03929069 -0.18136588 -0.111527406 0.0572448 -0.08491803
-0.05635487 -0.034283936 0.050134398 0.041872792 -0.052337613 0.14805631 0.15361315 -0.1603811
0.013407189 0.10145831 -0.16922082 -0.1833546 0.03783194 0.06079997 -0.13567549 -0.18487011
-0.15992703 -0.11651869 -0.1255379 0.018416198 -0.11561356 0.19151874 -0.01577225 -0.0013501091
-0.10302143 0.12870964 -0.08674105 0.04532657 0.12637489 -0.02881168 0.09323212 0.073368974
-0.19361714 0.15527053 -0.0512572 0.12734437 -0.18568504 0.007773713 0.020081325 -0.16525352
-0.18446504 0.10381994 0.096310005 -0.084417425 -0.0015033759 -0.015598331 -0.054535687 -0.11781837
-0.10204322 0.009325915 0.13620646 0.09185298 0.070420735 -0.071883224 -0.07203899 -0.15781885
-0.10851412 -0.18407181 -0.048374515 0.10524726 -0.19730097 -0.06421241 0.13667625 -0.16726492
0.19394922 0.033986952 -0.20854636 -0.07857028 0.03397158 0.06659685 -0.06483951 -0.21186374
-0.08699705 0.20029776 -0.13617164 0.18842132 -0.061177067 0.18907882 -0.20004286 -0.12773193
0.0077670114 0.10490812 -0.132645 0.089749515 0.08484362 0.13228914 0.14533135 -0.19401067
0.10372726 -0.11954086 0.11514583 -0.2016612 -0.08248276 -0.0016303029 -0.13507824 0.09081804
-0.040778875 -0.13123141 0.19196856 0.17481202 0.071518034 -0.11348959 0.1170998 -0.0348886
0.07180252 0.13887891 0.001081245 -0.020267984 0.031810958 0.08890801 0.045121975 0.19107366
-0.02199599 0.04901144 -0.052961696 -0.16250952 -0.15903279 0.043819923 -0.18574345 0.1028853
-0.19318376 0.11583356 -0.034646053 0.04346971 -0.079093724 -0.12418459 0.045822527 0.09801003
0.08132694 -0.08794749 -0.04161749 -0.027218172 0.04850454 -0.04401068 0.10065977 0.1632594
0.15950668 -0.1074231 0.14782727 -0.18335497 -0.16562627 -0.1875723 0.1139434 0.07704371
0.027594326 0.06421957 -0.10495726 0.059163027 0.1462952 -0.07804479 0.034196246 0.03883314
-0.034411006 -0.0067008394 -0.11408497 -0.20576891 0.16143408 -0.114787675 -0.18771592 0.060386352
-0.0855429 -0.03126502 -0.09277689 -0.12120424 0.06296182 0.038033582 -0.16782324 0.0915146
-0.012334081 -0.17691043 0.1637563 -0.050318234 -0.17929898 0.1316981 -0.08812026 -0.001834687
-0.05352936 -0.07714203 0.08799701 0.13157423 0.03816151 -0.19846006 0.120732956 0.18419495
-0.12498842 0.17163424 -0.07321324 0.13350366 -0.1338984 0.021214364 -0.042738855 -0.19909176

rnn.bias_ih_l2 f4 [72]
00000000: d79f abbd 96f3 303e 0861 bf3d 0571 e13d
00000010: ebfa 64bc f28d 3abd dfa0 e3bd 7c1d d5bd
00000020: 2b23 823c 5df1 47be 0981 9d3d 572d 5bbd
00000030: 0559 1c3e 5884 013e 4b0d cdbb 34c9 b83c
00000040: 5797 513d 4446 14be 97fc a53d 53c3 a33d
00000050: 963c 29be 6f94 5c3d c395 84bc 9deb 31be
00000060: d9f3 bcbd 6af3 15be b950 edbd d91e df3d
00000070: 7b54 143e aeef 2abe 8e7f 2cbe 8e91 babd
00000080: 29a1 d3bd 2e20 333e 6493 0cbe 4dbb adbd
00000090: 90c7 47bd 5b88 ffbc 0a4d 0fbe 7551 353e
000000a0: 8481 e0bc 042d c83c a72d 003d a226 683d
000000b0: 9d62 80bc 183c 10bd e351 a83d 6b5e 25bd
000000c0: 5a96 c23d 6ee5 fcbc 36fb cbbc 2662 05be
000000d0: de38 2bbd 50da 0ebe e158 46be a824 46be
000000e0: 6937 063e d2f8 bcbd fb37 17be 1af3 e9bd
000000f0: 0b0d 18be d39f 28bd 8e83 24be 8a47 32be
00000100: 6cb1 10be 0c83 74bd d701 28be c45a 12be
00000110: 1de8 21be a6da cf3c 97a1 7fbd bd17 35be
-0.083800964 0.1728042 0.09344679 0.11007885 -0.013975839 -0.045545526 -0.11114668 -0.10406014
0.01588591 -0.19525667 0.07690627 -0.053510036 0.15268333 0.12648141 -0.006257688 0.022556879
0.05116972 -0.14479929 0.08104818 0.079962395 -0.16527018 0.053852495 -0.016184693 -0.17375036
-0.09226198 -0.14643636 -0.11587662 0.108945556 0.14485352 -0.16692993 -0.16845533 -0.091097936
-0.10333473 0.17492744 -0.137281 -0.084829904 -0.048774302 -0.031192949 -0.13994232 0.17706855
-0.027405508 0.024435528 0.031293537 0.056677468 -0.015672022 -0.03521356 0.08218744 -0.040373247
0.095013335 -0.03087112 -0.02490006 -0.13025722 -0.04180228 -0.13950467 -0.19369842 -0.19349921
0.13107075 -0.09227146 -0.14767449 -0.11423321 -0.14848725 -0.041168045 -0.16065809 -0.17410102
-0.14130181 -0.05969529 -0.16406952 -0.14292437 -0.158112 0.025372814 -0.062409963 -0.17684837

rnn.bias_hh_l2 f4 [72]
00000000: 8c11 2bbe 080e 283e 2f46 0f3c 43ae 5d3c
00000010: 1908 c93b 1be9 1a3e b22a 23be 2243 bebd
00000020: 9ec2 253e 83ac 33be 5d7b bf3d 9b4f a2bd
00000030: 1ee6 0ebe 0e78 3abe cb96 44bc f90b 2ebe
00000040: 593b 5fbd c8d2 7a3d 86f6 efbd 52d1 bebc
00000050: fa7f 5dbd 3653 c6bd c780 35be 2893 ba3d
00000060: 0e84 033d d3da 2d3d d780 3abe 7416 263e
00000070: ee53 5cbd fd4a 55be 61e2 133e 3674 1fbe
00000080: 5cb1 63bd c64b 2f3e f377 053e 06cc 40bd
00000090: 1566 18be 339c f5bd 3ddc 853d c168 44be
000000a0: a926 433d bcda 493d 9f9c 043e f71e 6bbc
000000b0: e82d 24bd ffd8 d7bd fc83 b73c d90e 333e
000000c0: 7221 10be 81ff 983d 38d6 f53d 5fab cb3d
000000d0: 7864 e7bc a2b0 93bc d9d4 df3c 7dbf 103d
000000e0: ad8e 41bd 59fd 27bd 9cb8 3bbc 8a5d 1c3d
000000f0: 02b0 12be 404d 623d e351 f7bb 8fd6 29bd
00000100: 398e 71bd 3f1b 0b3e dfcb 663d d21d f3bd
00000110: 9173 19be fdc8 203e fb83 1cbd 368c 12bd
-0.16705912 0.16411602 0.00874476 0.013530317 0.0061349985 0.15127985 -0.15934256 -0.09290148
0.16187522 -0.17546277 0.093497016 -0.0792534 -0.1395497 -0.1820986 -0.0119988425 -0.16996755
-0.054499958 0.061236173 -0.117169425 -0.023293171 -0.054077126 -0.0968384 -0.17724906 0.09110099
0.03210836 0.042445015 -0.18213211 0.16219503 -0.05379098 -0.20829387 0.14441825 -0.15571675
-0.055589065 0.17118749 0.13034038 -0.047069572 -0.14882691 -0.11992683 0.06536148 -0.19180585
0.04764429 0.049280867 0.12950371 -0.014350644 -0.040082842 -0.105394356 0.022401802 0.17486133
-0.14075258 0.074706085 0.120037496 0.09944796 -0.02824615 -0.018028561 0.027323173 0.035338867
-0.047255207 -0.041013096 -0.0114575885 0.038175143 -0.14324954 0.055249453 -0.0075476035 -0.041464385
-0.058973525 0.13584612 0.05634677 -0.11870922 -0.14985491 0.15701671 -0.038211804 -0.035778247
