Checkpoints/w_e400_no400.pth (torch, 466346 bytes, 138 tensors)

rnn.weight_ih_l0 f4 [72, 5]
-0.0672833 0.13631868 -0.07713879 0.1357786 0.014238938 0.19956215 -0.11769761 0.19366649
0.06779037 0.00862263 0.18379389 -0.14491618 0.18336992 0.017833434 -0.06564576 -0.08487495
0.11253746 0.065698676 -0.010619263 -0.044134066 -0.029110625 0.117072366 -0.038432065 0.02239233
0.0011046622 -0.14179388 -0.020003825 -0.05600147 -0.1047626 -0.10081235 0.097458914 0.104304604
0.21159701 -0.17157426 0.0015538409 -0.07528944 0.15835074 0.10324989 0.17466278 0.106345095
-0.13615853 0.10823405 0.12830673 -0.11599461 0.089371726 0.22712775 -0.0016224531 0.19263673
-0.055412706 0.20667373 0.12440035 -0.13154967 0.064135045 -0.12604484 -0.15210396 -0.06479683
0.17561288 0.12744161 0.020245984 0.2362371 0.110956244 -0.054810707 -0.023603683 0.06679756
0.037280153 0.0029761696 -0.027279312 -0.08687341 -0.12604158 0.1972286 0.08981716 0.07679394
0.027123518 0.0827353 -0.19021846 -0.13973805 0.054408345 0.08379103 0.10785488 0.2133053
-0.06584462 0.046056807 0.15832205 0.0902435 0.23944087 -0.027240464 -0.030112607 -0.09485028
0.061703183 -0.18194875 0.16611785 0.04164971 0.0921378 0.050458174 0.02926715 0.114794955
0.050350815 -0.053215366 -0.14416185 0.20353977 -0.067896 0.026236549 0.16255541 -0.012475149
-0.052759998 -0.00582711 0.00012863656 0.0836446 -0.00065758545 -0.16170818 -0.13500498 -0.012768832
-0.07034606 0.11406249 -0.054050807 0.050743856 0.12725778 0.0724083 -0.13584445 0.09525692
-0.1715267 0.08062445 0.11871034 0.0974746 -0.00045437977 0.11963397 0.19363174 -0.20869398
0.0043851803 0.0022829198 -0.009776994 0.047158755 -0.08173376 -0.19026396 -0.25722498 -0.15864396
-0.17525592 0.053336192 -0.15949354 -0.04213895 -0.07697967 -0.037176475 -0.22496897 0.06895138
0.052168887 0.06391191 -0.04046697 -0.17744504 -0.28757596 -0.28863022 -0.09896687 -0.23830552
-0.07793658 0.055881754 -0.28044063 -0.01821335 -0.19813274 0.0059278547 -0.05653643 0.123814665
0.03692 -0.070502624 -0.19510448 0.039044134 -0.12005454 0.0057662167 0.086900234 0.031361952
-0.14846352 -0.21041909 -0.061341595 -0.19232771 0.035024963 -0.043441944 -0.20261264 0.07441891
0.031014716 -0.007839025 -0.12690277 -0.14274055 -0.0128436545 -0.032897174 -0.13492316 0.04002059
-0.23164824 -0.22331417 -0.17519592 -0.21535167 0.036772035 -0.21603253 0.113727145 -0.04554438
0.10004683 -0.06459784 0.12628737 -0.14222167 0.059771433 -0.20619111 0.010530695 0.019044079
-0.021645892 -0.18803792 0.037849538 0.06572785 0.06114852 -0.12100374 -0.06359674 -0.18039268
-0.012239324 -0.19227386 0.119877644 -0.110775255 -0.21869873 -0.16275963 -0.0882505 -0.089759156
0.0046361485 0.026312735 0.10352122 -0.014431972 0.087726906 0.027329748 -0.18980108 0.012974975
-0.07634495 -0.11955896 -0.0070450846 -0.16724406 -0.01608398 -0.16679858 -0.21216659 -0.06844425
-0.19047077 -0.22185563 -0.0629551 -0.000105848536 -0.038692754 -0.0064606676 -0.11663334 0.06586953
-0.017719368 0.01808832 -0.16150714 -0.09491733 0.11252006 -0.06454472 0.009535921 -0.17974764
-0.15849882 -0.12680237 -0.019268578 -0.24473481 -0.15279125 -0.16632582 0.021605061 -0.1476092
00000000: d4cb 89bd 2097 0b3e f1fa 9dbd 8c09 0b3e
00000010: 6f4a 693c 055a 4c3e 720b f1bd 8250 463e
00000020: add5 8a3d ee45 0d3c 7734 3c3e e864 14be
00000030: 53c5 3b3e 6c17 923c 4971 86bd ebd2 adbd
00000040: 0a7a e63d 078d 863d 6bfc 2dbc ecc5 34bd
00000050: 6879 eebc a3c3 ef3d f16a 1dbd 1f70 b73c
00000060: 50ca 903a 6a32 11be 10df a3bc cc61 65bd
00000070: c68d d6bd b576 cebd 8a98 c73d a79d d53d
00000080: e3ac 583e 2ab1 2fbe 40aa cb3a 5a31 9abd
00000090: b226 223e ae74 d33d cdda 323e 75cb d93d
000000a0: 246d 0bbe d0a9 dd3d d762 033e 958e edbd
000000b0: 8608 b73d 2d94 683e 7ea8 d4ba 9042 453e
000000c0: 6ff8 62bd 47a2 533e 9cc5 fe3d f5b4 06be
000000d0: 3c59 833d e611 01be 24c1 1bbe 33b4 84bd
000000e0: ddd3 333e 0e80 023e e8da a53c 23e8 713e
000000f0: 073d e33d 3181 60bd 835c c1bc 29cd 883d
00000100: 13b3 183d d70b 433b dd78 dfbc b0ea b1bd
00000110: 0b11 01be 4bf6 493e 0ff2 b73d 2446 9d3d
00000120: 2432 de3c 2071 a93d a1c8 42be 7e17 0fbe
00000130: 49db 5e3d a29a ab3d 05e3 dc3d b46c 5a3e
00000140: 8bd9 86bd 10a6 3c3d 2d1f 223e 96d1 b83d
00000150: fd2f 753e 6527 dfbc b7ae f6bc dd40 c2bd
00000160: 7abc 7c3d c650 3abe cc1a 2a3e e398 2a3d
00000170: beb2 bc3d 3bad 4e3d aac1 ef3c 9e19 eb3d
00000180: a83c 4e3d 5bf8 59bd 2a9f 13be bb6c 503e
00000190: 0f0d 8bbd 08ee d63c ed74 263e 9164 4cbc
000001a0: de1a 58bd 57f1 bebb 9de2 0639 dc4d ab3d
000001b0: d061 2cba d496 25be bf3e 0abe 5d34 51bc
000001c0: 9811 90bd 9899 e93d 6164 5dbd cad8 4f3d
000001d0: dd4f 023e ce4a 943d cf1a 0bbe 0f16 c33d
000001e0: b2a4 2fbe 6f1e a53d 681e f33d c3a0 c73d
000001f0: d239 eeb9 a802 f53d 6647 463e e0b3 55be
00000200: 8fb1 8f3b 0a9d 153b af2f 20bc 8a29 413d
00000210: 0864 a7bd 8ed4 42be feb2 83be 9073 22be
00000220: 4a76 33be 0d77 5a3d 4652 23be e499 2cbd
00000230: 84a7 9dbd 5c46 18bd 445e 66be 6236 8d3d
00000240: 0baf 553d 3fe4 823d b2c0 25bd 27b4 35be
00000250: 283d 93be 57c7 93be 24af cabd 5d06 74be
00000260: 379d 9fbd 44e4 643d ea95 8fbe 2a34 95bc
00000270: 4fe3 4abe 733e c23b be92 67bd 8b92 fd3d
00000280: 6d39 173d ae63 90bd 78c9 47be beec 1f3d
00000290: 28df f5bd 88f2 bc3b c0f8 b13d 6475 003d
000002a0: d206 18be 1a78 57be 5341 7bbd 8ef1 44be
000002b0: 5676 0f3d 2ef0 31bd b079 4fbe f168 983d
000002c0: 9312 fe3c 416f 00bc cdf2 01be 942a 12be
000002d0: 316e 52bc 30bf 06bd 4c29 0abe a1ec 233d
000002e0: 3235 6dbe 78ac 64be 8f66 33be 2685 5cbe
000002f0: 469e 163d a237 5dbe c7e9 e83d be8c 3abd
00000300: 5ae5 cc3d df4b 84bd 7a51 013e 8fa2 11be
00000310: e4d2 743d c323 53be f088 2c3c 5402 9c3c
00000320: ba52 b1bc 038d 40be 1e08 1b3d 539c 863d
00000330: df76 7a3d cfd0 f7bd 023f 82bd dcb8 38be
00000340: 7287 48bc 70e3 44be 6982 f53d 23de e2bd
00000350: 8ff2 5fbe 76aa 26be aebc b4bd a6d3 b7bd
00000360: d5ea 973b ce8d d73c ef02 d43d 1474 6cbc
00000370: 2aaa b33d a3e2 df3c 375b 42be fd94 543c
00000380: be5a 9cbd 54db f4bd 74da e6bb 0742 2bbe
00000390: 8dc2 83bc 3fcd 2abe 3342 59be 802c 8cbd
000003a0: c50a 43be 1f2e 63be 9aee 80bd 00fb ddb8
000003b0: 4b7c 1ebd 02b4 d3bb 76dd eebd 9be6 863d
000003c0: 3528 91bc f52d 943c 2162 25be 0464 c2bd
000003d0: eb70 e63d 0630 84bd 8d3c 1c3c c40f 38be
000003e0: 844d 22be 7bd8 01be 23d9 9dbc c39b 7abe
000003f0: 4f75 1cbe 5151 2abe 19fd b03c de26 17be

rnn.weight_hh_l0 f4 [72, 24]
0.040236842 -0.08227334 -0.014262698 0.029385816 0.19232918 0.1115716 0.024605017 0.07747352
0.2028696 0.17899525 0.14739366 0.100906625 -0.08319784 -0.084768936 0.020696409 0.12307475
0.15269677 -0.04949197 -0.07078304 0.12163068 0.17901865 -0.15787415 -0.17773108 0.059846338
-0.22776137 -0.020608207 -0.105685964 -0.07166582 -0.1027025 -0.02924017 -0.14740248 -0.048631273
0.095229745 0.15414053 -0.24188317 -0.1058323 0.0742977 0.063829936 -0.104454376 0.20409584
0.10842315 -0.22649723 -0.25020757 0.115046754 -0.10975279 -0.15334246 -0.05608694 0.025033547
0.12998547 0.0043272753 -0.1984403 0.1091278 0.14988793 -0.13965473 -0.00033134368 0.20297559
0.11409061 -0.123265475 -0.030782651 -0.09159413 -0.21176161 -0.22788548 -0.07597535 0.12562704
-0.010741358 0.12449581 0.009178811 0.069872715 0.04627488 -0.11468284 -0.027055664 -0.010103606
-0.19110397 -0.16549017 -0.057735104 0.038547598 -0.117710374 0.15631819 -0.2067605 0.04675794
-0.11399602 -0.17302337 0.016921377 -0.1809979 -0.09001337 0.056360587 -0.12514178 0.073308714
0.07836042 0.21298347 -0.14030501 0.12910242 0.13928126 -0.14556132 0.17329453 0.15455689
0.0223042 0.07488428 -0.13905405 -0.17767046 -0.19777662 -0.0068523367 -0.22660638 0.21720073
0.04952099 0.19279139 -0.08853185 0.033399586 0.20340334 0.077683374 -0.074625656 -0.1769129
-0.21472882 0.06390399 0.10427792 -0.10487194 -0.1091857 -0.04897728 -0.03656933 -0.2109104
-0.05538688 -0.12081829 0.16299814 -0.035596866 0.156295 -0.20021062 0.004008575 0.1339973
0.085712954 0.0019404509 0.14278814 -0.059841625 -0.049301013 -0.063164085 0.09305323 -0.082438186
0.16470106 0.047475398 -0.05906387 0.061153695 0.017380955 0.19408594 -0.13188928 -0.095036514
-0.08682545 -0.0078082094 0.070881225 -0.100645125 0.033649493 -0.028729333 -0.23620625 0.069340095
-0.074155085 0.2334832 -0.13370234 -0.09062566 0.004523163 0.044472564 -0.08139463 0.06536166
0.18176371 0.13511245 -0.019636083 -0.09449383 0.06937961 0.11872096 0.05826328 -0.119804665
0.13354823 0.20164786 -0.020481728 0.04644333 -0.019917117 -0.017758677 0.12533058 0.057753544
0.06310184 -0.060076065 -0.19545962 0.15574409 0.18403797 0.100308366 0.024784744 -0.033627886
-0.12816787 0.08835439 0.04451236 0.11865521 -0.046609115 0.17671432 -0.1313352 -0.1742074
0.09837159 0.12420983 0.008325322 -0.17945246 -0.12638883 0.086890355 -0.12752105 0.077202536
0.023909912 0.23449029 0.13289705 0.19264743 -0.14589994 -0.122592464 -0.09188645 0.18260944
0.1082012 -0.14025731 0.17999975 0.061313763 -0.08935946 -0.2021081 0.120385915 -0.04869386
0.04314158 -0.06267293 -0.01822377 0.04688725 0.06747409 0.08864443 -0.14084043 0.104008675
0.1914408 -0.109914236 0.15486799 -0.10615816 0.115291186 0.0745932 -0.17030226 0.23836927
-0.09261018 0.07203272 -0.033101067 -0.11151232 0.12718095 0.09940203 0.16768317 0.08988445
0.007861451 0.15385732 -0.095274866 -0.14866517 0.08429846 0.022830777 0.1314357 -0.110367134
-0.15223584 0.111895554 0.18574516 -0.13303053 0.0053203367 -0.009137713 -0.088632554 0.1771239
00000000: 63cf 243d ed7e a8bd 17ae 69bc 86ba f03c
00000010: f1f1 443e a77f e43d 7690 c93c 70aa 9e3d
00000020: 0cbd 4f3e 884a 373e 5dee 163e 22a8 ce3d
00000030: a163 aabd 569b adbd 848b a93c 9d0e fc3d
00000040: 8b5c 1c3e 18b8 4abd b3f6 90bd 8219 f93d
00000050: aa50 373e c3a9 21be 23ff 35be 6f21 753d
00000060: 473a 69be 8bd2 a8bc e271 d8bd 88c5 92bd
00000070: b055 d2bd 1589 efbc adf0 16be 9631 47bd
00000080: d007 c33d 04d7 1d3e 39b0 77be 9bbe d8bd
00000090: 6429 983d 45b9 823d 2dec d5bd 80fe 503e
000000a0: f50c de3d e4ee 67be 351b 80be a29d eb3d
000000b0: 12c6 e0bd ce05 1dbe 6bbb 65bd 2713 cd3c
000000c0: e91a 053e d1cb 8d3b ef33 4bbe 657e df3d
000000d0: 397c 193e a601 0fbe 32b8 adb9 d5d8 4f3e
000000e0: 56a8 e93d 9c72 fcbd e62b fcbc b495 bbbd
000000f0: 09d8 58be d05a 69be f798 9bbd 60a4 003e
00000100: 85fc 2fbc a9f7 fe3d b962 163c 6d19 8f3d
00000110: bb8a 3d3d d6de eabd d7a3 ddbc 9889 25bc
00000120: c2b0 43be 4176 29be a57b 6cbd 16e4 1d3d
00000130: 2312 f1bd e011 203e 06b9 53be 4185 3f3d
00000140: bf76 e9bd 0a2d 31be b39e 8a3c 8357 39be
00000150: ee58 b8bd 5cda 663d 2b25 00be e122 963d
00000160: 6e7b a03d 5718 5a3e 1eac 0fbe 6d33 043e
00000170: bf9f 0e3e 070e 15be 1f74 313e 2944 1e3e
00000180: 4cb7 b63c ee5c 993d 2f64 0ebe 3fef 35be
00000190: f485 4abe 9189 e0bb 810b 68be de69 5e3e
000001a0: 86d6 4a3d 1b6b 453e 3050 b5bd 01ce 083d
000001b0: f748 503e 7618 9f3d 56d5 98bd a828 35be
000001c0: dfe1 5bbe 18e0 823d aa8f d53d 1ac7 d6bd
000001d0: c19c dfbd 669c 48bd b9c9 15bd e5f8 57be
000001e0: 5add 62bd 946f f7bd fce8 263e 05ce 11bd
000001f0: cc0b 203e 0304 4dbe 5d5a 833b 9736 093e
00000200: 468a af3d ba56 fe3a 0e37 123e 7e1c 75bd
00000210: dcef 49bd 2c5c 81bd b192 be3d 5ad5 a8bd
00000220: 65a7 283e 9075 423d f5ec 71bd 4c7c 7a3d
00000230: 8162 8e3c 77be 463e fc0d 07be 81a2 c2bd
00000240: 8bd1 b1bd 02dc ffbb 2d2a 913d 081f cebd
00000250: 0dd4 093d c759 ebbc 0de0 71be 2e02 8e3d
00000260: 9fde 97bd 3816 6f3e 44e9 08be f299 b9bd
00000270: 0b37 943b dd28 363d 3ab2 a6bd 56dc 853d
00000280: 4420 3a3e eb5a 0a3e dadb a0bc fb85 c1bd
00000290: e616 8e3d fa23 f33d 7aa5 6e3d 265c f5bd
000002a0: dec0 083e c77c 4e3e 4cc9 a7bc 5c3b 3e3d
000002b0: 3929 a3bc a57a 91bc a956 003e fb8e 6c3d
000002c0: 8a3b 813d 5212 76bd 9126 48be 617b 1f3e
000002d0: 7374 3c3e 796e cd3d 6009 cb3c 65bd 09bd
000002e0: 703e 03be 25f3 b43d 9852 363d 8101 f33d
000002f0: 33e9 3ebd 99f4 343e bc7c 06be 6d63 32be
00000300: 0b77 c93d b961 fe3d ee66 083c 63c2 37be
00000310: 136c 01be 92f3 b13d e194 02be 5d1c 9e3d
00000320: b8de c33c 391e 703e 2a16 083e 5e45 453e
00000330: cb66 15be c211 fbbd f72e bcbd f8fd 3a3e
00000340: 9798 dd3d 9d9f 0fbe db51 383e 2424 7b3d
00000350: 1802 b7bd 6df5 4ebe e48c f63d 3773 47bd
00000360: 3ab5 303d aa5a 80bd 044a 95bc d80c 403d
00000370: db2f 8a3d 368b b53d 7938 10be 8002 d53d
00000380: 0f09 443e b71a e1bd b795 1e3e 7369 d9bd
00000390: c91d ec3d 52c4 983d b763 2ebe 1317 743e
000003a0: 68aa bdbd e485 933d fc94 07bd 9260 e4bd
000003b0: b93b 023e 4b93 cb3d 23b5 2b3e 5715 b83d
000003c0: 51cd 003c c68c 1d3e 781f c3bd af3b 18be
000003d0: aca4 ac3d 9c07 bb3c 1597 063e 2a08 e2bd
000003e0: b6e3 1bbe 7f29 e53d fb33 3e3e 2839 08be
000003f0: 3856 ae3b 59b6 15bc fc84 b5bd f85f 353e

rnn.bias_ih_l0 f4 [72]
-0.067343295 -0.13373838 0.14223239 -0.06502525 0.15048178 0.1169277 -0.030398557 0.062289756
0.16546218 0.038997635 0.15101144 -0.021596674 -0.039795406 0.00439159 0.21309286 0.20116912
-0.06408065 -0.15094478 0.013490663 0.11761409 -0.16759087 -0.109864034 -0.17934395 -0.09010412
0.1472779 -0.10251719 -0.09835046 0.122629486 -0.09360449 -0.14214522 -0.11602978 -0.08293802
-0.00778856 -0.20492418 -0.056495905 -0.05500922 0.10451916 0.11986341 -0.21058126 0.14217778
-0.16542162 -0.21252748 0.06449324 -0.17721541 -0.019953532 -0.17408448 0.10334233 0.14421953
-0.05051258 -0.17380431 -0.15695445 -0.059451424 0.02085355 -0.0059793727 0.116112314 0.113226034
-0.09427093 -0.19044939 -0.055075385 -0.1643194 0.0052689887 0.066114165 -0.035484526 0.16737555
-0.16112402 0.08138935 -0.17878114 0.07321354 -0.20164569 0.04078461 0.16333643 0.0042000706
00000000: 48eb 89bd b7f2 08be 5ea5 113e f52b 85bd
00000010: e517 1a3e ca77 ef3d 6506 f9bc 8b23 7f3d
00000020: eb6e 293e fcbb 1f3d bea2 1a3e 82eb b0bc
00000030: 8200 23bd 54e7 8f3b 0435 5a3e 47ff 4d3e
00000040: b73c 83bd 4591 1abe f107 5d3c a8df f03d
00000050: f19c 2bbe 6500 e1bd f1a5 37be 8288 b8bd
00000060: 05d0 163e 88f4 d1bd f76b c9bd 2b25 fb3d
00000070: b6b3 bfbd 848e 11be 05a1 edbd 69db a9bd
00000080: 2d37 ffbb a5d7 51be 4068 67bd 5951 61bd
00000090: 240e d63d f37a f53d 9da2 57be 0d97 113e
000000a0: 4964 29be cea0 59be 0815 843d f577 35be
000000b0: 9775 a3bc 3443 32be 25a5 d33d 49ae 133e
000000c0: 47e6 4ebd c2f9 31be abb8 20be 5683 73bd
000000d0: 10d5 aa3c 9dee c3bb 4bcc ed3d 0de3 e73d
000000e0: 1e11 c1bd 2a05 43be ba96 61bd 5843 28be
000000f0: 7ba7 ac3b dd66 873d 3958 11bd 7f64 2b3e
00000100: b2fd 24be 76af a63d 6712 37be fbf0 953d
00000110: 357c 4ebe c30d 273d aa41 273e bfa0 893b

rnn.bias_hh_l0 f4 [72]
0.0472119 -0.17734556 0.0056855585 0.18801995 0.12182262 -0.09405142 0.17808132 0.07076139
-0.01858565 0.047609534 0.20703912 0.007920184 -0.06233706 0.09801152 -0.10284185 -0.14684302
0.21666034 0.11665006 -0.073307805 -0.060990166 -0.12507321 -0.012027707 -0.075194135 0.11527259
0.07526538 -0.07330793 -0.016484914 -0.067051575 0.015114152 -0.19695014 -0.27428854 -0.19277838
-0.23487382 -0.04481297 0.099106975 0.08733787 -0.11245509 -0.12602542 0.0048536616 0.12030644
0.08558502 -0.21831194 -0.1928508 -0.17489634 0.07918926 -0.17950207 0.084006734 -0.12327515
-0.111257926 -0.12302737 -0.13460457 0.19930296 -0.12202856 -0.08906883 -0.21044485 -0.15532622
0.057112448 0.17247844 0.21311557 -0.18866833 -0.17137332 -0.15191035 0.017517352 0.11135105
0.16403002 0.09867219 -0.018554848 0.09449769 0.098672725 -0.011047777 0.16861746 -0.19578928
00000000: 4461 413d 139a 35be ec4d ba3b 4d88 403e
00000010: 237e f93d 089e c0bd f35a 363e 59eb 903d
00000020: ef40 98bc 3702 433d 1002 543e a9c3 013c
00000030: 2555 7fbd 44ba c83d bf9e d2bd 045e 16be
00000040: 35dc 5d3e 3ae6 ee3d 6722 96bd d3d0 79bd
00000050: 3113 00be dc0f 45bc 62ff 99bd 0914 ec3d
00000060: bc24 9a3d 7822 96bd 5f0b 87bc 5652 89bd
00000070: 59a1 773c 4cad 49be 8c6f 8cbe b267 45be
00000080: c382 70be ce8d 37bd 99f8 ca3d 32de b23d
00000090: db4e e6bd cf0c 01be 770b 9f3b 3963 f63d
000000a0: 3347 af3d 2a8d 5fbe ae7a 45be 0718 33be
000000b0: fb2d a23d 64cf 37be b90b ac3d af77 fcbd
000000c0: 32db e3bd c6f5 fbbd c8d5 09be 1316 4c3e
000000d0: 1cea f9bd b869 b6bd db7e 57be d60d 1fbe
000000e0: beee 693d 309e 303e f83a 5a3e 4532 41be
000000f0: 7d7c 2fbe 638e 1bbe 8d80 8f3c 050c e43d
00000100: 7cf7 273e a514 ca3d 5600 98bc 0188 c13d
00000110: ed14 ca3d bc01 35bc 0eaa 2c3e fc7c 48be

rnn.weight_ih_l1 f4 [72, 24]
-0.044401295 -0.08702457 -0.010196945 0.033435334 0.015702263 -0.20008016 -0.17353998 -0.06261122
-0.105112135 -0.039307877 -0.24331164 0.12651724 -0.09062015 -0.21623722 0.082823835 0.054017406
-0.21790531 -0.021030275 -0.16391048 -0.07966959 -0.10594286 -0.2334888 0.11442828 0.05209153
-0.0027065862 0.02513089 -0.1651878 -0.19476128 0.094221994 -0.132045 0.014245876 -0.09151999
-0.11809665 0.07852707 0.10720165 -0.010402971 0.04687467 -0.17635849 0.12808013 -0.0044344766
0.18702015 -0.06878996 -0.0436648 -0.096788146 -0.10826013 0.0771623 -0.21671656 -0.0909436
-0.23475106 0.00971803 0.088348545 0.06569475 -0.0665245 -0.059872203 0.13124101 0.14082563
-0.18806133 -0.013274895 -0.08076478 -0.13234557 -0.1123614 0.04853949 -0.09980088 -0.11617624
-0.19681326 0.03528296 0.011192178 -0.002270656 -0.14035922 -0.08108264 0.109178334 -0.1667402
-0.08607671 -0.032364827 -0.13289036 -0.21866804 -0.10749683 -0.1568374 -0.052198082 -0.15723036
-0.050355427 -0.07388447 -0.17793286 -0.15057287 0.053406753 -0.07289293 0.10136973 -0.010718116
0.15762417 0.11343838 0.153704 0.13807032 0.046579167 0.15808296 0.19274865 -0.20360303
0.17497341 -0.016357305 -0.110209405 -0.06996622 -0.009352188 -0.21769276 0.03424523 0.09002987
0.1312348 0.076896556 0.07951042 0.078341566 0.058974706 -0.23507911 0.12102087 0.16103454
0.09525665 -0.10486788 0.05248021 -0.17971526 -0.12579936 -0.15626843 -0.1945692 -0.11535238
-0.035588723 -0.098387346 -0.10175495 0.10460449 0.037439853 0.031073725 -0.20778923 -0.066432394
0.23067448 0.09076319 0.03793294 -0.14396842 0.17192598 -0.09319197 -0.10980662 -0.17386301
-0.100592054 0.07531547 -0.0037104262 -0.24666451 0.03697349 -0.06336493 -0.18062215 0.045883905
-0.12381637 -0.09117857 -0.2128978 -0.00046179828 -0.2056949 -0.15156114 -0.04982959 -0.026290458
-0.1259951 0.23642944 0.23348328 -0.08704359 0.09301528 -0.14221443 -0.10953291 0.082164764
-0.2618653 -0.1386493 -0.036594342 -0.04688902 -0.091692455 -0.08725731 0.2531978 -0.24818869
-0.22559224 -0.21471258 -0.23963194 -0.15766579 0.094358 -0.14699368 0.08538502 0.009631082
0.08421546 -0.070508204 0.087025166 -0.13199972 0.1463526 0.046769626 -0.14305146 0.20787506
0.02892892 -0.17560346 -0.16425471 0.05881042 -0.12930252 0.11442803 0.00452186 0.041950047
-0.08105052 -0.2277323 0.112319745 -0.23013966 -0.16918027 -0.114483394 -0.026660603 0.19171372
0.20186721 -0.018794848 0.18470679 0.06156881 -0.17141871 -0.14159083 -0.08040584 0.17536736
0.005368287 0.063763164 -0.18298672 -0.19247252 -0.20547032 -0.004254253 0.07457791 0.0060674725
0.09682349 -0.18925054 0.090578154 0.09517935 0.21034168 -0.09240652 0.114710525 0.21210085
0.16759321 -0.17760403 -0.05276772 0.16338842 -0.046009883 -0.23335981 0.111638166 -0.07560837
-0.10478595 0.09955967 -0.012096453 0.117804304 0.0061898464 0.09161663 0.14265133 -0.0629365
0.04810599 -0.1845357 0.17510207 0.122774735 0.1430726 -0.13776122 -0.23188598 -0.059297413
0.064370334 0.07051294 -0.024474874 0.13925155 0.042129673 -0.048769347 0.02123954 -0.12618566
00000000: 22de 35bd f039 b2bd 1611 27bc 7df3 083d
00000010: 08a2 803c d0e1 4cbe 77b4 31be 503a 80bd
00000020: 0845 d7bd 4c01 21bd b026 79be bc8d 013e
00000030: 0f97 b9bd 4a6d 5dbe 8b9f a93d 5b41 5d3d
00000040: 9222 5fbe af47 acbc 26d8 27be cf29 a3bd
00000050: 92f8 d8bd b017 6fbe 6059 ea3d ee5d 553d
00000060: fb60 31bb 4cdf cd3c fe26 29be 806f 47be
00000070: 76f7 c03d ce36 07be 8967 693c d56e bbbd
00000080: a8dc f1bd cdd2 a03d 8a8c db3d 3971 2abc
00000090: a7ff 3f3d 5297 34be 7027 033e 164f 91bb
000000a0: 3682 3f3e c0e1 8cbd dcd9 32bd dd38 c6bd
000000b0: 7db7 ddbd 4507 9e3d f2ea 5dbe a340 babd
000000c0: 9562 70be 5f38 1f3c 15f0 b43d f88a 863d
000000d0: ff3d 88bd 8e3c 75bd 0b64 063e 9834 103e
000000e0: 2693 40be f27e 59bc 0168 a5bd 9985 07be
000000f0: bc1d e6bd 58d1 463d 6764 ccbd cfed edbd
00000100: 6a89 49be dd84 103d 665f 373c 49cf 14bb
00000110: 54ba 0fbe a80e a6bd e498 df3d f1bd 2abe
00000120: fc48 b0bd fb90 04bd 6914 08be 84ea 5fbe
00000130: 4c27 dcbd fc99 20be a8cd 55bd ff00 21be
00000140: 7e41 4ebd be50 97bd 0834 36be c62f 1abe
00000150: 0ac1 5a3d e348 95bd ef9a cf3d 099b 2fbc
00000160: 3b68 213e 6252 e83d 9564 1d3e 4e62 0d3e
00000170: ccc9 3e3d 80e0 213e e75f 453e 507d 50be
00000180: 3b2c 333e c1ff 85bc 78b5 e1bd 734a 8fbd
00000190: eb39 19bc daea 5ebe ba44 0c3d 9561 b83d
000001a0: 6a62 063e f17b 9d3d 5cd6 a23d 8b71 a03d
000001b0: 768f 713d 94b8 70be cad9 f73d 3de6 243e
000001c0: eb15 c33d f9c4 d6bd 7df5 563d 4707 38be
000001d0: 8cd1 00be d504 20be 263d 47be de3d ecbd
000001e0: 7bc5 11bd 4e7f c9bd e664 d0bd e13a d63d
000001f0: 885a 193d 538e fe3c b3c6 54be b50d 88bd
00000200: ee35 6c3e 0de2 b93d 925f 1b3d 756c 13be
00000210: 5d0d 303e 6edb bebd 4be2 e0bd 2509 32be
00000220: 3503 cebd ff3e 9a3d 9f2a 73bb 9f95 7cbe
00000230: 8471 173d 79c5 81bd 03f5 38be c3f0 3b3d
00000240: 7093 fdbd d5bb babd e201 5abe 841d f2b9
00000250: afa1 52be d832 1bbe 1d1a 4cbd 165f d7bc
00000260: dc04 01be 8f1a 723e 3e16 6f3e e943 b2bd
00000270: cc7e be3d a9a0 11be ca52 e0bd 0046 a83d
00000280: 3513 86be 15fa 0dbe f3e3 15bd b30e 40bd
00000290: 41c9 bbbd f6b3 b2bd 24a3 813e 2d25 7ebe
000002a0: a701 67be 9ddd 5bbe 1362 75be 2473 21be
000002b0: c43e c13d 8385 16be 57de ae3d b0cb 1d3c
000002c0: 2879 ac3d 9b66 90bd 403a b23d ef2a 07be
000002d0: 75dd 153e 8291 3f3d 157c 12be 33dd 543e
000002e0: 58fc ec3c 65d1 33be 6332 28be 32e3 703d
000002f0: e167 04be 3e59 ea3d 1c2c 943b d0d3 2b3d
00000300: d1fd a5bd a832 69be e507 e63d bba9 6bbe
00000310: 983d 2dbe 4576 eabd 5667 dabc 9a50 443e
00000320: 47b6 4e3e a7f7 99bc c723 3d3e 942f 7c3d
00000330: 6388 2fbe 30fd 10be d1ab a4bd 8093 333e
00000340: 75e8 af3b 4396 823d df60 3bbe 8417 45be
00000350: d066 52be 4367 8bbb 4ebc 983d a6d1 c63b
00000360: 654b c63d e5ca 41be 0a81 b93d 64ed c23d
00000370: cf63 573e a13f bdbd 5aed ea3d f730 593e
00000380: 8e9d 2b3e d5dd 35be f722 58bd 4b4f 273e
00000390: dc74 3cbd e0f5 6ebe 8da2 e43d 90d8 9abd
000003a0: 049a d6bd f1e5 cb3d 3430 46bc 6243 f13d
000003b0: 32d4 ca3b 80a1 bb3d 3113 123e dae4 80bd
000003c0: c90a 453d edf6 3cbe f54d 333e 5271 fb3d
000003d0: a081 123e 4711 0dbe 8573 6dbe d8e1 72bd
000003e0: 98d4 833d 1769 903d 887f c8bc f597 0e3e
000003f0: 2a90 2c3d 5ec2 47bd 8bfe ad3c d036 01be

rnn.weight_hh_l1 f4 [72, 24]
-0.039230946 -0.123991914 0.20403592 0.0036115763 0.19202402 -0.083638944 -0.1846686 -0.17099455
-0.041417077 -0.023266261 -0.03995703 0.20761354 -0.026951129 0.05252833 0.19704586 0.22907825
-0.14252408 -0.020418739 0.06616639 -0.04903065 -0.04849579 -0.14410204 0.17100069 -0.119918965
0.14324142 -0.06689157 0.11857508 0.16526362 0.10087521 0.15637405 -0.07967537 0.12843406
0.042148117 -0.042016152 0.047766436 0.12363456 -0.03105202 -0.15411945 -0.03263778 0.18682532
0.05183376 -0.10598277 0.059828404 -0.0034148365 0.19223349 -0.07955909 -0.095967285 0.13641886
-0.037949126 0.22606915 0.23445323 0.081091456 0.14009343 -0.03026894 0.08266897 -0.08623831
-0.1516855 -0.16833189 -0.06671211 0.022648053 -0.14954102 0.0007536883 0.06040686 0.16835892
-0.14547898 0.114802994 -0.10391248 -0.031701736 -0.2173343 -0.10929011 0.01983839 -0.044192817
-0.14614718 -0.04956413 0.0989748 0.161575 -0.085162774 0.101158135 -0.030734552 0.040268373
-0.17610008 -0.1770101 -0.013476626 -0.004728802 -0.17350157 0.1270494 0.1124387 -0.018634513
0.021636957 -0.0005433161 -0.019779274 -0.13673757 -0.11797198 -0.10844166 0.2119207 -0.08723671
0.03884143 -0.08355649 -0.07328906 0.22211823 -0.14594762 -0.11983258 -0.22420491 0.09330283
-0.006100056 0.15474056 -0.0628854 0.021761952 0.10967959 0.17928205 -0.06024876 0.17598821
0.1693155 0.16964628 -0.06099259 -0.09758122 -0.1433938 -0.017480966 -0.056307074 0.023706567
-0.19429103 0.02186319 -0.12560068 0.08093982 -0.21411921 0.09684748 0.11738761 -0.008747384
-0.15613168 0.10163994 -0.14990738 0.003945045 -0.085481964 0.23523852 0.090992086 -0.10569084
0.17518823 0.061312865 0.10520496 -0.11046198 0.043887667 -0.045797203 0.14949356 0.05222588
-0.0681762 0.04459673 -0.09404957 -0.025819818 0.13900034 0.032818396 -0.09609795 0.078617394
0.07969983 -0.12249273 -0.1989809 -0.20414926 -0.04465934 -0.15454814 -0.097427025 0.19538608
0.04419769 0.096826196 -0.03875783 -0.10946636 -0.023853468 -0.1849156 -0.12323385 -0.08122491
-0.20693935 0.21599647 -0.10036706 0.10437027 0.14604862 0.1596526 -0.07539994 0.010765193
-0.055793844 -0.23863778 0.056858674 0.08965616 -0.23615055 -0.15636384 0.008128596 0.14945124
0.19119799 0.15702854 0.027078317 0.05594344 -0.14501812 -0.14393383 0.21736191 0.036441855
-0.029434836 0.20129466 -0.009189722 -0.103996076 -0.10525863 0.12373108 0.264763 -0.011042286
-0.07990823 -0.21915792 -0.20558849 -0.08612121 0.122540414 -0.048094712 0.07966288 0.20313424
0.018252114 -0.20558034 -0.0074841757 -0.03653205 -0.16423155 0.0057706484 0.07712236 -0.19074862
0.020409105 -0.04596841 -0.10900705 -0.0626788 -0.016428206 -0.08274296 -0.16785704 -0.13498427
-0.09332591 -0.034609813 -0.1357565 0.09060177 -0.13616201 -0.05726314 0.18676126 -0.07493702
0.12349902 -0.101650216 0.10066238 -0.07622148 -0.04370258 0.04095408 -0.050989494 -0.08706604
0.21253398 -0.1950456 0.029846339 -0.0035390472 0.005072136 -0.028238853 -0.19995673 -0.11991363
-0.09914155 -0.08448101 -0.15977335 0.10129415 0.1947874 -0.0064677093 0.07863101 -0.07542369
00000000: a1b0 20bd 79ef fdbd cbee 503e 32b0 6c3b
00000010: f2a1 443e e54a abbd c419 3dbe 3219 2fbe
00000020: f4a4 29bd e398 bebc fca9 23bd a598 543e
00000030: 9dc8 dcbc f227 573d 64c6 493e 7d93 6a3e
00000040: d5f1 11be 3345 a7bc 3f82 873d 5dd4 48bd
00000050: 86a3 46bd 7c8f 13be ce1a 2f3e 1398 f5bd
00000060: e1ad 123e 73fe 88bd 7ed7 f23d de3a 293e
00000070: a997 ce3d 8520 203e d72c a3bd 3884 033e
00000080: 81a3 2c3d 2119 2cbd bda6 433d 1e34 fd3d
00000090: ce60 febc 7dd1 1dbe 31af 05bd 234f 3f3e
000000a0: a34f 543d 7f0d d9bd a10e 753d 73cb 5fbb
000000b0: dbd8 443e e0ef a2bd 7f8a c4bd 63b1 0b3e
000000c0: 8b70 1bbd ac7e 673e 8214 703e 4713 a63d
000000d0: a774 0f3e 91f6 f7bc 594e a93d b69d b0bd
000000e0: 7253 1bbe 325f 2cbe 5ca0 88bd 6988 b93c
000000f0: 4821 19be 2a93 453a 2f6d 773d 4866 2c3e
00000100: 71f8 14be d51d eb3d 11d0 d4bd aed9 01bd
00000110: e28c 5ebe 7ed3 dfbd 1f84 a23c 8703 35bd
00000120: 9ba7 15be c203 4bbd 4db3 ca3d eb73 253e
00000130: d269 aebd ff2b cf3d 07c7 fbbc 73f0 243d
00000140: 9453 34be 2342 35be 11cd 5cbc 11f4 9abb
00000150: 65aa 31be 3d19 023e 4346 e63d 68a7 98bc
00000160: fd3f b13c 546d 0eba 2508 a2bc ef04 0cbe
00000170: 4b9b f1bd a916 debd bd01 593e 29a9 b2bd
00000180: 3118 1f3d aa1f abbd 9318 96bd f672 633e
00000190: 4b73 15be c96a f5bd f995 65be 8e15 bf3d
000001a0: fbe2 c7bb 4f74 1e3e 10ca 80bd 1f46 b23c
000001b0: b19f e03d b795 373e 67c7 76bd 4136 343e
000001c0: 0b61 2d3e c1b7 2d3e 5ed3 79bd aad8 c7bd
000001d0: d3d5 12be 3e34 8fbc 3fa2 66bd 4634 c23c
000001e0: 3af4 46be 6f1a b33c 779d 00be c7c3 a53d
000001f0: 1142 5bbe f957 c63d ea68 f03d 3051 0fbc
00000200: fce0 1fbe 9a28 d03d 5281 19be 7045 813b
00000210: 2b11 afbd 5ee2 703e 0f5a ba3d 7074 d8bd
00000220: 8b64 333e 3323 7b3d b375 d73d e439 e2bd
00000230: 8ec3 333d d995 3bbd d714 193e ceea 553d
00000240: f79f 8bbd 10ab 363d 109d c0bd 1584 d3bc
00000250: 1b56 0e3e 956c 063d 01cf c4bd 2802 a13d
00000260: aa39 a33d 78dd fabd a6c1 4bbe 810c 51be
00000270: b6ec 36bd de41 1ebe d287 c7bd 4a13 483e
00000280: a308 353d d04c c63d 88c0 1ebd e62f e0bd
00000290: 5968 c3bc 845a 3dbe 0762 fcbd 3f59 a6bd
000002a0: e9e7 53be 2e2e 5d3e 3f8d cdbd 15c0 d53d
000002b0: c58d 153e f97b 233e 496b 9abd 7e60 303c
000002c0: 1688 64bd 765d 74be a4e4 683d a69d b73d
000002d0: 73d1 71be d81d 20be cd2d 053c bf09 193e
000002e0: 68c9 433e 17cc 203e 59d3 dd3c f324 653d
000002f0: a17f 14be 6463 13be 1f94 5e3e 0e44 153d
00000300: 5321 f1bc 3020 4e3e 7d90 16bc e5fb d4bd
00000310: d691 d7bd b866 fd3d 048f 873e b4ea 34bc
00000320: eda6 a3bd ef6a 60be ca85 52be 5160 b0bd
00000330: 78f6 fa3d f6fe 44bd 4b26 a33d 6c02 503e
00000340: 7585 953c a783 52be d13d f5bb a2a2 15bd
00000350: 512c 28be b517 bd3b 54f2 9d3d 9b53 43be
00000360: ff30 a73c 5f49 3cbd 173f dfbd be5d 80bd
00000370: 7294 86bc 2475 a9bd b7e2 2bbe 5139 0abe
00000380: a821 bfbd 05c3 0dbd c003 0bbe 6c8d b93d
00000390: 0e6e 0bbe c18c 6abd 583e 3f3e 9578 99bd
000003a0: 0eed fc3d fd2d d0bd 1428 ce3d 021a 9cbd
000003b0: 7a01 33bd 77bf 273d 5cda 50bd ae4f b2bd
000003c0: 82a2 593e 09ba 47be 4f80 f43c 5cef 67bb
000003d0: 2934 a63b 2b55 e7bc 75c1 4cbe 4795 f5bd
000003e0: ba0a cbbd 6104 adbd a09b 23be 4f73 cf3d
000003f0: 5976 473e 14ef d3bb 4c09 a13d bc77 9abd

rnn.bias_ih_l1 f4 [72]
0.2441385 -0.072861165 -0.10305999 0.12772343 -0.0329276 0.054882452 0.21270591 -0.06513022
0.22300996 -0.020460874 -0.09705286 0.022174256 -0.020380445 -0.047341187 0.15517247 -0.15137458
-0.008516159 0.029196212 -0.0017190921 0.13952121 -0.12593137 0.1622166 -0.013706486 0.18206908
0.0665817 -0.14722256 0.19178051 -0.24888283 -0.045197543 0.18595123 -0.22966027 -0.09316154
-0.10212215 0.1350869 -0.060368385 -0.27503854 -0.038456827 -0.12018713 -0.09744898 0.21203046
0.04093641 -0.0047997106 -0.21880917 -0.11145156 0.077488184 0.009112987 0.051499605 0.07672146
-0.10359984 0.12803918 0.11175797 -0.11128238 -0.114211544 -0.17793126 0.1375883 -0.14079194
-0.20528015 0.08096806 -0.11524622 -0.05005677 0.00025580064 -0.106362 -0.16183095 0.07049275
0.16684182 -0.00669085 0.14713202 -0.114198 0.14304687 -0.15197697 -0.060650222 -0.102784224
00000000: 71ff 793e 3c38 95bd 1e11 d3bd eec9 023e
00000010: 17df 06bd 6ccc 603d 94cf 593e fe62 85bd
00000020: b95c 643e 909d a7bc a6c3 c6bd c9a6 b53c
00000030: e4f4 a6bc d5e8 41bd 88e5 1e3e f001 1bbe
00000040: 5c87 0bbc e52c ef3c 2953 e1ba a6de 0e3e
00000050: 27f4 00be 1c1c 263e 2b91 60bc 5170 3a3e
00000060: fd5b 883d 83c1 16be 1c62 443e 24db 7ebe
00000070: 0f21 39bd 006a 3e3e 102c 6bbe 7acb bebd
00000080: 6b25 d1bd 3854 0a3e d744 77bd dad1 8cbe
00000090: e884 1dbd ac24 f6bd 5593 c7bd 831e 593e
000000a0: f0ac 273d e446 9dbb 830f 60be b740 e4bd
000000b0: 20b2 9e3d a34e 153c 40f1 523d 2420 9d3d
000000c0: 272c d4bd b41c 033e 5de1 e43d 04e8 e3bd
000000d0: bee7 e9bd 9d33 36be f3e3 0c3e c32b 10be
000000e0: f634 52be 95d2 a53d 3606 ecbd 5408 4dbd
000000f0: fb1c 8639 52d4 d9bd 03b7 25be 815e 903d
00000100: 95d8 2a3e eb3e dbbb c7a9 163e a4e0 e9bd
00000110: e17a 123e da9f 1bbe 5e6c 78bd 8980 d2bd

rnn.bias_hh_l1 f4 [72]
-0.008013641 -0.082459636 0.20436502 0.0612636 -0.12248271 0.11168228 -0.08445723 -0.19039486
0.1488166 -0.0011583406 0.12896173 -0.014510416 0.19262868 -0.15211207 0.09330793 0.16776319
0.058521412 -0.14941698 0.11770739 0.013345435 0.18549863 0.05234219 0.012785393 -0.1362842
0.16531624 -0.024224786 0.18184161 0.070180066 0.018322079 -0.21220253 -0.2390963 -0.17719169
0.05544279 0.10290042 -0.061916683 -0.2076602 0.14276081 0.14848585 0.064146675 0.09762123
0.06961416 -0.0010654645 -0.2129662 -0.14456365 0.13383783 0.08374558 -0.05388267 -0.20511192
-0.030666081 0.1892165 0.008470564 -0.13133755 -0.04346677 -0.15742372 0.12718548 -0.085077204
0.13101223 -0.17940773 0.016468784 -0.20600109 -0.15522484 -0.008092454 0.17525376 0.17534943
-0.1904252 -0.0817794 -0.083969064 -0.1738525 0.17547461 -0.009312574 0.046705194 -0.14518407
00000000: a64b 03bc 99e0 a8bd 1045 513e 8aef 7a3d
00000010: 37d8 fabd aeb9 e43d eaf7 acbd dff6 42be
00000020: 6163 183e 76d3 97ba 8b0e 043e 19bd 6dbc
00000030: 7440 453e 44c3 1bbe 3a18 bf3d 1dca 2b3e
00000040: 26b4 6f3d c400 19be 9210 f13d d0a6 5a3c
00000050: 5af3 3d3e c464 563d d379 513c 168e 0bbe
00000060: a948 293e 0f73 c6bc b034 3a3e 91ba 8f3d
00000070: 2f18 963c 9f4b 59be a9d5 74be bd71 35be
00000080: fb17 633d 75bd d23d 599c 7dbd e0a4 54be
00000090: e42f 123e ad0c 183e 555f 833d a4ed c73d
000000a0: de91 8e3d 0ea7 8bba d013 5abe 7e08 14be
000000b0: c90c 093e cd82 ab3d 13b4 5cbd dc08 52be
000000c0: 6f37 fbbc f8c1 413e 1fc8 0a3c 5a7d 06be
000000d0: 360a 32bd af33 21be e93c 023e f53c aebd
000000e0: 1228 063e a9b6 37be 8be9 863c f3f1 52be
000000f0: 43f3 1ebe 3696 04bc b975 333e cd8e 333e
00000100: d3fe 42be f57b a7bd f9f7 abbd 6406 32be
00000110: 9eaf 333e c493 18bc f24d 3f3d 22ab 14be

rnn.weight_ih_l2 f4 [72, 24]
0.06620698 -0.058406428 -0.027175268 0.13722242 0.12361474 -0.04786368 -0.17713735 0.046088696
-0.0059273303 -0.13445327 -0.23761721 0.22744344 -0.1617279 0.25732115 -0.067225024 0.11322691
-0.039459974 -0.23283498 -0.18983771 0.017643932 0.005724935 0.03981383 0.07669369 -0.10615579
0.014252055 0.119715534 0.17890483 -0.123134054 -0.0932629 -0.15511318 0.20888339 -0.21288748
-0.08045856 0.09267348 -0.071978435 0.17919886 -0.06990733 -0.03139295 0.01417202 0.16130118
-0.031271584 -0.008514183 0.1578925 0.19280294 0.07990108 -0.01973517 -0.012767758 0.093287595
0.011600621 0.062516 0.24780278 0.15391037 0.09472005 0.048676535 -0.162809 -0.109992824
0.040152393 0.10481404 -0.12298625 0.06767083 -0.14410932 0.08318032 0.21690679 0.048894677
0.022161905 0.012300109 -0.11726571 0.016576396 0.14032224 0.06560572 -0.1659138 0.1819934
0.07204945 0.03696016 0.05143783 -0.26491576 -0.0377493 0.015542863 -0.053060073 0.1396549
-0.0060199583 -0.12649542 -0.14389142 0.05813951 0.00086353224 -0.16187078 -0.13852116 0.13481928
-0.0843286 -0.13223131 -0.23213221 -0.18784471 0.18050145 -0.06769192 -0.07127443 0.10932536
-0.22301602 0.0056137005 0.0027646245 0.2271202 0.16004908 0.03485009 -0.11086554 0.00463994
-0.23707362 -0.06850429 -0.16143748 -0.04452522 -0.119752765 0.17972854 0.09803865 0.09478492
0.21444656 -0.20234112 -0.020968987 0.17274545 -0.07205843 -0.17211619 -0.16538312 -0.11592465
0.15627792 -0.022568053 -0.040971003 0.12030399 0.029769374 -0.20243849 -0.031776946 -0.13907157
0.1701353 -0.085513845 -0.08741872 0.07460374 0.1731964 0.22073773 -0.035184037 0.1659355
0.11691738 -0.19462489 -5.882002e-05 0.22024257 0.20046295 -0.003959339 -0.0021018584 0.13350198
0.1391172 0.2340772 0.21524578 -0.097222045 0.2250974 -0.21924888 -0.016568268 -0.031867336
0.14231439 0.07103888 -0.25394347 0.019121593 -0.179426 0.03718287 -0.04761496 0.065964565
-0.06672379 0.09120732 -0.013078487 -0.14611034 0.099717066 0.030887125 -0.08243793 -0.122836486
-0.10987966 0.21929269 0.23529609 0.07949355 0.10951399 -0.19803973 0.1762608 -0.17539802
-0.10395577 -0.09694802 -0.04031273 -0.060998082 -0.20062916 0.09246118 -0.084488824 -0.029604284
0.06360594 -0.06491724 0.09181447 -0.115469895 0.026539372 0.03919552 0.1677126 0.09826744
-0.2225763 0.08648264 0.14691932 0.12349124 0.036627535 -0.11393937 -0.17956616 -0.03726688
-0.024987154 -0.060105905 -0.017100962 0.18440181 -0.035745177 0.016602414 0.08663801 0.05032903
0.25697818 -0.16568862 -0.0339131 0.10558567 -0.008630599 -0.08446736 0.24400236 0.23170109
0.13957806 -0.048838243 -0.18550561 -0.14336011 0.06417721 0.18061611 -0.034802765 -0.07315739
0.19542691 0.14385545 0.1236735 0.12995054 -0.1913691 -0.14307246 -0.052506097 -0.124486096
-0.14289968 0.019095382 -0.029200438 0.009969074 -0.15796056 0.03897684 0.0050425534 -0.041865908
-0.028211303 0.12341021 -0.067519054 0.09160554 0.17069434 -0.07693658 -0.10007697 -0.10924644
0.18863097 -0.09563579 -0.061550263 -0.11319539 0.1570792 0.17501533 -0.12947947 -0.16251421
00000000: 8697 873d 943b 6fbd ab9e debc 0984 0c3e
00000010: ba29 fd3d b50c 44bd 7e63 35be 80c7 3c3d
00000020: 0d3a c2bb 1eae 09be ed51 73be efe6 683e
00000030: 009c 25be 99bf 833e 46ad 89bd 83e3 e73d
00000040: c8a0 21bd 4b6c 6ebe d164 42be 028a 903c
00000050: 3c98 bb3b d413 233d 9511 9d3d 3568 d9bd
00000060: 7481 693c 6b2d f53d d432 373e b52d fcbd
00000070: 9f00 bfbd fdd5 1ebe 87e5 553e 2dff 59be
00000080: 75c7 a4bd 98cb bd3d 6e69 93bd e87f 373e
00000090: 932b 8fbd e595 00bd c331 683c 232c 253e
000000a0: a216 00bd 127f 0bbc 92ae 213e 226e 453e
000000b0: 2da3 a33d a7ab a1bc dc2f 51bc 910d bf3d
000000c0: 8810 3e3c 6308 803d 03c0 7d3e ae9a 1d3e
000000d0: 96fc c13d 0c61 473d 67b7 26be eb43 e1bd
000000e0: d676 243d bea8 d63d 37e0 fbbd 0197 8a3d
000000f0: 6591 13be 725a aa3d d01c 5e3e c945 483d
00000100: e28c b53c 6586 493c 0129 f0bd 39cb 873c
00000110: a2b0 0f3e 4b5c 863d 4fe5 29be 7a5c 3a3e
00000120: a98e 933d 8963 173d 79b0 523d 0aa3 87be
00000130: 039f 1abd 7ea7 7e3c 8555 59bd b201 0f3e
00000140: 1243 c5bb 0488 01be 4658 13be b223 6e3d
00000150: ab5e 623a 74c1 25be 7ed8 0dbe 110e 0a3e
00000160: 79b4 acbd a567 07be 11b4 6dbe 5d5a 40be
00000170: 5fd5 383e 10a2 8abd 54f8 91bd f9e5 df3d
00000180: 505e 64be 22f3 b73b b42e 353b 3392 683e
00000190: e8e3 233e f8be 0e3d 790d e3bd a30a 983b
000001a0: 6dc3 72be fa4b 8cbd de4f 25be 1460 36bd
000001b0: f040 f5bd c20a 383e 7dc8 c83d 991e c23d
000001c0: e197 5b3e 8332 4fbe 27c7 abbc 2fe4 303e
000001d0: 5f93 93bd 3a3f 30be 315a 29be e769 edbd
000001e0: 5207 203e a3e0 b8bc 36d1 27bd f061 f63d
000001f0: e7de f33c 094c 4fbe 8b28 02bd c768 0ebe
00000200: f337 2e3e e221 afbd 9608 b3bd d8c9 983d
00000210: 665a 313e 1209 623e 231d 10bd ffea 293e
00000220: 6172 ef3d bf4b 47be 84b5 76b8 4587 613e
00000230: 2946 4d3e 58bd 81bb 55bf 09bb beb4 083e
00000240: bd74 0e3e efb1 6f3e 6469 5c3e 5a1c c7bd
00000250: ef7f 663e c782 60be 2dba 87bc 5387 02bd
00000260: ddba 113e d57c 913d e104 82be e3a4 9c3c
00000270: 73bb 37be 114d 183d e807 43bd 6e18 873d
00000280: 7ba6 88bd e7ca ba3d 2647 56bc f39d 15be
00000290: 7638 cc3d ff06 fd3c 38d5 a8bd b291 fbbd
000002a0: 9608 e1bd 438e 603e 75f1 703e 84cd a23d
000002b0: df48 e03d edca 4abe b67d 343e 8a9b 33be
000002c0: c3e6 d4bd af8c c6bd f61e 25bd 20d9 79bd
000002d0: bb71 4dbe 4a5c bd3d 7a08 adbd af84 f2bc
000002e0: d543 823d 54f3 84bd 3a09 bc3d 7b7b ecbd
000002f0: 1969 d93c 7b8b 203d dabc 2b3e 7140 c93d
00000300: 0beb 63be cf1d b13d 0572 163e fae8 fc3d
00000310: c106 163d 0b59 e9bd 31e0 37be 28a5 18bd
00000320: dcb1 ccbc 9c31 76bd 5117 8cbc d4d3 3c3e
00000330: 8969 12bd c901 883c 456f b13d d025 4e3d
00000340: a592 833e 47aa 29be 76e8 0abd 4d3d d83d
00000350: 5b67 0dbc 39fd acbd c1db 793e 0d43 6d3e
00000360: 8ded 0e3e 9c0a 48bd 2ff5 3dbe fecc 12be
00000370: 576f 833d 6ef3 383e 588d 0ebd 8bd3 95bd
00000380: fe1d 483e d84e 133e 8848 fd3d c111 053e
00000390: 43f6 43be 9681 12be a210 57bd 91f2 febd
000003a0: 4b54 12be eb6d 9c3c c235 efbc 5455 233c
000003b0: 6ac0 21be 2ea6 1f3d 013c a53b 967b 2bbd
000003c0: 641b e7bc 7ebe fc3d 6e47 8abd af9b bb3d
000003d0: 7fca 2e3e ed90 9dbd 28f5 ccbd 99bc dfbd
000003e0: 7a28 413e b2dc c3bd 211c 7cbd fcd2 e7bd
000003f0: 5fd9 203e 3837 333e 4496 04be 206a 26be

rnn.weight_hh_l2 f4 [72, 24]
0.016067514 -0.16564327 0.145536 -0.15167306 0.10780575 -0.16177507 0.09351715 0.16892995
0.22483127 -0.0944211 -0.13712528 0.11426319 -0.14666566 -0.19953498 0.119264156 0.25371197
-0.1243488 0.17331365 0.028135516 0.00780959 0.0050521176 -0.07612334 -0.0037525308 0.035569787
-0.115453646 -0.13875248 -0.01795526 0.21432054 -0.080122 0.02963925 0.21960738 0.09614925
0.12847134 -0.04573621 -0.134674 -0.17451444 -0.19849114 -0.022289142 -0.19006567 -0.06321572
-0.18462235 0.08331276 -0.024064315 -0.13191596 -0.1680114 -0.06644612 -0.06247828 0.1686967
0.04273542 -0.12300317 0.15146092 0.17385675 0.22514613 0.2496593 0.15460978 -0.049414795
0.07175153 0.021076094 0.13233656 -0.21122067 0.04505348 -0.27301246 0.16567339 -0.051014416
-0.10092403 0.18050852 0.054289605 0.055179577 -0.22727698 -0.16838492 0.08255539 -0.047400538
0.053524647 0.001930053 0.16670062 -0.08579923 -0.05253097 -0.075955816 -0.19242409 -0.14951852
-0.04690742 0.1170248 -0.085201815 0.019510217 -0.09949516 -0.015764875 0.15432335 -0.16305257
0.03906124 -0.09453146 0.15644069 0.17547677 -0.10377346 0.21226025 -0.033275615 -0.15864708
0.14359161 -0.006650029 0.15253541 -0.0137449475 -0.08517564 0.09500871 -0.074939854 0.0060417005
-0.13249458 -0.009025139 -0.12347237 0.08285578 0.10099644 0.09223367 -0.20714001 0.037345503
-0.18015328 0.24326149 0.024861755 0.07334314 0.1602611 -0.01512869 0.012656427 0.18541367
-0.08400871 -0.06738224 -0.18653093 0.058869515 0.06527739 -0.18383336 0.064108945 -0.059391525
-0.1902781 0.0849886 -0.07477802 -0.02506797 0.16172604 -0.08732258 -0.10697162 0.17764555
0.050992984 0.056905564 -0.008208872 -0.11360921 0.10594952 -0.06668874 0.09823722 -0.105808534
0.09338762 0.18692331 -0.060545493 0.027246192 0.122037366 -0.14035614 -0.11354818 -0.13951766
0.038345125 0.026139192 0.12418316 0.12013041 -0.078831844 -0.041624952 -0.18788137 -0.015177503
-0.013028369 -0.100847505 0.13846341 -0.13554569 0.01905854 0.00047044293 -0.04305776 0.06468492
-0.027240824 -0.16721241 0.09019318 0.23239432 -0.007922578 0.14435922 0.20150794 0.09418195
-0.046062373 0.16375828 -0.045194022 -0.039121132 -0.07454273 0.09718369 0.03398503 -0.045781452
0.045953877 -0.0023227194 -0.08403346 0.027310675 0.096406646 -0.025214603 -0.21016742 -0.12282642
-0.089145556 -0.17551677 0.09733992 0.00324531 -0.12256057 -0.058482207 0.2552172 0.18072084
0.25493765 -0.09326951 0.01931462 -0.20928365 0.1542341 -0.09354442 -0.17025843 0.01657698
-0.23012331 -0.11743495 0.2084409 -0.084329836 -0.22320579 -0.052110888 -0.1774862 0.08972684
0.051780228 -0.13928339 0.17008151 0.14480864 -0.12178824 0.1561625 0.21108983 0.18189889
-0.015080029 0.14014119 -0.013439321 -0.038166907 0.012853013 -0.24395981 -0.02852178 0.12628958
-0.12518759 0.07385215 -0.12419606 0.05057199 -0.16162074 -0.16239081 -0.20599549 -0.05596024
-0.11925982 0.049916197 -0.04333688 -0.07350454 -0.16656266 -0.0021885538 0.08153054 0.09698211
0.07911295 0.16218989 0.15741305 -0.12304711 0.23209961 -0.13504879 0.099026695 -0.1386423
00000000: 05a0 833c 649e 29be 6407 153e 2f50 1bbe
00000010: 43c9 dc3d 5da8 25be eb85 bf3d f9fb 2c3e
00000020: 2b3a 663e da5f c1bd 926a 0cbe d202 ea3d
00000030: 862f 16be e652 4cbe c440 f43d 89e6 813e
00000040: 95aa febd 2279 313e 747c e63c 97e7 ff3b
00000050: 3c8c a53b 8ee6 9bbd 05ed 75bb a0b1 113d
00000060: f672 ecbd 2115 0ebe e916 93bc d876 5b3e
00000070: 0117 a4bd 03ce f23c c2e0 603e e6e9 c43d
00000080: fe8d 033e e455 3bbd fbe7 09be eab3 32be
00000090: 4341 4bbe b897 b6bc 93a0 42be 3e77 81bd
000000a0: a40d 3dbe e19f aa3d 8722 c5bc fa14 07be
000000b0: 2e0b 2cbe e714 88bd 3ae9 7fbd d4be 2c3e
000000c0: 560b 2f3d 16e9 fbbd 9218 1b3e 8107 323e
000000d0: b58c 663e b0a6 7f3e 0752 1e3e 2b67 4abd
000000e0: 77f2 923d c6a7 ac3c 3c83 073e 3b4a 58be
000000f0: ff89 383d 4ac8 8bbe 49a6 293e 7ef4 50bd
00000100: 42b1 cebd 3ad7 383e c75e 5e3d fb03 623d
00000110: 4cbb 68be 196d 2cbe cd12 a93d 1127 42bd
00000120: a93c 5b3d d5f9 fc3a 91b3 2a3e 82b7 afbd
00000130: b72a 57bd b98e 9bbd d20a 45be 621b 19be
00000140: ff21 40bd b3aa ef3d 4a7e aebd e4d3 9f3c
00000150: 1ec4 cbbd 5725 81bc f106 1e3e 41f7 26be
00000160: aefe 1f3d b699 c1bd fd31 203e 2fb0 333e
00000170: 2e87 d4bd c05a 593e 034c 08bd 6174 22be
00000180: ae09 133e 7de8 d9bb 3e32 1c3e 7d32 61bc
00000190: 9170 aebd ed93 c23d 117a 99bd 75f9 c53b
000001a0: a9ac 07be 2dde 13bc 15df fcbd 4bb0 a93d
000001b0: 39d7 ce3d 02e5 bc3d 831c 54be 99f7 183d
000001c0: 1a7a 38be 8a19 793e e1aa cb3c ee34 963d
000001d0: 7c1b 243e 53de 77bc e75c 4f3c 15dd 3d3e
000001e0: c20c acbd b3ff 89bd f701 3fbe 2921 713d
000001f0: 27b0 853d d03e 3cbe 8d4b 833d 8744 73bd
00000200: 43d8 42be 810e ae3d 3825 99bd 585b cdbc
00000210: 839b 253e 2ed6 b2bd f013 dbbd b7e8 353e
00000220: 05de 503d cf15 693d 817e 06bc f2ab e8bd
00000230: 10fc d83d 1b94 88bd 9830 c93d 25b2 d8bd
00000240: 0242 bf3d d368 3f3e 8dfe 77bd 6833 df3c
00000250: baee f93d 85b9 0fbe f38b e8bd b8dd 0ebe
00000260: c70f 1d3d dc21 d63c be53 fe3d ef06 f63d
00000270: 9772 a1bd ed7e 2abd f963 40be 10ab 78bc
00000280: f174 55bc 2389 cebd 5ac9 0d3e 7dcc 0abe
00000290: a820 9c3c c8a5 f639 555d 30bd 8779 843d
000002a0: 2628 dfbc bb39 2bbe 34b7 b83d c7f8 6d3e
000002b0: b3cd 01bc e7d2 133e 1958 4e3e 77e2 c03d
000002c0: e6ab 3cbd 40b0 273e 5e1d 39bd 7b3d 20bd
000002d0: dca9 98bd 3e08 c73d e333 0b3d 5585 3bbd
000002e0: 223a 3c3d c438 18bb bc19 acbd a3ba df3c
000002f0: d970 c53d db8e cebc 2136 57be 6b8c fbbd
00000300: f291 b6bd abba 33be 275a c73d 44af 543b
00000310: 0901 fbbd 0a8b 6fbd d4ab 823e e20e 393e
00000320: 3087 823e 1604 bfbd b239 9e3c 744e 56be
00000330: 8bef 1d3e 3894 bfbd 3a58 2ebe 72cc 873c
00000340: 72a5 6bbe bc81 f0bd 8871 553e 1fb5 acbd
00000350: 0f90 64be 3a72 55bd f1be 35be b5c2 b73d
00000360: 8117 543d 4ea0 0ebe d929 2e3e b748 143e
00000370: 1d6c f9bd 10e9 1f3e ef27 583e b443 3a3e
00000380: 3a12 77bc 2c81 0f3e 9930 5cbc e754 1cbd
00000390: 7295 523c 9ad0 79be 82a6 e9bc 0e52 013e
000003a0: 2d31 00be cc3f 973d 815a febd 9324 4f3d
000003b0: e87f 25be c749 26be 7bf0 52be 9136 65bd
000003c0: 7e3e f4bd ed74 4c3d 0382 31bd 8c89 96bd
000003d0: 678f 2abe d76d 0fbb 7cf9 a63d 8e9e c63d
000003e0: f805 a23d 1b15 263e e330 213e 2000 fcbd
000003f0: 85ab 6d3e 3b4a 0abe 82ce ca3d 3ff8 0dbe

rnn.bias_ih_l2 f4 [72]
0.011762775 -0.08346246 0.14483325 0.14983194 -0.0077423123 -0.096928746 -0.12478493 0.10959819
0.18552868 -0.045922626 -0.16017309 0.13229366 0.13663332 -0.18346581 -0.08941749 0.0048195305
-0.1466249 -0.10890052 -0.037424836 0.17207333 0.026590375 -0.14645344 0.027809927 -0.15620007
-0.20104092 -0.15732853 -0.2181053 0.076410584 0.0011248402 -0.1490215 -0.025209993 -0.041912295
0.045399744 -0.06438193 -0.120084554 0.113060154 -0.048277725 -0.24388245 0.06805207 -0.13893464
0.033679772 0.0037439128 -0.24152888 0.11114963 -0.17011 -0.24560167 -0.1576443 -0.15715094
-0.07298019 0.10833735 -0.0053615784 -0.0054103318 -0.08725346 0.053346828 0.07465167 0.18939734
-0.036782213 0.15037389 0.061876412 -0.091258645 0.09667407 0.18820877 0.060384016 -0.14431892
0.18429776 0.038147412 0.08124291 0.12471533 0.14445345 -0.043132473 -0.19053595 0.19282863
00000000: a7b8 403c 5eee aabd 2b4f 143e 8b6d 193e
00000010: 39b3 fdbb 9482 c6bd 3e8f ffbd 0475 e03d
00000020: 3bfb 3d3e 5d19 3cbd 6a04 24be fd77 073e
00000030: 9be9 0b3e 76de 3bbe 8420 b7bd 27ed 9d3b
00000040: d624 16be 3c07 dfbd c94a 19bd fe33 303e
00000050: 0fd4 d93c e4f7 15be a5d1 e33c e9f2 1fbe
00000060: acdd 4dbe bb1a 21be ff56 5fbe 277d 9c3d
00000070: 606f 933a 1899 18be 3085 cebc 3aac 2bbd
00000080: 15f5 393d acda 83bd e4ee f5bd 158c e73d
00000090: ddbe 45bd 52bc 79be e25e 8b3d e244 0ebe
000000a0: cdf3 093d 6f5c 753b 5953 77be 6ba2 e33d
000000b0: 5131 2ebe 017f 7bbe 826d 21be 2dec 20be
000000c0: a376 95bd f9df dd3d 2eb0 afbb 2749 b1bb
000000d0: f1b1 b2bd 3482 5a3d fae2 983d 60f1 413e
000000e0: f2a8 16bd 9dfb 193e 1f72 7d3d d0e5 babd
000000f0: 0efd c53d cdb9 403e 3b55 773d 57c8 13be
00000100: 8db8 3c3e 7640 1c3d af62 a63d c06a ff3d
00000110: 9beb 133e adab 30bd db1b 43be de74 453e

rnn.bias_hh_l2 f4 [72]
0.060499012 0.22093113 -0.034248773 -0.041518535 0.038997587 0.07081981 0.16363533 0.16698863
0.10532194 -0.10682658 -0.032021705 -0.11799994 0.08382552 0.043150794 0.20055625 0.08132017
-0.12571499 -0.13593443 -0.17114706 0.071832255 -0.09330854 0.109106526 0.0856833 -0.16778353
-0.18720919 -0.009141164 0.15228988 -0.09756374 -0.08263775 -0.1403575 -0.06931073 -0.15492855
-0.03865856 0.1441524 -0.046648692 0.124037415 -0.17966531 0.02057325 -0.18374099 0.018737977
-0.04876646 -0.13842401 -0.06488187 0.10350267 0.14112276 0.10871218 -0.054501954 -0.12168018
-0.10828626 0.026558096 -0.06550485 0.043432318 0.04424438 0.16681433 0.21026435 0.1302774
-0.14589477 -0.20048273 -0.019666005 0.11154574 -0.045244128 -0.098557234 -0.015334652 0.1614447
-0.19554079 0.14987741 0.19618969 -0.032248452 -0.060082115 0.030927414 0.003959391 -0.0021789349
00000000: d0cd 773d c53b 623e 7148 0cbd 570f 2abd
00000010: efbb 1f3d fa09 913d 0590 273e 11ff 2a3e
00000020: 07b3 d73d e5c7 dabd 3129 03bd f4a9 f1bd
00000030: b7ac ab3d e3be 303d 9e5e 4d3e 308b a63d
00000040: 6ebb 00be 6532 0bbe 2d41 2fbe ca1c 933d
00000050: 8c18 bfbd 3e73 df3d ba7a af3d 72cf 2bbe
00000060: c4b3 3fbe d2c4 15bc e1f1 1b3e 80cf c7bd
00000070: fb3d a9bd e0b9 0fbe c9f2 8dbd 97a5 1ebe
00000080: 7058 1ebd b09c 133e b312 3fbd 5407 fe3d
00000090: 2ffa 37be 3b89 a83c 9926 3cbe 6380 993c
000000a0: 57bf 47bd 06bf 0dbe c9e0 84bd 35f9 d33d
000000b0: 7c82 103e 7ea4 de3d 713d 5fbd 7533 f9bd
000000c0: 30c5 ddbd 5d90 d93c 6827 86bd 16e6 313d
000000d0: 9839 353d 60d1 2a3e 8a4f 573e 7067 053e
000000e0: 7065 15be 584b 4dbe 9a1a a1bc 1872 e43d
000000f0: e851 39bd 60d8 c9bd 313e 7bbc c251 253e
00000100: d83b 48be 7779 193e f3e5 483e f416 04bd
00000110: aa18 76bd 7d5b fd3c c7bd 813b 76cc 0ebb
