Checkpoints/w_e500_no150.pth (torch, 714766 bytes, 207 tensors)

rnn.weight_ih_l0 f4 [72, 5]
0	0x3e6fabbc	0.23405355
1	0xbdb24715	-0.08704964
2	0xbddd4c2c	-0.10805544
3	0x3ea7a3ac	0.3274206
4	0xbd5e670e	-0.0542975
5	0x3e607ec7	0.21923362
6	0xbcdd8029	-0.02703865
7	0xbcc3645a	-0.023851562
8	0xbd783b3d	-0.06060337
9	0x3e1b07e5	0.1513973
10	0x3e0fcb1e	0.14042327
11	0xbdfebebf	-0.12438726
12	0x3db037ef	0.086044185
13	0x3c8aed02	0.016958717
14	0xbe83ed73	-0.25767097
15	0x3eb50181	0.3535271
16	0xbe023296	-0.1271461
17	0x3ee5297c	0.44758213
18	0x3ec642bb	0.38722786
19	0xbe893158	-0.2679546
20	0x3d03dd2c	0.032193348
21	0x3f35ac9a	0.70966494
22	0x3b3837b0	0.0028109364
23	0x3dcf0000	0.10107422
24	0x3eed514d	0.4635109
25	0x3ab335b0	0.0013672616
26	0x3eb73db6	0.3578927
27	0x3e6b2c83	0.22966199
28	0x3e90d606	0.28288287
29	0xbc3bcbd6	-0.0114621725
30	0x3e7db939	0.24777688
31	0x3ccf3a6c	0.025296412
32	0x3cfe37b5	0.031032423
33	0xbd826291	-0.06366456
34	0x3cb18c0b	0.021673223
35	0xbd5158c7	-0.051110055
36	0x3f050fc0	0.5197716
37	0xbdc124ef	-0.09430873
38	0xbd8ea158	-0.06964368
39	0xbea3604c	-0.31909406
40	0xbe79925c	-0.24372238
41	0xbe434408	-0.1906892
42	0xbe6acb20	-0.22929049
43	0x3f130da8	0.5744271
44	0xbe77b915	-0.24191697
45	0x3dc1f24f	0.09470045
46	0x3daf4a29	0.08559067
47	0xbdf7be61	-0.12096859
48	0x3dfcce5b	0.12344047
49	0x3d8d55ff	0.06901168
50	0x3f0d78fc	0.5526273
51	0xbdd23039	-0.10263104
52	0x3e8b1718	0.27166057
53	0x3e9aaea7	0.30211374
54	0x3c5e9ce9	0.013587215
55	0xbe0080f2	-0.12549189
56	0x3e4be7e5	0.1991268
57	0x3e191f81	0.14953424
58	0x3e5cfc75	0.2158068
59	0x3da2e6df	0.079541914
60	0x3c9f7009	0.019462602
61	0xbdb55be7	-0.088554196
62	0x3e1f2f81	0.15545465
63	0x3e5624e5	0.20912512
64	0x3e00e8a5	0.12588747
65	0xbe975e28	-0.29564023
66	0x3dc74c57	0.097313575
67	0x3eed4fe5	0.46350017
68	0xbd92ec0f	-0.07173931
69	0xbd82cf50	-0.06387198
70	0x3e8f0c3b	0.2793902
71	0xbe0c79a0	-0.13718271
72	0x3d2bab18	0.041911215
73	0x3eb254cc	0.3483032
74	0x3dcc1568	0.099650204
75	0x3df7a178	0.120913446
76	0xbd85f801	-0.065414436
77	0xbe10b8a8	-0.14132941
78	0x3f145fc1	0.5795861
79	0x3ee95918	0.45575786
80	0xbd17a9a9	-0.037027035
81	0xbd52559f	-0.051351186
82	0xbeb442af	-0.35207126
83	0xbe3a671c	-0.18203396
84	0x3cf74f58	0.030189201
85	0xbda28351	-0.07935203
86	0x3dd07194	0.10177913
87	0x3e56dc14	0.2098239
88	0x3c954b02	0.018224243
89	0x3e40a985	0.18814667
90	0x3e1e0bf5	0.15434249
91	0x3d20cf45	0.039260168
92	0x3e4ca2a4	0.19983917
93	0x3e1468a2	0.14493039
94	0x3dbb3b65	0.09142188
95	0x3e0f9cf4	0.14024717
96	0x3c9292e1	0.017892303
97	0x3f0455f9	0.51693684
98	0x3e3224ae	0.17396805
99	0xbdaf8580	-0.08570385
100	0x3ecfe693	0.40605602
101	0xbe97c732	-0.2964416
102	0x3d569d1c	0.052395925
103	0x3da5b6a1	0.08091474
104	0xbe47b8e5	-0.19504125
105	0x3e5c51bf	0.21515559
106	0x3e0806c7	0.13283835
107	0x3dc5f583	0.09665968
108	0xbbdf8ca8	-0.0068221875
109	0x3e13bfb4	0.14428598
110	0xbddaf53b	-0.10691305
111	0xbe2635eb	-0.16231506
112	0x3e0af1fc	0.13568872
113	0xbec9b64a	-0.39396888
114	0xbde766f3	-0.11298933
115	0x3e9ab866	0.3021881
116	0xbe4b95e5	-0.19881399
117	0x3d54a5c1	0.051915888
118	0x3eafcca4	0.34335816
119	0xbe7d3744	-0.24728113
120	0x3dc38f7c	0.09548852
121	0xbf8d504e	-1.1040132
122	0xbf0a120a	-0.53933775
123	0xbe6571d4	-0.22406703
124	0x3c9250fd	0.017860884
125	0xbe3fec49	-0.1874248
126	0xbebda956	-0.37043256
127	0xbc9c05ab	-0.019045671
128	0xbe0f4f68	-0.13995135
129	0xbf0682cc	-0.5254333
130	0x3d97ea44	0.074177295
131	0xbf0ad02a	-0.54223883
132	0xbf4c783f	-0.7987098
133	0xbe65e77f	-0.2245159
134	0x3e1c02b5	0.15235408
135	0xbe17d0b6	-0.1482571
136	0x3d44417c	0.047914013
137	0xbca54626	-0.020175051
138	0xbf1fe0b7	-0.6245226
139	0xbe91ba81	-0.28462604
140	0xbf1ffe63	-0.6249754
141	0xbf3776a9	-0.71665436
142	0xbef880dc	-0.48535812
143	0xbeac2fce	-0.33630222
144	0xbf53376c	-0.8250644
145	0x3d85f157	0.065401725
146	0xbed8fa4e	-0.42378467
147	0x3d9ade40	0.07561922
148	0xbedeb682	-0.43498617
149	0xbf3ab263	-0.72928447
150	0xbf2b5636	-0.6692842
151	0x3f2360d3	0.6381962
152	0x3ee5e6f7	0.44902775
153	0xbedc9676	-0.43083543
154	0xbeaaba2a	-0.33345157
155	0xbf727292	-0.9470607
156	0xbf8581d8	-1.043025
157	0xbf6535a7	-0.8953499
158	0xbeeedb2c	-0.4665159
159	0xbf62f27c	-0.8865125
160	0x3ea91993	0.33027324
161	0xbf9f022d	-1.2422539
162	0xbf92cd1f	-1.1468848
163	0x3e0883d0	0.13331532
164	0xbe0f5f7f	-0.14001273
165	0x3e12a9c9	0.1432258
166	0xbf5cebb1	-0.86297137
167	0xbee3fba5	-0.44527927
168	0xbcd3d9b1	-0.02586064
169	0x3d457eea	0.048216738
170	0xbe93b888	-0.28851724
171	0xbeb75105	-0.35804
172	0xbe84ff84	-0.25976193
173	0xbe1f49b5	-0.15555461
174	0xbeb85305	-0.3600084
175	0x3e370567	0.17873155
176	0xbf7c0116	-0.98439157
177	0xbee11253	-0.43959293
178	0xbf01620b	-0.50540227
179	0x3e182770	0.14858794
180	0x3e11c947	0.14236937
181	0xbe504b9b	-0.20341341
182	0x3e056ec6	0.13030538
183	0xbe4db6a5	-0.20089205
184	0x3e22a189	0.15881933
185	0xbf397608	-0.72445726
186	0xbf0c260c	-0.54745555
187	0xbf6efc18	-0.93353415
188	0xbe9d6724	-0.30742753
189	0xbdddce06	-0.108303115
190	0x3e937fe1	0.288085
191	0xbefae733	-0.49004516
192	0xbee3ac87	-0.44467565
193	0xbf19abc9	-0.6002775
194	0x3d84bc67	0.064812474
195	0xbe64c020	-0.22338915
196	0xbda43ba2	-0.080191866
197	0x3ed2c889	0.4116862
198	0xbf405428	-0.7512841
199	0xbfd201f0	-1.6406841
200	0xbe57ec21	-0.2108617
201	0xbd32b69a	-0.043631174
202	0x3e43acc8	0.1910888
203	0xbe69e29f	-0.22840355
204	0xbf369acd	-0.7132996
205	0xbe7488f7	-0.23880373
206	0xbe0ccbac	-0.1374957
207	0x3bd91731	0.006625079
208	0xbd9b1a3f	-0.075733654
209	0xbebac0d0	-0.3647523
210	0xbf083091	-0.53199106
211	0xbeca9ea7	-0.39574167
212	0x3de7343d	0.112892605
213	0xbf47839f	-0.7793521
214	0xbf839891	-1.0280935
215	0xbe8c9549	-0.27457646
216	0xbf00ffe4	-0.5039046
217	0xbcf9d259	-0.03049581
218	0xbe4d2b6a	-0.20036092
219	0xbf97152a	-1.1803334
220	0x3ea4c3e0	0.3218069
221	0xbf1fd842	-0.6243936
222	0x3e8072e3	0.25087652
223	0xbe2340a7	-0.15942632
224	0x3db51efd	0.08843801
225	0xbf2e334a	-0.6804701
226	0xbea51b7e	-0.32247537
227	0xbd79fdb1	-0.061032955
228	0xbf26a3f6	-0.65093935
229	0xbf3c71aa	-0.7361094
230	0x3ddee03c	0.10882613
231	0xbe80a5f6	-0.25126618
232	0x3d769c82	0.06020785
233	0x3e35f08e	0.17767546
234	0xbe6c4eb2	-0.23076895
235	0xbe21ba61	-0.15793754
236	0xbea0f035	-0.31433263
237	0xbe8047ed	-0.25054875
238	0xbe4de0c0	-0.20105267
239	0x3df2d8b0	0.11857736
240	0xbddd24c0	-0.10798025
241	0xbd7ea0ee	-0.062165193
242	0xbe901262	-0.28139025
243	0x3e90e594	0.28300154
244	0xbe4a9650	-0.19783902
245	0x3e3dc829	0.18533386
246	0xbcf1088c	-0.02942302
247	0x3e3c82ef	0.18409322
248	0x3e6c75cb	0.2309181
249	0xbe097557	-0.13423668
250	0x3dab4283	0.083622955
251	0x3ed4ff68	0.4160111
252	0xbe794bcb	-0.24345319
253	0x3e2305a5	0.15920122
254	0xbd2493e8	-0.040180117
255	0x3db5c9cc	0.0887638

rnn.weight_hh_l0 f4 [72, 24]
0	0x3ec1b07d	0.37829962
1	0x3e203687	0.156458
2	0x3cd154e7	0.02555318
3	0x3e9e3abe	0.30904192
4	0x3c938902	0.018009666
5	0x3ea00abd	0.31258193
6	0x3e761494	0.24031287
7	0xbda87983	-0.082263015
8	0xbcd65cf4	-0.02616737
9	0x3e80cc25	0.2515575
10	0xbe3755fe	-0.17903897
11	0xbd3ad75f	-0.04561555
12	0x3d49376a	0.049125113
13	0xbcf40d5c	-0.029791526
14	0x3cba3a9a	0.022733022
15	0xbe958dcd	-0.29209748
16	0x3d4a1602	0.049337395
17	0xbc88f5ad	-0.01671871
18	0xbe73c928	-0.23807204
19	0x3dca8905	0.09889416
20	0xbe32c5f8	-0.17458332
21	0xbde5dbe2	-0.1122358
22	0xbe5bb253	-0.21454744
23	0xbe8d974c	-0.27654493
24	0x3c8783be	0.016542312
25	0xbd8720d5	-0.06598059
26	0x3e4e796d	0.20163508
27	0x3e39f7f5	0.18160994
28	0x3dd9fe43	0.106442
29	0x3dd4c481	0.10389043
30	0x3c6f42e1	0.0146033475
31	0xbc0eac07	-0.008708007
32	0x3e864ba5	0.26229587
33	0xbbd01d99	-0.0063511846
34	0xbbd5ca6b	-0.0065243742
35	0x3e6aa3dc	0.2291407
36	0x3ed65d77	0.41868183
37	0x3b8b385d	0.0042486624
38	0xbd180b67	-0.03712025
39	0xbddf5d00	-0.1090641
40	0xbdced1cd	-0.1009861
41	0x3daf1690	0.08549225
42	0xbdc50d0d	-0.0962163
43	0x3dba09f8	0.09083933
44	0xbda0f7a9	-0.078597374
45	0x3de06662	0.10957028
46	0x3dc997a4	0.09843376
47	0xbe51772b	-0.20455615
48	0xbe9576e5	-0.29192272
49	0x3ca7864c	0.02044978
50	0x3aa34085	0.0012455141
51	0xbe019a90	-0.12656617
52	0x3e1039f9	0.14084615
53	0x3ea884c9	0.32913807
54	0x3e648859	0.22317638
55	0xbde77af1	-0.11302746
56	0x3c9453b7	0.018106325
57	0x3e7ed830	0.24887156
58	0xbebe2c1b	-0.37143025
59	0xbdddf55b	-0.108378135
60	0xbcb7cceb	-0.02243658
61	0xbe8d661e	-0.27616972
62	0xbe12c5e3	-0.143333
63	0xbe8c9845	-0.27459922
64	0xbe182357	-0.14857231
65	0xbe91bd03	-0.28464517
66	0xbd95309d	-0.07284663
67	0x3e24998f	0.16074203
68	0x3da0e665	0.07856444
69	0x3dc6cbeb	0.09706863
70	0xbe86bfe0	-0.26318264
71	0xbaee8ff8	-0.0018200865
72	0xbd93480a	-0.07191475
73	0x3ee8e45e	0.4548673
74	0x3eceb191	0.40369847
75	0x3df7074e	0.1206194
76	0xbd05d753	-0.032676052
77	0x3ef60266	0.48048705
78	0xbe5cb235	-0.21552356
79	0x3997a5b6	0.0002892443
80	0xbea74175	-0.32667127
81	0xbd91e7a8	-0.07124263
82	0xbec7512e	-0.38929123
83	0xbe4362c0	-0.19080639
84	0x3d87315e	0.06601213
85	0x3d3bf047	0.045883443
86	0xbd71b62e	-0.05901163
87	0xbde01fa5	-0.10943536
88	0xbd80f0d8	-0.06295937
89	0xbe6b31d8	-0.22968233
90	0xbe40d334	-0.18830568
91	0xbc32022d	-0.010864777
92	0x3e8647bc	0.26226604
93	0x3df2a41a	0.11847706
94	0xbd1e408b	-0.03863577
95	0xbdc9ec4d	-0.09859524
96	0x3ea515a2	0.32243067
97	0xbe240545	-0.16017635
98	0x3e0122f9	0.12610997
99	0x3ee6e540	0.4509678
100	0x3e9c5436	0.30532998
101	0x3ed75281	0.42055133
102	0xbdb958f5	-0.0905017
103	0x3e9dfe1a	0.30857927
104	0x3eb64ab7	0.35603878
105	0xbdde728d	-0.108616926
106	0xbdf6751d	-0.12034056
107	0xbdd4f88c	-0.10398969
108	0xbdfda872	-0.12385644
109	0xbed15638	-0.40886092
110	0xbea19668	-0.31560063
111	0x3e9d4cec	0.3072275
112	0xbea0472f	-0.3130431
113	0xbd1d4f22	-0.038405545
114	0xbe6ca26e	-0.23108837
115	0x3d8a8e88	0.06765467
116	0xbca04443	-0.0195638
117	0xbeee103a	-0.46496755
118	0xbe103b51	-0.14085127
119	0xbda9c22f	-0.08288991
120	0x3ea1041d	0.3144845
121	0x3db4fe36	0.088375494
122	0x3ed1681c	0.40899742
123	0x3dd00555	0.10157267
124	0x3dc7e499	0.097603984
125	0x3eab6b34	0.33480227
126	0xbd8eb4d8	-0.06968087
127	0x3e27ba64	0.16379696
128	0xbd8278ef	-0.063707225
129	0xbd80aec3	-0.06283333
130	0x3db235cd	0.08701668
131	0xbf035928	-0.51307917
132	0xbe4e859c	-0.20168155
133	0xbdf17ec7	-0.11791759
134	0xbea9efe3	-0.33190832
135	0x3e583382	0.21113399
136	0x3ceba10e	0.02876332
137	0xbe8224d0	-0.2541871
138	0xbe0ac15a	-0.1355032
139	0x3d5e9d05	0.054348964
140	0xbbc79e7d	-0.0060918913
141	0x3d1d18d2	0.03835375
142	0xbdc3b02e	-0.09555088
143	0x3d185775	0.03719278
144	0xbe565984	-0.20932585
145	0xbd98037d	-0.0742254
146	0x3ca3f5a7	0.020014597
147	0x3f23c12e	0.63966644
148	0x3eb98f3a	0.36242086
149	0x3eca8da7	0.39561197
150	0xbe50bcd8	-0.20384538
151	0x3d4a20b2	0.049347587
152	0x3e8a2772	0.2698322
153	0xbe09cf8e	-0.13458082
154	0xbdd4d6ae	-0.103925094
155	0x3d534bd0	0.051585972
156	0x3e7e772d	0.2485015
157	0x3de4ddaf	0.11175095
158	0x3c7ea91e	0.01554325
159	0x3e34ad46	0.17644224
160	0x3c3e246f	0.011605366
161	0x3d04911c	0.03236495
162	0xbe5eeb3d	-0.21769424
163	0x3de4d93a	0.11174245
164	0x3e10ad2a	0.14128557
165	0xbef63ac4	-0.4809171
166	0xbe3c7073	-0.18402271
167	0xbe652160	-0.22376013
168	0xbd05675a	-0.032569267
169	0xbe4d7a96	-0.20066294
170	0x3e311a7a	0.17295256
171	0x3dda21b7	0.10650962
172	0x3e774310	0.24146676
173	0x3da6006b	0.081055485
174	0xbd754f19	-0.059889887
175	0x3dd6e518	0.10492915
176	0xbed94d29	-0.4244168
177	0xbbd59484	-0.0065179486
178	0x3c1a7be1	0.009428949
179	0x3c10c345	0.008835618
180	0xbe47169c	-0.19442219
181	0xbd27db8d	-0.040980864
182	0xbece460b	-0.40287814
183	0x3d998645	0.07496313
184	0xbd3d74bd	-0.04625391
185	0xbcef9c21	-0.029249253
186	0x3d93405a	0.071900085
187	0xbd43681e	-0.047706716
188	0xbd8a4174	-0.067507654
189	0xbea52e11	-0.32261708
190	0x3de91112	0.11380209
191	0xbc0cbcae	-0.008589907
192	0x3f3234c7	0.6961178
193	0x3e216ac8	0.1576339
194	0xbee9c3fc	-0.45657337
195	0x3ea299f5	0.31758085
196	0xbde13fe3	-0.109985135
197	0xbe496104	-0.19665915
198	0xbe0e4aa7	-0.13895665
199	0x3def35f7	0.11680215
200	0xbd76da45	-0.06026675
201	0x3e4994e3	0.19685702
202	0x3d567a2f	0.052362617
203	0xbd6dd81e	-0.058067434
204	0xbe997c6f	-0.29977748
205	0xbc8e366f	-0.01735994
206	0x3f0edd1d	0.5580614
207	0x3ecf6ff9	0.40515116
208	0xbd00afc2	-0.031417616
209	0xbcbb2cc0	-0.022848487
210	0xbdbd39d4	-0.092395455
211	0x3bc86c3f	0.0061164196
212	0xbeb61a0c	-0.35566747
213	0x3e1f5e99	0.1556343
214	0xbe0c4883	-0.13699536
215	0xbd085af2	-0.033289857
216	0xbe4d0ef9	-0.20025243
217	0x3e96955b	0.29410824
218	0xbd040c58	-0.032238334
219	0xbe05b1dd	-0.1305613
220	0x3d902d5e	0.07039903
221	0x3e8c3a61	0.2738829
222	0x3d8ff9e3	0.07030084
223	0x3ded5c7a	0.11589904
224	0xbe184c1f	-0.14872788
225	0x3d77182b	0.060325783
226	0xbe2b4662	-0.16726068
227	0xbd0e4184	-0.03473045
228	0xbe73ae25	-0.237969
229	0x3c65bf18	0.014022611
230	0x3e877c8e	0.26462215
231	0xbc967b08	-0.018369213
232	0xbe44e274	-0.1922701
233	0xbe50aa20	-0.20377398
234	0xbe782b21	-0.24235202
235	0x3e81cfd5	0.25353876
236	0xbd8302ae	-0.063969955
237	0xbe02391d	-0.127171
238	0x3d0eaa01	0.034830097
239	0xbe876f75	-0.26452222
240	0xbe08c1ae	-0.13355133
241	0x3e40aa14	0.1881488
242	0x3e3b51e5	0.18292959
243	0x3ab84933	0.0014059901
244	0x3e90f33a	0.28310567
245	0x3e89a5d6	0.26884335
246	0x3e03d743	0.12875085
247	0x3b480f3c	0.0030526659
248	0xbd9375cc	-0.07200202
249	0x3e87ee30	0.2654891
250	0xbe94d8b8	-0.29071593
251	0xbdf4cfa7	-0.11953669
252	0xbe04369f	-0.12911461
253	0xbe7851a4	-0.24249893
254	0x3e051438	0.12995994
255	0xbef7d371	-0.48403504

rnn.bias_ih_l0 f4 [72]
0	0xbe2f9bbb	-0.1714925
1	0x3daefbac	0.08544096
2	0x3e842db0	0.25816107
3	0x3e80fd95	0.25193468
4	0xbb18e28c	-0.0023328392
5	0x3dbdadca	0.09261663
6	0x3dca4777	0.09876912
7	0x3e0b713f	0.13617419
8	0x3d7c3b44	0.061579958
9	0xbc6e1fc2	-0.014533939
10	0xbd4f6368	-0.05063191
11	0xbd1e54ef	-0.038655218
12	0x3dec16bb	0.11527773
13	0xbe6f197d	-0.23349567
14	0x3e3cf490	0.18452668
15	0xbdcb0913	-0.0991384
16	0x3c830e96	0.015998166
17	0x3dbffee6	0.0937479
18	0x3e29cacb	0.16581266
19	0xbd60af12	-0.05485446
20	0x3da6d2ee	0.081457004
21	0xbd572dac	-0.05253379
22	0x3cde0455	0.027101675
23	0xbe66bd7a	-0.22533217
24	0xbef56f59	-0.47936514
25	0xbe15fc24	-0.14646965
26	0xbe0180c9	-0.12646784
27	0x3e012fc0	0.12615871
28	0xbf258098	-0.64649343
29	0xbe99e731	-0.30059198
30	0x3c92a661	0.017901601
31	0xbedf9f7b	-0.4367636
32	0xbe8fc873	-0.28082618
33	0x3e291002	0.16510013
34	0xbe168030	-0.14697337
35	0xbcb1d550	-0.02170816
36	0xbde2304b	-0.110443674
37	0xbe12eaf5	-0.14347441
38	0xbe2f99d7	-0.17148529
39	0xbeaa23ba	-0.33230382
40	0x3e872fb5	0.26403585
41	0xbe044a35	-0.12918933
42	0xbe8b878d	-0.27251855
43	0xbe2a1929	-0.1661116
44	0x3e9257ee	0.2858271
45	0xbef1c14e	-0.47217792
46	0x3e5cf7a8	0.21578848
47	0x3e2ef9d6	0.17087492
48	0xbdafde2e	-0.08587299
49	0x3db95d49	0.09050996
50	0x3d2a6d24	0.04160799
51	0x3c9878c3	0.018612271
52	0xbdd2c02e	-0.102905616
53	0xbe41839c	-0.18897861
54	0x3e525ccd	0.20543213
55	0x3d8fc161	0.07019306
56	0xbe1aada2	-0.15105298
57	0x3e521de6	0.20519218
58	0xbdfb8ab7	-0.12282317
59	0x3e3b4ae1	0.18290283
60	0xbe1651bd	-0.14679618
61	0xbd383406	-0.04497149
62	0x3d67209f	0.056427594
63	0x3e043674	0.12911397
64	0xbe6e0693	-0.23244695
65	0x3d4a1114	0.049332693
66	0x3e47db17	0.1951717
67	0xbcd83f68	-0.026397422
68	0xbe364273	-0.17798786
69	0x3decf391	0.11569894
70	0xbe165f6f	-0.14684843
71	0xbe311385	-0.17292602

rnn.bias_hh_l0 f4 [72]
0	0x3d87b19f	0.066256754
1	0x3dd840ae	0.10559212
2	0xbdd6ed00	-0.10494423
3	0xbd560dea	-0.052259363
4	0xbd898666	-0.067150876
5	0x3dc8561e	0.097820505
6	0x3dde6ccb	0.10860594
7	0x3cce84bd	0.025209779
8	0x3df61319	0.12015361
9	0xbda22c4d	-0.07918606
10	0x3e128a4c	0.14310569
11	0xbe396d90	-0.18108201
12	0x3e277b71	0.16355683
13	0x3de7de40	0.11321688
14	0x3dcedcbe	0.10100697
15	0xbd06f173	-0.032945108
16	0x3de60650	0.11231673
17	0x3e26daa0	0.16294336
18	0xbdabef3f	-0.08395242
19	0xbdb817f0	-0.08988941
20	0x3e031c29	0.12803711
21	0x3e43bfc5	0.19116123
22	0x3dd239e6	0.102649495
23	0xbdcf9bf2	-0.10137166
24	0xbeb45600	-0.35221863
25	0x3d62d21b	0.055376153
26	0xbe027750	-0.12740827
27	0x3dddf77b	0.10838219
28	0xbec4c570	-0.38431883
29	0xbe9753dd	-0.2955617
30	0xbdb20240	-0.086918354
31	0xbed6f6a0	-0.41985035
32	0xbec5f0c9	-0.38660267
33	0x3c9ac08b	0.01889064
34	0xbe685748	-0.22689545
35	0xbd05fd6b	-0.03271238
36	0xbea2d35a	-0.31801873
37	0xbe772b43	-0.24137597
38	0xbd32a60b	-0.043615382
39	0xbe9d26ae	-0.30693573
40	0x3e6d6942	0.23184684
41	0xbe0ea446	-0.13929853
42	0xbefa4fd7	-0.48889038
43	0xbeac2301	-0.33620456
44	0x3dc24815	0.09486405
45	0xbeea9e8a	-0.4582408
46	0x3e0b7b6e	0.13621303
47	0xbd9fbc84	-0.077996284
48	0xbd8d42af	-0.068974845
49	0x3d97ad17	0.07406061
50	0xbe33f2ec	-0.17573136
51	0xbe4dc471	-0.20094468
52	0x3dc04663	0.09388425
53	0xbd93c4a1	-0.07215238
54	0x3da07914	0.07835594
55	0xbe38cbb4	-0.18046457
56	0x3de43118	0.111421764
57	0x3e2d2917	0.16910206
58	0x3d9d8351	0.07691062
59	0xbd83d7b5	-0.06437627
60	0x3d11fcc6	0.035641454
61	0xbe1cda27	-0.15317594
62	0xbd4d3744	-0.050101534
63	0xbd738ab2	-0.059458442
64	0x3b9dc9a6	0.004815298
65	0xbd52b7b2	-0.051444717
66	0xbe2b2497	-0.16713177
67	0xbde25882	-0.11052038
68	0xbe301a26	-0.17197475
69	0xbcb66b6a	-0.022268016
70	0x3cf9c7d2	0.03049079
71	0x3d4c184b	0.049827855

rnn.weight_ih_l1 f4 [72, 24]
0	0xbec49b66	-0.3839981
1	0xbe0fa999	-0.1402954
2	0x3ed15da3	0.40891752
3	0xbec0a0bf	-0.3762264
4	0x3dd9b3ce	0.10629998
5	0x3e87da8f	0.26533934
6	0xbdd494c9	-0.10379941
7	0x3dd9eb7e	0.1064062
8	0x3e3d027c	0.18457979
9	0xbe46fdcb	-0.19432752
10	0x3bccd2e2	0.006250725
11	0x3d95cc01	0.07314301
12	0xbe2b1ac2	-0.16709426
13	0x3b938822	0.0045023123
14	0xbecf99a8	-0.40546918
15	0xbdc39425	-0.09549741
16	0x3e0dc228	0.13843596
17	0xbd67e6a3	-0.056616437
18	0x3d4b1ae5	0.049586195
19	0xbe0c247f	-0.13685797
20	0xbe2a4b1b	-0.16630213
21	0xbee719ab	-0.4513677
22	0x3de185c2	0.110118404
23	0x3e40ca97	0.18827282
24	0xbf09873a	-0.53721964
25	0xbe66510e	-0.22491857
26	0x3e146a95	0.14493783
27	0x3ebea6c5	0.3723661
28	0x3e58d078	0.21173275
29	0x3ebf292c	0.373361
30	0xbbd55fec	-0.006511679
31	0x3d9dcf4d	0.07705555
32	0xbe8a38c9	-0.2699645
33	0xbea1349b	-0.31485447
34	0xbdc5e4cc	-0.0966278
35	0x3e2eede6	0.17082939
36	0xbe4dea4a	-0.20108905
37	0x3cb0e14a	0.021591801
38	0xbee0a652	-0.43876892
39	0xbde1c990	-0.11024773
40	0x3c1dc138	0.0096285865
41	0xbe1ffa24	-0.15622765
42	0xbe5aabb9	-0.2135457
43	0x3e0cc704	0.13747793
44	0xbcb58901	-0.022160055
45	0xbf460903	-0.773575
46	0xbe64b93b	-0.22336285
47	0xbe6815f0	-0.22664618
48	0x3f082221	0.53177077
49	0x3c9c2f3c	0.019065492
50	0xbd742d0d	-0.059613276
51	0x3e91cc63	0.28476247
52	0xbe39379c	-0.1808762
53	0x3ddff6dc	0.109357566
54	0x3d3f7614	0.046743467
55	0x3d724b82	0.05915404
56	0x3e9b63a0	0.30349445
57	0x3e902902	0.28156286
58	0x3d5b7ff8	0.053588837
59	0x3ea6748a	0.32510787
60	0xbe3de16e	-0.18543026
61	0xbe19cac0	-0.15018749
62	0xbd3518e9	-0.04421321
63	0x3f032fbf	0.5124473
64	0x3d699485	0.057026405
65	0xbdf1a564	-0.11799124
66	0xbe010549	-0.12599672
67	0x3e848355	0.25881448
68	0x3d255ddc	0.040372714
69	0xbed71d7f	-0.4201469
70	0x3e135b14	0.14390212
71	0xbdbd0fc2	-0.09231521
72	0x3c2925fe	0.010323999
73	0x3d7c980f	0.061668452
74	0xbed7da6d	-0.42158833
75	0xbe2b1a9e	-0.16709372
76	0xbe2a6883	-0.1664143
77	0xbe9f820c	-0.31153905
78	0x3d67b4a2	0.05656875
79	0x3e6153b6	0.2200459
80	0x3ebbc4ed	0.3667368
81	0x3d9e39db	0.07725879
82	0xbe13eb9a	-0.14445344
83	0x3e18a1b8	0.14905441
84	0xbec27221	-0.37977698
85	0xbe99ad55	-0.30015054
86	0x3e924f55	0.2857615
87	0x3e526994	0.20548087
88	0xbde4572a	-0.11149438
89	0x3e45a37f	0.1930065
90	0x3d9bf61f	0.07615303
91	0x3d840af8	0.064474046
92	0xbeacd235	-0.33754125
93	0x3f2c2db7	0.67257255
94	0xbdf4de1d	-0.11956427
95	0xbdc63bc7	-0.096793704
96	0xbf653720	-0.8953724
97	0xbeb32236	-0.34987038
98	0x3dfcefa5	0.12350396
99	0xbeec1870	-0.46112394
100	0x3e8318a9	0.25604752
101	0xbe8938c6	-0.26801127
102	0xbdc4a4f3	-0.09601774
103	0x3e042aa6	0.12906894
104	0x3da38596	0.07984464
105	0xbe2211ec	-0.15827149
106	0x3df38997	0.118914776
107	0x3d9f2fc7	0.07772785
108	0xbefcd75c	-0.49383056
109	0xbde329e8	-0.11091977
110	0xbee612a0	-0.44936085
111	0xbf60d948	-0.87831545
112	0x3e45bd9a	0.19310609
113	0xbc093a5b	-0.008375729
114	0xbe91c9cb	-0.28474268
115	0xbe1872d7	-0.14887558
116	0xbeb97275	-0.36220136
117	0xbdf6d6a8	-0.12052661
118	0x3e710e3d	0.23540588
119	0x3d803bb5	0.06261388
120	0xbe315838	-0.17318809
121	0xbe81e0b9	-0.25366762
122	0x3c970054	0.018432774
123	0xbccfa529	-0.02534731
124	0xbd14b120	-0.036301732
125	0x3e178537	0.14796911
126	0xbe5474d9	-0.20747699
127	0x3e4fbdb9	0.20287217
128	0xbe2d0035	-0.1689461
129	0x3d32689c	0.043556795
130	0xbd836411	-0.064155705
131	0xbd07656e	-0.033055715
132	0xbe1f43e1	-0.15553237
133	0xbe2e6d3b	-0.17033856
134	0x3e15bb8c	0.14622325
135	0xbe08aec4	-0.13347918
136	0x3e693db9	0.22777452
137	0x3e55ae45	0.2086726
138	0x3b29dc8a	0.0025918805
139	0xbe14af31	-0.14519955
140	0xbdb44d5b	-0.08803817
141	0xbe0f5ba4	-0.13999802
142	0x3dfa0056	0.12207095
143	0xbcef242c	-0.029192053
144	0x3eda8f1b	0.42687306
145	0x3e31d0fd	0.17364879
146	0x3e1df945	0.1542712
147	0xbdc233f7	-0.09482568
148	0x3e94188c	0.28924978
149	0x3d19767b	0.037466507
150	0x3eac18a3	0.33612546
151	0x3ef9292b	0.4866422
152	0x3f4a9f18	0.7914901
153	0xbdca7279	-0.09885115
154	0xbec2f7e5	-0.38079754
155	0xbe10f7f3	-0.14157085
156	0xbe8c1d21	-0.27365974
157	0xbf1fccbb	-0.6242177
158	0xbe5bf3e4	-0.21479756
159	0x3f21f779	0.6326824
160	0xbf0ac3f4	-0.5420525
161	0x3ca01b35	0.019544223
162	0xbf1e3db1	-0.61812884
163	0x3e74cda3	0.23906569
164	0xbe560f97	-0.20904385
165	0x3eb04e82	0.34434897
166	0x3a240853	0.0006257344
167	0xbebaa8a2	-0.36456782
168	0x3ef68c80	0.48154068
169	0x3e6b0167	0.22949754
170	0x3ec9fb0d	0.3944935
171	0x3d198091	0.037476126
172	0x3ec91662	0.3927489
173	0x3f25d272	0.6477424
174	0x3e0d0387	0.13770877
175	0x3ee8ea2c	0.4549116
176	0x3f2fb29d	0.6863192
177	0xbe20d21c	-0.1570515
178	0xbdaf6b8b	-0.08565434
179	0xbf1849ae	-0.59487426
180	0xbe5919ea	-0.21201292
181	0xbed0bb72	-0.4076801
182	0xbf3f7c0c	-0.74798656
183	0x3d6b900b	0.057510417
184	0xbf1fd946	-0.6244091
185	0xbe86e743	-0.26348314
186	0xbed1d8dd	-0.40985766
187	0x3e434343	0.19068627
188	0xbcfc70d3	-0.030815518
189	0xbe0bd572	-0.13655642
190	0xbc9674cf	-0.018366246
191	0x3c52fda0	0.012877852
192	0x3f6ca0e5	0.92433006
193	0x3f2c3641	0.67270285
194	0x3eb0ebee	0.34555
195	0xbe004caf	-0.12529252
196	0xbd15a952	-0.03653843
197	0x3e0ba93b	0.13638775
198	0x3f0aaf2d	0.5417355
199	0x3e80f5a9	0.25187424
200	0x3c4339b5	0.011915614
201	0x3e474088	0.1945821
202	0xbe52f418	-0.20600927
203	0xbf0681c2	-0.52541745
204	0x3e875f87	0.2644007
205	0x3de34a5d	0.11098168
206	0xbe0f1216	-0.13971743
207	0xbb9527be	-0.004551857
208	0xbec9f3bf	-0.39443776
209	0xbd7ba681	-0.061438087
210	0xbf30de1e	-0.69088924
211	0x3ce9da11	0.028546365
212	0x3e218c22	0.15776113
213	0x3ed00d4e	0.4063515
214	0x3d31696e	0.043313436
215	0xbebd77bc	-0.37005413
216	0x3d8550f5	0.06509582
217	0x3e6265e1	0.22109176
218	0xbe1e1b05	-0.15439995
219	0x3e15e537	0.1463822
220	0x3e124427	0.1428381
221	0x3ece5b65	0.40304103
222	0x3e4b386e	0.19845745
223	0x3cc12aa7	0.023579909
224	0xbecacb13	-0.39608058
225	0x3e420980	0.18948936
226	0xbe83870e	-0.25688976
227	0x3e37b309	0.1793939
228	0x3f1399e8	0.5765672
229	0x3d5f023e	0.054445498
230	0x3eceafa9	0.40368393
231	0xbe63643a	-0.22206202
232	0x3e4a1d67	0.19737779
233	0xbe7f2ceb	-0.24919479
234	0xbee5550a	-0.44791442
235	0x3e821e17	0.25413582
236	0x3e664e07	0.22490703
237	0xbdc1070c	-0.09425172
238	0xbe3df84e	-0.18551752
239	0xbe198c26	-0.14994869
240	0xbe8a34a2	-0.2699328
241	0xbee2c4db	-0.44290814
242	0xbd88b856	-0.06675784
243	0x3bfce019	0.007717144
244	0xbf023465	-0.508612
245	0xbecba0ea	-0.39771205
246	0xbe1493be	-0.14509484
247	0xbcb88d41	-0.022528293
248	0x3e9bdd00	0.30442047
249	0xbcb81471	-0.022470685
250	0x3e8a258f	0.2698178
251	0x3ee3f9de	0.4452657
252	0xbe429088	-0.19000447
253	0x3d9847dc	0.07435581
254	0x3e44cd9a	0.19219056
255	0x3ec87ef4	0.39159358

rnn.weight_hh_l1 f4 [72, 24]
0	0xbe92d071	-0.28674653
1	0x3ebbdc3d	0.36691466
2	0xbcc9ff50	-0.024657875
3	0xbbe0aaa6	-0.0068562804
4	0x3dab51bc	0.08365199
5	0xbe57c938	-0.21072853
6	0x3e564edc	0.2092852
7	0xbe1eaa5f	-0.15494679
8	0x3e620abd	0.22074409
9	0xbe73376c	-0.2375161
10	0x3b9d73e2	0.004805074
11	0x3df07b93	0.1174232
12	0xbe59832d	-0.21241446
13	0xbe92cdf0	-0.28672743
14	0x3e9bbbd7	0.30416748
15	0xbe2282ab	-0.15870158
16	0xbd8022be	-0.062566265
17	0x3e56a79a	0.20962372
18	0x3e810767	0.2520096
19	0xbd2875c1	-0.041127924
20	0xbee0ec1c	-0.43930137
21	0x3dff7aca	0.12474592
22	0x3edffe4f	0.4374871
23	0x3e77b890	0.24191499
24	0x3e14c818	0.14529455
25	0x3ecb098b	0.39655718
26	0x3c5f2cbf	0.013621508
27	0x3d80caed	0.06288705
28	0x3e558bb9	0.20854081
29	0x3ccd6bbe	0.02507579
30	0xbe6d0a28	-0.23148406
31	0xbd0f30df	-0.034958716
32	0x3ea9da36	0.33174294
33	0x3e858ca7	0.26083872
34	0xbe1cac1d	-0.15300031
35	0x3e6cfce2	0.23143342
36	0xbe060253	-0.13086824
37	0x3e2ad20f	0.16681693
38	0x3eb0c228	0.3452313
39	0x3e3d8f89	0.18511786
40	0xba54dab3	-0.0008119747
41	0x3d925bdd	0.07146428
42	0xbf1b356e	-0.606284
43	0xbe8a5227	-0.27015802
44	0xbe29147d	-0.16511722
45	0x3eb1e786	0.3474695
46	0xbeae2d84	-0.340191
47	0xbe5aed20	-0.21379519
48	0x3e2d462a	0.16921297
49	0x3d920e8b	0.0713168
50	0x3e210bc0	0.15727139
51	0x3e0d672b	0.13808887
52	0x3d4eb35d	0.050464023
53	0x3e3c2067	0.18371736
54	0xbcf84a20	-0.030308783
55	0xbe11128d	-0.14167233
56	0x3e1be24e	0.15223047
57	0x3e232dff	0.15935515
58	0x3d3b18ef	0.045678075
59	0x3e011dab	0.12608974
60	0xbd476c2f	-0.048687156
61	0xbdec3bc5	-0.11534838
62	0xbec2a813	-0.38018855
63	0xbd9c7cee	-0.07641016
64	0x3e3541e4	0.17700917
65	0xbd95801f	-0.07299828
66	0xbe129c19	-0.14317359
67	0x3e5de12e	0.2166793
68	0x3e0e810a	0.13916412
69	0x3e8113e2	0.25210482
70	0x3e4ac1b4	0.19800454
71	0xbdc8455b	-0.097788535
72	0xbcfb5745	-0.030681262
73	0xbe18f7e3	-0.14938311
74	0x3da17ad7	0.07884758
75	0xbed4141b	-0.4142159
76	0x3e863754	0.26214087
77	0x3e7ee946	0.24893674
78	0xbc391a6f	-0.011297806
79	0x3ecf5bcd	0.40499726
80	0xbe811737	-0.25213024
81	0x3ecfb469	0.4056733
82	0xbef3acb5	-0.47592703
83	0xbe1a5316	-0.15070757
84	0x3d8fc315	0.07019631
85	0x3e0e4383	0.13892941
86	0x3dabc150	0.08386481
87	0x3da40708	0.080091536
88	0x3d23eeb3	0.040022563
89	0xbd484508	-0.04889396
90	0xbe816770	-0.2527423
91	0xbef8a982	-0.48566824
92	0x3eb79f64	0.35863793
93	0xbe1e8cb7	-0.15483366
94	0xbecae682	-0.39628989
95	0x3e71f692	0.23629215
96	0x3e38690e	0.18008825
97	0xbea735d8	-0.32658267
98	0x3e273385	0.16328247
99	0xbe86822b	-0.26271185
100	0x3df5f95e	0.12010454
101	0xbda15488	-0.07877451
102	0xbde272f3	-0.11057081
103	0xbd788492	-0.060673304
104	0x3d9dcf12	0.07705511
105	0xbd10e62d	-0.035375763
106	0xbeb47945	-0.3524877
107	0x3d841383	0.06449034
108	0xbd858f0f	-0.06521427
109	0x3d507999	0.050897215
110	0x3f0c954b	0.54915303
111	0x3e190760	0.1494422
112	0xbd03709b	-0.03208981
113	0xbd17256e	-0.03690093
114	0x3e9a83f4	0.30178797
115	0xbf168978	-0.5880351
116	0x3e1f56f3	0.15560512
117	0xbf32ff31	-0.6992064
118	0x3f2da379	0.67827564
119	0x3e578343	0.21046166
120	0x3df389b9	0.11891503
121	0x3db75bc3	0.08953049
122	0xbd8aab1f	-0.0677092
123	0xbd1cafe3	-0.038253676
124	0xbe11f299	-0.142527
125	0x3bf4a879	0.0074663726
126	0x3ea3f754	0.32024634
127	0xbdf4fe1b	-0.11962529
128	0x3decadd4	0.115565926
129	0xbc8b80f2	-0.01702926
130	0x3e678977	0.22611032
131	0xbe995923	-0.29950818
132	0xbcbcbb9c	-0.023038678
133	0xbd08134e	-0.033221535
134	0x3df8a4f6	0.12140839
135	0x3e02aadc	0.1276049
136	0x3e2a3cb7	0.16624723
137	0x3e0db443	0.13838296
138	0x3da02735	0.07819978
139	0x3dfb4afc	0.122701615
140	0x3e78d5a8	0.24300253
141	0x3d9f1453	0.077675484
142	0xbd62efc9	-0.05540446
143	0x3d94ee41	0.07272006
144	0x3eb41493	0.35171947
145	0xbead41fd	-0.33839408
146	0x3e9b5994	0.3034178
147	0xbba7ddee	-0.0051228916
148	0xbe6029e7	-0.21890984
149	0xbdf959cb	-0.1217533
150	0x3eca713e	0.39539522
151	0x3c3635c6	0.011121219
152	0x3e3ce5cb	0.18447034
153	0xbd2d326b	-0.04228441
154	0xbe8871b8	-0.2664926
155	0x3dd2d579	0.10294623
156	0x3ccef4cd	0.025263214
157	0x3ea72b1f	0.32650086
158	0xbe94bc32	-0.29049832
159	0x3e3460a8	0.17614996
160	0x3eaa627c	0.33278263
161	0x3ec23210	0.3792882
162	0xbeae4a35	-0.3404099
163	0xbdd9c323	-0.106329225
164	0xbd2b3e48	-0.041807443
165	0x3e7f59b0	0.24936557
166	0xbe9941a8	-0.29932904
167	0xbdae452f	-0.085092895
168	0xbd71ac78	-0.05900237
169	0x3e3805ed	0.1797101
170	0xbe487a86	-0.19577989
171	0xbe90e219	-0.282975
172	0xbe0cb3a1	-0.13740398
173	0xbdc02b54	-0.09383264
174	0x3efb5d4d	0.4909462
175	0xbe0df7bc	-0.13864034
176	0x3e049a8f	0.12949584
177	0xbeb2f4da	-0.34952432
178	0xbe946569	-0.2898362
179	0x3eb22bad	0.34798947
180	0xbeae8463	-0.34085378
181	0x3e90bbff	0.2826843
182	0xbd997cc6	-0.07494502
183	0x3e40d13b	0.18829815
184	0xbc2ce0cc	-0.010551643
185	0xbc885b9c	-0.016645245
186	0xbeab9928	-0.33515286
187	0xbd621173	-0.055192422
188	0xbe833e03	-0.2563325
189	0x3f7937e1	0.9735089
190	0x3e3c8503	0.18410115
191	0xbe3c2a6e	-0.1837556
192	0xbe765e66	-0.24059448
193	0xbe814677	-0.25249073
194	0x3d8a71a7	0.06759959
195	0xbe6d8cbf	-0.23198222
196	0x3e51a142	0.20471671
197	0xbed82bba	-0.4222086
198	0x3f707893	0.9393398
199	0xbcd40b19	-0.025884198
200	0xbe4a9f28	-0.19787276
201	0xbf2b8ec6	-0.6701473
202	0xbe8577ba	-0.26067907
203	0xbbc79a81	-0.0060914163
204	0xbdd65a75	-0.10466472
205	0x3e4c39d6	0.19943938
206	0xbdec8d65	-0.11550406
207	0x3f1d8575	0.61531764
208	0x3df13148	0.11776978
209	0x3e7f3144	0.24921137
210	0xbe11cffe	-0.14239499
211	0xbc4f28d7	-0.012644014
212	0xbddc56aa	-0.10758717
213	0x3dc50af2	0.09621228
214	0x3e9ead77	0.30991718
215	0x3e86d949	0.2633765
216	0xbe89aa07	-0.26887533
217	0xbf31ba50	-0.69424915
218	0x3d1fcb66	0.039012335
219	0x3e212f06	0.15740594
220	0x3c7dfc84	0.015502099
221	0xbea2040a	-0.31643707
222	0x3e8b35a2	0.27189356
223	0x3e07b58e	0.13252851
224	0xbe8d9197	-0.2765014
225	0xbf33182e	-0.6995877
226	0xbdc28c22	-0.094993845
227	0x3e9873c9	0.29775837
228	0xbd118910	-0.035531104
229	0x3e0517cf	0.12997364
230	0xbd48e660	-0.049047828
231	0x3e95510a	0.2916339
232	0xbdd574fe	-0.10422705
233	0xbd99c2c0	-0.07507849
234	0x3e75916a	0.23981252
235	0xbd7b8a5d	-0.06141125
236	0xbea6fe2b	-0.3261579
237	0xbdd12450	-0.10212004
238	0x3edb37f5	0.4281613
239	0x3e820255	0.25392404
240	0x3ce5ffab	0.028076014
241	0xbdf3cc74	-0.11904231
242	0xbc3cb03c	-0.011516627
243	0xbe2175e3	-0.15767626
244	0xbcdeb761	-0.027187051
245	0xbdd7d3cb	-0.10538443
246	0xbdf99bc7	-0.12187915
247	0x3edf7e86	0.43651217
248	0xbda469bc	-0.0802798
249	0x3ebe291f	0.37140748
250	0xbea7a4cb	-0.32742915
251	0x3d86b05b	0.06576606
252	0xbd5f99fb	-0.054590207
253	0xbd3b8764	-0.045783415
254	0x3d81c784	0.06336883
255	0xbe807884	-0.25091946

rnn.bias_ih_l1 f4 [72]
0	0xbe1f45ac	-0.15553921
1	0xbdf02964	-0.11726645
2	0x3e429156	0.19000754
3	0x3d96235d	0.07330964
4	0x3e6d1958	0.23154199
5	0x3d7b365d	0.06133114
6	0x3e436904	0.19083029
7	0x3e3a992d	0.18222494
8	0x3e2a0956	0.16605124
9	0xbdba6e97	-0.091031246
10	0x3e6c4554	0.23073322
11	0x3ded1c2a	0.115776375
12	0x3d474c04	0.04865648
13	0x3de4564c	0.11149272
14	0xbd549a00	-0.05190468
15	0x3dcc8a26	0.09987287
16	0xbdd956ea	-0.10612281
17	0xbca68a34	-0.020329572
18	0x3cda4f11	0.02664903
19	0x3e8b2b25	0.27181354
20	0xbe2393ba	-0.15974322
21	0x3e0a9507	0.13533412
22	0x3e0963ff	0.13417052
23	0x3db29e10	0.08721554
24	0xbe263c01	-0.16233827
25	0xbf32144d	-0.69562227
26	0xbecc70eb	-0.399299
27	0xbf82e53e	-1.0226209
28	0xbed80f79	-0.42199305
29	0xbe34e15f	-0.17664097
30	0xbea0ea65	-0.3142883
31	0xbf6d3363	-0.92656535
32	0xbf0caac1	-0.5494805
33	0xbf1db31b	-0.6160142
34	0xbf9f3d1c	-1.2440524
35	0xbe70574e	-0.23470804
36	0xbdcb65fb	-0.099315606
37	0xbe36f9a7	-0.17868672
38	0xbf1e7b0c	-0.61906505
39	0xbe17931d	-0.14802213
40	0xbe129b60	-0.14317083
41	0xbf33a2b2	-0.7017013
42	0xbf2ae839	-0.66760594
43	0xbcae7888	-0.021297708
44	0xbed37638	-0.4130113
45	0xbec78cd7	-0.3897464
46	0xbf122f73	-0.5710365
47	0xbd0b6205	-0.034029026
48	0xbc23ea53	-0.010004598
49	0xbe3c40ec	-0.1838414
50	0x3df7b314	0.12094703
51	0xbde32ef5	-0.11092941
52	0x3e95f4c4	0.29288304
53	0x3de77431	0.113014586
54	0xbd3f028d	-0.046633292
55	0x3d29933c	0.04140018
56	0x3de35e64	0.11101988
57	0x3ddf718e	0.10910331
58	0xbc837059	-0.016044782
59	0xbe1fdcd8	-0.15611589
60	0x3e09e007	0.13464366
61	0x3e42ebea	0.19035307
62	0x3c220067	0.009887791
63	0x3e011ff8	0.12609851
64	0x3e13c707	0.14431392
65	0x3cc75a24	0.024334975
66	0x3e184085	0.14868362
67	0x3d548a3c	0.051889643
68	0x3e315423	0.17317252
69	0xbe0a63af	-0.13514589
70	0xbdd93754	-0.10606256
71	0x3d1716e3	0.03688706

rnn.bias_hh_l1 f4 [72]
0	0x3da276a4	0.07932785
1	0x3e67fc3a	0.2265481
2	0x3c25f1ea	0.010128478
3	0x3e08c702	0.13357165
4	0x3eb1577d	0.3463706
5	0xbdc13531	-0.094339736
6	0x3e8fe3ce	0.2810349
7	0xbe227a93	-0.15867071
8	0x3eaf711d	0.34265986
9	0x3e587632	0.21138838
10	0xbc432a2a	-0.011911908
11	0x3dfb067d	0.12257097
12	0x3de21a73	0.11040201
13	0xbd8836cc	-0.06651077
14	0xbe0bed0c	-0.13664645
15	0x3e2b815c	0.16748565
16	0x3e1c150a	0.15242401
17	0x3dde54c9	0.10856015
18	0xbd819280	-0.06326771
19	0x3d6c880c	0.057746932
20	0xbddfd9f9	-0.10930247
21	0x3e5c3061	0.2150283
22	0xbdffe27e	-0.12494372
23	0x3ea1f5ee	0.31632942
24	0xbd9dbeff	-0.07702445
25	0xbf2ed18a	-0.6828848
26	0xbef5170c	-0.47869146
27	0xbf8950de	-1.0727804
28	0xbea0cbff	-0.31405637
29	0x3e0cd141	0.13751699
30	0xbeb5326a	-0.35390025
31	0xbf441e25	-0.76608497
32	0xbf1e37ed	-0.61804086
33	0xbf57b581	-0.8426133
34	0xbf85caeb	-1.0452551
35	0x3d9b6125	0.07586888
36	0xbdd2ab87	-0.102866225
37	0xbe70c7fc	-0.23513788
38	0xbed73dfe	-0.42039484
39	0xbb8e3bd2	-0.004340627
40	0xbb422826	-0.002962598
41	0xbf1b8d0c	-0.60762095
42	0xbf1b3010	-0.6062021
43	0xbeac2d5b	-0.33628353
44	0xbeb12036	-0.34594887
45	0xbe98ddbd	-0.29856673
46	0xbf331ee4	-0.6996901
47	0xbe1b3eca	-0.15160671
48	0xbd839693	-0.06425204
49	0xbe0072ba	-0.12543765
50	0xbe0a6862	-0.13516381
51	0x3d83d25d	0.06436608
52	0x3e0c1c6d	0.13682719
53	0xbcbbdcf5	-0.022932509
54	0x3e6c69ce	0.23087236
55	0xbccbcf01	-0.02487898
56	0x3d16f78e	0.03685718
57	0xbe6b9108	-0.23004544
58	0xbe3c55ff	-0.1839218
59	0x3dd28c3e	0.10280655
60	0xbe4550bc	-0.19269079
61	0x3d941f3a	0.072325185
62	0xbd8ca065	-0.0686653
63	0xbde3c983	-0.1112242
64	0x3e233664	0.15938717
65	0x3df5bff0	0.119995
66	0xbe24a8d3	-0.16080026
67	0xbe782e5f	-0.24236439
68	0x3dfb353e	0.122660145
69	0x3dc21305	0.09476284
70	0xbd9017c4	-0.07035783
71	0x3e1b5d71	0.15172364

rnn.weight_ih_l2 f4 [72, 24]
0	0xbd529cfd	-0.051419247
1	0x3e8711d2	0.26380783
2	0x3d49b753	0.049247097
3	0x3ee34569	0.44388893
4	0x3e34402d	0.17602606
5	0xbe79663f	-0.2435541
6	0xbbcaa0cf	-0.0061837207
7	0xbdb56f32	-0.088590994
8	0x3ea9c6c2	0.33159453
9	0xbe9671b1	-0.29383615
10	0x3c0bcaf0	0.008532271
11	0x3d7b064c	0.061285302
12	0xbdb41d1c	-0.08794615
13	0xbdd5d17e	-0.10440348
14	0x3eb394db	0.35074505
15	0xbe16cbe8	-0.14726222
16	0xbdc102ea	-0.09424384
17	0x3e1ac78d	0.15115185
18	0x3efadcf4	0.489967
19	0xbdbc8fdb	-0.09207126
20	0xbda97e7a	-0.082760766
21	0x3e4b6998	0.198645
22	0x3da80ec7	0.082059436
23	0x3e084f2f	0.13311456
24	0x3bd9beda	0.0066450657
25	0x3eab7c32	0.3349319
26	0xbe029286	-0.12751207
27	0x3e03d43e	0.12873933
28	0xbd906def	-0.07052218
29	0xbe23cc96	-0.15996012
30	0x3e47fdc4	0.19530398
31	0x3d2d5dd5	0.042325813
32	0xbc411dad	-0.01178686
33	0xbe48b6e4	-0.19601017
34	0x3dbfc90f	0.09364521
35	0x3d29b85c	0.041435584
36	0x3d96f85f	0.07371592
37	0xbdcad3cf	-0.099036805
38	0x3ecd2e65	0.4007446
39	0x3e17b5ee	0.14815494
40	0x3b0f5872	0.0021872786
41	0x3da3af64	0.079924375
42	0x3c9a955a	0.018870044
43	0xbd39d563	-0.045369517
44	0xbd53a425	-0.051670212
45	0x3d7efec5	0.062254686
46	0x3e023a48	0.12717545
47	0xbd5f9499	-0.054585073
48	0x3e815446	0.25259608
49	0xbe542d04	-0.20720297
50	0xbd8e1676	-0.06937878
51	0x3ceb0743	0.028689986
52	0x3e1cf056	0.15326056
53	0x3e000657	0.12502418
54	0x3ee9d6a9	0.45671585
55	0xbd2ff0f9	-0.04295442
56	0x3e27aa14	0.16373473
57	0x3e39d2ca	0.18146816
58	0xbecc85dd	-0.3994588
59	0xbe5c0eca	-0.21490017
60	0xbddcdeca	-0.10784681
61	0x3dc7fb58	0.09764737
62	0xbe37c3fc	-0.17945856
63	0x3e91b04c	0.28454816
64	0x3dc45f45	0.09588484
65	0x3d430f0c	0.04762177
66	0xbdc0b3c9	-0.09409291
67	0xbdfc2646	-0.123119876
68	0x3e59273c	0.21206373
69	0x3d875586	0.06608109
70	0xbea8be91	-0.3295789
71	0x3d6f62b1	0.05844373
72	0x3ea2324b	0.31678995
73	0xbd3e2fc3	-0.046432268
74	0xbc283673	-0.010266888
75	0x3e09c86f	0.13455366
76	0x3db083ed	0.08618913
77	0x3da9fda0	0.08300328
78	0x3e2019c2	0.15634826
79	0xbe3ef6ee	-0.18648884
80	0xbd5f726a	-0.054552473
81	0x3e2b7411	0.16743495
82	0xbcb0fe22	-0.021605555
83	0xbe7138c1	-0.23556806
84	0xbd94df7b	-0.07269188
85	0x3e1b257e	0.15151021
86	0xbecd6be6	-0.40121382
87	0xbecf4b24	-0.40487015
88	0x3dfa23c3	0.12213852
89	0x3d8f7469	0.07004625
90	0x3d8a89ef	0.0676459
91	0x3e363b56	0.17796072
92	0x3e792259	0.24329509
93	0xbe2c8047	-0.16845809
94	0xbdd70ea4	-0.10500839
95	0xbe8aede3	-0.27134618
96	0xbc18558b	-0.009297739
97	0xbd9346b5	-0.07191221
98	0xbd307b16	-0.043086134
99	0xbe9487c0	-0.2900982
100	0x3db3d713	0.087812565
101	0x3c548c09	0.01297284
102	0xbe320dfc	-0.17388147
103	0x3cde1d9d	0.02711373
104	0xbb8ec900	-0.004357457
105	0xbe81a95c	-0.25324523
106	0xbca60a1b	-0.02026849
107	0x3ce0e095	0.027450839
108	0xbe911de4	-0.28343117
109	0xbdadff04	-0.08495906
110	0x3dd0f094	0.10202137
111	0xbd09c10c	-0.03363137
112	0xbd489292	-0.048967905
113	0xbd099db5	-0.033597667
114	0xbeb8116f	-0.359508
115	0xbe6902f6	-0.22755036
116	0xbe41ae09	-0.18914045
117	0x3d36be3f	0.044615027
118	0x3e416689	0.1888677
119	0x3ce5a15d	0.028031046
120	0x3e423d51	0.18968703
121	0x3ed6eefc	0.41979206
122	0xbce01a60	-0.027356327
123	0xbe6d6e03	-0.23186497
124	0xbe90422e	-0.2817549
125	0x3b985171	0.0046483804
126	0x3e9add8f	0.3024716
127	0x3e69e8c4	0.228427
128	0xbcfe6a93	-0.031056678
129	0x3e8fbe62	0.28074938
130	0xbe89fd5e	-0.26951116
131	0x3e75ff2b	0.2402312
132	0xbdbcf1f2	-0.09225835
133	0xbe104fe1	-0.14092971
134	0x3e0e8dfc	0.1392135
135	0x3e841e4e	0.2580437
136	0x3dd656f6	0.10465805
137	0xbe4765a6	-0.1947237
138	0xbecbd9fe	-0.39814752
139	0xbeb04eb7	-0.34435055
140	0xbe0b6467	-0.13612519
141	0x3e01cfd6	0.1267694
142	0xbe260b9c	-0.16215366
143	0xbe1eda7f	-0.15513037
144	0xbc5705af	-0.013123914
145	0x3f26b273	0.6511604
146	0x3c5a5248	0.013325281
147	0xbe066d3e	-0.1312761
148	0xbdc04f2b	-0.093901
149	0xbd74995c	-0.059716567
150	0x3bf48752	0.0074624205
151	0x3d119527	0.035542633
152	0x3e46233e	0.19349381
153	0x3e9469de	0.2898702
154	0xbe9a6b51	-0.3016
155	0x3e6de8c3	0.23233323
156	0x3e3f8979	0.18704785
157	0x3cc71e09	0.024306314
158	0x3e911b32	0.2834106
159	0x3eba05f9	0.36332682
160	0x3d4eb99a	0.050469972
161	0x3d66016e	0.056153707
162	0xbdd46023	-0.10369899
163	0xbd34ca7c	-0.044138417
164	0xbeb3e405	-0.35134903
165	0x3e81fbbd	0.25387374
166	0xbe96281f	-0.29327485
167	0xbc084b8e	-0.008318795
168	0xbeed89b3	-0.4639412
169	0xbe880541	-0.26566508
170	0xbeb3196b	-0.3498033
171	0xbe334b7e	-0.17509267
172	0xbe1221fd	-0.14270778
173	0xbf17c907	-0.5929112
174	0x3e841747	0.2579901
175	0x3ed1b5d1	0.40959027
176	0xbe8a50a9	-0.27014664
177	0xbdfffd3a	-0.12499471
178	0xbdbb0d12	-0.09133352
179	0x3edaf8f4	0.4276806
180	0xbec65c6f	-0.38742396
181	0xbe90e6dd	-0.28301135
182	0x3e8fd668	0.28093266
183	0x3d3e73d9	0.0464972
184	0xbe85bd6b	-0.26121077
185	0xbe070a92	-0.13187626
186	0xbf192f78	-0.59838057
187	0xbdfdd6c6	-0.123944804
188	0xbe80b928	-0.25141263
189	0xbd67feb3	-0.056639384
190	0x3f4d673f	0.80235666
191	0x3efec69e	0.49760908
192	0xbd6f5a8a	-0.058435954
193	0x3d5daa62	0.054117568
194	0x3e4d85c1	0.20070554
195	0x3d8c114a	0.06839235
196	0xbd59ba02	-0.053155906
197	0x3d705785	0.058677215
198	0xbdf2b41c	-0.118507594
199	0x3d89f528	0.06736213
200	0xbd9ed620	-0.07755685
201	0x3dbb741e	0.09153007
202	0xbe091ea0	-0.13390589
203	0xbde34732	-0.11097564
204	0xbe1f59fb	-0.15561669
205	0xbe13adca	-0.14421764
206	0xbe68cf33	-0.2273529
207	0xbe292150	-0.16516614
208	0x3e461a14	0.19345886
209	0xbca74281	-0.020417454
210	0x3d9af6ba	0.075665906
211	0x3d7107d1	0.058845345
212	0x3e86f382	0.26357657
213	0xbd9f453d	-0.07776878
214	0x3df5c59c	0.120005816
215	0x3e307d8e	0.17235395
216	0xbe466a53	-0.19376497
217	0xbe603c5b	-0.21898024
218	0xbdbbf61a	-0.091777995
219	0xbeace3e7	-0.33767626
220	0xbdf73da9	-0.120723076
221	0xbdaa7d84	-0.083247215
222	0x3d8c1373	0.06839647
223	0x3eb6f520	0.3573389
224	0xbc5a69eb	-0.013330917
225	0x3e9bcae6	0.30428237
226	0xbf1a42a3	-0.6025793
227	0x3dee2b0b	0.116293035
228	0xbd2f33cc	-0.042774007
229	0x3e38f25c	0.18061203
230	0x3e314706	0.1731225
231	0x3cf1e51c	0.029528193
232	0x3e243b3b	0.1603822
233	0xbda2ace3	-0.07943132
234	0xbf04ae4a	-0.51828444
235	0xbe6fc2e2	-0.23414186
236	0x3e56394b	0.20920293
237	0xbdf3d841	-0.119064815
238	0xbdfd702d	-0.123749115
239	0x3e818d55	0.2530314
240	0xbd48c8ae	-0.049019508
241	0x3dbdc6d5	0.0926644
242	0x3de3a5e5	0.11115626
243	0xbe6bd67d	-0.2303104
244	0x3dd9d8c6	0.106370494
245	0xbeac5a2c	-0.33662546
246	0x3e427920	0.18991518
247	0xbd8dee86	-0.0693026
248	0xbdf5630b	-0.119817816
249	0x3e6dbdac	0.23216885
250	0xbe945854	-0.2897364
251	0x3e5ff298	0.21869886
252	0x3e299e66	0.1656433
253	0x3cb8133a	0.022470105
254	0x3e1f2f00	0.15545273
255	0x3e97db72	0.2965961

rnn.weight_hh_l2 f4 [72, 24]
0	0x3e2b22a2	0.1671243
1	0xbc092c21	-0.008372338
2	0xbe097d82	-0.13426784
3	0x3decf321	0.11569811
4	0xbdd34e14	-0.103176266
5	0x3e072fab	0.13201778
6	0xbe1f5d62	-0.15562966
7	0xbddbe59c	-0.10737154
8	0x3e4575d6	0.19283232
9	0x3e104ce4	0.14091831
10	0xbe203a87	-0.15647326
11	0xbe1a8347	-0.15089141
12	0xbdb264a6	-0.087106034
13	0x3de472b7	0.111546926
14	0x3d9d51a8	0.0768159
15	0x3e0744c3	0.13209824
16	0x3c8861b1	0.016648145
17	0xbe2d999f	-0.16953133
18	0x3ce2a4b9	0.027666437
19	0x3dafb30b	0.085790716
20	0xbe70f08f	-0.23529266
21	0xbe52e5e6	-0.20595512
22	0x3e014715	0.12624772
23	0xbe0136a4	-0.126185
24	0xbe294947	-0.1653186
25	0xbd2367bd	-0.039893854
26	0xbd2e9907	-0.042626407
27	0xbdeb2381	-0.11481381
28	0xbe89813b	-0.26856408
29	0xbe1515a1	-0.14559032
30	0xbde4af5f	-0.11166262
31	0xbde346e9	-0.110975094
32	0xbd7b1cba	-0.061306693
33	0x3dfdb0a9	0.12387211
34	0x3dc79d05	0.09746746
35	0x3d856b55	0.065146126
36	0xbd9bc878	-0.07606596
37	0x3d4b5aa1	0.049646977
38	0xbbd1b30d	-0.0063995183
39	0x3e36892d	0.17825766
40	0xbe519ece	-0.20470735
41	0x3e4189a9	0.1890017
42	0x3d80722c	0.062717766
43	0x3df15dc1	0.1178546
44	0xbe461acf	-0.19346164
45	0x3d33f938	0.043938845
46	0x3dbeb045	0.093109645
47	0xbe0ae366	-0.13563308
48	0x3e8de11e	0.27710813
49	0xbd41f38c	-0.047351405
50	0xbd929185	-0.07156662
51	0xbee4ddc6	-0.4470045
52	0xbe68c6d4	-0.22732097
53	0xbe82a693	-0.2551771
54	0xbe779929	-0.2417952
55	0x3dd00785	0.10157684
56	0xbed17d8d	-0.409161
57	0x3eca3861	0.3949614
58	0x3e833da9	0.2563298
59	0x3d8c2ccf	0.06844484
60	0x3d387069	0.045029078
61	0xbe67b94e	-0.22629282
62	0xbe1c9f37	-0.1529511
63	0x3e9fcd48	0.31211305
64	0x3d4ca498	0.049961656
65	0xbd338d63	-0.04383601
66	0xbed2c8d6	-0.4116885
67	0xbe7c0810	-0.2461245
68	0xbebd3c2a	-0.36959964
69	0x3ea57df1	0.32322648
70	0xbe8133d6	-0.2523486
71	0x3d4b53b1	0.04964036
72	0xbe9443ed	-0.28958073
73	0x3d3cc55c	0.046086654
74	0x3deba8eb	0.11506828
75	0xbe24efe3	-0.16107135
76	0x3d19d489	0.037556205
77	0x3e9feaf2	0.31233937
78	0x3cd70392	0.02624682
79	0x3d8853b6	0.066565916
80	0x3e28fd24	0.16502815
81	0x3c8de6bc	0.017321937
82	0xbe5ec80d	-0.21756001
83	0x3e3774e6	0.17915687
84	0xbe6d8d7e	-0.23198506
85	0xbd910f88	-0.070830405
86	0x3e9c8ce2	0.30576235
87	0xbe4bd8c3	-0.19906907
88	0xbdce82f9	-0.10083575
89	0xbe197f8d	-0.14990063
90	0x3ed821b8	0.42213225
91	0xbc7c0ed1	-0.015384392
92	0x3e02f98e	0.1279051
93	0xbd205ad1	-0.03914911
94	0x3e46d310	0.19416451
95	0xbd4d7765	-0.05016269
96	0x3e0da5aa	0.13832727
97	0xbed251e9	-0.41078117
98	0xbd0df0ed	-0.034653593
99	0xbdbde76b	-0.09272655
100	0xbe3f2dea	-0.18669859
101	0xbeac5da5	-0.33665195
102	0xbe907e1a	-0.28221208
103	0xbc0e7775	-0.008695473
104	0xbdbfc0ef	-0.09362971
105	0x3e11cbc2	0.14237884
106	0xbd60bade	-0.05486571
107	0x3e5a7d0d	0.21336766
108	0x3db20502	0.086923614
109	0xbe08c881	-0.13357736
110	0xbe5189f5	-0.20462783
111	0x3e89ae32	0.26890713
112	0xbd81791e	-0.063219294
113	0x3e920455	0.2851893
114	0xbeb2891f	-0.3487024
115	0xbdfc9a02	-0.12334062
116	0xbd901cca	-0.07036741
117	0x3eb94ef3	0.36193046
118	0xbdc5f2f2	-0.09665479
119	0xbea99c3a	-0.33127004
120	0x3cdd5871	0.027019711
121	0xbd22b96a	-0.039727606
122	0x3cd1cfbd	0.025611753
123	0xbe2846bc	-0.16433233
124	0xbea86f03	-0.32897195
125	0xbe15c87f	-0.14627264
126	0xbe563598	-0.20918882
127	0x3ddf8033	0.10913124
128	0xbe87fe76	-0.26561326
129	0x3e19f6f2	0.15035608
130	0xbd232d50	-0.039838135
131	0x3d9c1b49	0.07622392
132	0xbcb4bf34	-0.022063829
133	0xbdbe22e0	-0.09283996
134	0xbe46f3f5	-0.19429
135	0xb888c3a7	-6.5214284e-05
136	0xbda36251	-0.07977737
137	0xbb8bda10	-0.0042679384
138	0xbd48ab82	-0.048991688
139	0xbe1e7d06	-0.1547738
140	0xbec4a4e3	-0.3840705
141	0x3da94a9f	0.08266186
142	0xbe6036f5	-0.21895964
143	0xbb9d5fd6	-0.0048026843
144	0x3e034226	0.12818202
145	0x3c2dc64a	0.010606358
146	0xbd0cc986	-0.034371875
147	0x3d0aeadb	0.033915382
148	0xbe2bd002	-0.16778567
149	0x3b800fab	0.003908118
150	0xbe824c84	-0.25449002
151	0xbe23f818	-0.16012609
152	0xbe076653	-0.13222627
153	0x3e53c056	0.20678839
154	0x3b9960d3	0.004680732
155	0xbc8ad57d	-0.016947502
156	0xbe03c2e6	-0.12867317
157	0xbdea4f5b	-0.11440917
158	0xbdb0bef3	-0.08630171
159	0x3d37e1d6	0.04489311
160	0x3e0ced4d	0.13762398
161	0xbc3a8611	-0.011384503
162	0xbddba91c	-0.107256144
163	0xbe7c9d04	-0.24669272
164	0xbd34547d	-0.044025887
165	0x3e4f6d7e	0.20256612
166	0xbe205bee	-0.15660068
167	0x3d6ee1d9	0.058320854
168	0x3e849e83	0.25902185
169	0xbda170c1	-0.07882834
170	0x3d281c73	0.041042756
171	0x3e4d47da	0.2004694
172	0xbeafa3fd	-0.343048
173	0xbe44700b	-0.19183366
174	0xbe7275bf	-0.23677729
175	0xbe8dab0e	-0.27669567
176	0xbddd150a	-0.107950285
177	0xbded03ed	-0.115730144
178	0x3d409603	0.047018062
179	0x3e832c40	0.25619698
180	0x3da75d6f	0.08172118
181	0xbc72f287	-0.014828331
182	0xbe28967e	-0.16463658
183	0x3e6b61df	0.22986554
184	0xbe9a486a	-0.30133373
185	0x3d5d853c	0.05408214
186	0xbe23631c	-0.15955776
187	0xbdfb6db5	-0.12276784
188	0xbe091db0	-0.13390231
189	0x3e49d863	0.19711451
190	0x3ed23ca5	0.41061893
191	0xbf1070f0	-0.5642233
192	0x3de56342	0.112005726
193	0xbcfd0711	-0.030887159
194	0x3d8b2eb5	0.06796018
195	0x3e8d04f7	0.2754285
196	0xbe284531	-0.16432644
197	0x3d2d1ef7	0.04226586
198	0x3dc4c571	0.096079715
199	0x3dc0e4ed	0.09418664
200	0x3e01b05d	0.12664934
201	0x3de664c0	0.11249685
202	0x3e49f7a7	0.19723378
203	0xbc9001cf	-0.017578987
204	0xbe1fbc47	-0.15599166
205	0xbe53d6ee	-0.20687458
206	0x3db11d4d	0.08648167
207	0xbcd98092	-0.026550565
208	0xbe57abf0	-0.21061683
209	0x3cfd9dc3	0.030959016
210	0xbbf78403	-0.007553579
211	0x3d4b3312	0.04960925
212	0xbe5bbe80	-0.21459389
213	0x3d8cffef	0.06884753
214	0xbdb2d7d6	-0.08732574
215	0xbe790e3d	-0.24321838
216	0x3ee31dad	0.44358578
217	0xbdc394d3	-0.0954987
218	0xbee70fd0	-0.4512925
219	0xbbbc5c27	-0.00574829
220	0xbed26f99	-0.41100767
221	0xbe73c650	-0.23806119
222	0xbe4eb142	-0.20184806
223	0xbe51504a	-0.20440784
224	0xbe40b2fb	-0.18818276
225	0xbcebd5af	-0.028788416
226	0x3d85de50	0.06536543
227	0xbd9e27d4	-0.0772244
228	0x3ea08987	0.31354925
229	0xbdf6dece	-0.12054215
230	0xbe7e13be	-0.24812219
231	0x3e6b2dc3	0.22966675
232	0xbe58b526	-0.21162853
233	0x3e140575	0.14455207
234	0xbe91a27e	-0.28444284
235	0xbde063be	-0.10956524
236	0xbe7f8436	-0.24952778
237	0x3ec3322f	0.38124225
238	0xbe37b33d	-0.17939468
239	0x3e110db6	0.14165387
240	0x3e246cf5	0.16057189
241	0xbe62ba5f	-0.22141407
242	0xbe42e9a4	-0.1903444
243	0xbdf7dcf3	-0.121026896
244	0xbe8ab8eb	-0.27094206
245	0xbe0cf2f7	-0.13764559
246	0xbdaa93a0	-0.083289385
247	0x3e1b3a6d	0.15159006
248	0x3d9da4e1	0.07697464
249	0x3e590784	0.21194273
250	0x3eac32eb	0.33632597
251	0x3dcfe76d	0.10151563
252	0x3d395eb7	0.045256343
253	0xbe83279d	-0.2561616
254	0xbe28b197	-0.16473995
255	0x3e2ff895	0.1718467

rnn.bias_ih_l2 f4 [72]
0	0xbcce50e8	-0.025185063
1	0xbd914c14	-0.07094589
2	0x3eba479e	0.36382765
3	0x3e66721e	0.2250447
4	0x3e0a6673	0.13515644
5	0xbe07e162	-0.1326957
6	0x3e4ba013	0.19885282
7	0xbdc38570	-0.095469356
8	0x3c0eb135	0.008709242
9	0xbdbcaee2	-0.09213044
10	0xbcf5e96c	-0.03001853
11	0xbe2509ef	-0.1611707
12	0xbe6995cf	-0.22811054
13	0x3bca341c	0.0061707627
14	0x3b9cddf9	0.0047872034
15	0x3d9208e8	0.07130605
16	0x3db9ef29	0.09078819
17	0xbe46ed6e	-0.1942651
18	0xbe1fa182	-0.15588954
19	0xbe57e222	-0.21082357
20	0xbd276222	-0.04086507
21	0xbdee5380	-0.1163702
22	0xbd6b5541	-0.05745435
23	0xbe105951	-0.14096572
24	0xbef4d5c3	-0.47819337
25	0xbecd98d0	-0.4015565
26	0xbf1f5c78	-0.6225047
27	0xbf132776	-0.5748209
28	0xbedb012b	-0.4277433
29	0xbe98a419	-0.29812697
30	0xbed7c9d3	-0.42146167
31	0xbefce21b	-0.49391255
32	0xbebff009	-0.3748782
33	0xbef684a4	-0.48148072
34	0xbf26c7e3	-0.6514875
35	0xbe2612d0	-0.16218114
36	0xbd3d00b8	-0.046143264
37	0xbf3fecce	-0.7497071
38	0xbf39938e	-0.72490776
39	0xbec64b5d	-0.38729373
40	0x3d3f4ec9	0.046705995
41	0xbe866f27	-0.26256678
42	0xbeb556b6	-0.35417718
43	0xbea3e2b5	-0.320089
44	0xbf089f63	-0.53368205
45	0xbf030188	-0.5117421
46	0xbedf7bed	-0.43649235
47	0xbf0d0396	-0.55083597
48	0xbc7018f7	-0.01465439
49	0x3d958f58	0.07302731
50	0x3dfa20ec	0.122133106
51	0x3cb3cde5	0.021948764
52	0x3d6f7c0c	0.05846791
53	0x3e0e654b	0.13905828
54	0xbe3efded	-0.18651552
55	0x3e49926a	0.19684759
56	0x3e2f7470	0.17134261
57	0x3e5c0227	0.21485196
58	0x3e4892e0	0.19587278
59	0xbd9b3d23	-0.0758002
60	0xbcefbdca	-0.029265303
61	0xbbdf39f4	-0.0068123285
62	0x3c935ef6	0.017989617
63	0xbdfa1cab	-0.12212499
64	0x3deb8178	0.114993036
65	0xbdf818e8	-0.121141255
66	0xbe27b777	-0.1637858
67	0xbd18e1a1	-0.03732455
68	0xbe44de4a	-0.19225422
69	0x3e029d3b	0.12755291
70	0xbe695097	-0.22784649
71	0xbe09934c	-0.13435096
