Checkpoints/wTEST2_sines_checkpoint.pth (torch, 418518 bytes, 124 tensors)

rnn.weight_ih_l0 f4 [72, 5]
00000000: f169 083e 3fc4 913d b6c5 783e 06a5 b73d
00000010: 92e2 18be 269b 893b c3b7 48be c804 883d
00000020: b016 93be 8a51 08be 2321 7abd 51c0 ca3d
00000030: 89da 92bd 31c8 5ebe b89e 61bd 2e08 a2be
00000040: e349 c1bd e917 813d 8ac5 3c3d f083 91bd
00000050: de3f aebd 63a5 8ebd b729 f1be 7b4c 8bbd
00000060: 4e0e d53c ed5c b7bc 5b4b 0cbe 7e3e 0cbe
00000070: 4012 1dbe e188 11bd d2c6 d1bd 59f1 21be
00000080: cec4 a5be aeac 9bbe 2888 9bbe cb0d 1c3e
00000090: 1f0a a23e 124f a73c 4f1c 02bd bc85 b5bc
000000a0: bf29 71be 16b5 85be 4def b63d e5c7 4b3d
000000b0: 2ed6 75bc 6029 72be 81d2 2ebe 61df 72bd
000000c0: 9872 d0bd 5a5d 68bd ee44 7ebd a827 273e
000000d0: bc16 b5bd abdc a8bc 157e ecbd e882 16bd
000000e0: d9ee 16bd cd4a 02be 2652 7bbc 7ad6 763e
000000f0: 7371 48bc 6522 8e3d 2621 f7bd 6fc9 3ebd
00000100: d86d 4cbe 2f72 13bc 7a60 023b a3ea 9fbc
00000110: 210b 5fbe f16d 9d3c 1218 a63d cc03 93be
00000120: cda1 c5bd 0d7b 98bc af43 40be ac6c fcbc
00000130: e35b 1bbe f707 613e cf6e dbbb 2c66 c1bc
00000140: ba50 e9be e855 48be c62e 26be 8a2c abbe
00000150: 441c 03be 723c 92be dca7 0d3e 5c6a 513e
00000160: e122 2a3e 46a8 fbbe f643 b3bb 0bd9 62be
00000170: 9325 98be 4436 80bd e118 c4bd c9d7 c0be
00000180: 155a 0f3e 5017 20bc 5e2a ab3d 7449 f7bd
00000190: b36b f73d 23b0 593d fb31 98bd 0853 bbbd
000001a0: 34f3 45be b9b3 ad3d fab6 9bbd f36d 5ebe
000001b0: 97a8 7cbe 997b 70be 354c c33d 6c7a afbe
000001c0: 51ff 33be 4e39 25be 88fd 7fbe 7385 d2be
000001d0: f544 04bd b06f cfbe fe2a a0bd ed87 c8be
000001e0: f572 80be 24fa b6be 4cd1 95be 0af3 19be
000001f0: 5fa1 d4be 0b16 f03e 319b ec3e 3719 dc3e
00000200: b204 963e 78e9 a83e 335c cabe f2e2 b8be
00000210: a4f8 04be a60f 8abe da9a 6fbe e9ab 0cbf
00000220: 2850 c0be c5bd c0be 6cff 33be 147f dfbe
00000230: c341 1dbe 5512 61bd 6664 8abe cedf d0be
00000240: c1f6 d6bd 62ff f6be 9557 91be b0ad d1be
00000250: 9947 adbe 8282 1abf d9c4 a8be 6214 92be
00000260: a1b5 96be 032a 7abd 26e5 3cbe 861c b1be
00000270: 6e12 44bf a87d 05c0 9129 f4bf 4f49 cbbf
00000280: f90f d83d 7bb6 a1bf 7e98 8fbf 4a92 d5bf
00000290: 4f1b 13be 333b 8abe ec3d dfbe faec 2fbe
000002a0: 22c2 10bf b1ff 02bf cfbc a9be 7fb1 94be
000002b0: a28e b5be 5a7e 89be 1185 7bbe 0c78 31be
000002c0: 1c56 10bd 7121 1d3d 2b9c 273e 37b4 e9bc
000002d0: 25da 8fbe a7df 80be 594b 4bbe 6a37 3dbe
000002e0: 906f a1be 6303 e4be 1bcb e8be 5b6e 9dbe
000002f0: 81f4 6fbd 0000 c4be 671e 8cbe e735 b2be
00000300: e66f 10bd f186 70be f5d1 bcbe 93c8 bdbe
00000310: 2b96 3abd 900c a6be 853c f9be 19f5 9cbd
00000320: f5a1 05bf 9192 d1be 1531 7abe 4b08 dcbe
00000330: f9e8 35be 1df6 18bf 3c6a a6be b06b fbbe
00000340: c36a eabe 5be5 18bf bff5 c8be 8652 d7be
00000350: 6cad 98be f557 80bf 9c7e 2cbf 1032 b9bf
00000360: 6444 6cbf b515 21be 3c74 b1be fa97 e1be
00000370: 66df bdbf 2774 85bf 08e4 a7bf e12d adbf
00000380: a8a7 90bf 258e 08bf eac9 7abe f260 d8bb
00000390: e66e c2be ea3c b8bd fd1f c8bf ca0c 3dbe
000003a0: 0e7d a7bf ad7a b1bd 08a1 9dbe 0069 9ebe
000003b0: 6d15 6ebe 0e12 6abe a461 89be 71a8 c73b
000003c0: 09c4 c53d ab8f f93d 2fd7 233e 680e 8bbe
000003d0: 874a d2bc 6582 b4bd 3043 2bbe 54ec c9bd
000003e0: 72c5 f23d 59c0 363e 315d 45be 5a48 693e
000003f0: 27f1 2c3e ff91 733e 1141 093e 042e 06be
0.13321663 0.07117509 0.2429417 0.089670226 -0.1493018 0.0041994033 -0.1960135 0.06641537
-0.28728247 -0.13312355 -0.061066758 0.09899963 -0.071705885 -0.21756054 -0.055083007 -0.31646866
-0.09437921 0.063033886 0.046086825 -0.07105243 -0.085082754 -0.06965139 -0.47102138 -0.06801697
0.026007798 -0.022383178 -0.13700621 -0.13695714 -0.15338993 -0.03553093 -0.10243 -0.15814723
-0.32376713 -0.30405182 -0.30377316 0.15239637 0.31648347 0.020423446 -0.03176528 -0.022158496
-0.23551081 -0.2611472 0.08932362 0.04975118 -0.015004678 -0.23648596 -0.17072488 -0.059295062
-0.10178107 -0.056729652 -0.062077455 0.16323721 -0.08842227 -0.020613035 -0.11547486 -0.036745936
-0.036848877 -0.12723847 -0.01533941 0.24105254 -0.01223408 0.06940154 -0.120668694 -0.04657882
-0.19963777 -0.008999391 0.001989393 -0.019521063 -0.21781589 0.019217463 0.0811006 -0.28713834
-0.09650002 -0.018613363 -0.18775819 -0.030813538 -0.15171771 0.21975695 -0.006696559 -0.02360829
-0.45569402 -0.1956402 -0.1622878 -0.33432418 -0.12803751 -0.2856174 0.13833565 0.20450729
0.16614868 -0.4915182 -0.005470748 -0.22153108 -0.29716167 -0.0626035 -0.09575058 -0.3766463
0.13999207 -0.009771183 0.0835769 -0.12074557 0.12081089 0.053146493 -0.07431408 -0.09146696
-0.19331056 0.08481545 -0.076032594 -0.2172163 -0.24673687 -0.23484649 0.0953602 -0.34273088
-0.17577864 -0.16135141 -0.24999058 -0.4111744 -0.032292325 -0.40514898 -0.078207 -0.39166203
-0.25087705 -0.35737717 -0.29261243 -0.15034118 -0.41529366 0.46891817 0.46212152 0.42987987
0.29300457 0.32990623 -0.39523467 -0.36110646 -0.12985474 -0.26965064 -0.23398915 -0.54949814
-0.37561154 -0.37644783 -0.17577904 -0.4365164 -0.15357117 -0.054949123 -0.27029723 -0.4079575
-0.10496283 -0.48241717 -0.28387132 -0.40952826 -0.33843687 -0.6035539 -0.32962683 -0.28531176
-0.29435447 -0.06107522 -0.18446788 -0.34592074 -0.7659062 -2.0857944 -1.9075185 -1.5881747
0.105499215 -1.2633814 -1.1218412 -1.6685269 -0.14365886 -0.2699829 -0.4360193 -0.17180243
-0.56546223 -0.51171404 -0.33151862 -0.2904167 -0.35460383 -0.2685421 -0.2456248 -0.1733095
-0.03523837 0.03836197 0.16368167 -0.028528316 -0.2809612 -0.25170633 -0.19852962 -0.1847817
-0.31530428 -0.44533834 -0.45467457 -0.30748257 -0.058582786 -0.3828125 -0.27366945 -0.3480675
-0.035262965 -0.23488976 -0.36878935 -0.37067088 -0.045553368 -0.3243146 -0.48678985 -0.07663936
-0.5220025 -0.40932134 -0.24432786 -0.42975077 -0.17764653 -0.5975054 -0.32502925 -0.49105597
-0.45784578 -0.5972497 -0.3924999 -0.42055148 -0.2981981 -1.0026842 -0.6738069 -1.4468403
-0.92291856 -0.15730937 -0.34658992 -0.4406126 -1.4833801 -1.0426072 -1.3116465 -1.3529626
-1.1301165 -0.53341895 -0.24491087 -0.0066033537 -0.37975234 -0.089959934 -1.5634762 -0.1846191
-1.3085039 -0.08665977 -0.3078692 -0.30939484 -0.23250361 -0.2285845 -0.26832306 0.006093078
0.09656531 0.121856056 0.16000055 -0.2715943 -0.025670303 -0.08813933 -0.16724849 -0.09859529
0.11854066 0.17846812 -0.19273831 0.22781506 0.16888867 0.23786162 0.13403727 -0.13103491

rnn.weight_hh_l0 f4 [72, 24]
00000000: 2ab4 203e 9e72 09bd ff12 a1be 2fa0 6bbd
00000010: 3bd3 88be 7f79 b13c d6e7 2dbd 4fbe 3f3c
00000020: a0cd c6bd e123 60be 7a21 163e bded 363e
00000030: 5b93 1e3d 1ace 8bbd 4ddb 89be f0d3 a23d
00000040: 78ee 02bd bc19 3c3d ed0d 9cbd 5c77 213d
00000050: 434d a93e fa37 663e 516a fb3d 2f57 58be
00000060: 7989 d13e 209e 0cbe bfa9 103e 65f4 01bd
00000070: 7f7f 41be 915f 503e fa80 e83c 8e2e 54be
00000080: 64e9 9cbe 3dee 8ebd 33c0 99be df42 893e
00000090: 15b0 c23d d205 6a3e 9604 00bd 98b8 f33d
000000a0: 1bd5 73bc 6186 7b3d 32e8 673e e117 23be
000000b0: f797 113e 7cf5 363e 5cb3 01be ed4e 3bbe
000000c0: c5c2 bebd 3230 14bb a8d6 7dbd 9541 0e3e
000000d0: 33e8 aa3d 2f4a 8cbe 2980 35be 87db a0be
000000e0: 82ca 39bb 38f9 2fbe 33e2 a8bc 4738 78bd
000000f0: 08ea d53d 8b34 283e 6d3d f9bd 8498 8ebd
00000100: c13a 87bd bbfe e93d c74b 13be d0e5 07be
00000110: 04f1 aa3c ab73 e0bd 34b7 a93d 0a47 b23d
00000120: f435 d4bd 5048 f5bd 2a93 4a3e 0aa8 9d3e
00000130: 9f36 353e 82df c43e 325a 0e3e c8a2 b7bc
00000140: 5243 96be 8576 7d3e b982 843d b5c5 3ebd
00000150: fbac dcbd e2e5 eebd 5983 8b3e 4e7a 383e
00000160: d676 4b3d 9c08 afbe cb49 383e 457a 88bd
00000170: d35e 3c3e 472a 8b3e cf9a d8bd 78d4 f9bd
00000180: cdb8 b83d e203 62be c811 92bc c466 47be
00000190: 2ace ee3d de1d d83c 85fb babd f7a4 1bbd
000001a0: f0bf 81bd c113 83bb 9219 593d 5e6a 19bd
000001b0: 31f0 6ebe 5856 093e 87ab 2abb 52c4 29be
000001c0: 5fb3 6cbe 19c6 09be 94a8 7cbe aefe 36be
000001d0: 8448 093d e922 553e 0d63 dfbe 51d5 a7bb
000001e0: f2f1 133d b0d5 423d 9109 5f3d c07c 0dbe
000001f0: 6322 203d 6a2b 21bc 2a74 293e 25c1 3ebd
00000200: 265e 88be 182f 83bd 2b39 2a3d ed43 9f3d
00000210: 74ea 49be 1ca4 5a3e f3f9 073e ea3b 9bbd
00000220: 26da 05be 2dc7 b4bd d556 cc3d c613 40be
00000230: e158 f73d 9779 2dbe 3cc2 20be da6c fbbd
00000240: 4aca 99be ed92 01be 8675 a6bc 9076 873e
00000250: 5bff b6bd 3cf8 3a3e 9a20 a83e e2f6 b7be
00000260: bb31 bf3d ad09 473e 5c17 1b3e 5a0c 92be
00000270: e1cc 34be 3dd7 8f3e e46e 2ebd e2bf 023e
00000280: 6084 203e 90f7 ca3b 4f20 03be d45e 04be
00000290: e893 973d b504 ed3d 336b 90be 164e 80bd
000002a0: 0e97 203e 14df b93d 3693 38be 4369 00be
000002b0: 8e35 673e 5b8c 90bd 4d48 b2be 8a51 93be
000002c0: a22d 1cbc 7a3c be3d bbb8 edbd 5c05 c33d
000002d0: 5d9c fdbd 7968 88be 5e47 33be f69a 47be
000002e0: 0489 9abe e85b 4e3e 5782 913d cc8f 823e
000002f0: ba68 863d 84b1 36be e9bd 8b3d bce4 8e3d
00000300: 52f0 473e fb4c a4bd 3568 493d 9d90 fdbb
00000310: 57a2 fd3c 8f0c a93d 2a5a ba3e 7e5e 05bd
00000320: d747 b9be 19bd 02bc 5a37 033e b49a 8d3e
00000330: eb0d 343d d337 693e f4cd 383d c307 943c
00000340: 4909 993d 4300 61be 939e 343d dbd3 e8bd
00000350: 75db 543d ca02 d03d a640 093e 3545 aebd
00000360: 58d8 0bbd eddb 253e dd47 92bc 1c91 15be
00000370: 36a6 9d3e 45d4 d23d 4d77 5abe 3a05 77be
00000380: aeb0 4d3e 8ff9 81bc a13e 003e ec7a 243d
00000390: 36cf 9d3e a648 0ebe 3c2d 4c3e f8f7 1bbe
000003a0: ba39 87bb c411 b73d 8cf1 6cbd 293f 5fbd
000003b0: 2d66 09be e32a 17be 2516 1c3d 1458 8cbc
000003c0: ea4a 2bbe cb8d 87bd bc5d 1cbd 7931 8fbd
000003d0: 764c 2cbe 11f5 adbe 6cd7 b2bd ebac 823d
000003e0: 284c 243d 691f 08bd ac86 95be 2961 e6bd
000003f0: 2063 42be f2fe 093d b53e 093e 42de 0fbc
0.15693727 -0.033556573 -0.31459805 -0.05752581 -0.26723656 0.02166438 -0.042457424 0.011703088
-0.097071886 -0.21888687 0.14661208 0.17864127 0.038714748 -0.0682642 -0.26925126 0.0795058
-0.031965703 0.04592298 -0.07619844 0.03942047 0.3306676 0.22482291 0.122761376 -0.21127008
0.40925196 -0.13732195 0.14127253 -0.031727213 -0.18896292 0.20348956 0.028381813 -0.20720884
-0.30646813 -0.06979034 -0.3002945 0.2680883 0.09506241 0.22853783 -0.031254373 0.11900443
-0.014882351 0.06140745 0.22647169 -0.15927078 0.14218126 0.17867082 -0.12666076 -0.18291827
-0.09314493 -0.0022611734 -0.06197229 0.13892205 0.0834507 -0.27400348 -0.1772467 -0.31417486
-0.0028349464 -0.17184913 -0.020615673 -0.060600545 0.104450285 0.16426294 -0.12169919 -0.06962684
-0.06603003 0.11425539 -0.14384376 -0.1327126 0.020866878 -0.10959562 0.08286896 0.08704956
-0.10361853 -0.11976683 0.19782701 0.30792266 0.17696618 0.38451773 0.13901594 -0.022416487
-0.29348236 0.24752243 0.06470246 -0.046575267 -0.10775181 -0.116649404 0.27248648 0.18015406
0.049673878 -0.34186256 0.179969 -0.06663946 0.18395548 0.27180693 -0.105764024 -0.12198728
0.09019623 -0.22071794 -0.017830744 -0.19472796 0.116604164 0.02638143 -0.09130005 -0.03799912
-0.06335437 -0.0040001576 0.0530029 -0.037454955 -0.23333813 0.13411844 -0.002604218 -0.16578797
-0.231153 -0.13454475 -0.24673682 -0.1787059 0.033516422 0.20814098 -0.43630257 -0.005121865
0.03611941 0.04756707 0.054452483 -0.1381712 0.039095294 -0.009837011 0.1654822 -0.046570916
-0.2663433 -0.06405467 0.041558426 0.07776628 -0.19718343 0.21351665 0.13278942 -0.07579787
-0.13071498 -0.08827052 0.099774994 -0.18757543 0.12077499 -0.16940914 -0.15699095 -0.12276621
-0.30037147 -0.12653704 -0.020319711 0.26457644 -0.08935424 0.18258756 0.32837373 -0.35930544
0.09335657 0.19437285 0.1514563 -0.28525048 -0.1765628 0.280939 -0.042586222 0.1276851
0.15675497 0.0061940625 -0.12805294 -0.12926799 0.07401258 0.115731634 -0.28206787 -0.06264894
0.15682623 0.09075752 -0.18024907 -0.12540154 0.22579023 -0.07058021 -0.34820786 -0.28773147
-0.009532364 0.09288879 -0.116075 0.095225066 -0.123833396 -0.26642206 -0.17507693 -0.19492707
-0.3018266 0.20152247 0.071049385 0.25500333 0.06562944 -0.17841154 0.06823332 0.06977221
0.19525269 -0.08022495 0.049171645 -0.0077381865 0.030961199 0.082543485 0.36396915 -0.032560818
-0.36187622 -0.007979655 0.12814084 0.27657092 0.043958586 0.22775201 0.045118287 0.018070107
0.07472474 -0.21972756 0.04409654 -0.11368533 0.051967103 0.10156782 0.13403568 -0.08509294
-0.03414187 0.16197176 -0.017856533 -0.14606136 0.3079087 0.102943935 -0.21334572 -0.24123088
0.20086929 -0.01586607 0.12523891 0.04015629 0.30822152 -0.138949 0.1993913 -0.15231311
-0.0041267546 0.089389354 -0.057847545 -0.054503594 -0.13417883 -0.14762454 0.038107056 -0.017131843
-0.16727796 -0.06618842 -0.03817533 -0.06991858 -0.16826043 -0.33976033 -0.08732495 0.06380638
0.04011169 -0.03323308 -0.2920431 -0.112490006 -0.18983126 0.0336904 0.13402827 -0.008781018

rnn.bias_ih_l0 f4 [72]
00000000: 5bcf f63d 537b 1c3e cd05 8b3d 0f88 7ebc
00000010: f51a 28be b2e8 38be e306 85be f534 03be
00000020: f1c2 07bc 5dae 403d 1b4d 7f3e f6ed 8abd
00000030: c41e 10be 62cf 27bd 4cca 55be 5bd7 d03c
00000040: c2f4 3abe 347f e8bd 6fd4 91bd c1b6 813d
00000050: 582c 483e 0a9f 083e 5c97 61be c67a e3be
00000060: 3d7b 5cbe 738d 8c3e b895 c7be eead 82be
00000070: ca6f ccbd be56 24bf dda6 94be e1d4 8ebf
00000080: 84b3 75bf f9aa 2dbf f622 82be f199 2dbe
00000090: 4f02 d6bc 2666 d5bd 2d69 86be 14c4 14be
000000a0: 2e0c 4bbf f97d 48bf 24d1 8fbf db35 6bbf
000000b0: d73b b9bf e243 8dbe 2e69 65bf f534 4bbd
000000c0: 1134 afbc fd7e 4e3e 6a44 15be d302 83bd
000000d0: 9e45 353e b62e cd3d c498 04bd 55d6 1ebe
000000e0: 12d8 a03b 6ae6 dfbd 29a4 433d d724 ac3d
000000f0: 25a1 533e a21a 50be 5020 6e3e 4368 883c
00000100: 2e01 613e f70d e9bd 20fd b5bd 9f44 313e
00000110: a9e3 f1bd 365e c9bb daa3 803d ff59 9b3d
0.12051269 0.1528142 0.06788216 -0.015535369 -0.16416533 -0.18057516 -0.25981817 -0.1281317
-0.008286224 0.047041286 0.24931757 -0.06783669 -0.14074236 -0.04096926 -0.20877951 0.025493314
-0.1825743 -0.11352387 -0.071205966 0.06333686 0.19548166 0.13341919 -0.22030395 -0.44429606
-0.21531387 0.27451667 -0.38981414 -0.25523323 -0.099822596 -0.6419486 -0.29033557 -1.1158715
-0.95977044 -0.6783901 -0.25417298 -0.16953255 -0.026124148 -0.10419874 -0.26252118 -0.14527923
-0.7931546 -0.7831722 -1.12357 -0.9187905 -1.4471387 -0.27590853 -0.89613616 -0.04961105
-0.021387132 0.2016563 -0.14576879 -0.06397023 0.17702338 0.10018675 -0.03237225 -0.15511449
0.00490857 -0.1093262 0.047763977 0.08405464 0.2066694 -0.2032266 0.23254514 0.016651278
0.21973106 -0.11379617 -0.088861704 0.17311333 -0.11811001 -0.006145264 0.06281252 0.07585525

rnn.bias_hh_l0 f4 [72]
00000000: 36c6 7b3d bd42 0f3e b783 193d 3d14 c3bd
00000010: c23a f13d c43c cabd 2d58 76be 5b1b 88bd
00000020: 43e6 fe3c b68b 943d 4dbc 0bbd d005 083e
00000030: 611e 333e 4440 15bd 750f d63d 4a37 43be
00000040: 67ef f3be 105b 7e3e b91f ffbd 22d9 143e
00000050: 95f0 593e ea34 b4bd 07be 65bd 1e9c 98be
00000060: e979 57be 191d 963e 9486 edbe f981 99be
00000070: eb61 d2be e857 15bf 21f3 21be 4f39 82bf
00000080: e673 5bbf 9abc edbe 278e 74be a988 0dbe
00000090: ca01 e33d 6ee7 7ebc f339 9fbe ace0 e3bd
000000a0: 584c 3bbf 1267 25bf 7ff6 80bf 3551 72bf
000000b0: 17da aebf 6b53 92be a90b 5fbf 784b 583d
000000c0: 2a61 5b3d ec2e dc3d 7388 64be 9435 5c3d
000000d0: 6796 a03d 7fca 9e3d 79f1 c1bd 7870 2d3e
000000e0: 3487 12be bcb2 783e 3ca7 1b3e e14d 15be
000000f0: 4fa6 443e d518 9dbd 7cd4 31ba 8af6 10be
00000100: 69a6 ac3c 7307 c8bc ccb1 23be 0828 6abd
00000110: f5da 4c3e 2c93 e0bc f5d8 ec3d 0e14 463d
0.061468326 0.13990302 0.03747913 -0.095253445 0.11778785 -0.098748714 -0.24057074 -0.06645843
0.031115657 0.0725321 -0.034115124 0.13283467 0.17492057 -0.03643824 0.10452167 -0.1906406
-0.47643587 0.24839425 -0.124572225 0.14535955 0.21283181 -0.08799155 -0.056089427 -0.29806608
-0.21042599 0.29319075 -0.46391737 -0.29981974 -0.4109033 -0.5833726 -0.15815403 -1.0173739
-0.8572372 -0.46432954 -0.23882352 -0.13821663 0.110843256 -0.015558107 -0.310989 -0.11126837
-0.73163366 -0.646104 -1.0075225 -0.9465516 -1.3660306 -0.28579268 -0.87127167 0.052806348
0.05355946 0.10751137 -0.22317676 0.053762034 0.07841187 0.07753467 -0.094698854 0.16937435
-0.14309388 0.24286932 0.15200514 -0.1458049 0.19204067 -0.07670752 -0.0006783677 -0.14156547
0.021075444 -0.024417615 -0.15985793 -0.057167083 0.200054 -0.027413927 0.11564819 0.04835897

rnn.weight_ih_l1 f4 [72, 24]
00000000: ee65 913e e6e2 f93d df37 12be f577 093e
00000010: 6285 0bbd c34c 20bd 85d6 0f3e c6ed 303e
00000020: 61a1 0ebb fe55 783e e0ff d43d 33e4 2dbe
00000030: 84ad a4bd 589b 1d3e 89d6 91bd af21 8dbd
00000040: 00e9 6ebe 90b1 203e df0d c93e 0b8f 2cbe
00000050: 0547 29bd 9a9d 273d d091 07be 713a 7ebe
00000060: 90ef fc3d 3b46 9abd 4306 053e 1c70 cebd
00000070: 2bb5 aabd 89ac ea3c cfe5 2b3e d850 453e
00000080: ea93 353c e569 a73b 3c5a 73bc 9a62 063d
00000090: 4692 3bbe 5c8d 58ba c13e a4be 9ea5 473e
000000a0: 27ba d6be 4d22 a13e 7002 933d cc05 82bd
000000b0: 85c5 5f3e 0ca7 163e b439 033d 03fc efbb
000000c0: b82e 323d f908 863c 8fa0 e8bc fe78 843e
000000d0: 6717 113e efd7 e83e f365 4dbd 034e a83d
000000e0: cb5c 31be c0d7 4c3e 981b cc3d 9afb 753a
000000f0: 7647 fabc b666 613c b285 373c d948 333e
00000100: b431 35be 240b a2bd 0386 303e f987 8fbe
00000110: 0397 563e 9a80 16bd cc97 5bbe d473 d1bd
00000120: c1ab a73d 82b9 a0be cc14 93be 416b a43e
00000130: 9c95 04be a0e6 6f3e 5474 aebd 1013 db3d
00000140: 6909 2abe bfd1 9a3e f7bb 753e 35a7 5c3e
00000150: fdcf 8abd 1b75 b03e df34 833e 3086 f73c
00000160: b44d 3e3c 3664 713c b5b9 fcbc 8b7b 0d3d
00000170: 5e33 4d3e 972d 453d 876d c4bd 0083 b0be
00000180: fd52 09be 1290 7bbe 4384 543d 765f afbc
00000190: 6904 3b3d 38fd 893d 9254 693e 497b 3abd
000001a0: 447b 0d3e 0fed 353e f208 503e 0186 d4bd
000001b0: 0b6f 783e 1088 5cbe f6eb 3a3d f04f 3c3d
000001c0: f7ed aa3d 803d 01be 4d13 7cbe e280 c3bd
000001d0: ed0c 35be 55f4 1d3e 9768 43be ea79 dd3d
000001e0: a798 4bbd 9258 14be 2ff9 033e cb01 aabc
000001f0: a7af 04be 8cd2 b93d 03d1 cf3e a6b6 8bbe
00000200: b03a 78be 72a5 493e 5588 593e 0f73 42be
00000210: 576d 583d 2155 4cbe 6192 cf3e fa14 93bc
00000220: 7b03 c73d b025 8ebe 0f32 3f3c 320b 86be
00000230: fe51 1fbd 1155 f4bd 2e2a 4dbd 3fd1 47be
00000240: ce1c 90be e34c a33c 06d4 64be 1cff 813e
00000250: f204 e13d 9dc5 5c3e 89e4 d13e d0ed b03d
00000260: 9d21 583e bace 233e b5ed 873e 96c9 07be
00000270: e11f 55bd 02be bf3d c53b e43e 61a1 97bd
00000280: 179d c73d 48b8 e5be a658 5cbd 4e18 21be
00000290: 99ee 9a3d b150 453e 1e4c ed3c c8fc c7bd
000002a0: 9333 733d 9a03 9bbe d5b4 04be 7574 b73b
000002b0: 44e7 263e 0d3e 98bd 9977 b03e d725 9f3d
000002c0: 3de9 99bd 7da2 1a3e 032a b7bd d9b7 a9bd
000002d0: 576a 513c 5e87 9f3c 1632 0fbc 7cd6 0c3e
000002e0: 21bc 4ebe 2ac0 12be 84d1 d5bc 1d55 f73d
000002f0: 7b9e 1e3e f6c1 adbc 20ac 023e a654 aebc
00000300: 2e92 c1be 2a2a c6bc 3051 623e 8666 d23d
00000310: a31e 8ebd 80b1 d5bd 3f43 dc3d 76e5 1cbe
00000320: cd66 31be 1574 6e3c 0ae8 08be be9e e0bd
00000330: cdfb edbd b26b 863e 89ba 39be 547d 77bb
00000340: 00f5 5dbe 3efa 9abd ac6c 283c 42de 82be
00000350: d43a 10be bb39 9d3d 7f0a a7bd 7cda 99be
00000360: fcd0 72bc d342 8e3d 8811 95be 87df d43d
00000370: 50dc ec3d 84da 09be b6e4 c4bc b037 153f
00000380: 8d40 4e3e 9139 95bb c214 b43e af6c 0e3e
00000390: a3df ae3c 03e9 8dbe c8e1 813e 673c 9e3d
000003a0: 74e7 bfbd 3ada d93d 920c cb3e 57d8 b53e
000003b0: 3e9f e8be 541f 9dbd 23dd 013c bef2 b3be
000003c0: e39f a2bd b6a8 ccbe 38e5 6d3e e47c 1e3e
000003d0: 2a70 5d3e 73e2 d23d b3dc 1a3e ed86 79be
000003e0: 3ccc 70bd 6bf0 c33c 01c4 043d 8e94 1f3d
000003f0: 300b 3ebe a629 a03d 9a2b ad3d 84ec af3d
0.2839808 0.122014806 -0.14279126 0.13424666 -0.03406275 -0.039135706 0.14046676 0.17278203
-0.002176367 0.24251553 0.10400367 -0.16981582 -0.08040908 0.1539129 -0.071209975 -0.0689119
-0.2333107 0.15692735 0.39268395 -0.16851442 -0.041327495 0.040921785 -0.13239217 -0.24826981
0.123503804 -0.07532927 0.1299067 -0.10079977 -0.08335336 0.028646724 0.16786884 0.1926912
0.011082629 0.005109059 -0.0148530565 0.032808878 -0.18317518 -0.000826081 -0.32079127 0.19496772
-0.41938898 0.31471482 0.07178199 -0.06348762 0.21852691 0.14712161 0.032037452 -0.0073237433
0.043501586 0.0163617 -0.028396873 0.2587356 0.14169084 0.45477244 -0.050146054 0.082180046
-0.17320554 0.20004177 0.099662006 0.00093835 -0.030551653 0.013757398 0.011201309 0.17508258
-0.17694741 -0.07912281 0.17238621 -0.28033426 0.20956044 -0.036743738 -0.21444625 -0.102271706
0.08187056 -0.3139153 -0.28726804 0.32113078 -0.12947696 0.2342782 -0.085182816 0.10696995
-0.16605152 0.3023815 0.23997484 0.2154816 -0.06777952 0.34464344 0.25626275 0.030215353
0.011615206 0.014733365 -0.03085027 0.034541648 0.20039126 0.04813918 -0.09591203 -0.34474945
-0.13410564 -0.24566677 0.051883947 -0.021407824 0.045658503 0.06737751 0.22786167 -0.04552773
0.13816553 0.17766212 0.20315912 -0.10377122 0.2426111 -0.21536279 0.045635186 0.04597467
0.083461694 -0.12621117 -0.24616738 -0.09546067 -0.17680712 0.15425237 -0.19082867 0.10814269
-0.049706127 -0.14486912 0.12888025 -0.020752808 -0.12957631 0.09073362 0.4058915 -0.27287787
-0.24241138 0.19692019 0.21243413 -0.18989204 0.05283865 -0.19954349 0.40541366 -0.017954338
0.09717461 -0.27763128 0.01166965 -0.26180416 -0.038896553 -0.11930288 -0.050089054 -0.19513415
-0.28146976 0.019934123 -0.22346506 0.25389946 0.10987271 0.21559758 0.4099467 0.08639109
0.21106572 0.15996829 0.26548544 -0.13260493 -0.052032355 0.09362413 0.4457685 -0.074038275
0.097467594 -0.44867158 -0.05379548 -0.15731928 0.0756504 0.19269063 0.02896696 -0.09765011
0.059375357 -0.30276185 -0.12959607 0.0055985996 0.16299158 -0.0743371 0.34466246 0.07770889
-0.0751519 0.15101047 -0.0894356 -0.08287019 0.012781701 0.019473728 -0.008739969 0.13753694
-0.20188953 -0.14331117 -0.026100881 0.12076781 0.15490143 -0.021210652 0.12760973 -0.021280598
-0.3780684 -0.024190027 0.22101283 0.10273461 -0.06939437 -0.10434246 0.10755014 -0.15321907
-0.17324372 0.014554043 -0.13369766 -0.10967778 -0.11620293 0.2625404 -0.18137564 -0.003776391
-0.21675491 -0.07567261 0.010279816 -0.25560194 -0.14084941 0.07677027 -0.08156299 -0.30049503
-0.014820334 0.069463395 -0.29114938 0.10394197 0.11565459 -0.13462263 -0.02403484 0.582881
0.20141812 -0.0045539816 0.35172087 0.13908647 0.021346873 -0.27716836 0.2536757 0.077263646
-0.09370318 0.106373265 0.39658028 0.35516617 -0.45433992 -0.07671991 0.007926258 -0.35146135
-0.07940652 -0.39972466 0.23231971 0.1547733 0.21624818 0.10297098 0.15123253 -0.24367876
-0.058788523 0.023918351 0.032413486 0.038960032 -0.18558955 0.07820444 0.08455582 0.08590034

rnn.weight_hh_l1 f4 [72, 24]
00000000: 2040 79be 637b 5f3e 3f7a bd3c bee5 c03d
00000010: 0c59 2d3e 11f7 113e a662 3dbd 76d0 96bd
00000020: b505 c43e 8014 323d 0cce 71be fafc 8abe
00000030: bb2c 9e3e 1088 52bd 2ea9 433d c94c 12be
00000040: 7739 59bd 3dac 583c 6563 27be 85e2 2d3e
00000050: 0f33 3c3a f61f e93d e81d 80be 0da9 e83c
00000060: 93fb 1dbe c25e f23b fa63 37be 8dd0 ca3d
00000070: 29c9 cb3e 4864 2ebc abfd 113e 8460 c23d
00000080: f308 413e 2065 1ebe d560 97be c074 f83c
00000090: 387f f2bc 35b1 bfbd f2e8 913b bb2a 60be
000000a0: 72ac 063e 2a6a 763e 1e57 273e 3054 8f3c
000000b0: 1db3 e73b 93d4 343d 3492 a8bc 08b7 123e
000000c0: 8613 b1bc 66a8 443e 3efe 473d 5e82 823d
000000d0: 2f9f 53bd e394 41bd 0b2b 8f3d 9000 6abe
000000e0: 5d64 c33c 6793 cabd f0a4 5ebc 5ee2 e63d
000000f0: 89cd a93d 6b02 7a3e 2687 2ebe 5165 9bbb
00000100: 9815 a9be 1cc5 42be 0146 203e 08ea 893e
00000110: d41e d43d 1581 133b 2248 89be 1bf5 76bd
00000120: fa75 27be e95d c3bc 3905 82be 7210 243e
00000130: 7a98 4b3e bda6 b13d 46a7 c93e 969d a03d
00000140: 9a61 3c3d 8b20 94be 7e3b 79bd c58f a0be
00000150: afd3 5f3d b8b6 383e 6eed 2fbe da60 2ebb
00000160: 2659 ebbd 9db3 193e aa03 e5bd 2a78 c1bd
00000170: 79eb d73d dbef a43e 2949 20be 1a3f a83d
00000180: 7126 113d f728 65bd a0e6 80bd 7e2e 843d
00000190: 95cb 463d 392b 283e 6bf7 883d de47 c6bd
000001a0: 67dc a93d 6b41 153e b943 aabd 8582 4abd
000001b0: d31e 013e 9049 af3c e9ca c2bd 3559 42be
000001c0: c609 f3ba 419e 65bd b97a 29be 98f0 3dbd
000001d0: 6486 85bd a0ab ed3d a584 663d 8dd8 f13d
000001e0: 012f 18be 9459 cfbd 7646 f33d 818a 3f3d
000001f0: 15cd ddbd c18d 513e 8cb2 323e 02f1 09be
00000200: 29c2 053e 9903 8dbd 6469 90bd a12d 87bd
00000210: 8672 54bd 8de2 b83e 810a 99be 3247 453b
00000220: f87a 06be 14d1 493e 0c2f 9dbd d29a 80bd
00000230: 38fc 113e ff40 15bd bdcc 53be 4da2 513e
00000240: 8376 69be 7ece 87bb 5d36 62be cc61 393e
00000250: 8f6c c93d 5ea9 15be edd4 0c3d 14c0 9bbc
00000260: 0a49 0fbd a991 993a f4e8 28be 7441 24ba
00000270: a620 b8be 292e 363e a169 6fbb 93c9 153e
00000280: ae9d c7bc b86e 4d3d 7b4f e73d 689a ab3d
00000290: a3aa ea3d 8d47 5b3d e69e 9cbe 3867 2dbd
000002a0: b2a9 1dbe 83e6 9a3d bdb2 84ba 0464 22bd
000002b0: 885c 383e 6733 363c 993c 6ebe 7861 bbbc
000002c0: 0e1c d3bd 928d 50be a55a f8bc da4a 5abe
000002d0: 4ff5 573e a52a 1cbd b7ec 41bc 8b2b b3bd
000002e0: 662f 08bd 582c 89bd b896 d93d 78f2 b2bc
000002f0: adfa 893e 4160 7c3d d7e0 8dbe cd92 263d
00000300: a0f5 a9bd 67cb 7dbe 8bb0 83bb b629 343d
00000310: 8dc1 cbbc 60f1 0abd 37b7 ca3e 8f7d 23be
00000320: c21b 363e e48e 44bd 036e edbd 3808 46bc
00000330: 1db5 b23d bec8 d43d 869a d0bd 04bd 563e
00000340: c116 093d 8860 d8bd 2ad2 433d db92 9e3e
00000350: dfe7 213e 6f62 49bd 2977 f5bd 0379 693d
00000360: a15e 383e 7feb f93d ce9b 113d f603 d0bd
00000370: f482 1c3c 76bc 203d a338 14be 5690 1f3e
00000380: 48fb 863e d69d 3d3d 2cb7 75be 09e8 3dbe
00000390: 7088 103f 1deb c6bd df44 cc3e 4aaa 99bb
000003a0: d611 24bc 47e0 4bbe 5a36 ad3c 9972 90be
000003b0: 8fcb eb3d 0222 b1be 0350 9dbe 972e e33d
000003c0: 28b6 37bd 351c 78be 0b5c a8be 4e1f a1bd
000003d0: ef02 35bd ba29 823d ff2a 9d3e 7fc9 4c3e
000003e0: b8bd 423e 3299 aabe a727 aa3c 1701 d9bb
000003f0: 5377 c6bd c6e5 36be ed3b 76bd 0497 cb39
-0.24340868 0.21824412 0.02312958 0.0941882 0.169285 0.14254405 -0.046236657 -0.073639795
0.38285604 0.04347658 -0.23613757 -0.2714613 0.30893502 -0.05139929 0.047768764 -0.14287104
-0.05303332 0.013224659 -0.1634651 0.16980942 0.0007179239 0.11383049 -0.25022817 0.028400922
-0.15427999 0.00739655 -0.17909232 0.09903059 0.3980191 -0.010644026 0.14256923 0.09491065
0.1885107 -0.15468264 -0.29566064 0.030329108 -0.029601678 -0.093599714 0.004452818 -0.218913
0.1315172 0.24063936 0.16341826 0.017496198 0.0070709125 0.04414804 -0.020577528 0.14327633
-0.021615755 0.19204864 0.04882645 0.06372522 -0.05166548 -0.04726113 0.06990632 -0.22851777
0.023851568 -0.09891396 -0.013589129 0.11273645 0.08291156 0.24414985 -0.17043743 -0.0047423025
-0.33024287 -0.19020504 0.15651704 0.26936364 0.103574425 0.0022507359 -0.26812845 -0.060292345
-0.16353598 -0.02384849 -0.2539461 0.16021898 0.19882384 0.08674381 0.39385432 0.07842557
0.045991518 -0.28931078 -0.06084775 -0.31359687 0.054645237 0.18038452 -0.17180416 -0.002660802
-0.11491613 0.15009923 -0.111823395 -0.094467476 0.1054296 0.32214245 -0.15652908 0.08215161
0.03543705 -0.05594727 -0.06293988 0.0645418 0.048533995 0.16422738 0.06687816 -0.09681676
0.082939915 0.14575736 -0.08313698 -0.04944088 0.12609415 0.021397382 -0.09511358 -0.18979342
-0.0018542341 -0.056059126 -0.16550721 -0.046372026 -0.065197736 0.116050005 0.056278843 0.11808882
-0.1486168 -0.101245075 0.11878674 0.046762947 -0.10830132 0.20464231 0.17450923 -0.13470843
0.13062347 -0.06885452 -0.07051352 -0.066005 -0.05186703 0.36110345 -0.29890826 0.003010225
-0.13132846 0.19708663 -0.07674989 -0.0627953 0.1425637 -0.03643894 -0.2068357 0.20472069
-0.22799115 -0.004144489 -0.2209105 0.18103713 0.09835159 -0.1461539 0.03438275 -0.019012488
-0.034981765 0.0011716384 -0.16495115 -0.0006265857 -0.3596241 0.17791046 -0.0036531466 0.14627676
-0.02436718 0.050154418 0.112944566 0.0837906 0.114583276 0.053535033 -0.3058998 -0.042334765
-0.15396765 0.07563498 -0.0010124069 -0.039646164 0.18004048 0.011120654 -0.23265304 -0.022873625
-0.103080854 -0.20366505 -0.03031666 -0.21317616 0.21089672 -0.038126606 -0.011836222 -0.087485395
-0.033248328 -0.06697911 0.106244504 -0.021844134 0.26949063 0.061615232 -0.27710602 0.040667344
-0.082988024 -0.24784623 -0.0040188483 0.04398509 -0.024872566 -0.0339216 0.39592907 -0.15965866
0.17784026 -0.047987834 -0.11593249 -0.01208692 0.08725951 0.10389851 -0.10185723 0.20970541
0.033468965 -0.10565287 0.04780785 0.30971417 0.15811108 -0.04916614 -0.119856186 0.05700017
0.18004848 0.122031204 0.035548978 -0.101570055 0.009552706 0.03924223 -0.1447473 0.15582404
0.26363587 0.046293102 -0.23995656 -0.18545546 0.5645819 -0.09712813 0.39896294 -0.0046894895
-0.010014018 -0.19909774 0.02114408 -0.2821243 0.11513435 -0.34596258 -0.30725107 0.11092871
-0.044851452 -0.2422951 -0.32882723 -0.07867299 -0.04419225 0.06355615 0.30696866 0.1999874
0.19017684 -0.33320004 0.02077086 -0.0066224444 -0.09690728 -0.17861089 -0.060115743 0.00038831693

rnn.bias_ih_l1 f4 [72]
00000000: b49d 15bd 77bb b1be 2387 23be ba0c e6bd
00000010: 2c24 c0bd c2d6 47be ea76 713d 5b77 f6bd
00000020: 0227 debc 0b26 b9bd 27ff a7be 58aa 193e
00000030: fcf4 b4bd 547b cfbd 912e 63be 5b1e ca3d
00000040: 1884 8fbe 450a 9fbd 3808 983d fdea a33c
00000050: 3848 f4bd 6333 093e 3ff9 90bd 0df1 f0bd
00000060: 5cba efbc 97d3 ecbd a220 2abe 78f8 c0bf
00000070: 6e5f a3be 5af1 0cbf 077a 1abf f365 ecbe
00000080: e76f 15be 5e19 79bf ba1c e0be 756f e43e
00000090: 8769 bcbe c92d 4ebf 586d abbf e28e a2bd
000000a0: 1200 e6bd dbc0 61bf feac 9dbe 3741 4bbf
000000b0: dada 23bf 296f 05bf b6d0 aebe 5345 8cbf
000000c0: e201 943d f805 4e3d 3846 653e c714 6dbd
000000d0: a4f8 c9bd 2b88 c1bd 5317 94bd edac 1d3e
000000e0: 603c febd 9e81 893d 5605 e83d 1091 b93d
000000f0: 3bf6 f83d 131d 97bd 2ca5 0abd 1c6e 533c
00000100: 0726 dabd fa6b c6bc c5f9 42be 406d 28bd
00000110: b279 c83c ddd3 873d 00af b8ba d7b0 98bc
-0.03652735 -0.34713337 -0.1596952 -0.11232896 -0.09381899 -0.19515517 0.058951296 -0.12034484
-0.02711821 -0.09040459 -0.32811853 0.15006387 -0.088357896 -0.10130945 -0.22185732 0.09869071
-0.28030467 -0.07765631 0.074234426 0.020009512 -0.11927837 0.13398509 -0.0707879 -0.11764727
-0.029263668 -0.11563795 -0.16614011 -1.5075827 -0.31908745 -0.55055773 -0.6034245 -0.4617153
-0.14593469 -0.9730433 -0.43771917 0.44616285 -0.3679926 -0.8053861 -1.3392744 -0.07937409
-0.11230482 -0.881849 -0.30796045 -0.79396385 -0.64005816 -0.5212274 -0.3414361 -1.0958656
0.072269216 0.05029866 0.22390068 -0.057881143 -0.098618776 -0.094498 -0.07231011 0.15397997
-0.12413859 0.06714176 0.11329143 0.090608716 0.1215634 -0.07378592 -0.033848926 0.01290467
-0.106517844 -0.02422141 -0.19040592 -0.041119814 0.024472091 0.066322066 -0.001409024 -0.018639011

rnn.bias_hh_l1 f4 [72]
00000000: 0767 48bd aab2 503d 4f09 c43d 9599 a9be
00000010: 6247 1e3e 68f7 9dbc c9a3 933c 0d38 8c3d
00000020: 863a 8fbe 868d d3bd fd9d d1bc fc9f 853d
00000030: 7c83 613e 8549 7ebe d8ae 1dbd 1c6f 2bbe
00000040: 955e a3bd 6e04 95be 22fc 96bc 95a3 05be
00000050: c466 76bc 5f3e 233e a6ab 333e 2c52 92be
00000060: 9fd6 49be b3bf 4bbe 90ba e03d 6d50 c7bf
00000070: ae3d f6be b90b cdbe 9ee3 debe 2899 e6be
00000080: 425f 363d 3154 89bf f548 2ebf 30df b73e
00000090: 3df2 abbe 47f4 3cbf d9f1 c8bf 1eb0 10bd
000000a0: cca9 d3bd cbe7 68bf 2b9c fabe adc8 80bf
000000b0: 20e4 a6be 8021 c0be 7acc 32bf 6ef2 8ebf
000000c0: e586 68bd fadf 023d a6e7 3e3d b936 e5bd
000000d0: b3ef 10be 7f8e 2dbe ebe8 733d 37b3 d43d
000000e0: 9f77 9c3c da25 abbb 392f cebd 10df 03be
000000f0: 4963 25bd 8310 eb3d c4a0 30bd ba72 b83c
00000100: 4273 7dbd 5354 d9bd 7f7a fabd ccfb 0a3e
00000110: f5c4 a8bd d38a 4bbe 9339 233e f125 a83d
-0.04892638 0.050951637 0.09572088 -0.33124986 0.15456918 -0.019283012 0.018022435 0.06846628
-0.27974337 -0.10329728 -0.02558803 0.06524655 0.22022814 -0.24832733 -0.038496822 -0.16741604
-0.079770245 -0.29104942 -0.018430773 -0.13050683 -0.01503915 0.15941761 0.17545947 -0.28578317
-0.19710778 -0.19897346 0.10973084 -1.5571419 -0.48093933 -0.40048006 -0.43533033 -0.45038724
0.04452444 -1.0728818 -0.68080074 0.35912466 -0.3358325 -0.7381024 -1.5698806 -0.03532421
-0.103351206 -0.9097869 -0.48947272 -1.0061241 -0.3259592 -0.37525558 -0.69843256 -1.1167734
-0.05676927 0.031951882 0.046607636 -0.11192078 -0.14153938 -0.16948889 0.0595483 0.10385745
0.019100009 -0.005223018 -0.10067601 -0.1287806 -0.04037789 0.11477759 -0.043122068 0.022515643
-0.061877497 -0.10611787 -0.122303955 0.13572615 -0.082406916 -0.19877176 0.15939932 0.08210362

rnn.weight_ih_l2 f4 [72, 24]
00000000: d2ce ecbc f418 623e ccd1 46be 3c5d 87be
00000010: 4a7a ae3d 6054 6b3d 6514 c4be 11af 4c3e
00000020: 528c 583e d32b 3f3e 1e0d c5bc 7c9c 31be
00000030: d43c 2abd 3334 b0bd 162b aa3e e175 53bd
00000040: e6e3 883d d8a4 cabe 938c 3b3e 1a67 823d
00000050: ecad 88bd bc31 5ebe 64de 343c 6d48 a2bd
00000060: 182f 11be f651 14be 0de5 32be bd0c 793e
00000070: e936 663d badb 75bc 14a2 bc3b cb25 3e3e
00000080: 4b23 48bc e3e4 883e 44d9 aabd bb05 86be
00000090: f0e2 893e b075 6dbe 8f5f 8a3e 2fcf 3cbd
000000a0: c143 183d b618 1cbe 2ba8 20be 5ede 1f3e
000000b0: bfab 03be f83b 803d 6779 133e e9d3 b13d
000000c0: c32d 1d3e 603d 3ebd 662e 24bf 40ec 813e
000000d0: cef1 e23e d326 a13d 558e 423e be11 09be
000000e0: 6f9c c7bd d09a b2bb a535 13bd a6eb 6cbe
000000f0: 16f6 2ebe 05e4 2bbe fe0e 0c3e a97e 34be
00000100: 62eb b1be a436 d53d 2cc8 d63e 1bb3 a4bc
00000110: 3f2b a13c fbf3 3ebd 7707 67be 406b 843c
00000120: f723 613d 931f 333d 230d f9bc 5614 863e
00000130: f365 b43e 1264 b23d 56c2 dbbd 64e0 403e
00000140: d2e5 34bd a623 7a3e 73cc 0dbe 1f07 f3be
00000150: 0281 483e 3037 d23d 6349 3b3e 2880 9fbd
00000160: 0830 ae3a 9586 d7bd 8a01 043c a724 b1bc
00000170: c18a 00be 11e3 cb3e f769 b2bd ffb3 a5bd
00000180: dacc 7f3d a33a 02be d74b 533d cd69 a0be
00000190: 629f fdbd b34f b6bd 0777 ec3b c98e ef3c
000001a0: 361a 373e 9b1a e1bd c1a9 323d a232 bebd
000001b0: 7f65 bc3e ed8e 533d 9dc4 363e 3c5e 5abd
000001c0: 5b91 2fbe fee7 9a3d d66e 37bc b6ab 6fbe
000001d0: 70d4 3ebe 2531 843e c488 bd3d dc9d 2bbe
000001e0: b0c3 f4bc 90ab bfbd dbc4 f7bd 63e9 693d
000001f0: 1c9e 1d3e eed5 ce3d c808 833e e251 07bd
00000200: 6261 abbd 1275 2ebe a9c8 65be d67f b9be
00000210: 0248 873e ad46 e0bc f115 7b3d b5d9 95bc
00000220: 5eb7 9c3e 45c4 813e cd42 983c 385e 73bb
00000230: 38d3 e3bc 0de5 d6bd ac3b a0bd 036b d63e
00000240: d373 7b3e 9b7d 0d3c 353f d73b 1097 0bbd
00000250: 7e43 2abe 900a 9b3d f522 4f3e 4e16 4ebe
00000260: c51d 233e 7b71 213d 0e3f 8d3a 2d37 b13c
00000270: 3b9a d03c 4b14 cfbc e2ff 65bd b667 053e
00000280: 4239 66bc d9bf 10bd c085 5cbe 15ce 903d
00000290: e5fe 8a3a 8a05 9ebd 8768 923d f0f5 323e
000002a0: 9efc 5dbe 465c 34bd 68db 30be 5f5b 61bd
000002b0: 98b1 c1bd eb44 73be ad71 9f3e c4bf d53b
000002c0: a9c5 3c3e 49e1 86be dff2 093d eff4 fcbd
000002d0: 8376 e8bd 64a2 703d 72bb 743e ee44 55bc
000002e0: ae23 763e bf7b 71be b7e1 373e b5ad 403e
000002f0: d66a 9e3e 9437 3bbe caa1 c4bd 4267 e1bd
00000300: 39c7 f23d 4de8 343e 32a6 86be a6d1 dbbc
00000310: 8e39 4f3e 5f6f 323d e33d 073e 93de b9bc
00000320: 723b a9bc 466a c23d 3ce1 c9bd c420 5cbe
00000330: 8945 2a3e e9fc e83d 647d fbbd 6844 36be
00000340: d706 9fbe 22f5 6dbe 7072 273e 1cca d83d
00000350: 70d5 cabd dd73 3d3e 4f54 ee3d c68a d43c
00000360: 457c 53be e8d5 c2bd cce6 36bc 3123 853c
00000370: 47d5 6abd 1560 993e 8fd8 fe3c 0379 b9bd
00000380: 4700 203d e3ae f43c 9498 debd 025e b13d
00000390: 5ad2 0d3d 58e6 f13d 7132 f8bd be7a 0ebe
000003a0: 9572 13bc e1aa 893e d30b a03c cbea 3b3c
000003b0: ddf1 613d 6083 87bc cab4 90be c791 c93e
000003c0: 933f 7bbe 005b fe3d 04db 9ebc 2463 583e
000003d0: 23e9 17bd 3fbb 7bbe 67dc 5d3e c090 513e
000003e0: c5df 743e d6dc 25be 528b 98bc bdc2 68be
000003f0: 38bd ab3c 2d6a a3bb 618e 5d3e 6678 4a3e
-0.028907213 0.22079831 -0.19415969 -0.2643832 0.085194185 0.057453513 -0.3829681 0.19988658
0.21147278 0.18669061 -0.024054106 -0.1734485 -0.041561916 -0.08603706 0.33235997 -0.05162609
0.06684093 -0.3957889 0.18315344 0.06367321 -0.06673798 -0.2169866 0.01103935 -0.0792397
-0.14178121 -0.1448439 -0.17470188 0.24321266 0.05620471 -0.015006 0.005756626 0.18569104
-0.012215446 0.26737127 -0.083422214 -0.26176247 0.26930952 -0.23189425 0.2702603 -0.046096023
0.03717399 -0.15243801 -0.15689151 0.1561217 -0.12858485 0.06261438 0.1440178 0.08682997
0.15349488 -0.04644525 -0.641333 0.25375557 0.44325107 0.07868733 0.18999608 -0.13385674
-0.09746634 -0.005450584 -0.03593983 -0.23136768 -0.17086062 -0.16786201 0.13677594 -0.17626442
-0.34749895 0.104108125 0.41949594 -0.020104935 0.019673942 -0.046619397 -0.22561441 0.016164422
0.05496594 0.043731283 -0.030401772 0.2618739 0.3523403 0.08710493 -0.10730426 0.18835598
-0.044164486 0.24427661 -0.13847522 -0.4746637 0.19580463 0.102644324 0.18289714 -0.07788116
0.0013289461 -0.10523716 0.008057008 -0.021623923 -0.1255293 0.39821675 -0.087116174 -0.08090972
0.06245122 -0.1271768 0.051586 -0.3133072 -0.123839155 -0.0890192 0.0072163376 0.02924289
0.17881092 -0.10991403 0.04361892 -0.09287001 0.36796185 0.051649977 0.1784844 -0.053312525
-0.17145292 0.0756378 -0.011195859 -0.23405346 -0.18635726 0.25818744 0.092546016 -0.16759437
-0.029878467 -0.09358895 -0.12098094 0.05710734 0.15392345 0.100993976 0.25592637 -0.033037074
-0.08368184 -0.17036846 -0.22439827 -0.36230344 0.26422125 -0.02737745 0.06130022 -0.018292287
0.30608648 0.25345054 0.01858654 -0.0037135016 -0.027810678 -0.10492907 -0.078238815 0.41878518
0.24555902 0.008635904 0.006568814 -0.03407961 -0.16627309 0.07570374 0.20228179 -0.20125696
0.15929325 0.039414864 0.0010776238 0.021632755 0.025464168 -0.025278231 -0.056152232 0.13027844
-0.014051737 -0.03533921 -0.21535397 0.07070557 0.0010604529 -0.077159 0.07148843 0.1747663
-0.21678397 -0.04403331 -0.17271197 -0.05501878 -0.094577014 -0.23756759 0.31141415 0.0065231044
0.18434776 -0.26343754 0.033678886 -0.12351405 -0.11350729 0.058748618 0.2389963 -0.013016922
0.24037048 -0.23582362 0.17957197 0.18816264 0.30940884 -0.1828292 -0.09601171 -0.11006023
0.11854405 0.1766674 -0.26298672 -0.026833367 0.20236799 0.043563243 0.13207202 -0.02268914
-0.020658229 0.09492926 -0.09857413 -0.21496874 0.16628088 0.11376364 -0.12279776 -0.17799532
-0.31059906 -0.23238042 0.16352248 0.10585424 -0.09903991 0.1850123 0.11637174 0.025945079
-0.20652874 -0.09513456 -0.011163425 0.016252132 -0.057332303 0.29956117 0.031109123 -0.09056284
0.039062764 0.029868549 -0.10868946 0.08660509 0.034624435 0.11811513 -0.12118996 -0.1391401
-0.008999486 0.26888183 0.019536888 0.011469553 0.0551623 -0.016542137 -0.2826293 0.39369032
-0.2453597 0.124197006 -0.019391544 0.21131569 -0.03708757 -0.24583147 0.21666108 0.20465374
0.23913486 -0.16197523 -0.01862112 -0.22730537 0.02096425 -0.0049870224 0.21636344 0.19772491

rnn.weight_hh_l2 f4 [72, 24]
00000000: a381 97be 7221 6e3d dfac 81be a906 3cbb
00000010: ecbf 0abe ceeb 523d bdf4 b6bd 2791 f4bd
00000020: 9774 1fbe 7db3 22bd 3ea0 42be a804 993e
00000030: 94d7 233e 9dba fe3d ed69 d13d 823a 00be
00000040: cac9 22be ae21 77bd aae3 c13d 6f1b d7bd
00000050: 871e f93d 2b86 a43d 4275 f53d 466d 6a3d
00000060: 3fe4 6c3e f0c6 243d 5981 b2bd c95d 213e
00000070: a87f 0c3b 2df8 9abd 19f7 2dbe 1d47 f5bc
00000080: e14e 3dbe 6f32 c23d db30 de3d 76a7 5cbe
00000090: 9441 70be 03ce b03a 085e b03e 5653 3abe
000000a0: 848b 49be d074 113e 66ef aa3d ae2b 93bd
000000b0: 6b97 0c3e c892 f93d ae59 7ebc a0a5 8cbd
000000c0: d553 46bd 6fe5 633d e2d3 433d c561 47be
000000d0: 3334 79be 1931 2cbd 2af6 86bd 0630 5abd
000000e0: 416c 7cbd 2b04 7f3d af1e 10bd cc91 f7bd
000000f0: 47d9 8dbd 703a f73d 04f8 533d 979d 493e
00000100: 99aa dcbc 16a6 80be 8587 073e 27a2 923e
00000110: 7b4b 2cbe 618c 9ebd b2bd 94bc ed96 e6bd
00000120: 5fa8 83bd 684d b8bd 267e 76be 03fc ee3e
00000130: f9bb 863d e445 403e 64c5 29be 5bb3 dd3d
00000140: 4623 dcbe 5035 983b 1820 57be e62d efbb
00000150: 348d 88be 993b b53e c878 083e d308 3bbe
00000160: e9bb a7be 8941 c23d 7b30 743e eb07 36be
00000170: 5db3 653e 1bd5 6e3e eafa af3a 5c04 3b3d
00000180: 69e6 1a3e 1e7e 063e 4f10 ec3d e230 49bd
00000190: 6d5c 283e f559 00be 5116 ac3c 1d6a cabd
000001a0: 63b5 b6bd fe27 f6bb a60b 71be 1a0d 7e3d
000001b0: 940d 9dbd eacc 443c d33e 7ebe 4f56 b83c
000001c0: f4d4 06be a82a 4c3e 2baa 593e 1b28 423d
000001d0: b199 f4bc 24ae 82bd d156 fa3d 7eea 00be
000001e0: 1498 51ba a051 5b3e 7814 e53d 6653 42be
000001f0: bb44 6f3d 694b 9ebe 6feb 57be 3ff1 e33d
00000200: f8c7 c93d b5d4 9a3e 2aa7 9fbd d091 c9bd
00000210: 57f2 133e 8123 5c3d c3d5 1cbe 104e 24be
00000220: a104 1ebe 11a6 033e 4fed debd 3b80 4d3e
00000230: f0e8 f5bc 0de9 f5bb bd8a 90be ef28 f13d
00000240: 905f 783e 6b25 98be 446e fbbd 72c3 3a3e
00000250: 55c2 0fbe a6e1 d0bd 8c5c 47be 5606 2abe
00000260: d9e9 553e e074 6ebe fc58 443c d1c4 733d
00000270: 1301 2fbd 3be6 89bd 280f 353e 31d6 b13e
00000280: ba2c 973e 9cf8 b7bd 4c32 f9bd d577 49bd
00000290: 20c0 bb3d 738c 503e ccf4 8bbe b150 503e
000002a0: eff0 67bc 0675 453e cef7 0abe 6a89 62be
000002b0: 788d 203b 9894 0fbd 2fe2 623e 28ab 943d
000002c0: 366c 3cbe 209a ac3e d789 a83c c0de 363e
000002d0: 943c a1bd 9ea4 2cbe cd0f de3b 1523 183e
000002e0: 9a39 a4bd f432 1bbe bcd5 aabd a6ad efbd
000002f0: 928b 8a3d 723a 0e3e 4680 d9bd a817 d4bd
00000300: 9b8a dc3d 1a4c 233b 013d 113f 1125 eabc
00000310: f6de bdbe 5e1e d1bd 8047 c4bd 7f6a ebbd
00000320: f307 e93e 2907 5bbc dade c13e d692 30bd
00000330: ff96 0a3f 58ba 343d f630 8c3e a642 e83e
00000340: 6075 b03e c353 c0bc a8d3 dabe c670 c0bd
00000350: fa96 223b aacd 18bd 45b5 083e b126 103d
00000360: b33e 77bd 5c88 e33d 6877 94bd 4fbc 15be
00000370: 2d95 eabd b569 a9bd d0d2 33be 5a0e a5bd
00000380: 5b37 2abe f8ab 39bd 16fe 963d 0988 ed3d
00000390: 883d 4c3c ad6f 01be 1f12 a2be 4e6f 8b3e
000003a0: f913 353e 8b6d 5cbe fdd6 493e 2bab 1b3e
000003b0: 09f3 1fbe d459 003f fc8d 0f3e 0014 393e
000003c0: 249d 523d 0328 12bd 6e56 793d 3247 57be
000003d0: 9bff acbd 7a99 313e a75a 2fbe 1cf7 8c3d
000003e0: 4834 a73d 5fa8 1d3e e8f0 7ebc 8837 28be
000003f0: 0224 2ebc 6f79 95be 8f4a 7ebd 3dfe ad3b
-0.29591092 0.058137365 -0.25327203 -0.0028690493 -0.13549775 0.051494412 -0.08933399 -0.11941748
-0.15571819 -0.039721955 -0.1900644 0.29886365 0.16000205 0.124379374 0.10225282 -0.12522319
-0.15897289 -0.060334854 0.094672516 -0.105032794 0.12164026 0.08033403 0.11985256 0.057233118
0.23133944 0.040228784 -0.08716077 0.15758432 0.0021438394 -0.07566867 -0.16988792 -0.029941136
-0.18487121 0.09482276 0.10849162 -0.21548256 -0.23462516 0.0013489131 0.3444674 -0.18195853
-0.19682127 0.14204717 0.08346443 -0.071860656 0.13729636 0.121861994 -0.015524311 -0.06867528
-0.048419792 0.055638727 0.04780949 -0.1947089 -0.24336319 -0.04203901 -0.06589921 -0.053268455
-0.061626676 0.062259834 -0.035185512 -0.120883554 -0.06926208 0.12071693 0.051750198 0.19689022
-0.026936816 -0.25126714 0.1323529 0.28639337 -0.16825669 -0.07741619 -0.01815686 -0.112592556
-0.064285986 -0.08999139 -0.2407156 0.46676645 0.06578822 0.18776661 -0.16579205 0.10825225
-0.42995661 0.004645027 -0.21008337 -0.0072991727 -0.2667023 0.35397032 0.13327324 -0.18265085
-0.32760552 0.09485156 0.23846619 -0.17776458 0.22431703 0.23323481 0.0013426219 0.045658454
0.15126957 0.13134047 0.11526548 -0.049118884 0.16441508 -0.12534316 0.021006735 -0.09883521
-0.089213155 -0.0075120917 -0.235396 0.062024213 -0.076686054 0.012011746 -0.24828653 0.022502093
-0.13167173 0.19938147 0.2125632 0.04740153 -0.029858442 -0.06380871 0.1222359 -0.12589452
-0.00079953787 0.21417856 0.11185545 -0.18977126 0.058415156 -0.30916908 -0.21085905 0.111299984
0.09852594 0.30240408 -0.07795556 -0.09842265 0.14447914 0.053744797 -0.15315919 -0.16045403
-0.15431453 0.12856318 -0.10885107 0.20068447 -0.0300183 -0.0075045885 -0.2823085 0.117753856
0.24255204 -0.29716048 -0.12276891 0.18238619 -0.14038976 -0.10199289 -0.19468898 -0.1660398
0.20889987 -0.23286772 0.011984106 0.05951387 -0.042725634 -0.06733366 0.17681563 0.34733728
0.2952631 -0.08982965 -0.121677965 -0.049186546 0.09167504 0.20366077 -0.27335203 0.20343281
-0.014156564 0.19282922 -0.13571092 -0.22122732 0.0024498384 -0.03505382 0.22156595 0.07259208
-0.18400654 0.33711338 0.02057354 0.1785841 -0.078728825 -0.16859671 0.006776786 0.14857133
-0.08018799 -0.15156156 -0.08341548 -0.11703043 0.06764902 0.13889483 -0.10620169 -0.103560746
0.107686244 0.0024917186 0.5673371 -0.028582128 -0.37084168 -0.1021087 -0.0958395 -0.11494922
0.45513877 -0.013368406 0.37865335 -0.043108784 0.5413665 0.044123024 0.27381104 0.4536335
0.3446455 -0.02347744 -0.42739606 -0.0939651 0.0024809227 -0.03730551 0.13350399 0.03519315
-0.06036253 0.11109993 -0.072493374 -0.14622615 -0.11454234 -0.08272115 -0.17560887 -0.08059378
-0.16622679 -0.045330018 0.07372682 0.11598212 0.012465842 -0.12640257 -0.3165445 0.27233356
0.176834 -0.21526162 0.19710918 0.15202014 -0.15620054 0.50137067 0.14019006 0.18074036
0.051419392 -0.03568269 0.06087344 -0.21023253 -0.084471904 0.17343703 -0.17124425 0.0688307
0.08164269 0.1539626 -0.015560366 -0.16427433 -0.010628702 -0.2919421 -0.062082823 0.0053098486

rnn.bias_ih_l2 f4 [72]
00000000: e1dc 193e 2444 e03c a106 06be 2ad4 033e
00000010: 14f6 22bc 6a27 c5bd 471e fb3c 012a 8dbe
00000020: d1cb f53d 33e0 f8bd bf0b 9c3d 5e3b a93d
00000030: af34 f9bc b155 c2bd c888 ca3d cea2 e7bd
00000040: 614f 9a3c 607f b23d f109 01be ca30 5bbe
00000050: eeb6 b8ba f52d 4b3e f3a6 60be 9caa 353e
00000060: 14bf 44bf 847e a7bf 5f01 aebe 21b3 2fbf
00000070: 9085 3cbf 4e2b 2fbe 511d f4be 9386 a6be
00000080: beec d1bd 6a4a 59be 309c 9ebc 9d76 02bf
00000090: 933c a0be 14a2 a8be b4f4 84bf df19 cfbe
000000a0: 4181 3dbf f9f5 25bf 46a7 10be ed80 a8be
000000b0: 9767 99bf 3ed2 b7be 2b92 c6be b0f6 32bf
000000c0: e0c0 d9bd 34a8 81bd 8702 8d3c b4f6 c1bd
000000d0: a564 63bb d745 03be 68e6 15be 2480 103e
000000e0: d840 863d fdec ebbd a19b 833d 217d 19be
000000f0: a7ca ff3d 1b1d 2c3e c060 fa3d 059c 24be
00000100: 8ee2 36be 15ec 07be e9c7 cdbd 0cc8 14be
00000110: 4b94 1f3e 0e17 203e 38cd b5bc 962f c43d
0.15025665 0.027376242 -0.13088466 0.12873903 -0.009946365 -0.09626658 0.030654086 -0.2757111
0.120017655 -0.121521376 0.07619428 0.082632765 -0.03042063 -0.094890006 0.0988937 -0.113103494
0.018836679 0.08715701 -0.12601449 -0.2140533 -0.0014092603 0.1984175 -0.21938686 0.17740864
-0.7685406 -1.3085485 -0.3398542 -0.68632704 -0.736413 -0.17106363 -0.47678617 -0.32524547
-0.10250233 -0.21219793 -0.019361585 -0.5096224 -0.31296214 -0.32936156 -1.0387177 -0.40449426
-0.7402535 -0.6482845 -0.1412631 -0.32910863 -1.1984738 -0.3590259 -0.38783392 -0.69907665
-0.10632491 -0.0633091 0.01721312 -0.09470883 -0.003469744 -0.1281961 -0.14638674 0.14111382
0.06555337 -0.11519811 0.06426168 -0.14989139 0.12489825 0.16807978 0.12225485 -0.16075142
-0.17859861 -0.13273652 -0.100478955 -0.14529437 0.15583913 0.15633795 -0.022192582 0.09579389

rnn.bias_hh_l2 f4 [72]
00000000: b9fb 66be 9120 eebd 4c3d 57be 2100 983d
00000010: 9e02 06be 16a0 c83d a3df 09be e3b1 35be
00000020: eb16 52bd 74f4 edbd 1b1e 093e b5d4 1bbe
00000030: 35b4 1dbd eda4 53bd 684b 3abe ec69 90bd
00000040: 5e40 0b3e a936 36be 48ab fdbd 8161 44be
00000050: 3c64 b6bd 6cd3 11be 52fe 59bd 27ed 513e
00000060: 8f78 32bf 9f6d 9cbf 38ba bdbe f03a 01bf
00000070: 606e 1bbf 5b68 b0be b645 89be a690 1abf
00000080: 424f aebe c63d 0a3e a2b4 983b 1e62 18bf
00000090: 4c3b dcbe e1e1 00bf ec34 72bf e222 a0be
000000a0: f061 07bf 8310 2fbf 85c4 aebe 6e84 88be
000000b0: 0079 a4bf 69b0 b2be b14c 38bf a6e5 75bf
000000c0: 7709 4f3e 13bf 3e3e e8f4 853d 64f6 2e3e
000000d0: 5d1e 7dbc 1179 ccbd 0b34 6b3e f1cc 0ebe
000000e0: 88af f9bd 40a2 923d bde5 86bb bd52 713e
000000f0: 4150 4ebe 2460 1ebe 5c7a 1cbe 4db2 aa3d
00000100: 90d8 4f3e f852 603e 7e64 373d d897 15be
00000110: b671 d03d 0d81 6dbc c2f4 9cbd 0f34 0cbd
-0.22556962 -0.11627305 -0.21019477 0.074218996 -0.13086936 0.09796159 -0.13464217 -0.1774364
-0.051291388 -0.11618891 0.1339039 -0.1521786 -0.038501937 -0.051670957 -0.18192828 -0.07051453
0.13598773 -0.17794289 -0.12386185 -0.1917782 -0.08905837 -0.14240807 -0.053221054 0.20500623
-0.6971521 -1.2220954 -0.37056136 -0.50480556 -0.60715294 -0.34454617 -0.26810998 -0.60376966
-0.34044844 0.13500127 0.004660205 -0.59524715 -0.4301399 -0.50344664 -0.94612 -0.31276613
-0.52883816 -0.6838457 -0.34134308 -0.26663536 -1.2849426 -0.34900215 -0.7199202 -0.9605354
0.20218454 0.18627577 0.06540853 0.17086178 -0.015449134 -0.09984029 0.22969072 -0.13945366
-0.12191683 0.07159853 -0.0041167424 0.23566718 -0.20147802 -0.15466362 -0.15281051 0.083347894
0.20297456 0.2190665 0.04477357 -0.14608705 0.10177939 -0.0144961 -0.07663871 -0.034229334
